Iterations/Test model/epoch_4508.pt (torch, 37739 bytes, 10 tensors)

linears.0.weight f4 [32, 2]
000000 f9 5f a6 3e 19 2a 00 be b7 fa 8e 3e c0 ad cf be
       0.32495096 -0.12516059 0.27925655 -0.40562248
000010 c4 47 7a 3e c6 4c df be 19 a0 cd bd a4 e9 11 bf
       0.24441439 -0.4361326 -0.10040302 -0.5699713
000020 93 21 3e bd 94 f6 bd 3e 37 4c 3e 3d 63 76 1c bf
       -0.046418738 0.37102187 0.046459403 -0.61118144
000030 95 81 36 3e ec d4 20 3f f0 d5 2d 3e 01 10 84 3e
       0.17822869 0.62824893 0.16976142 0.2579346
000040 da 44 bc 3e 3d d0 0d be d6 97 72 be e2 e9 09 be
       0.3677128 -0.13848968 -0.23690733 -0.13468125
000050 c5 80 e7 bd 5f e5 f8 be 75 21 85 be 76 68 a7 3e
       -0.11303858 -0.48612496 -0.26002088 0.32696885
000060 e3 f5 dc bd d5 09 26 be 03 15 27 3e ed 42 a8 be
       -0.10789087 -0.16214688 0.16316609 -0.3286356
000070 fe 07 fd bd 04 b8 3c 3f ee e7 6c bd fc b2 8f be
       -0.1235504 0.73718286 -0.057838373 -0.28066242
000080 57 11 62 3e 52 71 15 3f 2b e5 96 3e 0a b8 11 3e
       0.22076927 0.5837604 0.29471716 0.14230362
000090 e7 3e dd bd 39 c7 a7 3e af c1 39 be 93 8c 80 be
       -0.10803013 0.32769182 -0.1814029 -0.2510725
0000a0 6b 50 ed bd 54 d0 3d be af 28 8e 3e 30 dc c0 3d
       -0.11587604 -0.18536502 0.27765414 0.094169974
0000b0 8e 01 2f 3f 35 cb 24 bd 19 68 8c 3e 03 a7 9b be
       0.6836175 -0.040232856 0.2742317 -0.30400857
0000c0 52 82 14 bf 39 11 96 3e 09 6a ad 3e 98 27 17 be
       -0.58011353 0.29310015 0.3386996 -0.14761198
0000d0 5b 03 39 be c1 08 22 be 62 1c 34 3d 72 00 bb 3e
       -0.18067686 -0.15823652 0.04397238 0.36523777
0000e0 b8 f7 a9 3d 37 c0 9f be 5d a9 ea bc 7f e3 de 3e
       0.08299202 -0.31201336 -0.028645212 0.4353294
0000f0 5a ab 21 3e 48 77 ce be bc 9a 3a bd 8a 67 3c 3f
       0.15788022 -0.4032538 -0.045557722 0.7359549

linears.0.bias f4 [32]
000000 63 9f 18 3c 55 51 99 3c a1 77 79 3c c2 df ae 3b
       0.0093153445 0.01871554 0.015226276 0.0053367326
000010 73 1c 49 3c 21 ab 37 bc e4 fc af 3b d3 f7 0f bd
       0.012274849 -0.011210234 0.005370723 -0.035148453
000020 a3 de 3d bc 4b 20 e0 bc 9b 1c 3f bb 55 ef 9b bd
       -0.011588725 -0.027359148 -0.0029161337 -0.07614008
000030 6f 9b 25 3d 38 b1 0d bd b6 8a 72 3c 69 99 64 bc
       0.040431436 -0.034592837 0.014803579 -0.013952591
000040 77 d0 94 ba 24 5c ad 3b 44 c5 d7 3c a6 5d 9d bc
       -0.0011353631 0.005290525 0.02633918 -0.019209694
000050 79 70 23 3c 5a eb 91 bc e6 3e e0 3d ef f0 f1 3c
       0.009975546 -0.01781242 0.10949497 0.029533831
000060 06 4b 8e bd 60 55 1d 3d 41 ac 43 bc dc 4a 4e 3c
       -0.06947903 0.038411498 -0.011942924 0.01259109
000070 2a 8c c4 3c 1a fe 46 3c e7 96 1f be b7 32 71 3c
       0.023992617 0.0121455435 -0.15584908 0.014721564

linears.1.weight f4 [64, 32]
000000 8e 94 e9 3c 13 85 87 be ea eb 47 be a5 dd 37 be
       0.02851322 -0.26468715 -0.19523588 -0.17955644
000010 9f d1 3f 3e f6 ac 4c 3b c2 4b a1 bd b0 91 86 3e
       0.18732308 0.0031231022 -0.07875778 0.26283026
000020 d9 75 2d 3e fa 0e a0 3e 15 e0 a6 3d d1 85 a5 3e
       0.16939487 0.31261426 0.08148209 0.32328656
000030 7a 9a 65 be 23 6b f7 be aa ed 0f ba 0e a2 3a be
       -0.2242221 -0.48323926 -0.0005490432 -0.18225881
000040 04 ad a1 3e f4 88 82 3c 37 e5 ab bc c3 c0 2b 3d
       0.31577313 0.015934445 -0.020983322 0.04193188
000050 a1 79 be be 83 18 2b bd 54 11 da bd 9c 2e 45 3e
       -0.3720217 -0.041771423 -0.10647836 0.19256061
000060 39 04 bb 3d 72 91 29 3e 9e 52 8f be b7 2c aa bd
       0.09131665 0.16559389 -0.2799272 -0.0830931
000070 bc c6 f4 3d 51 3e f0 3d 90 00 a9 bd e9 08 d5 3d
       0.11951968 0.11730636 -0.082520604 0.1040209
000080 ab 4d e8 3c 0b c3 b2 3d e0 ef d2 bd a3 40 1c 3e
       0.028357347 0.08728608 -0.10299659 0.15259032
000090 e4 e4 fe bd ce ed fa bd 4c 48 59 3e 10 58 a1 3e
       -0.12446001 -0.12252389 0.21218985 0.315125
0000a0 a4 e4 c7 3e b1 41 69 3e bd 40 f5 bd 6d 1c 5d bd
       0.39041626 0.22778966 -0.119752385 -0.053982187
0000b0 50 19 89 bd c6 60 11 3e 5b 4d f9 3d 45 4e 70 bd
       -0.06694281 0.14197072 0.121729575 -0.058668394
0000c0 5a 91 62 3e 09 fd 3a be 19 82 6a be 4e 7c 6c bd
       0.2212576 -0.18260588 -0.22901191 -0.057735734
0000d0 eb ec 9e bc 53 29 a8 3e 35 d6 b9 bd 67 0c 0d be
       -0.01940008 0.32844028 -0.0907406 -0.13774262
0000e0 12 3c ad 3d 06 01 12 bd 4c 00 a4 3d 50 0d 84 bd
       0.08458723 -0.035645507 0.08007869 -0.06447852
0000f0 c0 56 b5 bc 15 a3 0d bd 36 96 a5 3e ce e9 67 3e
       -0.022136092 -0.034579355 0.32341164 0.22647783
000100 5d 3a 87 bd bb e9 f2 3d ef 2d 47 3e aa 70 ea bc
       -0.06602929 0.11860987 0.19451116 -0.028618176
000110 b4 b3 29 3d 35 67 19 bd b9 da 82 bc fd 7c 32 be
       0.041431144 -0.03745194 -0.015973436 -0.17430492
000120 56 20 a5 bd 29 e4 9f be ae 5c 63 be f9 8f cb bc
       -0.08062808 -0.3122876 -0.22203323 -0.024848925
000130 b8 50 8b 3e 37 75 38 3c 5f 05 4b bc 87 3c 8a be
       0.2721002 0.011258415 -0.012391417 -0.26999304
000140 ab e9 17 bd 94 79 8c 3e 7d 0f f8 bd 07 f3 c4 bd
       -0.037088078 0.27436507 -0.12112329 -0.09616666
000150 56 9c 36 be 0b 7c 43 be ba 2f 1b 3e 28 2c 80 bd
       -0.17833075 -0.19090287 0.15154925 -0.06258422
000160 fa 94 60 bd b6 b5 1d 3d 77 33 1b 3d 8d cc aa bd
       -0.054829575 0.03850337 0.037890878 -0.08339796
000170 19 a8 92 bd 5e e6 89 3e 81 c7 be bd 5a 30 70 be
       -0.07160968 0.2693357 -0.09315396 -0.23455945
000180 27 8f 52 bc ed d3 37 3e 48 b0 f0 3d 1b f9 07 be
       -0.012851513 0.17951937 0.11752373 -0.1327862
000190 3f 8a 79 be 07 67 60 be dd 3a 64 3c bf 9c 7b bd
       -0.24369143 -0.21914302 0.01393005 -0.06142878
0001a0 31 25 86 3e ca ad 5a be 07 15 e9 3c 7a 17 20 bd
       0.2620025 -0.21355358 0.02845241 -0.03908489
0001b0 98 60 13 3c 93 9d 3a 3e 0f 60 09 3e cc b6 d3 be
       0.008995198 0.18224172 0.1341555 -0.413504
0001c0 4b be e8 bc 56 20 95 bd d1 3a f7 3c ee dc b8 bd
       -0.028411051 -0.07281558 0.030179413 -0.09026514
0001d0 be f4 dd bd 6b 5e 20 3e 21 a6 95 3e ba 26 a5 3d
       -0.108376965 0.15661018 0.2922831 0.08064027
0001e0 6d ff 3c be a1 c0 92 3e d0 ea c6 bd c2 42 7e bd
       -0.18456812 0.2866259 -0.09712756 -0.062075384
0001f0 dd eb 06 3d 2c ff 40 bd e0 94 70 be 7e 58 9e 3b
       0.03293978 -0.04711835 -0.23494291 0.0048323264
000200 cb c9 03 3d 94 23 21 3d 83 a6 8e bd 40 24 7a bd
       0.032174867 0.03934057 -0.06965353 -0.061069727
000210 eb cf 0c 3d 2e be d3 bd 3b 13 10 3e f1 8e 2a 3d
       0.034377974 -0.10339008 0.14069836 0.041640226
000220 9d 8e e9 bc 66 5f 49 be 92 07 b4 be 22 e6 2f be
       -0.028510386 -0.19665298 -0.35162026 -0.17177632
000230 df b1 1e be 9e 5d 45 be 88 17 cc 3e ba c8 21 3c
       -0.1549754 -0.19273993 0.39861703 0.009874517
000240 82 7b 06 3e d2 1f 7e 3e 6e b3 52 bd 28 fb 96 3e
       0.13133052 0.24816826 -0.05144065 0.29488492
000250 bf 2c 1a be c9 f1 05 3d 22 36 7c be ff 1e e7 3c
       -0.15056132 0.032701287 -0.24630025 0.028213022
000260 10 a6 03 bd 30 81 03 3d 5b d8 27 be d2 1d 2d 3e
       -0.03214079 0.032105625 -0.16391127 0.16905907
000270 cb 73 25 3d 30 da c0 3c 3e 4d 44 bd 03 a9 48 3e
       0.040393632 0.02354154 -0.047925226 0.19595723
000280 69 5a 3b 3d 45 f3 2c be fc c2 59 be 50 04 ea bd
       0.04574052 -0.16889675 -0.21265787 -0.11426604
000290 e4 cd c6 3e e8 2b 79 be 20 c5 b2 bd 29 92 b2 bd
       0.38828957 -0.24333155 -0.08729005 -0.08719284
0002a0 7c 20 4c 3c 97 e4 a6 bd da 7e 93 3c 6b d0 08 3e
       0.012458917 -0.08149069 0.018004823 0.13360755
0002b0 6b fd d2 bd c5 25 76 3e c8 f2 3d 3e 7e 38 37 3d
       -0.10302242 0.24037845 0.18549645 0.04473161
0002c0 b5 2d d3 be 68 94 cd 3c 69 c0 c4 3d 9e 49 9e 3e
       -0.4124581 0.02509518 0.09607012 0.3091554
0002d0 f5 4d 90 3d d5 af 83 be 44 0d 39 be 57 4c f3 bd
       0.07046119 -0.25720087 -0.18071467 -0.11879795
0002e0 d8 1b 75 3e cd 46 da 3c 93 c4 bb 3e 49 fe 20 bd
       0.23936403 0.026645089 0.36673412 -0.039305005
0002f0 16 13 ad bd b1 67 3b 3e 6b b8 90 be c6 b4 74 3d
       -0.08450906 0.18301274 -0.282657 0.05974271
000300 55 5f 2f be 2d 74 03 3e ca 05 80 3e 9f fa 1f 3e
       -0.1712621 0.12837286 0.25004417 0.15622948
000310 a8 a8 36 be 67 bf e8 3d b6 bb 06 bd 70 f8 78 be
       -0.17837775 0.11364632 -0.03289386 -0.24313521
000320 40 41 b6 3e bd c2 b6 be c8 0d 0d 3e 65 b0 01 3d
       0.35596657 -0.3569545 0.13774788 0.031662364
000330 60 ef 0f be 4d 8b 22 be ec 33 0a bd 7e 02 89 be
       -0.14056158 -0.15873452 -0.033740923 -0.26759714
000340 c4 6f d8 3d ab 5b 0c be ed 4b 74 bd 99 5b ee 3d
       0.105681926 -0.13706844 -0.05964272 0.116385646
000350 98 f8 1e 3e d9 fb 27 be dd a6 71 3e 9e 13 2b bd
       0.15524518 -0.16404666 0.2359881 -0.041766755
000360 fa 2c 6c bd dd 24 6d bd 3c f9 1a 3e 31 80 aa bd
       -0.05766008 -0.057896484 0.15134138 -0.08325232
000370 cc 5d e5 bd e7 b8 e0 be a3 10 52 bd 77 2a bd bd
       -0.11199531 -0.4389107 -0.051285397 -0.09236615
000380 7a 1d 89 3d 34 c6 11 be 16 60 0b 3e f0 41 00 3d
       0.06695075 -0.14235765 0.13610873 0.031312883
000390 f1 a8 37 3e 76 92 3c be 56 b4 01 3e 13 77 45 3e
       0.1793554 -0.18415245 0.12666449 0.19283704
0003a0 22 57 61 be 12 6e bd 3e 97 04 08 3e 1c 88 61 bd
       -0.22005895 0.3699804 0.13283001 -0.055061445
0003b0 86 ec 39 be fe f5 e5 3d 57 a2 04 3e dc 66 da 3c
       -0.18156633 0.1122856 0.12952553 0.026660375
0003c0 05 c8 63 3d 7f 0d be bd 3a b2 6a 3e ec 3d f2 bd
       0.055610675 -0.09279918 0.2291955 -0.11828217
0003d0 36 54 96 bd 14 18 16 be c4 88 82 3e 18 be 85 bd
       -0.07340281 -0.14657623 0.2549497 -0.06530398
0003e0 84 e7 66 bc e3 b9 49 3d 10 61 47 be 6e f0 e3 bd
       -0.014093284 0.04924954 -0.1947062 -0.11129843
0003f0 5f 39 22 3d 6e e1 88 3e 20 4c ba be 1e 63 a1 3e
       0.039605495 0.2673449 -0.36386204 0.31520933

linears.1.bias f4 [64]
000000 16 0b ab bc 57 7c 0a bd 18 c5 4c 3d e5 f3 55 3d
       -0.02087931 -0.033809986 0.04999265 0.05223455
000010 25 f5 7c 3c 67 08 1b 3c b9 35 4c bb 7c 1d bd 3d
       0.015439306 0.0094624525 -0.003115995 0.09234139
000020 13 be 8c 3b 62 a0 13 3d ea 41 bd bc 66 8e 1d 3d
       0.0042951196 0.036041625 -0.02310272 0.03846588
000030 26 13 b3 bc 43 84 d8 bc 51 38 86 bc 21 1b 88 3c
       -0.021859717 -0.026430255 -0.016384276 0.016614499
000040 7d f0 f0 bb 3a 8e 0b bb 24 14 7a bc c0 92 0b 3d
       -0.007352887 -0.002129449 -0.015263591 0.0340755
000050 df 45 63 bc e7 c5 1d 3c 96 c1 8f 3c e8 5b 30 3b
       -0.013871639 0.009629703 0.017548364 0.002691025
000060 ba 2f 82 bc c0 83 62 bb 34 f3 55 bc 46 9b 62 3c
       -0.015891898 -0.0034563392 -0.013058472 0.013830965
000070 9a af 97 3d ba 61 0f bc 8a 04 01 bd 98 cf 75 bc
       0.0740654 -0.008751327 -0.03149847 -0.0150031075
000080 91 cd ec bc 14 80 89 3d 34 21 69 bd ab e6 57 3a
       -0.028906615 0.06713882 -0.05691643 0.00082359713
000090 b4 e3 ea 3c 12 04 91 bc bb dd e5 ba 76 37 b8 3c
       0.02867303 -0.017702136 -0.0017537394 0.022487383
0000a0 0c 94 99 3c dc 04 80 bc 34 c2 f9 bc d5 35 f9 bb
       0.018747352 -0.015627317 -0.030488111 -0.007605294
0000b0 de 2a 1d 3e 57 80 b0 bb 46 b1 87 3c d7 cd 77 3c
       0.15348384 -0.005386393 0.016564023 0.01512476
0000c0 f8 90 02 bd d0 eb 87 3d 77 56 07 be ab 6b 69 bc
       -0.031876534 0.066367745 -0.13216577 -0.014246861
0000d0 7d d8 da ba 37 fa 13 3d d6 06 95 3c 36 3d a0 3c
       -0.0016696599 0.036127295 0.018191736 0.019560438
0000e0 37 2d 0c bd 49 72 20 bc 33 9e 44 bc 28 29 fa 3b
       -0.034222808 -0.009792873 -0.012000608 0.0076343007
0000f0 d9 00 54 ba 6c 47 21 bc 93 7d b7 bc 60 fe bd bc
       -0.00080872845 -0.009843688 -0.022398746 -0.023192585

linears.2.weight f4 [64, 64]
000000 fa 19 17 be 93 2e a0 3c 08 ab 49 bd 45 b2 d6 3d
       -0.14756003 0.019553458 -0.049235374 0.10483221
000010 1b 8c 22 be 8f 18 65 3d 51 c8 4e 3d 5f a6 a9 3d
       -0.15873758 0.055931624 0.050484005 0.08283686
000020 5a cd 1e bc 51 31 0d 3d 0c 98 ca bc 57 fe 0a 3e
       -0.009692514 0.03447086 -0.024730705 0.13573585
000030 c4 17 87 3c b6 43 14 3e a4 cc 10 bd 91 81 c7 3d
       0.016490825 0.14478955 -0.03535141 0.0974151
000040 ba ff c0 bc 89 d7 b6 3c 48 36 9e 3e 1d 1c 17 3d
       -0.02355944 0.022319572 0.30900788 0.036892045
000050 bc f3 64 3e 39 0c 1d bc 46 f3 34 3d cd c3 b4 bd
       0.22358602 -0.009585434 0.044177316 -0.088264085
000060 42 bd 14 3e 39 72 1a 3e e5 19 ad bd 3c 72 c4 bd
       0.14525321 0.15082635 -0.084522046 -0.09592101
000070 fd 5c 88 bd 4e d3 2d be d2 96 13 bb 13 d0 27 3d
       -0.06658361 -0.16975138 -0.0022520316 0.04096992
000080 3f 0a 4d 3e 03 84 a3 3d 5e 02 59 3e 81 57 e5 bd
       0.2002344 0.079841636 0.2119231 -0.11198331
000090 ea 57 5f bd cd b9 cf 3d fb 47 82 bd b6 45 03 be
       -0.0545272 0.101428606 -0.063613854 -0.12819561
0000a0 8a b8 06 3d 6f 8e 5a 3e 14 b5 d3 bc 72 d6 29 3c
       0.032890834 0.21343397 -0.02584318 0.010366069
0000b0 c8 e0 b4 3c 4a c6 4e bc 62 5c c3 3d f1 13 b3 bd
       0.02207984 -0.012620518 0.09539105 -0.08744038
0000c0 a6 84 8c be b6 58 87 be a2 46 44 be c4 2f 42 bd
       -0.27444953 -0.2643487 -0.1916757 -0.047408834
0000d0 b4 31 8b be 20 51 3a be ca 64 7e be fb 63 12 3e
       -0.27186358 -0.18195009 -0.24843135 0.14295952
0000e0 84 8d 7a bd 3b 3f 80 3d 26 56 50 3d b4 02 5b 3e
       -0.061170116 0.0626206 0.050863408 0.2138775
0000f0 ae 63 62 bd dd de 20 3e 90 c0 45 be 27 09 18 be
       -0.055270843 0.15710016 -0.19311738 -0.14847241
000100 50 20 8e be 64 ca 3e bd c0 df db 3d 85 46 37 bd
       -0.27759027 -0.046579733 0.10736036 -0.044744987
000110 7f 4e ee 3b 69 fc ca bd 52 ec 4c bc 9d c8 aa 3e
       0.007272541 -0.09911425 -0.012507515 0.3335618
000120 75 58 84 3d f8 26 30 be ca 54 df bd b1 f5 8a 3d
       0.06462184 -0.17202365 -0.10904844 0.06785143
000130 ba 7e f3 bd 20 5d 4e be ef 2d 30 bd ad b3 92 3c
       -0.118894055 -0.20152712 -0.043012556 0.017907942
000140 2e 44 73 3e 35 50 7d bd 7f 3d 1e be f5 5b a5 3e
       0.23756477 -0.06184407 -0.15453146 0.3229672
000150 51 ea dd bd a9 38 71 3d 01 54 7c 3d 74 cf fd 3d
       -0.10835708 0.058891926 0.06160355 0.12393084
000160 dc 1e 14 be df 77 ca bd 7f 5e a4 3d c8 63 8b be
       -0.14464897 -0.09886145 0.08025836 -0.27224565
000170 c3 45 c7 3b 85 a4 3c 3e b2 4d 50 bd f4 26 92 3d
       0.0060813143 0.18422134 -0.050855346 0.07136336
000180 dd 0e 56 be e2 66 ce bd be 6f 53 be 3f 41 cf bc
       -0.20904107 -0.10078217 -0.20648095 -0.025299666
000190 78 1e 9b be 9b bf 3c be 6e 2e dc 3c 7c cf 28 3e
       -0.30296683 -0.18432467 0.026877608 0.16485399
0001a0 37 b4 14 be 63 3b 16 3d 75 08 d6 3d 15 d8 cd 3c
       -0.14521872 0.03667773 0.10450832 0.02512745
0001b0 0a 85 5c bc 23 e8 01 3e 1f 03 aa bc e7 71 a2 3d
       -0.013459453 0.1268621 -0.020753441 0.079318814
0001c0 75 1f 0f 3e 61 d1 dd 3d 9f 8b 0a be e1 12 0b be
       0.13976844 0.108309515 -0.13529824 -0.1358142
0001d0 92 6d 90 3d 63 16 45 bc 83 b1 04 bd bf 2b 4a 3e
       0.07052149 -0.012029263 -0.03239585 0.1974325
0001e0 f4 f2 1c 3e 23 25 27 3e 45 91 b2 3c 7d b2 88 3d
       0.15327054 0.1632276 0.021797786 0.06674669
0001f0 db e8 6b bb 2b 69 95 bd f1 8d 3f be 3e b5 16 3c
       -0.0035996947 -0.0729545 -0.1870649 0.009198485
000200 d4 d4 23 be 78 d6 7a be 8a 96 72 be af 38 62 3d
       -0.15999156 -0.24495876 -0.23690239 0.05522984
000210 d1 3d 8a be a2 a5 29 3e 84 d9 01 3d 42 9b cf bc
       -0.27000287 0.1656709 0.03170158 -0.025342587
000220 24 44 b6 3d 59 e8 ef bd ab af 51 be 08 21 3b be
       0.088997155 -0.11714239 -0.20477168 -0.18274319
000230 45 c2 17 bd f3 99 cf bd f6 a7 56 3e 9f ff 54 bd
       -0.037050504 -0.10136785 0.2096251 -0.05200159
000240 8e 2b 69 be 4d 5e 9f 3c b5 af e4 3d fd e9 f8 3d
       -0.22770521 0.019454146 0.11166326 0.12154005
000250 6a a6 07 be 0d 5c 91 3d 5d 6e 8a bd a3 71 f8 3d
       -0.13247076 0.070976354 -0.067593314 0.121310495
000260 81 ca 38 3e e4 d4 82 bd 3e 20 be 3d 23 80 8c 3d
       0.18045999 -0.06388262 0.092834935 0.06860378
000270 34 06 06 3e a5 46 05 3e ae 83 a2 bd 45 5b 2d 3e
       0.13088304 0.1301523 -0.07935272 0.16929348
000280 74 37 aa bd 26 95 23 3e 28 57 9e 3d 5c 84 48 be
       -0.08311358 0.15974864 0.077314675 -0.19581741
000290 cf 85 34 be a3 2c e9 bb 02 2e a9 bd db 69 81 3d
       -0.17629169 -0.007115917 -0.082607284 0.063190185
0002a0 23 2a 12 bd ca 1d 80 bd 9c 0e 08 3e ed f1 8e bd
       -0.035684716 -0.06255682 0.13286823 -0.069797374
0002b0 c1 11 bf 3d a6 92 09 3e 7b 46 31 3d 85 a1 fe bd
       0.09329558 0.13434848 0.043280106 -0.12433151
0002c0 a3 45 6d bc 86 fe 11 3e f2 d8 fe bd 6b 08 0a 3e
       -0.014481935 0.14257249 -0.12443723 0.13479774
0002d0 6c f3 cf bd 66 a6 f7 3d b3 50 68 be b5 f9 d8 3c
       -0.10153851 0.12092285 -0.22687034 0.026486257
0002e0 6b e5 0b bd 16 91 8f 3d 32 d9 01 be 77 0b ba bd
       -0.034154337 0.07010095 -0.1268051 -0.09084218
0002f0 0e 4e ba 3d 1e 3b 2e 3b d9 a7 09 3d 9f bf d6 bd
       0.09096919 0.002658553 0.033607338 -0.104857676
000300 25 4d 92 bd 39 1a 38 3e 4b c3 5f 3e 9d 2f a9 be
       -0.071436204 0.17978753 0.21851842 -0.3304414
000310 cb ea e7 bd b5 88 39 be cf 12 1d be c7 be 2b be
       -0.1132408 -0.18118556 -0.15339206 -0.16771995
000320 60 e6 21 be 0e fa 4c 3d 3c 41 f6 bb a9 17 13 bc
       -0.15810537 0.05004316 -0.0075151008 -0.008977809
000330 0f ae 23 3c 84 76 46 3e e0 aa 11 bd 0e 4b 81 bd
       0.009990229 0.19381148 -0.03556335 -0.06313144
000340 33 42 d8 3e 57 2d 8d 3d 24 48 a8 3e dc 93 60 3d
       0.42238006 0.068934135 0.3286754 0.05482851
000350 77 1c b9 b9 ab 5a 11 be fd fc 21 be 1e 31 1a bd
       -0.00035307158 -0.14194743 -0.15819164 -0.037644498
000360 98 6e 98 3d 54 53 85 ba a4 fc 21 3d 39 2c 27 be
       0.07442969 -0.0010171928 0.039547578 -0.16325463
000370 8b c9 e2 3d f3 af 9a bd 9a 9c 52 3e ec f9 87 3e
       0.110735975 -0.07553091 0.20567551 0.26557863
000380 b1 99 7b 3d 01 19 07 be 26 eb 83 3d e1 73 a5 bc
       0.06142587 -0.13193132 0.064413354 -0.020196857
000390 88 c7 80 bd 72 d5 32 be 9a d8 10 3c 83 01 28 be
       -0.062880576 -0.17464235 0.008840704 -0.16406827
0003a0 ac 5e fb 3d 2d 5a 85 3d bb f4 b9 3d 04 c7 c8 bd
       0.122739166 0.0651134 0.09079882 -0.09803584
0003b0 02 cb f0 bd 3e 79 22 3d ee e9 91 bd bb f2 59 bd
       -0.11757471 0.039666407 -0.07124697 -0.05321
0003c0 4f 40 b0 bd ea 41 9b bd 07 a5 34 be b6 d1 1f 3d
       -0.08606016 -0.075809315 -0.17641078 0.039018355
0003d0 f0 3f 2a bc 8f bb 2b be f8 f6 09 3d cc 51 9f bd
       -0.01039122 -0.16770767 0.033682793 -0.077792734
0003e0 05 ed be 3d bc 62 4f be dc 8c 21 3e 3f 6a 52 3d
       0.09322552 -0.20252508 0.1577639 0.051370855
0003f0 1d ed 42 3e b6 24 86 3e fb 8f 1b bd 3c 0c de 3d
       0.19035764 0.26199883 -0.037979107 0.10842177

linears.2.bias f4 [64]
000000 93 a1 8b 3c ba 62 16 3d 12 5d cf 3c 55 18 1c bd
       0.017044818 0.036715247 0.025312934 -0.038109142
000010 d1 bb be 3d 9c af 51 bd c6 c1 b1 bd 7b 1a 2e 3c
       0.09313167 -0.051192865 -0.086795375 0.010626431
000020 ba d6 85 bc 48 68 bb 3c 0b f5 88 3b d2 62 84 bc
       -0.016337741 0.022876874 0.004179602 -0.016160402
000030 ba f4 0e bd cd 67 03 3d 4b c9 c1 3d a9 43 44 3c
       -0.03490136 0.032081414 0.09462222 0.011979022
000040 6f cf 22 bd b5 f0 e4 bc 4b 3d 07 bd da 52 03 bb
       -0.039748605 -0.02794681 -0.033017438 -0.0020038397
000050 7b 46 30 3d 11 af 40 bc c2 76 d3 bc 8a c2 bf 3b
       0.043035965 -0.011760489 -0.025813464 0.0058520483
000060 9c ec 80 3c 66 60 b8 3c 31 9b 4e bb d5 64 ec 3b
       0.015737824 0.022506904 -0.0031525607 0.0072141686
000070 bc 02 a9 3a ba 7d 6f 3d d7 e1 1f 3c ce e7 28 3b
       0.0012894492 0.05846951 0.009758434 0.0025772932
000080 0e 45 c1 bc ec fe 77 bd ea d7 01 bc b5 34 e6 ba
       -0.023592498 -0.060545847 -0.007925013 -0.0017563315
000090 29 a5 b2 bb 88 a9 0e bc 53 fb 93 3b 98 8f 38 bc
       -0.0054518175 -0.008707412 0.004516044 -0.011264704
0000a0 43 bc 7d bc 35 3e 12 bb 1e 74 8c 3c a9 39 eb 3c
       -0.01548678 -0.002231491 0.017145213 0.028714018
0000b0 60 4d 92 bd 33 6b 2d bc f4 cf a8 3c b1 77 66 bc
       -0.07143664 -0.01058464 0.020606972 -0.014066623
0000c0 80 0e 48 3c 9a a1 57 3d 52 e9 cc bc 65 94 65 3d
       0.012210488 0.05264435 -0.0250136 0.056049723
0000d0 a0 b8 02 bd 0f 33 57 3c 63 0d a4 3d 81 46 91 3d
       -0.031914353 0.013134732 0.08010366 0.07093526
0000e0 2d 32 82 3d d5 3a 65 3c bc 81 03 bd 31 42 88 bc
       0.063572265 0.013991077 -0.032106146 -0.016633125
0000f0 7a f7 f5 3c fe 22 03 3d 84 17 57 3d 64 8e eb 3b
       0.030025233 0.032015793 0.05251266 0.007188605

linears.3.weight f4 [32, 64]
000000 ed 47 dc be c0 63 a7 bd 96 ac 1f be 81 25 71 3e
       -0.43023625 -0.08173323 -0.1559318 0.23549463
000010 90 74 92 3d 38 09 12 3e 4d 81 7c 3e 01 18 11 3d
       0.07151139 0.14261329 0.246587 0.035423283
000020 ba ba ab 3e b8 5a fc bc b5 bd eb 3c c9 ea c6 3c
       0.335409 -0.030804977 0.028776983 0.024281876
000030 f9 dd ce 3d 48 08 8f be 73 a0 92 be 73 fb 29 bc
       0.10100932 -0.27936006 -0.28638038 -0.010374892
000040 8a 47 34 3d 5a 14 2a 3e 22 27 12 be c9 b5 e3 bc
       0.044013537 0.16609326 -0.1427274 -0.027796643
000050 35 b1 2e 3d 18 9e f4 3d 77 d0 81 3e e4 72 a8 3d
       0.042649467 0.119442165 0.2535436 0.08225039
000060 2b b5 15 be 89 cd 8c 3d dd 2c 2d be db fa 5e be
       -0.14619891 0.0687514 -0.16911645 -0.21775381
000070 1b 01 5b bc 67 c8 e2 3d 8a d6 96 3d e8 4e 24 3e
       -0.013366963 0.1107338 0.07365139 0.16045725
000080 22 2a c4 bd 76 6e a1 3c e2 b8 15 3e 23 6f e0 3d
       -0.09578349 0.019705992 0.14621308 0.10958698
000090 0e d7 a8 bd 09 45 36 3d 85 35 5a 3e 81 e7 f1 bd
       -0.082441434 0.04449943 0.21309479 -0.11811734
0000a0 45 6f f9 3d f7 d6 19 bd 35 ab ed bc 13 43 4f 3e
       0.12179426 -0.037558522 -0.029012302 0.2024043
0000b0 c2 36 a1 bc 55 63 1c be 48 b8 75 be d2 17 94 be
       -0.01967943 -0.15272267 -0.23996079 -0.28924423
0000c0 cf d3 37 3e da 73 08 3e 8a d7 a0 3d e3 fd 50 3e
       0.17951892 0.13325444 0.07853611 0.2040935
0000d0 71 79 2a 3d c5 8d 7e 3e cf 0d b3 be 9a 32 0d 3e
       0.04161972 0.24858768 -0.34971473 0.13788834
0000e0 ac 7b 61 bd 08 5e 57 3b 8f 65 85 3e 83 e0 1e 3e
       -0.055049583 0.0032862443 0.26054046 0.15515332
0000f0 01 1e 07 be ab 5b 7a 3d 05 1d b9 3d ef 3a 44 be
       -0.1319504 0.061122578 0.09038738 -0.19163106
000100 6f d6 b3 3e 70 ff 44 3e c1 80 37 3e c9 d7 ed 3c
       0.35124537 0.19238067 0.1792021 0.029033558
000110 76 0c be 3e 34 b2 f3 be 21 cb 7d be c5 9a 27 3e
       0.37118882 -0.47596896 -0.24784519 0.16367634
000120 8a 1e 17 3e 74 99 bd 3d 99 c8 58 3e 06 88 e7 3e
       0.14757743 0.092577845 0.21170272 0.45220965
000130 61 60 40 be 7a 88 43 be 6b 84 82 3e 01 23 98 3d
       -0.18786766 -0.1909503 0.25491652 0.074285515
000140 79 3b cc 3c 8d 1f 08 bd a7 13 80 3c 69 17 93 3e
       0.024930703 -0.033233214 0.015634371 0.28728798
000150 be 7c a3 3e 3b c1 3f 3e f2 b3 b4 3e 29 bd 71 be
       0.31931108 0.18726055 0.35293537 -0.23607315
000160 1f 01 ee 3c 06 24 1b 3e f2 31 b0 3d b7 ec d5 be
       0.029053269 0.1515046 0.08603276 -0.41782162
000170 2d 91 09 bb 44 3e 5b 3c 05 a3 52 be 62 5b 90 be
       -0.0020991073 0.0133815445 -0.2057 -0.2819472
000180 ee 71 4a 3e 9d 8e 11 be a1 66 48 3c 89 90 8d be
       0.19770023 -0.14214559 0.0122315 -0.27649334
000190 78 8e dc 3e 8a 54 08 3f 0a 35 3c bd 36 1e cb 3d
       0.43077445 0.53253996 -0.04594902 0.09917872
0001a0 31 20 cc 3d 38 4d af be 44 06 3e be a2 52 28 be
       0.099670775 -0.342386 -0.18557078 -0.16437772
0001b0 a0 f5 ab 3d c2 6a 85 3e 02 e9 e8 3d 41 7d 3f 3e
       0.083964586 0.26058012 0.11372568 0.18700124
0001c0 72 4c 1e 3c aa 65 ac bd 6f 6c 83 3e c0 0b ab be
       0.009661781 -0.084178284 0.25668666 -0.33407402
0001d0 c8 c2 5c bc f3 90 d6 bb ff c1 1e 3e b2 f7 39 bc
       -0.013474174 -0.006548041 0.15503691 -0.011350559
0001e0 be 71 65 3e 86 89 d7 bc 2e 3b 1a bf 78 ed 8f 3d
       0.2240667 -0.026310693 -0.6024655 0.070277154
0001f0 7b af e1 bd 89 4d c6 be 56 78 d6 3e a9 bf ad 3e
       -0.11019798 -0.3873103 0.41888684 0.33935288
000200 2e ec 69 3e dd 58 34 be 46 2f 48 3e 4a ab a8 3d
       0.22844002 -0.17612024 0.19549283 0.08235796
000210 97 5a 68 3d 45 a8 71 3e 91 30 9d bd dc 67 17 bd
       0.05672702 0.23599346 -0.07675279 -0.036964282
000220 76 0d 37 be 29 df 10 be 54 9d 57 be 5d 48 c3 3d
       -0.17876229 -0.14147629 -0.2105611 0.095352866
000230 5d 1c 25 3c 90 ae 54 be c7 51 23 bd 70 d4 fa bd
       0.010077563 -0.20769715 -0.03987291 -0.122475505
000240 67 d0 02 3e c0 2d 47 3e 2b c6 6e 3e 74 e1 90 3d
       0.12774812 0.19451046 0.23317783 0.07074252
000250 5e b5 f8 bd 2a 8f 45 3e 84 56 fe 3d ff 36 c4 3d
       -0.12143968 0.19292894 0.12418845 0.09580802
000260 9b a7 0b bd 9a 84 3d bd f8 d6 80 3d f4 4d a0 bd
       -0.034095388 -0.046269037 0.06291002 -0.078273684
000270 ab 79 46 be 0f aa b9 bd d0 df 00 3d 13 ad 46 bd
       -0.1938235 -0.09065639 0.031463444 -0.0485049
000280 6e 3c 6e 3e cd f2 90 bc f4 5d 98 3e 85 fe a8 3d
       0.2326524 -0.017693901 0.2975918 0.08251671
000290 ad e2 ce 3d f7 9e 4b bd 43 2f 17 bd 22 ba de 3d
       0.10101829 -0.049712148 -0.036910307 0.10875346
0002a0 cc b6 7d be 64 c9 6f be e2 22 3b 3e f1 27 ac be
       -0.24776763 -0.23416668 0.18275025 -0.33624223
0002b0 08 09 d5 bc 48 5f 8d 3e d6 c7 c5 be c0 98 46 bd
       -0.026005283 0.27611756 -0.38629025 -0.048485518
0002c0 d9 70 1e 3e f4 3a 95 3d 2a dd ac 3d 36 53 e2 bd
       0.15472735 0.07286635 0.08440621 -0.110510275
0002d0 03 ef 85 3e 1c bc 42 bd 5a e0 b1 be d0 46 fd bb
       0.26158914 -0.047542676 -0.3474148 -0.007729389
0002e0 e1 85 72 3d 86 1d e5 bd 32 77 8b bc a8 4b 20 3d
       0.059209708 -0.11187272 -0.01702461 0.03913465
0002f0 e9 f8 32 be 00 b9 82 3e 90 e5 b6 bd 6d 99 57 3e
       -0.17477764 0.2553177 -0.08930504 0.21054621
000300 d1 98 88 be cc f2 52 3e 79 e4 cb 3d dc f5 8d bd
       -0.2667909 0.20600432 0.09955687 -0.069316596
000310 a0 5c a8 3d 92 6c 51 be 28 df 7f 3e 9d 63 a7 3d
       0.08220792 -0.20451573 0.24987471 0.081732966
000320 c4 50 f4 3c e5 a0 ce be 2a be d2 bd 54 7b b9 bd
       0.029823668 -0.40357128 -0.10290177 -0.09056726
000330 7d 23 58 3c 21 fc 04 3e 90 1b 33 35 c6 79 57 be
       0.013192055 0.12986805 6.6722805e-07 -0.21042547
000340 3e 29 29 3e 6f a7 f4 bd 2f 93 3c 3e 46 48 74 3e
       0.16519639 -0.11945998 0.18415521 0.23855695
000350 03 39 20 be d1 ac b2 bd 41 e5 a0 3e 2c 9c 52 bd
       -0.15646748 -0.08724368 0.31424907 -0.05141847
000360 49 5c 4b be ca da bc bd da d5 17 3e e8 20 15 3e
       -0.19859423 -0.09221418 0.14827672 0.14563334
000370 0b e4 00 3d 50 09 14 be cf 99 17 be 50 df eb 3d
       0.03146748 -0.14456677 -0.14804767 0.11517203
000380 11 ec 8a 3d 17 6f 88 3e 2a 04 be 3d 97 eb 98 be
       0.06783307 0.26647255 0.09278138 -0.2986724
000390 2b a5 48 bb 39 3d 42 be f0 f0 fa 3d 07 d3 9d 3c
       -0.0030616026 -0.18968667 0.122529864 0.019265665
0003a0 95 79 a4 3d ff b0 1d be fa ae d7 bd fe 31 06 be
       0.080310024 -0.1539955 -0.10531421 -0.13105008
0003b0 3a b1 82 be 6e 85 a2 3e 89 e0 43 be f3 31 a3 3d
       -0.25525838 0.31742424 -0.19128622 0.079685114
0003c0 d1 f3 99 bd af 38 54 be d1 f5 39 3e a0 7e 06 be
       -0.075172074 -0.20724748 0.18160178 -0.13134241
0003d0 96 47 6d 3e 14 fb a2 bd 83 82 4d be 83 15 17 be
       0.23171839 -0.079580456 -0.20069318 -0.147543
0003e0 ab f0 3f 3e bd 4a fc 3d 83 6a c3 3e 84 b5 14 bd
       0.18744151 0.12318943 0.381672 -0.03630592
0003f0 fa 38 3f 3b fc e4 6b 3d 4a 38 37 bd 4a 77 31 3d
       0.0029178248 0.057591423 -0.044731416 0.043326654

linears.3.bias f4 [32]
000000 f1 aa 02 bd 57 bf 78 3d 99 09 06 bd c1 ee e2 bc
       -0.031901304 0.06072935 -0.032723997 -0.027701737
000010 22 9a 01 bd e3 8c 94 bd ed 20 9a 3d 2a 15 39 3d
       -0.031641133 -0.072534345 0.07525811 0.0451862
000020 d3 52 32 3c e7 99 9f 3c d1 b1 cd bc 2e e8 14 bd
       0.010884005 0.019482566 -0.025109204 -0.036354236
000030 9c 1d 84 bd 1b 14 e9 3a 1e f8 b8 bc c6 ae 28 3d
       -0.0645096 0.0017782481 -0.022579249 0.041182302
000040 7f a7 6e ba 6e e7 5b bc 2b 28 3f 3d b0 24 22 ba
       -0.00091039384 -0.013421876 0.046669167 -0.00061852764
000050 7f 45 ea bc fe d8 a4 bc 58 e6 2c bd f5 65 12 3d
       -0.028597591 -0.020123001 -0.04221186 0.035741765
000060 cc b8 97 3b 3d 46 49 bd 94 eb e1 bc 6c 33 8a bd
       0.004630184 -0.04913925 -0.027578153 -0.06748089
000070 3c 3d b0 bd a9 e9 03 bd 14 33 82 bc 4a 92 f4 ba
       -0.086054295 -0.032205258 -0.015893497 -0.001865932

linears.4.weight f4 [4, 32]
000000 19 26 61 3e 44 d8 25 be f9 5a db bd 03 21 06 3e
       0.2198719 -0.1619578 -0.10710711 0.1309853
000010 e9 50 58 bd 23 b1 e0 bb 77 9a cc bc dd 26 1b 3e
       -0.052811537 -0.006857054 -0.024975998 0.15151544
000020 ae 0b cd be fa f9 ea 3e 3c 3b ac 3b c7 8c 50 3d
       -0.40047973 0.45893842 0.0052560847 0.050915506
000030 d3 e4 62 bb 92 f9 56 3e 6e 34 53 bf 74 fa 42 3e
       -0.0034621253 0.20993641 -0.82501876 0.19040853
000040 54 35 ab 3e 60 47 c8 3e b1 71 48 3d 50 82 1c 3e
       0.33439124 0.39116955 0.04893655 0.15284085
000050 0e 93 e9 bd 3c ea 9f bd b5 73 81 3e 2c 47 dd bd
       -0.114050016 -0.078083485 0.2528359 -0.108045906
000060 c1 98 e0 be bb a6 92 bd d4 fc 50 3c d7 ff 30 3e
       -0.43866542 -0.071607076 0.012755591 0.17285095
000070 ff 43 1c 3e d2 76 9f 3e 9c ec 1d bf 43 5c 87 3d
       0.15260313 0.3114534 -0.6168916 0.066093944
000080 c6 e0 2d be a8 26 35 3e a2 7d 43 bf b3 c7 04 bf
       -0.16980276 0.17690527 -0.76363575 -0.51867217
000090 05 c3 26 bf b6 60 53 bf 6d 83 b4 3e c8 28 59 3f
       -0.65141326 -0.82569444 0.3525652 0.8482785
0000a0 29 e3 3b 3e 03 f9 8d 3e dd e9 01 bf fb 3b e3 be
       0.18348373 0.27729043 -0.5074747 -0.443817
0000b0 4a 26 36 bf 1c 9d e8 3d c6 3f 51 bf 36 67 5d 3f
       -0.71152174 0.11358091 -0.81737936 0.8648561
0000c0 fb b9 6e 3e 27 36 69 be ad 4e 7a 3f a6 a6 08 3e
       0.23313133 -0.22774564 0.977763 0.13344821
0000d0 96 51 33 bf c7 b7 21 bf ce 36 2e bf e5 4b 18 3f
       -0.70046365 -0.63171047 -0.68052375 0.59490806
0000e0 fe 9d 19 3e 70 67 47 bf 03 77 d4 be ba 19 5d bf
       0.15001675 -0.7789221 -0.4149705 -0.8636738
0000f0 6c 7e e3 3e d8 9b 4a be bd 33 20 bf 58 99 1e be
       0.4443239 -0.19786012 -0.62578946 -0.15488183
000100 3f 09 fe 3e aa bd 1d 3f e5 c9 67 be d2 62 fb be
       0.4961643 0.6161753 -0.2263561 -0.4909883
000110 03 95 4d bd a5 55 cf 3e 28 58 d6 3e bd 1f 69 be
       -0.050190937 0.4049503 0.41864133 -0.22766013
000120 31 a9 b7 bc c2 ac e6 3e d8 c8 68 be 5f 76 25 be
       -0.022419544 0.4505368 -0.22732866 -0.16158436
000130 9b 31 5a 3e 87 c9 06 3f be 7f 1b 3e 0d f2 91 bc
       0.21307985 0.52651256 0.15185449 -0.017815614
000140 0c 44 7b 3e a8 08 1d 3f 6f 55 b4 bd ff 03 87 3e
       0.24537677 0.61341333 -0.08805358 0.26370236
000150 93 e9 91 3e cc f0 e6 be ce f8 c2 be a8 16 22 be
       0.28498515 -0.45105588 -0.38080448 -0.15828955
000160 15 78 1a 3f 2e 0e da be 3d ca a0 bc 39 25 04 bf
       0.6033948 -0.42588943 -0.019627685 -0.516193
000170 75 fb 5a bc 3f 37 70 3e a3 20 af be eb 84 6a 3d
       -0.013365616 0.23458575 -0.34204587 0.057255667
000180 16 53 d1 be 47 13 17 3f 48 c1 24 bf 31 9a 9c be
       -0.40883702 0.5901379 -0.64357424 -0.3058639
000190 51 ce dc be 12 b6 2b bf fb c5 79 3f e2 a1 e7 3e
       -0.43126157 -0.6707469 0.9756772 0.45240694
0001a0 92 36 29 3f 77 d8 08 3f 5e 7a 72 bf f3 89 21 bf
       0.6609889 0.534553 -0.9471797 -0.6310112
0001b0 8e e6 e7 be 35 bc cf 3e 49 46 d4 be 04 f0 6c 3f
       -0.45293087 0.40573278 -0.41459873 0.92553735
0001c0 eb 48 fd 3e 58 c6 71 bd 71 4b 00 3f 1e af 95 be
       0.49469694 -0.059027046 0.50115114 -0.29235166
0001d0 c3 ff 49 bf 90 56 52 bf 5f 56 1a bf 4e 2f de bc
       -0.78905886 -0.82163334 -0.6028804 -0.027122166
0001e0 0e 12 3a bf 1c b2 94 bf ed 23 43 bf 8a 10 21 bf
       -0.726838 -1.1616855 -0.76226693 -0.6291586
0001f0 65 a2 60 3f ec 56 db bd 3a db 15 bc 25 25 0d 3f
       0.87747794 -0.107099384 -0.009146506 0.55134803

linears.4.bias f4 [4]
000000 0e 5f f2 bb af 0d be 3e fc 8b 25 3d c4 d6 0e 3f
       -0.0073965853 0.37119815 0.040416703 0.55796456
