Iterations/Test model/epoch_1715.pt (torch, 37739 bytes, 10 tensors)

linears.0.weight f4 [32, 2]
000000 ee b1 a3 3e 0c aa 82 bd a2 cd 8d 3e 63 cc 90 be
       0.31971687 -0.0638009 0.27695948 -0.28280935
000010 38 08 77 3e 41 c7 a8 be 5a 72 cc bd a2 62 ec be
       0.24124229 -0.3296452 -0.09982748 -0.46169
000020 69 17 34 bd be 65 85 3e 7e d8 40 3d ef 9d ec be
       -0.04396764 0.26054186 0.047081463 -0.46214244
000030 d0 59 35 3e a9 49 04 3f 87 f8 29 3e ff 46 3a 3e
       0.17710042 0.51674896 0.16598712 0.18191145
000040 c0 ef b7 3e 53 84 45 bd 4f b5 67 be d8 d0 ed bd
       0.35925102 -0.048221897 -0.22627757 -0.116120994
000050 48 68 e6 bd 5a 2f c5 be 0b a7 67 be 9c 6c 45 3e
       -0.11250359 -0.3851269 -0.22622316 0.19279712
000060 83 70 db bd d6 7f f7 bd 21 d5 29 3e 5f 50 45 be
       -0.10714819 -0.1208493 0.16585208 -0.1926894
000070 96 c6 fd bd 05 6f 21 3f 10 02 68 bd 1b c4 3f be
       -0.12391393 0.6306003 -0.056642592 -0.18727152
000080 1c f1 5f 3e 50 79 fb 3e bc 5a 92 3e 86 a8 80 3d
       0.2186932 0.49115992 0.2858485 0.06282143
000090 ba d8 dd bd 29 3b 3b 3e 23 56 27 be 25 09 1a be
       -0.10832353 0.18284287 -0.16341452 -0.15042551
0000a0 42 f2 e4 bd d8 f0 e2 bd e0 a0 8b 3e 88 5b 05 3d
       -0.111790195 -0.110810935 0.27271175 0.032557994
0000b0 57 ee 20 3f 9d a7 3b 3c 80 84 83 3e 98 0f 62 be
       0.6286368 0.011453536 0.25687027 -0.22076261
0000c0 8e 2d 0b bf f9 70 55 3e c3 a1 a3 3e 3e 37 e8 bd
       -0.54366386 0.20843877 0.31959352 -0.113386616
0000d0 b9 73 36 be e5 21 af bd 6d fc 33 3d 78 fb 85 3e
       -0.17817582 -0.08551387 0.043941904 0.26168418
0000e0 db e2 9d 3d dd a2 2f be 54 56 e7 bc f9 68 a0 3e
       0.07709285 -0.17151971 -0.028239407 0.31330088
0000f0 24 11 1c 3e 30 99 57 be 46 de 3b bd 1b a3 1d 3f
       0.15240914 -0.2105453 -0.045866273 0.61577004

linears.0.bias f4 [32]
000000 4c f0 7f 3b 43 b1 8c 3c 8b 48 10 3c b7 52 f4 3b
       0.003905314 0.017174369 0.008806358 0.0074561494
000010 49 24 12 3c db b5 a1 bb ed 2d dc 38 3b 54 ff bc
       0.008919784 -0.004935009 0.00010498972 -0.031168094
000020 c2 f7 39 bc fe c8 5e bc 88 0c 4d 3a 5a 95 0d bd
       -0.011350574 -0.013597725 0.00078219967 -0.03456626
000030 75 09 14 3d 63 b0 ca bc 5a ab 1e 3c 82 d4 04 bc
       0.03614183 -0.02474231 0.009684408 -0.008107306
000040 8d f3 ae bb 3e c6 f2 3a bd 53 87 3c 97 bb 4f 3c
       -0.005339092 0.0018522216 0.016519422 0.012679002
000050 51 8a 13 3c 88 53 91 bc 3c 08 aa 3d 54 72 bd 3b
       0.009005145 -0.017740026 0.08302352 0.0057814512
000060 fe b6 62 bd ef 94 60 3c aa 50 06 bc 90 58 f6 3b
       -0.055350296 0.013707384 -0.008197943 0.0075178817
000070 f7 f8 a3 3c ff 2a b9 3b 72 57 06 be f7 e7 04 3c
       0.020016177 0.0056508775 -0.13119295 0.008111945

linears.1.weight f4 [64, 32]
000000 6d 2a e3 3c 49 1c 87 be 9d 8a 46 be e0 2d 2e be
       0.027730191 -0.26388767 -0.19388814 -0.17009687
000010 bd 82 32 3e 2e 25 bc 3c 8d c6 ad bd c7 f3 84 3e
       0.17432685 0.022966947 -0.08485136 0.25967237
000020 3e 65 2c 3e b2 16 a1 3e 68 46 b5 3d 58 5f a5 3e
       0.16835496 0.31462628 0.088513196 0.32299304
000030 d5 64 62 be 7d 4c f6 be 29 f4 1c bc 55 78 33 be
       -0.22108777 -0.4810523 -0.009579697 -0.17526372
000040 a8 1f 9f 3e 15 c0 67 3c 18 a0 ca bc ef 0b 39 3d
       0.3107884 0.014144917 -0.024734542 0.045177396
000050 07 e6 bc be c3 b0 31 bd 9b 62 d7 bd 04 72 45 3e
       -0.36894247 -0.043381464 -0.105168544 0.19281775
000060 4f 0a ba 3d 32 dd 28 3e 06 52 8e be fe fb c0 bd
       0.090839975 0.1649063 -0.27796954 -0.09423064
000070 98 ac fb 3d 89 2d be 3d 93 f2 a2 bd 4c 15 9e 3d
       0.12288779 0.09286029 -0.079564236 0.07718906
000080 85 ea c6 3c ef 84 ac 3d fc de d8 bd 9b d9 23 3e
       0.02428175 0.084237926 -0.10589406 0.16000979
000090 8c 14 00 be 5d 01 f2 bd 10 47 53 3e cd 7c 9e 3e
       -0.12507838 -0.11816666 0.20632577 0.3095459
0000a0 25 90 c5 3e 26 9a 6d 3e d1 b6 e8 bd 67 e5 4f bd
       0.38586536 0.23203334 -0.113629945 -0.050755884
0000b0 7e 93 77 bd 3b 26 0e 3e ee 02 f9 3d 5d 88 5a bd
       -0.060443394 0.13881771 0.12158762 -0.053352702
0000c0 7d c7 5c 3e 86 7e 3f be 9a d2 67 be f6 32 55 bd
       0.21560474 -0.18700609 -0.22638932 -0.052050553
0000d0 7b f0 6d bc a3 cc a5 3e 08 5e c0 bd 1d da 10 be
       -0.014522667 0.32382688 -0.09392935 -0.14145704
0000e0 95 91 b4 3d a3 b1 22 bd dc 0b ac 3d 59 f5 91 bd
       0.0881683 -0.03972019 0.084006995 -0.071268745
0000f0 48 63 bd bc 23 94 25 bd 4c 92 a0 3e c3 68 60 3e
       -0.02311863 -0.040424477 0.31361616 0.21914963
000100 76 aa 90 bd 5b 72 e6 3d 45 25 41 3e b1 c3 fa bc
       -0.07063763 0.1125228 0.18861873 -0.030610891
000110 73 3b 30 3d ea 43 31 bd 8e 0b 8d bc 2f 68 2f be
       0.043025445 -0.04327766 -0.017217424 -0.17129587
000120 cd f6 ab bd d5 75 9d be b9 c7 62 be c9 17 7a bc
       -0.08396683 -0.3075396 -0.221465 -0.01526446
000130 78 37 87 3e 1a df 37 3c 35 cd 02 bc 6e 25 88 be
       0.26409507 0.011222625 -0.0079834955 -0.26591057
000140 5b 8c 1c bd 32 a6 8a 3e 64 68 f8 bd ee e5 bf bd
       -0.03821979 0.27079922 -0.12129286 -0.093700275
000150 5a f6 36 be 17 65 45 be 34 c6 11 3e 74 10 8c bd
       -0.17867413 -0.19276844 0.14235765 -0.06839076
000160 04 33 3e bd ac 91 04 3d f4 b5 2a 3d e2 71 b1 bd
       -0.04643537 0.032365486 0.04167743 -0.086642995
000170 1d 35 a7 bd 9c 0e 8c 3e 03 72 81 bd 0d 9e 69 be
       -0.081644274 0.27354896 -0.06320574 -0.22814198
000180 44 65 a9 bd 68 fd de 3d c7 d1 43 3d 1a a9 a6 bd
       -0.08271268 0.10888177 0.04780748 -0.08137722
000190 35 c5 4d be e6 1e 86 be d4 6e 45 bd c2 71 df bd
       -0.2009476 -0.2619545 -0.048201397 -0.109103695
0001a0 ca 6a 47 3e a5 c6 10 be be 4a b3 3d 00 fb 28 3d
       0.1947433 -0.14138277 0.0875449 0.041254997
0001b0 ce 72 27 3d f7 3d 07 3e 1e 7b 41 3e 51 62 b1 be
       0.04088097 0.13207231 0.18894622 -0.34645322
0001c0 6f 47 b9 bd 44 25 11 be d7 b7 a2 3d cf 8d b1 bc
       -0.09046828 -0.14174372 0.07945221 -0.021674065
0001d0 89 51 55 bd 76 74 be 3d 1c 44 4e 3e 11 d2 02 3c
       -0.05207971 0.09299557 0.20143169 0.007984654
0001e0 50 60 cb bd 2b d3 58 3e 52 be f2 bc 8d 21 00 be
       -0.099304795 0.21174304 -0.029631767 -0.12512799
0001f0 39 de 2a bd 9a 5a 81 bc 4f 8a 65 be 7b d9 1a 3d
       -0.041715834 -0.015790273 -0.22416042 0.03780506
000200 70 91 03 3d 92 ca 23 3d d1 93 8c bd a9 90 67 bd
       0.032121122 0.039988108 -0.06864131 -0.056534443
000210 01 93 d2 3c 3a db ba bd 3e 2e 0d 3e e0 e2 27 3d
       0.025704863 -0.091238454 0.13787171 0.04098785
000220 4b 36 ea bc 62 97 48 be 03 4e b2 be 4e 0b 30 be
       -0.028590342 -0.19588998 -0.34825143 -0.17191812
000230 11 9c 1e be af 2d 43 be 23 20 c9 3e 42 3c 60 3c
       -0.15489222 -0.19060396 0.3928233 0.013686242
000240 5e 4d 04 3e 61 98 7d 3e b2 83 5f bd 79 88 97 3e
       0.12920138 0.24765159 -0.054568954 0.29596308
000250 eb 43 19 be b9 e4 04 3d 5f 44 7a be 71 f3 ea 3c
       -0.14967315 0.03244469 -0.24440144 0.028680535
000260 2e 28 07 bd 85 1d 03 3d f4 23 27 be b7 aa 26 3e
       -0.032997303 0.032010574 -0.16322309 0.1627606
000270 c0 bf 2c 3d 67 97 07 3c ab fd 29 bd 34 ef 37 3e
       0.042175055 0.008275843 -0.041501682 0.17962343
000280 45 97 d1 3d fb 98 d7 bd d3 5f 16 be b4 24 d5 bd
       0.102339305 -0.105272256 -0.14684992 -0.10407391
000290 9b 44 92 3e 02 81 07 be a1 d8 97 bd 8a c0 65 bd
       0.28567967 -0.13232806 -0.074143656 -0.056091823
0002a0 2e ea 8d 3d 74 be 02 be 93 cc 56 3c 85 f2 85 3d
       0.06929432 -0.12767965 0.013110298 0.065403976
0002b0 06 9d 06 be 92 19 9b 3e ae 54 c7 3d 8a 02 2b 3d
       -0.13145837 0.30292946 0.09732948 0.04175047
0002c0 3b ab c7 be 7a e6 95 3d f8 7f d6 3c 69 ef 88 3e
       -0.38997826 0.073193505 0.026184067 0.26745155
0002d0 c3 0f 22 3d 5d 34 56 be 17 a3 d2 bd 94 38 60 bd
       0.039565813 -0.20918413 -0.10285013 -0.054741457
0002e0 d6 b0 29 3e 55 0a b3 3d 0d a9 a6 3e 5f 84 85 bd
       0.16571364 0.08742205 0.3255085 -0.065193884
0002f0 69 c2 3b bc 04 c6 86 3d 52 48 67 be de cd 4d bd
       -0.011459925 0.06580737 -0.22586182 -0.05024516
000300 96 a5 32 be f1 68 fd 3d e6 ae 7a 3e 50 a3 19 3e
       -0.17445979 0.123735316 0.24480781 0.15003705
000310 ec 22 24 be 1c ed b5 3d 51 84 f7 bc 32 c0 79 be
       -0.16028947 0.08883116 -0.03021446 -0.24389723
000320 a9 a3 b4 3e 4a e1 b5 be f3 2e 09 3e 2e 47 13 3d
       0.35281113 -0.35523444 0.13396816 0.035956554
000330 bc ac 0e be 6b 13 29 be fb fd a7 bc f0 27 8b be
       -0.1393308 -0.16511314 -0.02050685 -0.27178907
000340 07 43 db 3d 10 6a 0e be 10 0a 53 bd 66 45 f0 3d
       0.10706144 -0.13907647 -0.05152327 0.11731987
000350 b8 7e 1f 3e 43 59 2a be c8 69 6b 3e cc f8 3c bd
       0.15575683 -0.16635613 0.22989571 -0.04613571
000360 b4 d6 57 bd b1 fd 7a bd 0c 81 1c 3e f0 b7 98 bd
       -0.05269499 -0.061277095 0.15283602 -0.07456958
000370 2b 91 f3 bd 9a 92 d1 be d8 1c 7e bd 4a 47 78 bd
       -0.11892923 -0.4093216 -0.062039226 -0.06061486
000380 6e 33 82 3d a4 ed 12 be 3b b3 0b 3e f5 f7 52 3d
       0.06357466 -0.14348465 0.1364259 0.051506
000390 43 af 18 3e 62 6e 11 be 66 10 e5 3d 27 78 41 3e
       0.14910607 -0.14202264 0.111847684 0.1889349
0003a0 89 e2 63 be db 26 c1 3e 17 15 19 3e 97 4c 4e bd
       -0.22254385 0.37724957 0.14949451 -0.05036601
0003b0 a5 55 3a be ec 04 f3 3d bd 57 e3 3d 76 9c 3e 3d
       -0.18196733 0.11866173 0.11100719 0.04653593
0003c0 c8 8c 33 3d 59 26 c9 bd 79 9f 60 3e de 38 e3 bd
       0.04383543 -0.09821767 0.21935834 -0.11094831
0003d0 e2 18 89 bd 73 9e 19 be 40 80 80 3e f9 1c 89 bd
       -0.06694199 -0.1500185 0.25097847 -0.06694979
0003e0 84 f2 2b bc b5 3d 39 3d f8 3b 40 be 99 e9 0f be
       -0.010494832 0.045224864 -0.18772876 -0.14053954
0003f0 e4 94 23 3d 39 a9 5a 3e ac 0c a5 be 6d 5b 84 3e
       0.039936915 0.21353616 -0.3223623 0.25851002

linears.1.bias f4 [64]
000000 5b 9a b0 bc 03 02 eb bc a4 b8 b2 3c 38 ca 7e 3c
       -0.021557977 -0.028687483 0.02181656 0.015551142
000010 78 ac 3d 3c fb 5f 7f 3c 2e eb 13 b9 e4 0c 6a 3d
       0.011576764 0.015586848 -0.00014106624 0.0571412
000020 a2 17 20 bb 4e 10 6d 3c a7 18 6b bc 8e 31 d8 3c
       -0.0024428149 0.014469219 -0.014349139 0.026390817
000030 5b 39 e6 bc eb 9a 9c bc bd 1c 8b bc ea 4b ca 3c
       -0.028103521 -0.01911684 -0.016981477 0.024694402
000040 4b a5 ac b9 21 56 b2 3a c4 fb 54 bc 99 00 9f 3c
       -0.0003292955 0.0013605991 -0.012999479 0.019409465
000050 0d fc 1d bc 0d 6b 3d 3c aa 52 4e 3c a1 25 35 3a
       -0.009642613 0.011561167 0.012592951 0.0006910209
000060 8c 00 3e bc 6a d7 82 bb 39 3c 5f bc c8 2e 09 3c
       -0.01159681 -0.0039929645 -0.013625198 0.00837297
000070 36 60 4b 3d 3c 57 1a ba 72 9c d0 bc 1a 9d 89 b9
       0.0496523 -0.0005887633 -0.025465224 -0.00026247726
000080 48 7f c2 bc 3b 5a bc bc 7b c8 98 bd d5 0c 21 3b
       -0.023742333 -0.022992244 -0.074601136 0.00245743
000090 7c ff 9e 3c 1c 10 4f bc c1 a0 60 bc b7 05 56 3c
       0.019408934 -0.012638118 -0.013710202 0.013062886
0000a0 6a 15 54 3c 02 24 d9 bb a0 45 92 bc be e7 4e bc
       0.012944559 -0.006626607 -0.017855465 -0.012628494
0000b0 3e 3e f7 3d b4 a3 86 3a 53 93 e0 3b a2 d2 1e 3c
       0.12072419 0.0010272176 0.0068535 0.009693773
0000c0 cf 54 9d bc f9 38 31 3d e2 24 a4 bd 78 c2 d4 bb
       -0.019205479 0.043267224 -0.08014847 -0.006492909
0000d0 69 05 44 bb 59 49 a4 3c c5 98 40 3c 27 d6 1a 3c
       -0.0029910451 0.020054506 0.011755173 0.009450472
0000e0 56 53 bd bc 0a 74 c8 bb cf 92 f9 bb 8c 7b 89 bc
       -0.023111027 -0.0061173486 -0.007616378 -0.016782545
0000f0 5f d0 40 bb 96 97 2b bb 54 7d 2a bd 7f 80 84 bc
       -0.0029421074 -0.0026182882 -0.04162343 -0.016174553

linears.2.weight f4 [64, 64]
000000 f5 25 18 be a8 59 e8 3c 58 11 52 bd a5 22 d1 3d
       -0.1485823 0.028363064 -0.05128607 0.10211686
000010 28 6b 27 be 1a 1d 56 3d c7 2e 55 3d fb 35 5a 3d
       -0.1634947 0.052273847 0.052046563 0.053274136
000020 01 d5 2f bc c6 0c 13 3d 50 61 86 bc f5 24 09 3e
       -0.010731936 0.035900854 -0.016403824 0.13393004
000030 a4 db a9 3c f4 c1 25 3e 35 86 5b bd c8 b1 c1 3d
       0.020734616 0.16187268 -0.053594787 0.09457737
000040 50 f3 85 3c 4a 7e d8 3c e9 5a a5 3e ff df 1d 3d
       0.016351372 0.026427407 0.3229592 0.038543697
000050 dd b4 67 3e b9 9b 49 bc 8b 85 06 3d a7 1a bf bd
       0.22627588 -0.012305194 0.0328422 -0.093312554
000060 a9 86 18 3e 95 26 18 3e 00 af a8 bd e5 44 d7 bd
       0.14895119 0.14858468 -0.082365036 -0.105111875
000070 d3 c1 94 bd 4e 7b 33 be 4c 60 f3 3a 76 f2 29 3d
       -0.072635315 -0.17527506 0.0018568127 0.041490994
000080 ef ff 57 3e 81 46 a0 3d a8 48 61 3e c3 6d fa bd
       0.21093725 0.078259476 0.22000372 -0.12227967
000090 0e 3d 5d bd 7c 00 d1 3d a0 a5 76 bd 6c 4f 15 be
       -0.054013304 0.102051705 -0.060216546 -0.14581078
0000a0 72 29 e7 3c fe 2f 63 3e dd a8 f4 bb 4c 15 1d 3c
       0.028218005 0.22186276 -0.007466419 0.009587597
0000b0 2d 1c 57 3c c4 9a d1 ba de 94 c3 3d a9 ab ea bd
       0.013129276 -0.0015991558 0.095498785 -0.11458523
0000c0 ac 78 8b be f1 1c 87 be d4 07 2a be 43 82 3d bd
       -0.27240503 -0.26389268 -0.16604549 -0.046266805
0000d0 bb d3 89 be 30 6f 3f be 59 50 81 be 00 3a 0a 3e
       -0.2691935 -0.18694758 -0.25256613 0.13498688
0000e0 dc dd 13 bd 51 bf 60 3d 63 4e b8 3d e1 3a 5d 3e
       -0.036100253 0.054869954 0.08999326 0.21604492
0000f0 4d 8c 5d bd 2b 75 33 3e bd c8 43 be ce d0 10 be
       -0.05408888 0.17525165 -0.19119544 -0.14142153
000100 4c 06 8b be 40 0b 0a bd a9 77 da 3d 48 94 23 bd
       -0.27153242 -0.033702135 0.106673546 -0.039936334
000110 f8 16 bb 3b c2 20 da bd 78 e3 48 bc e9 45 a0 3e
       0.005709525 -0.10650779 -0.012261264 0.31303337
000120 52 a6 84 3d c2 55 27 be b2 ae da bd 40 84 97 3d
       0.064770356 -0.16341308 -0.10677852 0.073982716
000130 3a fa ec bd 7b b2 49 be 18 d2 e5 bc 5f ee 34 3c
       -0.115711644 -0.19696991 -0.028054282 0.01104316
000140 3c db 6a 3e fb b0 83 bd 1a 30 16 be 14 88 a2 3e
       0.22935194 -0.06430241 -0.14666787 0.31744444
000150 3f 0f e9 bd 96 fb 58 3d 5a 7d 51 3d 2c 49 f7 3d
       -0.11379861 0.052974306 0.051144935 0.12074503
000160 91 51 12 be 95 83 c1 bd 58 3a ad 3d 49 cd 83 be
       -0.14288928 -0.094489254 0.08458394 -0.25742558
000170 78 7c 9d b9 5c 14 39 3e 30 17 45 bd 81 13 8d 3d
       -0.0003003811 0.18074173 -0.048117816 0.06888486
000180 9e 32 4c be 62 29 a6 bd e2 0e 4d be 20 40 b8 bc
       -0.19941184 -0.08113362 -0.20025209 -0.022491515
000190 3e be 99 be f0 49 31 be 11 74 fc 3c a8 f2 19 3e
       -0.30027956 -0.17313361 0.030817064 0.15033972
0001a0 5d 52 14 be 97 e1 19 3d d0 69 f8 3d fb d6 0d 3d
       -0.14484544 0.037568655 0.12129557 0.03462885
0001b0 a3 7a 93 bc 6f d3 00 3e 0c 20 a3 bc e6 3e 81 3d
       -0.018002814 0.12580656 -0.019912742 0.06310825
0001c0 1f cd 0c 3e 2c 65 e0 3d df e1 ef bd 7c 3d 0e be
       0.13750122 0.10956797 -0.11713003 -0.13890642
0001d0 dd 65 91 3d 1a 41 82 bc 6d 86 93 bc cf 7a 48 3e
       0.07099507 -0.015900183 -0.018008435 0.19578098
0001e0 a4 14 30 3e a8 ef 1b 3e da 95 88 3c a9 83 94 3d
       0.17195374 0.1522814 0.016673017 0.07251675
0001f0 24 0e 89 3a 60 ca a7 bd 9e 5a 36 be 52 77 45 3c
       0.0010456485 -0.08192897 -0.17808005 0.012052374
000200 0f 00 4c be c5 3f 7f be b3 12 6c be 0f 84 7a 3d
       -0.19921897 -0.2492667 -0.23054008 0.061161097
000210 a5 c0 9b be 91 08 25 3e 5b f5 60 3d 8f c2 5f bd
       -0.30420414 0.16116549 0.05492149 -0.054628905
000220 b0 a8 bd 3d a0 d4 f0 bd 8d e1 40 be 55 85 30 be
       0.0926069 -0.11759305 -0.18836041 -0.17238362
000230 83 84 c6 bc e1 09 8f bd b6 c4 b3 3d c7 26 38 bd
       -0.024233108 -0.06984306 0.08777754 -0.044958856
000240 f2 8e 99 bd 0f 3a 5b 3d 2c 1d 31 3e cf 34 1f 3e
       -0.07497968 0.053522166 0.17296284 0.15547489
000250 53 c1 8c bd be 25 4c 3d 39 8c c7 bd 2e 96 d3 3d
       -0.06872811 0.04984068 -0.09743542 0.10331379
000260 93 42 64 3e 27 52 a4 bd 18 5b ad 3d 20 c1 e5 bb
       0.22291021 -0.08023482 0.084646404 -0.0070115477
000270 e5 63 0e 3e 6f b1 db 3d fc c8 5d bd 6f 30 26 3e
       0.13905294 0.10727202 -0.05414675 0.16229413
000280 92 43 3a bd d5 6f 2b 3e 0b 6c ba 3d f8 28 92 be
       -0.045474596 0.1674188 0.09102639 -0.28546882
000290 84 b7 3c be f5 91 f4 bc 1d 1c 9f bd e2 d2 f8 3c
       -0.1842938 -0.029854754 -0.07769034 0.030373994
0002a0 e2 bc 4e bd 62 95 d4 bc a9 b4 3b 3e cf 07 e7 bd
       -0.0504731 -0.025950138 0.18330635 -0.11280786
0002b0 9d 52 b8 3d 20 f2 37 3e 8d 14 13 3d 25 e9 46 be
       0.09000132 0.17963457 0.03590827 -0.19424875
0002c0 2b 20 e4 bc cd c1 14 3e 6a 21 d2 bd 82 54 10 3e
       -0.02784737 0.14527054 -0.102602795 0.14094737
0002d0 ab ef 90 bd b1 95 e4 3d 19 e6 8e be 63 cf 91 3b
       -0.07076963 0.11161364 -0.27909926 0.0044497713
0002e0 06 70 9f 3b f3 f0 ed 3d 22 c8 b7 3a b2 f0 9e bd
       0.004865649 0.11618223 0.0014021436 -0.07760753
0002f0 00 7b b3 3d d8 ae b4 3d 93 e9 0b 3d d2 b4 b4 bd
       0.08763695 0.08822411 0.0341583 -0.08823551
000300 80 fe 8a bd a4 1f 2d 3e 05 ef 62 3e fd 0b a8 be
       -0.06786823 0.16906601 0.22161491 -0.32821646
000310 ef 4a d4 bd 73 7e 35 be 56 6b 20 be 80 03 e2 bd
       -0.10365855 -0.17724018 -0.15665945 -0.11035824
000320 dc 2c 1f be 54 87 43 3d 1e 05 9a bc 06 a3 37 bc
       -0.15544456 0.04773648 -0.018801268 -0.011208301
000330 65 36 a6 3b 61 f0 24 3e e8 aa 4b 3c 55 8d 7d bd
       0.0050724023 0.16107322 0.012430884 -0.061902363
000340 dd 4a a4 3e 62 86 78 3d f9 84 9a 3e 03 ea 58 3d
       0.32088366 0.060675032 0.30179575 0.052957546
000350 7e 84 68 bc 85 d3 0d be cf 9d 0a be 23 31 ef bc
       -0.014191745 -0.1385022 -0.13536762 -0.029198235
000360 2b 2a 84 3d 31 fc 05 3b df dc 1c 3d 4e 35 18 be
       0.064533554 0.0020444507 0.038296577 -0.14864084
000370 e7 19 f2 3d 39 6a 89 bd a5 f9 4a 3e 9e cd 87 3e
       0.11821347 -0.067097135 0.19821794 0.2652406
000380 99 7b 29 3d 7f 26 0e be 8e 86 62 3d d9 31 6b bb
       0.041377638 -0.13881873 0.055304103 -0.0035887866
000390 5a 70 80 bd 19 04 35 be ee 24 ac 3b 86 a1 06 be
       -0.06271429 -0.17677344 0.005253426 -0.13147554
0003a0 dc c4 03 3e 50 45 48 3d e7 5a 15 3d c7 f7 bf bd
       0.12868065 0.048894227 0.036463644 -0.09373432
0003b0 a8 bf e5 bd 06 a5 c4 3c 95 73 92 bd be a3 a9 3c
       -0.11218196 0.02400447 -0.07150952 0.020707961
0003c0 53 c5 b0 bd 35 be 99 bd 00 a3 60 be 26 b3 17 3d
       -0.086313866 -0.07506982 -0.2193718 0.037036084
0003d0 03 b5 75 bc a3 d9 20 be d0 31 24 3d 99 68 89 bd
       -0.01499677 -0.15708022 0.040086567 -0.067094035
0003e0 ee 8e 26 3d 17 55 52 be 29 7d a7 3d 3d ef 44 3d
       0.040663652 -0.20540272 0.08178169 0.048079718
0003f0 12 e2 41 3e cc cb 63 3e 19 7f 29 bd 78 d3 c7 3d
       0.18933895 0.22245711 -0.041380975 0.09757131

linears.2.bias f4 [64]
000000 2e 3b d0 3b bd 5a dd 3c af 09 be 3c 8d ca a2 bc
       0.006354711 0.027020806 0.023197977 -0.019871974
000010 88 f6 86 3d de f5 96 bd 99 63 4a bd 43 ec 40 3b
       0.06589991 -0.07371114 -0.04941139 0.0029437698
000020 6e 8f bf bb d5 54 8f 3c 11 b9 22 3b b8 af 0b bc
       -0.0058459556 0.017496506 0.0024829546 -0.008525781
000030 48 d6 d8 bc 70 08 f4 3b 1a d7 80 3d 98 2f b0 3b
       -0.026469365 0.007447295 0.06291027 0.0053767674
000040 ba 81 1c bd 4d 0c 8a bb 53 1f f6 bb a5 9b 7d ba
       -0.038209654 -0.004212892 -0.0075110584 -0.0009674377
000050 8f 27 f5 3c 33 77 91 bb 62 34 15 bc 71 8e cf 3a
       0.02992609 -0.0044392585 -0.009106727 0.0015835298
000060 91 7b 34 3c 16 fd cb 3c dd ae 58 ba ab 00 45 3b
       0.011015789 0.024900954 -0.0008265803 0.0030060213
000070 48 3a 12 3a 90 5f cc 3d b1 7b b2 39 7c 63 d2 3b
       0.00055781426 0.099791646 0.00034042963 0.006420551
000080 76 e7 9d bc 1f 4c 20 bd 9e 69 9c bc 37 f6 12 3b
       -0.019275408 -0.039135095 -0.019093331 0.0022424588
000090 55 9c 70 bb b4 cb b6 bb cc 1c 8e 3c 1d 37 57 bb
       -0.0036714275 -0.0055784825 0.017347716 -0.0032839247
0000a0 41 9f a3 bb 80 4a fe 3b 22 98 93 3c f7 88 e0 3c
       -0.00499335 0.007760346 0.018016879 0.02740906
0000b0 e3 a8 e7 bc 7c 6a b9 ba ab c8 59 3c e3 9a 33 bc
       -0.028278774 -0.0014146115 0.013292472 -0.010962221
0000c0 c4 3d 3b 3c 33 2a 19 3d c4 aa 86 bc ba a2 e7 bb
       0.0114283 0.03739376 -0.01643885 -0.007068959
0000d0 84 5f e1 bc 65 22 98 ba bf 8e 1a 3d 25 67 58 3d
       -0.027511366 -0.001160693 0.03773379 0.05283274
0000e0 2b 62 5f 3d 0b 5d ca 3b a0 40 a0 bc ad 0e 33 bc
       0.05453698 0.0061756424 -0.019562066 -0.010928792
0000f0 1e 96 84 3c ba 5a 91 3c 87 31 12 3d 26 32 9c 3a
       0.016184863 0.017743457 0.035691764 0.0011916801

linears.3.weight f4 [32, 64]
000000 5d 2a e7 be c4 e6 22 bd bd 9a 0e be 1f 07 1d 3e
       -0.45149508 -0.039770856 -0.13926215 0.15334748
000010 07 e1 d2 3d 42 91 ee 3d 9c 46 57 3e 52 4c 25 3d
       0.10296827 0.116487995 0.21023029 0.040355988
000020 80 1c b0 3e 36 e9 9d 3c 39 d5 2b 3d 9d c8 0d bd
       0.34396744 0.019276243 0.04195139 -0.034615148
000030 69 11 ff 3b 5f a8 44 be 5a c1 84 be 36 9a 14 bc
       0.007784058 -0.19204853 -0.25928766 -0.00906997
000040 18 12 1b bc df 5d 9b 3d 9e a9 45 be 2b 0b 2e bd
       -0.009464763 0.07586264 -0.19302985 -0.04249112
000050 22 13 0f 3e 0b cc a6 3d a6 3f 20 3e b4 17 b6 3d
       0.13972142 0.08144387 0.1564928 0.0889124
000060 fe 83 de bd 7a a2 a4 3d 6d 2c 4e be fa 2b 4e be
       -0.10865019 0.080388024 -0.20134135 -0.20133963
000070 ee d2 28 3b cb 1a 0e 3e 62 c0 0e 3e 24 75 4b 3e
       0.002576049 0.13877408 0.13940576 0.19868904
000080 ea f5 28 be c6 07 7c bd 49 43 e2 3d 7c 62 c4 3d
       -0.16500059 -0.06153085 0.1104799 0.09589097
000090 6c 96 f6 bd 3c ca c9 3c a8 a2 65 3e db 70 16 be
       -0.120404094 0.024632566 0.2242533 -0.14691488
0000a0 ed 50 f0 3d a8 d8 9c bd 97 9c d2 3b 42 d9 6f 3e
       0.11734185 -0.076585114 0.0064273584 0.23422721
0000b0 63 df 6c bd 7b 3f 68 be 75 04 15 be a1 02 c4 be
       -0.057830226 -0.22680466 -0.14552481 -0.38283256
0000c0 29 7c 4c 3e 29 5a 09 3e 01 82 fd bc 8c c3 47 3e
       0.19969238 0.134133 -0.03094578 0.19508189
0000d0 5c 9f 86 bd 42 c5 67 3e f4 04 99 be 8a ad 56 3e
       -0.06573364 0.22633842 -0.2988659 0.20964637
0000e0 ca cc 8f bc 6c db 19 3d c6 a6 74 3e 75 e2 b3 3d
       -0.017553706 0.037562773 0.23891744 0.087834276
0000f0 f2 f6 90 bd ea 44 5d 3d 4b d0 12 3e f0 62 3c be
       -0.07078351 0.0540208 0.1433727 -0.18397117
000100 33 c0 4a 3e 3e cb 2a 3e 9d 6d a8 3d 8f 4b ab bd
       0.1979988 0.16679093 0.08224032 -0.08364021
000110 80 69 9b 3e 88 ec a9 be 46 78 81 be e3 54 91 3c
       0.30353928 -0.33188272 -0.25287074 0.017740672
000120 23 b8 db 3d 5e 7b 54 3e 99 74 4a 3e b2 9c 8b 3e
       0.10728481 0.20750186 0.19771041 0.27267987
000130 c7 73 94 be 53 71 0e bd 77 62 31 3e 69 34 91 bd
       -0.2899458 -0.034776043 0.17322718 -0.070900746
000140 87 ab 8f bd 9e 38 36 be 8e 65 9d bd 83 fd 2f 3e
       -0.07015138 -0.17795035 -0.07685386 0.17186551
000150 12 c1 d9 3e d3 a7 cd 3c fc 18 28 3e 07 18 d4 bd
       0.42530113 0.025104439 0.16415781 -0.10356145
000160 6a 2d 07 3e b1 b3 9d 3c 73 fc d5 bb 07 e4 82 be
       0.13200918 0.019250723 -0.0065303384 -0.25564596
000170 08 53 11 3e fc 2b 8b bd e7 67 92 bd 35 2c c3 bd
       0.1419183 -0.06795499 -0.07148724 -0.09529916
000180 b1 77 b7 3d 6c 30 62 be d4 87 24 3c 72 77 62 be
       0.08958376 -0.22088784 0.01004215 -0.22115877
000190 07 c8 68 3e f9 86 ab 3e fe c8 e6 3d f6 17 5b 3d
       0.22732554 0.33501413 0.11268805 0.053489648
0001a0 37 2c b6 3c 73 5f 81 be ab 2d b4 bd 5e 30 27 be
       0.02223788 -0.25268134 -0.08797773 -0.16327044
0001b0 67 4f 24 3d f4 80 8f 3d 5d 87 69 3e 2c 85 bc bc
       0.040114786 0.07007018 0.22805543 -0.02301272
0001c0 6d 8e 43 3e b1 b1 02 3d 2b 51 b2 3d a4 e6 83 be
       0.190973 0.03190774 0.08706888 -0.25761902
0001d0 24 86 54 be 00 f9 d1 3c 51 0d 14 3e e2 dc d0 3d
       -0.20754296 0.025631428 0.14458205 0.1019838
0001e0 42 ee 9a 3e d6 db aa 3c fa dd 00 bf 37 c9 9a bd
       0.302599 0.02085678 -0.5033871 -0.0755791
0001f0 bf 49 e9 bc 11 09 9e be d2 bd ea 3e 8b a6 5b 3e
       -0.028477548 -0.30866292 0.45847946 0.2145025
000200 ec fa 58 3e 44 c6 19 be 73 11 55 3e 9e 21 29 3d
       0.21189469 -0.15017039 0.20807438 0.041291825
000210 7e 53 a6 3d ae 23 4e 3e 1a ca ce bd ad 26 7d bc
       0.081213936 0.20130798 -0.100971416 -0.015451116
000220 3e 39 1e be 6f 5c e3 bd 01 8c 34 be 72 39 ba 3d
       -0.15451524 -0.11101615 -0.17631532 0.09092988
000230 fb f6 7b bd c8 cc 0d be 3f ab 73 bc 7d 5d cd bd
       -0.061514836 -0.13847649 -0.014872371 -0.10027597
000240 5f cc 9e 3d f4 07 05 3e ea d5 40 3e b2 aa a7 3d
       0.077538244 0.12991315 0.18831602 0.081868544
000250 2f af 28 bd ef 2c 3b 3e a5 5f a7 3d 2f 42 c8 3d
       -0.041182693 0.1827886 0.081725396 0.097782485
000260 89 28 44 3b d7 cc 92 bc f3 1a 80 3d e3 95 a1 bd
       0.0029931387 -0.01791994 0.0625514 -0.07889917
000270 24 33 41 be fb 5c 5c bd 7f 89 99 3d 3f e0 14 bd
       -0.18867165 -0.05379961 0.074969284 -0.03634667
000280 17 ad 4a 3e 84 10 9e bd 5f b0 8b 3e f4 9a 4a 3d
       0.19792591 -0.07717994 0.27282998 0.04946418
000290 b3 83 cf 3d e0 ac b0 bc f4 d9 32 bd 64 e9 98 3d
       0.101325415 -0.021566808 -0.043664888 0.07466391
0002a0 ec 89 76 be c1 1c 87 be a2 55 54 3e 03 2c 9b be
       -0.2407605 -0.26389125 0.20735791 -0.30307016
0002b0 7c b6 34 bd 6c 2a 72 3e 68 eb 98 be 17 7e bc bd
       -0.044119343 0.23648995 -0.298671 -0.09203737
0002c0 96 3e 1e 3e d2 ad 3d 3d dc 97 8c 3c ce d7 27 be
       0.15453562 0.046308346 0.017162256 -0.16390917
0002d0 ad e1 3d 3e bb 74 ab bd 00 f8 a3 be 7d 29 26 3d
       0.1854312 -0.08371874 -0.32025146 0.04056691
0002e0 bf 64 c2 3d 65 71 af bd 30 5f 1b bd c5 df f5 bc
       0.09491872 -0.0856655 -0.037932575 -0.030013928
0002f0 f6 99 0c be 5c 4f 57 3e 65 87 40 bd c6 ac 5f 3e
       -0.13730606 0.21026367 -0.047004122 0.21843252
000300 f7 46 a3 be 6a 38 5e 3e 46 9e c8 3d 33 62 11 be
       -0.3189008 0.21701208 0.09795813 -0.14197616
000310 f6 52 be 3d a9 71 50 be b8 1e 70 3e 68 53 8a 3d
       0.09293167 -0.20355858 0.23449218 0.0675419
000320 6e 45 15 3d d7 24 b9 be 62 96 bf bd f8 a0 36 be
       0.036443166 -0.3616092 -0.09354855 -0.17834842
000330 ca 02 9f bd 87 44 59 3e 98 fb 02 3c bf 27 5b be
       -0.07764204 0.21217547 0.007994555 -0.2140188
000340 27 90 05 3e 26 cf 54 be 6a 83 0d 3e a4 43 60 3e
       0.13043271 -0.20782146 0.13819662 0.21900803
000350 e2 38 87 bd 99 cf 06 be 36 e9 3f 3e 00 d4 de bc
       -0.066026464 -0.1316513 0.18741307 -0.027200699
000360 95 4d 2e be ed 9e c5 bd 70 68 ed 3d c3 b3 32 3e
       -0.17021783 -0.09649453 0.115921855 0.17451386
000370 72 4d 65 3d 21 09 05 be 66 d9 80 bd 1b bf 26 3e
       0.05598206 -0.12991764 -0.062914655 0.16283838
000380 3a 36 00 3c f0 9d 57 3e 05 cb 95 3d 46 34 9b be
       0.007825429 0.21056342 0.073141135 -0.3031332
000390 19 e9 73 bd 97 7b 6a be f7 d0 15 3e 5d 26 04 b7
       -0.05954847 -0.22898708 0.14630495 -7.876745e-06
0003a0 db bb 94 3d 1a 32 0b be 5b 6e 9c bd 1c 10 ec bd
       0.07262393 -0.13593331 -0.07638236 -0.1152651
0003b0 4e ed 8d be 1c 64 64 3e f7 6e ad bd 76 19 32 bd
       -0.27720112 0.22303814 -0.084684305 -0.043481313
0003c0 f0 a8 17 bd 16 ff 43 be aa 24 a5 3d 68 20 00 be
       -0.037026346 -0.19140276 0.08063634 -0.12512362
0003d0 9a 4a de 3d 35 61 b8 bd 66 5b 3b be 8a 44 af bd
       0.10854073 -0.09002916 -0.18296584 -0.08557995
0003e0 9d ea 59 3e 90 77 18 3e fc 5f c2 3e cd bf ae bd
       0.21280904 0.1488936 0.37963855 -0.08532677
0003f0 61 28 50 3d 30 bc 7c 3d 74 5b b1 bb 97 09 e9 3c
       0.05081976 0.061702907 -0.0054125134 0.028446956

linears.3.bias f4 [32]
000000 6f 08 f5 bb e2 98 8f 3d b5 f0 91 bc b7 15 5a bc
       -0.007477812 0.07011582 -0.017814973 -0.013310841
000010 16 d3 81 bc 55 ef f9 bc 9f 2f 2a 3d f0 61 ac 3c
       -0.015847724 -0.03050963 0.04154932 0.021042794
000020 b5 cc 6e 3c 6e 2b 0d 3c dd 2e 2f bc 12 df 3c bc
       0.014575173 0.0086163115 -0.010692325 -0.0115277935
000030 e7 e3 f4 bc a0 61 e7 3b bd 59 6b bc fc 73 c4 3c
       -0.029893829 0.0070611984 -0.014364657 0.023981087
000040 a5 04 b6 3b eb ee a8 3b de 54 a2 3c 35 28 36 3b
       0.005554753 0.0051554344 0.019815858 0.0027794961
000050 71 69 4b bc 9b c2 3f bc 17 f6 c3 bc 6a e3 5e 3c
       -0.012415276 -0.011704112 -0.023921056 0.013604024
000060 2a 9c 9d 3b e2 1a db bc b9 60 4b bc ff a2 f6 bc
       0.004809876 -0.026746217 -0.012413197 -0.03010702
000070 54 66 ca bc e7 6e 11 bc 22 84 87 bc e0 92 6b ba
       -0.024706997 -0.008876539 -0.016542498 -0.00089864247

linears.4.weight f4 [4, 32]
000000 a6 db 5e 3e f4 0e e6 bd ca a8 fb bd 29 f8 bb 3d
       0.21763477 -0.11233321 -0.12288053 0.09178192
000010 71 ae 11 be 70 b5 a3 bd db b2 70 ba 53 d6 34 3e
       -0.142267 -0.07993591 -0.0009181925 0.17659883
000020 d3 2e c3 be c5 1a f6 3e 8f 54 d4 bd 8e 89 01 bd
       -0.38121662 0.480673 -0.10367691 -0.031625323
000030 58 d2 98 bd 1b 9b 54 3e 77 1c 51 bf 07 d4 3d 3e
       -0.07461995 0.20762293 -0.8168406 0.18537913
000040 3d 08 ae 3e ff f8 cb 3e c8 12 d9 3d dc a3 00 3e
       0.3399066 0.39838406 0.10599285 0.12562507
000050 2e 5e 58 be 39 76 0b be ec 11 72 3e dc 0e 32 bd
       -0.21129677 -0.13619317 0.23639649 -0.043471202
000060 81 d6 e1 be 9b ac da bd be a6 8f bd 8d ad 14 3e
       -0.44108966 -0.10677453 -0.070142254 0.1451933
000070 9b e6 86 3d 8c 8e 95 3e 6b f5 1c bf 82 19 2a 3e
       0.06586953 0.29210317 -0.6131198 0.16611293
000080 58 56 13 3d 6f c8 e2 3a 4e 07 12 bf 03 5e 86 be
       0.035971016 0.0017302166 -0.57042396 -0.262436
000090 aa 59 f7 be c9 d5 1d bf fc 25 12 3e 1f 7d 29 3f
       -0.48310596 -0.61654335 0.14272302 0.66206545
0000a0 4d ec d3 bc 5f 21 b9 3d e2 01 a1 be 76 1c 61 be
       -0.025869513 0.09039568 -0.3144675 -0.21983513
0000b0 e0 69 03 bf 7d 72 dd 3d 1e 4e 25 bf 69 22 31 3f
       -0.5133343 0.108128525 -0.6457232 0.6919313
0000c0 f5 63 61 3e 71 19 5d bd c5 81 45 3f ef 65 91 3e
       0.22010787 -0.05397934 0.7715114 0.28398082
0000d0 74 28 05 bf cf 18 f4 be cb e7 ed be b8 f4 a4 3e
       -0.5201485 -0.47675177 -0.46465907 0.32217956
0000e0 fd ab 82 3e a5 d6 15 bf 46 e6 58 be 1d bb 29 bf
       0.25521842 -0.58530647 -0.21181592 -0.6630114
0000f0 de c2 68 3e e2 ae 66 3d 10 30 ed be 82 5a a1 be
       0.22730586 0.056319125 -0.4632573 -0.31514364
000100 bd ba 9b 3e 9d a2 00 3f ba 74 51 bd 64 7b b5 be
       0.30415908 0.5024813 -0.05113671 -0.35445702
000110 84 1d 8a 3d 00 2e b4 3e 8b 1d 69 3e d4 95 c6 be
       0.06743911 0.35191345 0.22765176 -0.38786185
000120 2a 2c f4 bd 0b 28 0b 3f d5 c1 f3 3c 38 4a 13 bc
       -0.11922486 0.54357976 0.029755512 -0.008989863
000130 01 f0 6f 3e 4d 33 38 3f eb f7 96 3e c7 8e 4e bd
       0.23431398 0.7195328 0.2948602 -0.05042913
000140 e7 31 0a 3e 5d 7e c8 3e 0d b9 a1 bd 30 89 5a 3e
       0.13495599 0.39158908 -0.07896624 0.21341395
000150 fa be cf 3e 40 dd 33 be a4 b8 3c be 55 10 c1 be
       0.4057539 -0.17564869 -0.1842981 -0.37707773
000160 a7 0c b1 3e b2 ed 9e be 7e 2c 83 bd 61 36 c2 be
       0.34579965 -0.31040722 -0.064049706 -0.37932113
000170 29 b4 e2 bd 37 70 33 3e 4b ac 07 be 20 47 fa bd
       -0.11069519 0.17523275 -0.13249318 -0.12220597
000180 65 94 51 bd 49 39 91 3e 99 ed 9c be 29 3b 95 3d
       -0.05116691 0.28364018 -0.30650023 0.072866745
000190 21 9a d4 bd 06 75 a1 be 4e e5 21 3f 30 cf e1 3d
       -0.1038096 -0.31534594 0.63240516 0.11025846
0001a0 03 42 b2 3e ef 8b 4e 3e cd 01 1e bf 6e 21 8e be
       0.34815988 0.20170568 -0.617215 -0.2775988
0001b0 7c a7 db bd 3b a7 f0 3e b3 8d b9 bd c3 9e 1b 3f
       -0.107253045 0.47002587 -0.0906023 0.60789126
0001c0 f0 9c 19 3f a5 07 95 3e a8 75 27 3e 47 5a 03 bb
       0.6000509 0.29107395 0.16353476 -0.0020042823
0001d0 6d 85 ec be 7b 80 08 bf d3 2d 90 be 40 0c dc be
       -0.46195546 -0.53321046 -0.2815996 -0.42978096
0001e0 11 ea c5 be 5e 91 53 bf dc 51 da be 0e e6 9e be
       -0.3865514 -0.8264369 -0.4264058 -0.31034893
0001f0 0a 2c 0d 3f 60 09 74 3e 0e 54 9c 3e 23 4f 82 3e
       0.55145323 0.23831701 0.3053288 0.25451002

linears.4.bias f4 [4]
000000 d7 a9 60 3b ac 15 6e 3e 59 c3 ad 3d db 42 8d 3e
       0.003428092 0.23250455 0.08484525 0.2759007
