Iterations/Test model/epoch_7644.pt (torch, 37739 bytes, 10 tensors)

linears.0.weight f4 [32, 2]
00000000: 2134 a53e 26f9 7cbe 6c39 8b3e 83c0 11bf
00000010: 734d 713e 47d7 1dbf fa60 d2bd 921c 3bbf
00000020: 039d 49bd 8d21 073f 3e51 473d fbd2 49bf
00000030: 1a36 3d3e c71e 493f e66f 3b3e fca7 db3e
00000040: f519 b63e a6b9 8cbe a687 79be f51f 72be
00000050: d74e eabd 489c 24bf 6d9c 91be 22eb 013f
00000060: 06a9 01be 1d6f a8be f393 293e 4112 f9be
00000070: 8574 febd 4c88 633f 29ea 6dbd e224 debe
00000080: 39bf 673e e748 3c3f e880 9d3e 9d66 9c3e
00000090: efb4 debd 252e f93e 1564 59be a4b0 d0be
000000a0: 8a11 f7bd 1a6f b1be d2c5 913e b0ac 7f3e
000000b0: 9e81 2c3f acfe 33be e8a2 8e3e 328d edbe
000000c0: 0984 0fbf 56e1 dc3e 6a6b af3e 7ff7 7ebe
000000d0: 6b91 3dbe addd 9bbe 458b 323d 7fab 043f
000000e0: bbdd a33d 641f fcbe 38a4 eebc e7ec 193f
000000f0: 7dd1 263e 4b0b 08bf ed03 40bd 83d7 653f
0.32266334 -0.24704418 0.27192247 -0.56934375 0.23564701 -0.6165661 -0.10272403 -0.7309047
-0.049222004 0.5278557 0.048661463 -0.78837556 0.1847767 0.7856259 0.18304405 0.429016
0.3556668 -0.2748539 -0.24368152 -0.23645003 -0.11440819 -0.64300966 -0.28439656 0.5074941
-0.12662134 -0.32897273 0.16560344 -0.4864674 -0.12424568 0.8887985 -0.05808464 -0.43387514
0.2263154 0.7354874 0.3076241 0.30547038 -0.10874354 0.48668018 -0.21229585 -0.40759766
-0.12063892 -0.34655076 0.28471237 0.24968219 0.6738528 -0.17577618 0.27858663 -0.46396786
-0.56060845 0.43140668 0.34261638 -0.248991 -0.18512504 -0.30442563 0.04358985 0.5182418
0.08001276 -0.492427 -0.02913104 0.6012711 0.16290851 -0.5314223 -0.046878744 0.8978197

linears.0.bias f4 [32]
00000000: a5c5 483c 7789 be3c 24dc 963c e81a ff3b
00000010: 956b 0d3c b3cc e8bb 72b1 433b d536 1abd
00000020: 3f24 24bb 2ccc debc b5a9 62ba d62f a5bd
00000030: cd10 2a3d 89e7 f0bc 60f4 413c 181f 36bc
00000040: dced 2ebb 9635 223b a2e4 b73c 3153 a7bc
00000050: feb9 4c3c 4233 9bbc fbca e63d 0339 0e3d
00000060: b384 95bd 26af 383d 70ac 25bc 8907 153c
00000070: 2826 d53c 68fa 1b3c 800e 0bbe 7ea1 3a3c
0.012254153 0.023258908 0.018415518 0.00778519 0.008631607 -0.00710448 0.0029860404 -0.03764995
-0.0025046018 -0.027196966 -0.0008646504 -0.080657646 0.04151993 -0.02940728 0.011838049 -0.011115812
-0.0026692068 0.0024751178 0.022447888 -0.020425411 0.012495516 -0.01894534 0.11269184 0.03472234
-0.07300701 0.04508891 -0.010111913 0.009096035 0.02601917 0.009520151 -0.1357975 0.011391042

linears.1.weight f4 [64, 32]
00000000: c5fd e53c ab2a 8bbe 14ee 51be ea8f 59be
00000010: e577 6d3e c18c 76bd 6423 6dbd e332 8c3e
00000020: 92ab 2d3e 2bb0 9d3e 95be 673d d808 a83e
00000030: fd26 6fbe 1513 fdbe 635d 043d 2e2b 51be
00000040: 4a9b aa3e e380 bb3c a79b 89bb adf3 023d
00000050: b1d6 c4be ae9d 12bd 35d0 ccbd 67d3 3f3e
00000060: c9eb b43d fc68 293e aee5 92be cc65 4dbd
00000070: 5237 d23d 3474 363e b069 b2bd 24c6 2e3e
00000080: e903 083d aa8a b63d b714 d2bd d075 073e
00000090: 9867 d7bd 120e 1bbe 6a7e 693e 76d2 a33e
000000a0: f42b ca3e 63d5 603e bce4 0cbe cfe7 6fbd
000000b0: 8de3 8bbd afd6 0c3e 6d83 0a3e 3182 98bd
000000c0: d99e 703e d8da 31be a6fc 62be e75d 8ebd
000000d0: 3535 eabc 0a95 ab3e 412c a8bd c65f 09be
000000e0: b8b6 9e3d 4ec3 f3bc a96b 913d 6418 35bd
000000f0: 5b51 bdbc e5f0 09bc c693 a23e b0de 823e
00000100: 178f a6bd 94f1 da3d 24a1 3b3e ff0c ae3b
00000110: c08e 303d b6a5 d7bc 4055 2cbd 8a03 51be
00000120: 5779 c6bd 9d10 97be 994c 46be d937 84bc
00000130: 53be 9d3e 64bc bdbb 77db cdbb f216 7abe
00000140: 1f4b 7dbd 798f 823e 4145 d9bd 07e3 94bd
00000150: 362d 1bbe 131d 59be 0ae2 103e ab09 9abd
00000160: 122b 34bd d5a5 cd3c cf28 6b3d ddc8 eabd
00000170: 6224 97bd 3287 813e e041 04be 5f63 80be
00000180: 06a0 063b 79f6 4f3e 038f 153e 6f03 87bd
00000190: d75b 93be 262b 18be 0bfa a5bc a281 adbd
000001a0: bbfe 8d3e ba8d 5cbe aef8 943d dffc 5dbd
000001b0: 571d df3c 9a96 423e 02ea a53d e561 c8be
000001c0: 98c7 6abd a981 92bd aa75 8a3c b808 aabd
000001d0: 08cb a1bd 1133 163e fedb 983e 0fe4 ca3d
000001e0: fa6d 47be 205a 983e ae5a bfbd 12ef c5bd
000001f0: 900d 7c3d 9ea6 c9bd e3c9 75be 1b5e 6dbd
00000200: 3425 f63c db4f 083d d149 9ebd 699c 9ebd
00000210: c512 853d 6f9f 14be 77e9 193e 70f2 3b3d
00000220: 8b7d f7bc e310 4abe b30d babe ae76 2abe
00000230: e3b1 22be d66e 4ebe 39d9 d63e b907 e1ba
00000240: ab4d 0e3e 8511 803e 5c55 1fbd 2830 953e
00000250: b6ef 1ebe 734c 0b3d d65c 79be ea39 bc3c
00000260: 9602 05bd 837e f63c 1fbd 29be e477 403e
00000270: acbd e03c c94e 8a3d d58b 57bd b3c6 773e
00000280: 6d06 a63c a8e9 58be c87c 85be 3c63 47be
00000290: e331 f83e fd96 b1be 506a 0fbd 3534 5abd
000002a0: 4154 40bc 68c6 a0bd e764 3ebd 8b87 313e
000002b0: fbcd 0dbe 9460 4d3e 73c7 863e 2a3b cebc
000002c0: 2f77 bebe ae71 c83c 2c4a 1a3e 40be 953e
000002d0: 2b69 153d 016a 82be 12c0 4ebe 481c 22be
000002e0: 7de4 893e 6c22 8339 4bd6 b73e 0699 5d3d
000002f0: d53b 1ebe 3c0d 953e 4c84 9fbe be8b 243e
00000300: 275b 2bbe 1571 0e3e 8ce1 863e 7813 413e
00000310: 2123 68be 5375 393e 9731 55bd 049b 81be
00000320: e8f3 b73e 2bdf b5be 6b31 253e c225 be3c
00000330: 6561 06be 46e2 14be a3c3 8fbd 2763 7cbe
00000340: 7add b83d 3b3b 10be 3665 a1bd 61d8 fc3d
00000350: b9d2 293e f24d 2bbe 69fa 6e3e 477a 06bd
00000360: 7cd4 70bd 1923 5ebd b665 1f3e 2a8a eebd
00000370: 38fe babd f828 01bf 60fd 3fbd 929f 27be
00000380: 0a0c 953d 130d 15be 6023 053e 23d9 46bc
00000390: 27d6 6a3e b6f3 81be ca2b 203e 063a 5e3e
000003a0: 64b0 59be 0be1 b73e ec93 ca3d a5e1 4abd
000003b0: ff0a 56be f60f db3d 14db 233e 3171 cebb
000003c0: 8fb8 a73d d325 a0bd 924e 783e 4c10 0cbe
000003d0: b71c c4bd ea1e 07be d8aa 883e 66fb 88bd
000003e0: 070d b4bc 6a6e 5c3d f8a5 55be f822 83bd
000003f0: d7d5 8c3c ba25 b23e 9998 b7be 3cc9 c93e
0.028075108 -0.2718099 -0.20500976 -0.21246305 0.23190267 -0.060192827 -0.05789508 0.27382573
0.1695998 0.30798468 0.056578238 0.32819247 -0.23354717 -0.4942862 0.032315623 -0.20426628
0.333216 0.022888606 -0.0041994634 0.03197067 -0.38445047 -0.035794906 -0.1000065 0.18732987
0.08834035 0.16543955 -0.28690857 -0.05014591 0.10264458 0.17817765 -0.087115645 0.17067772
0.033206854 0.08913167 -0.10257857 0.13228536 -0.10517806 -0.15142086 0.2280213 0.31996506
0.3948666 0.219564 -0.1375913 -0.05857068 -0.06830511 0.1375377 0.13526697 -0.07446707
0.23498096 -0.17368639 -0.2216669 -0.06951504 -0.028589824 0.33512145 -0.08211566 -0.13415441
0.077496946 -0.029756214 0.07100613 -0.044212714 -0.023110082 -0.00841925 0.31753367 0.25560522
-0.08132761 0.106906086 0.18323189 0.005311608 0.043104887 -0.026324134 -0.04207349 -0.20411506
-0.096911125 -0.29504862 -0.19365157 -0.016139911 0.30809268 -0.00579028 -0.0062822658 -0.24422815
-0.06183922 0.25500086 -0.10608912 -0.072698645 -0.15153965 -0.21202497 0.14148727 -0.07521375
-0.043986388 0.025103489 0.057411965 -0.11464093 -0.07379986 0.25298458 -0.12915754 -0.25075814
0.0020542159 0.20308866 0.14605336 -0.06592452 -0.28781006 -0.1486021 -0.020260831 -0.08471991
0.27733406 -0.2153844 0.072739944 -0.054196235 0.02723567 0.19002762 0.08101274 -0.39137188
-0.057319254 -0.07153637 0.01690181 -0.08302444 -0.07900053 0.14667918 0.2985534 0.0990678
-0.19475546 0.2975626 -0.09343468 -0.0966474 0.06153637 -0.09846233 -0.24002795 -0.057951074
0.030047037 0.03327928 -0.07728923 -0.077446766 0.06497721 -0.14513944 0.15030466 0.045885503
-0.03021123 -0.19733004 -0.36338577 -0.16646835 -0.15888171 -0.20159468 0.41962603 -0.0017168439
0.13896815 0.25013366 -0.038899764 0.29138303 -0.1552113 0.034008455 -0.2435182 0.022976834
-0.03247317 0.030089622 -0.1657605 0.18795735 0.027434193 0.06753308 -0.05262359 0.24196891
0.020266736 -0.21182883 -0.26071763 -0.19471449 0.4847556 -0.34685507 -0.035013497 -0.053272445
-0.011738838 -0.07850343 -0.046482947 0.17336862 -0.13848107 0.20056373 0.26324043 -0.025174696
-0.37200305 0.02446827 0.15067357 0.29246712 0.03647725 -0.254715 -0.20190457 -0.15831101
0.26932135 0.00025011913 0.3590568 0.054101013 -0.15452512 0.2911166 -0.31155622 0.16068932
-0.1673399 0.13910325 0.26343954 0.18855083 -0.2266965 0.18111162 -0.052049246 -0.2531358
0.35928273 -0.35521826 0.16132133 0.023211364 -0.1312309 -0.14539441 -0.070197366 -0.24647199
0.09026618 -0.14085095 -0.078806326 0.123459585 0.1658429 -0.16728953 0.23337711 -0.032831457
-0.05879639 -0.05423269 0.15566143 -0.116474465 -0.0913052 -0.5045314 -0.046872497 -0.16369465
0.07277687 -0.14555769 0.13001776 -0.01213673 0.22933255 -0.2538125 0.15641704 0.21701822
-0.21258694 0.35913882 0.09891495 -0.049531598 -0.20902632 0.10696404 0.1600154 -0.0063001146
0.08189499 -0.078197144 0.24248722 -0.13678092 -0.095757894 -0.13195387 0.26692843 -0.066885754
-0.021978868 0.053816237 -0.20864093 -0.06403154 0.01719181 0.34794408 -0.3585861 0.39411342

linears.1.bias f4 [64]
00000000: c626 b3bc b22e e9bc ddaa 8a3d 883d 7d3d
00000010: 25ad 673c 4b14 313b c2f7 a1b9 8641 9d3d
00000020: cc58 90ba bd81 cf3c ed76 b6bc a93e 363d
00000030: babc 4fbc 7666 c1bc 4245 b0bc 411d 953c
00000040: 6b37 72bb 9fd4 ceba ec65 11bc 4233 173d
00000050: d9e0 3dbc 5dec df3b 1ced 2c3c b708 d33a
00000060: b68a 66bc 8ab4 80bb 8251 64bc 766e 423c
00000070: 8b69 923d 734f 51bc 3e4a ccbc 4df5 cbbc
00000080: c864 aebc 77d0 b43d 3ef5 04bc b551 ddb9
00000090: 6ae5 e93c 487d 9abc 4b53 f73b 80f6 a03c
000000a0: a6fb 563c 14e8 39bc 065a f6bc 30ee c6bb
000000b0: 6ccd 223e bc68 c4bb 6d8f 903c 1e7e 513c
000000c0: 0b52 0cbd 94ee 583d 1382 01be 5881 41bc
000000d0: 6ce0 02ba dae0 113d b0e4 863c 9706 943c
000000e0: f007 dbbc 250c 05bc 973a f4bb 2b62 ac3c
000000f0: 121a 8abb 919e 0bbc 5c20 babb a625 a7bc
-0.021869075 -0.028464649 0.06770871 0.06182626 0.014140402 0.0027020152 -0.00030892907 0.07678513
-0.0011012792 0.025330419 -0.022273505 0.04449335 -0.012679273 -0.023608427 -0.0215174 0.018202426
-0.0036959301 -0.0015779919 -0.008874398 0.036914118 -0.011589252 0.0068335966 0.010554578 0.001610062
-0.014071157 -0.003927772 -0.013935449 0.011867156 0.07149037 -0.01277529 -0.024937745 -0.024897242
-0.02128829 0.08828824 -0.008115111 -0.0004221328 0.028551776 -0.018858567 0.007547771 0.01964879
0.013121521 -0.011346836 -0.030072223 -0.0060708746 0.15898675 -0.0059939306 0.017646516 0.012786416
-0.03425793 0.0529619 -0.12647276 -0.011810623 -0.0004992548 0.035614826 0.016466469 0.018069549
-0.026737183 -0.008120571 -0.0074532735 0.021042904 -0.0042145336 -0.008521692 -0.005680127 -0.020403694

linears.2.weight f4 [64, 64]
00000000: d5d0 23be d763 d53c 2dc7 28bd 1a4f eb3d
00000010: 47a8 1bbe b8de 243d 975a 843d 990b a73d
00000020: 21e0 06bb e5c3 2c3d a27e 4dbc ffa8 143e
00000030: a877 003d 8a4d 1f3e 44c0 5fbd 8302 b63d
00000040: 605c b93c ee99 833c 2f2e a93e 2b25 493d
00000050: 107b 7f3e 96b4 cabc 5d31 103d a5fe d2bd
00000060: 65ad 0f3e f37b 213e 348a 90bd c93a d8bd
00000070: 35af 5ebd ffe5 45be 9375 773c bdea ed3c
00000080: 94e2 6b3e 2d77 b83d 02f0 6a3e 36d4 fcbd
00000090: 6ce6 1ebd c2ff e23d 0b5e 4cbd 6268 0bbe
000000a0: 3eeb 8e3c e6ad 573e b0e4 c0bc 3d91 78bb
000000b0: 830b 863c ca2b 95bc d995 ab3d 19ee c1bd
000000c0: 0b2b 92be 47ca 81be ff38 45be 70a6 6abd
000000d0: 362e 84be 6ecd 33be e804 80be 2fdf 003e
000000e0: 8395 6cbd 9fb2 853d e6b4 5f3d 64e1 683e
000000f0: 8af5 38bd d28f 283e 8b1a 3abe 1be4 09be
00000100: cef0 71be 59ff 2abd 2666 a03d e3ed acbd
00000110: 542d 90ba ea50 93bd 585d 2cbd 015e 983e
00000120: d366 333d b9d7 44be 026a f1bd 11ec 1a3d
00000130: 8e6b 0ebe 7408 4bbe f0a2 823c 9b76 ef3c
00000140: 9f00 473e 2241 59bd fa2d 39be 1064 903e
00000150: becf 16be f068 c13d 0c24 883d a37d 0e3e
00000160: 2b20 14be 0518 e3bd 64ed 893d bba6 73be
00000170: 0f9b 58bd 777e 553e e512 98bd 6b58 d33d
00000180: 2488 76be 1da6 10be 45f1 66be 6de4 393d
00000190: 7c73 a4be 7c34 42be 09e4 0b3c 4a19 283e
000001a0: e90c 06be 7b88 4b3d 9679 e93d 1982 873d
000001b0: 7984 ebbb 4845 113e 73fa 823a 0c1d a93d
000001c0: 646a 343e 08ad b23d 7e4e bbbd 9c6b eebd
000001d0: dd43 183d cc9e 31bd 4413 edbc b38e 593e
000001e0: 9ad2 2e3e cd3d f03d 75f0 b73b bb4d 213d
000001f0: 9b8f 99bc 44d1 aabd 3ba3 56be 707d edba
00000200: fef6 ecbd c72a 66be fe64 72be f62e 753d
00000210: ad91 52be 0abf 223e 4a9f 413b 3a44 9abc
00000220: f618 b23d d721 b9bd f939 5cbe e425 3cbe
00000230: 60ed 46bd 8831 edbd fd01 a23e 836c c2bd
00000240: 524c b8be 6b74 58bd 3552 7c3d a4b0 b53d
00000250: b73b 5ebe e6ac a93d 6d57 63bd 9b04 123e
00000260: 73c1 b23d 2a88 7bbc b986 0c3e c5d2 323e
00000270: 5181 043e 1a6a 253e f617 efbd a334 2b3e
00000280: bfb2 f1bd 2930 313e 9b52 863d f30e 13be
00000290: 54f8 08be 5892 623d 0d46 96bd f37c 933d
000002a0: f4fc 80bc eff2 e1bd 89fc f13d 85df 99bc
000002b0: 5d29 993d ecba b33d 941d 463d b6ce abbd
000002c0: 8620 28bc ccea 1f3e ad04 fdbd ab54 dc3d
000002d0: c983 05be 81ca 093e 4069 f9bd 4cc4 413d
000002e0: ca8f 36bd 0969 733c c048 82be 2dec bdbd
000002f0: 6018 fe3d 5f05 93bd 5571 603d e943 edbd
00000300: 95f0 9fbd dc26 423e 15a8 5d3e ac67 aabe
00000310: 4732 efbd cc23 3dbe 277a 18be 81aa 48be
00000320: 79d1 22be c271 3c3d 044d be3b 6e1c 0bbc
00000330: 77af 773c ebdd 693e 2ea0 9fbd b758 7bbd
00000340: 8ed8 fc3e 6485 963d 620b b43e 4e18 753d
00000350: 6101 883c 5123 14be 3b17 34be 7922 3cbd
00000360: 1ea2 9f3d 0a52 87bb 449f 2d3d daec 36be
00000370: d5d8 e13d 5d54 afbd 768a 593e 029c 873e
00000380: 3a5c ab3d 4a15 09be 86ff 953d dfe6 01bd
00000390: 8ab2 76bd dca0 31be 8ba0 4c3c f840 41be
000003a0: 877b ea3d 8aef 9d3d 5d4d ee3d 9bd6 d8bd
000003b0: 22bc f7bd da40 4a3d e735 96bd 32ea c2bd
000003c0: 067c b0bd cdd5 9abd 15a1 1ebe ef52 263d
000003d0: 5ca0 b3bb a138 32be 3c44 c63c 8d79 babd
000003e0: 477b f83d 3524 4cbe 0f8d 523e 0d1b 5c3d
000003f0: d390 423e f0e7 973e b895 1dbd cc06 f83d
-0.15997632 0.026048584 -0.041205574 0.11489697 -0.15200911 0.040251464 0.06462591 0.08156509
-0.0020580369 0.042179007 -0.012542399 0.14517592 0.031364113 0.15556923 -0.05462672 0.08887198
0.022627056 0.01606461 0.33043048 0.04910771 0.24949288 -0.024744313 0.035203326 -0.10302476
0.14030989 0.15769939 -0.0705761 -0.105580874 -0.05436631 -0.19326018 0.0151037155 0.029042596
0.23035651 0.09007106 0.22943118 -0.123451635 -0.038793966 0.11083938 -0.049894374 -0.13614038
0.017446157 0.2106243 -0.023546547 -0.0037928366 0.016362911 -0.018209357 0.083781905 -0.09469242
-0.28548464 -0.25349638 -0.19260024 -0.057287633 -0.25816506 -0.17558834 -0.25003743 0.12585138
-0.057759773 0.0652821 0.054615878 0.2274223 -0.04515604 0.16461113 -0.18174188 -0.13465922
-0.23627016 -0.041747425 0.07831983 -0.08443811 -0.0010999837 -0.071931675 -0.042081207 0.2975922
0.043799233 -0.19222917 -0.117877975 0.037822787 -0.13908216 -0.19827443 0.015946835 0.02923136
0.1943383 -0.05304063 -0.18083945 0.28201342 -0.14727685 0.09443843 0.066475004 0.13915114
-0.14465396 -0.11088566 0.06734732 -0.23794071 -0.05288225 0.20849024 -0.07425479 0.10319599
-0.24075371 -0.14125867 -0.22552975 0.04538386 -0.32119358 -0.18965334 0.008538255 0.16415897
-0.13090862 0.049690705 0.11400144 0.06616611 -0.007187423 0.14186585 0.0009992853 0.082574934
0.1761871 0.08724409 -0.091458306 -0.116416186 0.037174094 -0.04336433 -0.02893985 0.21245842
0.17072526 0.117305376 0.0056133815 0.03938077 -0.018745234 -0.083406955 -0.20960705 -0.0018119048
-0.115705475 -0.22477256 -0.23671338 0.05985924 -0.20563383 0.15893188 0.0029544407 -0.018831361
0.08696167 -0.090396576 -0.2150649 -0.18373829 -0.048566222 -0.11581713 0.31642142 -0.09493353
-0.35995728 -0.0528454 0.061601836 0.08871582 -0.21702467 0.08284931 -0.055503298 0.1425957
0.08728304 -0.015352288 0.13723268 0.17463215 0.12939955 0.16153756 -0.11674492 0.16719298
-0.11801671 0.17303528 0.065587245 -0.14361171 -0.1337598 0.055315346 -0.0733758 0.072015665
-0.015745617 -0.11032664 0.118157454 -0.01878334 0.074785925 0.08775887 0.04836805 -0.08389036
-0.01026166 0.15616912 -0.123544075 0.10758337 -0.13038553 0.13456155 -0.12178278 0.047306344
-0.04457072 0.014856585 -0.2544613 -0.092735626 0.12406993 -0.07178759 0.05479558 -0.115852185
-0.07809559 0.18960136 0.2164615 -0.3328222 -0.116795115 -0.18470687 -0.14890347 -0.19596292
-0.1590022 0.046006925 0.005807521 -0.008490665 0.015117518 0.22838561 -0.07794224 -0.061363902
0.49383968 0.07349661 0.35164934 0.059837632 0.01660222 -0.14466597 -0.17586987 -0.045931313
0.07794593 -0.004129653 0.042388216 -0.17863789 0.110276856 -0.08561013 0.21244225 0.26486212
0.083672 -0.13387027 0.07324128 -0.031714316 -0.060228862 -0.17346519 0.012489448 -0.1887244
0.11449342 0.07711704 0.116358496 -0.10587808 -0.1209643 0.049378254 -0.073345 -0.095173255
-0.086174056 -0.075603105 -0.15491135 0.040606435 -0.005481763 -0.17404415 0.024202459 -0.09105215
0.12132888 -0.19935687 0.20561622 0.053736735 0.19000559 0.29669142 -0.03847286 0.121106714

linears.2.bias f4 [64]
00000000: 1b59 af3c d963 193c 9fbb 993c 324b 3cbd
00000010: 902d bb3d 476c 33bd 7838 b7bd 974e 71ba
00000020: 4be2 babc f310 9f3c 8f84 303b 57ca 71bc
00000030: 3430 dabc 2891 063d fec8 b53d 412e d93c
00000040: 9747 d1bc e048 eabc 1449 52bd a6c6 323b
00000050: c491 053d c18d 91bc 8ade 14bd d4af 063c
00000060: 7e0e 2f3c b7b5 1d3d 7280 96bc fb05 113c
00000070: e5ae 103b f323 3a3d eebd 883c f9e5 5dba
00000080: 7269 97bc 0019 19bd 227b 453c 8af7 19bc
00000090: dd46 9bbb c08e fcbb 5a2d 003b 6eb2 b0bc
000000a0: 2574 c0bc 0b01 c9bb 3100 633c c58e 723d
000000b0: cd19 bcbd ad7a b8bc 8950 b23c 840d 3abc
000000c0: c2ac 4c3c 5e3c 3a3d 0015 afbc 125f 893d
000000d0: dfa1 acbc a4ed 9f3c b111 9b3d b94b 6d3d
000000e0: 3d67 733d 8aa2 623c e320 f0bc d970 58bc
000000f0: 8dea 323d 1f76 013d 1c2d 003d 60f0 143c
0.021404793 0.009362184 0.018766223 -0.04597015 0.0913955 -0.043804433 -0.089463174 -0.0009205131
-0.022812983 0.019417262 0.002693448 -0.014757714 -0.026634313 0.032853276 0.08876227 0.026511313
-0.025546832 -0.028599203 -0.051339224 0.0027279048 0.032609716 -0.017767789 -0.036345042 0.008220632
0.010684608 0.038503375 -0.018371794 0.0088515235 0.0022076902 0.04544444 0.016692128 -0.00084647496
-0.018482897 -0.037377357 0.012053283 -0.009397397 -0.004738672 -0.007707447 0.0019558282 -0.021569457
-0.023492882 -0.0061341575 0.013855026 0.059218187 -0.091846086 -0.022519434 0.021766918 -0.011355761
0.012492361 0.045467727 -0.021372318 0.06707586 -0.02107328 0.019522496 0.07571734 0.057933543
0.059424628 0.013832698 -0.029312557 -0.013210499 0.043680716 0.03160679 0.03129302 0.009090513

linears.3.weight f4 [32, 64]
00000000: f3ca d2be 8380 9fbd 11ad 1dbe d15f 7e3e
00000010: 89e1 8d3d 752a 053e 288a 7d3e d4d2 5e3d
00000020: e3c3 ae3e 7a58 89bd a212 f93c b267 bb3d
00000030: f29c ef3d 86a3 98be 9a78 92be ed1b bd3b
00000040: 62fe 983d 0e43 463e e83a 03be 6973 5cbc
00000050: 7cb7 b43c 3e04 0e3e 572c 8a3e ccef 3e3d
00000060: e2ec 23be 8643 af3d 12c7 1bbe a433 81be
00000070: c03d 1abd 2855 013e 72d8 213d 131c 003e
00000080: a644 a8bd 6da7 0f3d fc81 253e dda9 d33d
00000090: 13a4 e4bc 7bc8 993d 8505 3f3e 5b0b d6bd
000000a0: a0c8 0b3e 338f 4abd b175 57bd 9141 523e
000000b0: 322f f3bb a8eb d7bd f629 8abe 13ea 54be
000000c0: 9144 043e 998f 003e ff3d d73d 73dc 433e
000000d0: 207b ba3d a7e2 7c3e 9e38 b7be 6101 ef3d
000000e0: 7bdf a0bd 488f 09bc 0b98 823e 38c8 463e
000000f0: f8c4 13be b870 433d a0d9 9a3d 3851 2fbe
00000100: aa25 c63e 7e74 233e fb33 1b3e f51a 613d
00000110: ce18 b83e 25db d5be d7a4 76be 9ac4 f03d
00000120: 6a69 e83d 5c06 233c ef5c 133e 1516 0e3f
00000130: aa6a 22be 2d1a 60be 9295 6d3e a777 003d
00000140: bf0c 193e 6803 903c 4b3c 223d 41c1 963e
00000150: ca3f 8e3e b1bc 5a3e f4e8 c03e 805f 90be
00000160: 71c9 e9bd 476d 9e3d 8f85 e93d 6587 edbe
00000170: 1d0a 1fbd 416b 80bd 3404 81be 63c3 a3be
00000180: bd35 6b3e 9f74 d8bd 368e da3d cb8c 2dbe
00000190: 8322 013f 0054 0b3f 9dda 1fbd b2e6 8e3e
000001a0: dacb d13d c6b9 b0be 47b7 a0be f5eb 5fbe
000001b0: aba6 e53d 2da6 ac3e cf92 1d3d bd2e 953e
000001c0: bf61 4ebd f563 85bd 53dd a03e 391b 90be
000001d0: bfe6 a53d 9708 d13d 2c35 103e 9eb8 68bd
000001e0: 42e8 bf3d 94ff b8bd 61b7 14bf ecd0 7b3e
000001f0: 14bb 10be 39c5 a6be f3cf c23e 78fc b53e
00000200: db56 683e 9138 67be d035 373e ab00 793d
00000210: 5839 683d 2dc7 9f3e 8827 a2bd e8e0 f2bd
00000220: cb36 71be 715f cfbd 8a52 92be 2ed6 e4ba
00000230: 9629 8abc 15b5 2dbe 8308 88bd 0377 55be
00000240: 394a 353e d537 173e e354 643e 2934 a23c
00000250: 93f7 d1bd bef8 1a3e fd96 943d 44c0 233e
00000260: 2844 e0bd f510 12be 86ae 1b3d 1bec 5abc
00000270: 74ac 0dbe 4dd3 41be 71ae 933d 7996 cb3c
00000280: 17d2 553e aa38 18bd f771 b43e d9eb 323e
00000290: 69c8 4c3c 3bd0 15be 69b5 143d e051 4b3e
000002a0: b228 98be 4af2 5dbe ee82 193e 79e5 cfbe
000002b0: 4246 63bd d6e3 693e 70ac c8be 06ed 29be
000002c0: 31f7 803e 4d79 f23d 9748 1f3d 7543 1abd
000002d0: 77b9 5d3e bcc1 333d bd52 a9be 829e e43c
000002e0: 1f3c a53c be92 1fbe 542c cf3c af5f 163e
000002f0: 90e8 2abe 38b3 ab3e be48 c0bd 0156 333e
00000300: d113 8cbe 98dc 653e cb89 ee3d 4399 9bbd
00000310: b0f5 a23d ef54 64be a387 813e 51d6 d53d
00000320: d62a 2f3d 4b23 cdbe 9086 b5bd fe85 f7bd
00000330: 125e 8b3c b31f f63d 3486 143c 0eec 3dbe
00000340: 1e75 0e3e 480f eabd 3dd6 443e 1b79 7b3e
00000350: 54f3 1fbe b251 a8bd ad67 a53e ccdd 9fbd
00000360: 7cf9 2cbe f5b7 87bd bb66 0a3e 51bf 003e
00000370: 014d 303c 4179 f6bd 44c4 1fbe 7469 bd3d
00000380: d4eb 743d ee0b 873e 2b07 8b3d 8a82 a4be
00000390: 1572 053c bd90 3ebe e4fe c93d 9a2f 34bc
000003a0: 56dd c53d 6029 19be 773f a5bd 7dad e2bd
000003b0: e55a 83be 3f5c a33e 3941 41be 093e fa3d
000003c0: f911 d9bd 1feb 5dbe 6570 303e f66b 13be
000003d0: 9f07 6b3e a7da c9bd 7f49 51be 2576 15be
000003e0: 7b52 583e 31e1 123e e30c bc3e c578 a4bd
000003f0: 5a40 263c b100 283d b0a0 29bd b1a1 4c3d
-0.41170463 -0.077881835 -0.15398051 0.24841239 0.06927783 0.13004477 0.24759734 0.05440028
0.34133825 -0.06706329 0.030404393 0.09150638 0.11699857 -0.29812258 -0.28607637 0.0057711513
0.07470395 0.19361517 -0.1281544 -0.01345525 0.022060148 0.13868806 0.26986954 0.046615407
-0.16008332 0.08557801 -0.15212658 -0.2523471 -0.037656546 0.12630141 0.03951306 0.1251071
-0.08216219 0.03507178 0.16162866 0.10335133 -0.027910268 0.07508942 0.1865445 -0.10451385
0.13650751 -0.04945297 -0.052602474 0.20532824 -0.0074213976 -0.10542995 -0.2698514 -0.20792417
0.12916781 0.12554778 0.10509872 0.19127063 0.091055155 0.24695836 -0.35785383 0.11670185
-0.078551255 -0.008395977 0.25506625 0.19412315 -0.14430606 0.04771492 0.0756104 -0.17120826
0.3870061 0.15962407 0.15156548 0.05495735 0.35956424 -0.41768757 -0.24086319 0.11756249
0.11348231 0.009950247 0.1439092 0.55502445 -0.15861002 -0.21884985 0.23201588 0.03136411
0.14946268 0.01757975 0.03960828 0.29444316 0.27783042 0.21361043 0.3767773 -0.2819786
-0.11415375 0.07735687 0.114024274 -0.4639236 -0.038828004 -0.06270457 -0.2519852 -0.31985006
0.22969718 -0.10569119 0.10671656 -0.1694824 0.50443286 0.5442505 -0.039026845 0.27910382
0.1024396 -0.34516734 -0.3138983 -0.21867354 0.1121343 0.33720532 0.038470086 0.2913722
-0.050386187 -0.06513206 0.31418857 -0.2814577 0.08100652 0.102067165 0.14082783 -0.05681669
0.093704715 -0.09033123 -0.58092314 0.24591416 -0.14133865 -0.32572344 0.38049278 0.3554418
0.22689383 -0.22580172 0.17891622 0.060791653 0.056695312 0.31206647 -0.07917696 -0.11859304
-0.23556058 -0.10125626 -0.28578597 -0.001745885 -0.016865533 -0.16963609 -0.066422485 -0.2084618
0.17704095 0.14767392 0.22298007 0.019800263 -0.10252299 0.1513395 0.07255361 0.15991312
-0.109505 -0.14264281 0.038008235 -0.013361956 -0.13835317 -0.18928261 0.072110064 0.024852024
0.20880924 -0.037163414 0.35243198 0.17472781 0.012498953 -0.14630215 0.03630582 0.19855452
-0.29718548 -0.21674457 0.14991352 -0.4060476 -0.055486925 0.22840819 -0.3919406 -0.16594324
0.25188592 0.118395425 0.038887586 -0.03766199 0.2165278 0.04388593 -0.33070937 0.027907614
0.02017027 -0.15583321 0.025289692 0.14684938 -0.16690278 0.3353517 -0.093888745 0.17513277
-0.2735887 0.22447431 0.11647376 -0.07597592 0.079570174 -0.22298025 0.25298795 0.10441268
0.04276546 -0.4006599 -0.088635564 -0.12086104 0.01701263 0.12017765 0.0090652 -0.18547079
0.13911864 -0.11428696 0.1922235 0.24557917 -0.15620166 -0.08218707 0.3230566 -0.07805976
-0.16892046 -0.06626884 0.13515751 0.12572981 0.010760547 -0.12034846 -0.15602213 0.09248629
0.059795216 0.2637629 0.067884766 -0.32130843 0.008144875 -0.18609901 0.0986307 -0.010997677
0.09661357 -0.1495719 -0.080687456 -0.110682465 -0.25655285 0.31906316 -0.18872537 0.122188635
-0.10599131 -0.21671723 0.17230375 -0.14396653 0.22952126 -0.09856158 -0.20438193 -0.1459585
0.21125214 0.14343716 0.36728582 -0.080308475 0.010147179 0.041016284 -0.04141301 0.04995889

linears.3.bias f4 [32]
00000000: 5f92 1dbd c409 643d a5c2 7ebc 1e5b 22bd
00000010: 731e 34bd 9035 d3bd e9f5 453d dcda 583d
00000020: eb71 813a 7b00 b63c 5d84 79bd 0500 5bbd
00000030: ec8b eabd 409a 873a 7cd0 4abc 4875 c13c
00000040: 08b4 beb8 4c8f b9bc 6a2d 773d f515 35bb
00000050: 194d d9bc 787e 04bd 1b78 41bd 1844 583d
00000060: 5d9b a63b 4991 8fbd f2e4 78bd 8110 80bd
00000070: 5871 82bd ded5 0abd fdac 42bc 46f8 8b3b
-0.03846967 0.055673376 -0.015549337 -0.039637677 -0.04397435 -0.103129506 0.04833022 0.052943096
0.0009875869 0.022217026 -0.060917247 -0.053466816 -0.11452469 0.0010345653 -0.012378808 0.023615494
-9.0934394e-05 -0.022651337 0.060346045 -0.0027631496 -0.02652602 -0.032347172 -0.047233682 0.052799314
0.0050844387 -0.07010133 -0.060765214 -0.06253148 -0.06369275 -0.033895366 -0.011882064 0.00427154

linears.4.weight f4 [4, 32]
00000000: 5c2e 603e a5a5 23be f852 09be 8f83 103e
00000010: e9e7 40bd b3b1 85bb bfe6 cdbb 05f6 233e
00000020: a7e7 c0be 3230 e73e 99c5 6e3c 46c8 a03d
00000030: 3072 873b 5c9e 853e 102b 5cbf ecd9 493e
00000040: 34ae c83e dcd2 cb3e 85cd 323d ba3b 513e
00000050: 505f e9bd d1a3 95bd 89f2 6f3e ffe5 efbd
00000060: 5ac3 eabe 0c3a 87bd 5033 b93c 1127 333e
00000070: ccb2 243e b30b a23e 8c0b 25bf d7eb 2b3d
00000080: 2493 3fbe ec22 863e 92f5 63bf 9264 edbe
00000090: 4e43 45bf 855d 68bf b534 f93e b66e 423f
000000a0: acf8 a03e 922b 143e e5c4 02bf a402 a6be
000000b0: 7722 26bf d818 933e 0353 2cbf f9f6 653f
000000c0: 8a76 c93e 2606 6ebe ce71 713f 4c7a 953e
000000d0: 73af 46bf 44fa 2dbf 7519 4bbf 0f19 0b3f
000000e0: b393 45bd 3a71 37bf 0d76 d7be 1828 64bf
000000f0: 96e8 183f dc68 0cbe 0945 f2be 2c1f 8fbe
00000100: 1d3f 183f e4cf c83e 1a69 c2be af7e 2fbf
00000110: e93a 203d 8751 463e b7ac 243f 6c20 72be
00000120: a240 d9bd 0136 813e a6d9 d0be 3b69 cabe
00000130: bdf2 0f3d 38ed 9e3e a030 8f3e 7abf c8bc
00000140: 23da 83bc 6f5b 173f 5963 8bbe 5fbe ae3c
00000150: a24f 643e daeb 06bf c146 06bf 657e 2d3d
00000160: d9f0 2c3f 0749 f0be c110 3cbe a9f1 d0be
00000170: 6727 febd 026e b33e e2de 60be 2182 833e
00000180: 7500 1ebf c818 4c3f 5ca8 5cbf 35c0 01bf
00000190: aef2 29bf 6d1e 61bf 23a3 983f a82f 283f
000001a0: c638 5f3f cc2b 3f3f 5fdf 95bf 52cc 55bf
000001b0: 3a78 29bf be06 3d3e beae 1ebf 850c 903f
000001c0: e8b7 a73e e30c 88be 2426 353f 4242 01bf
000001d0: 551c 81bf a1a7 87bf ba7c 51bf 744e 293e
000001e0: 213f 77bf 0bd6 aebf 39a5 78bf 5188 56bf
000001f0: 9681 8d3f 2c8e 9fbe 2237 5fbe 3623 453f
0.21892685 -0.15981157 -0.13410556 0.14112686 -0.047096167 -0.0040800213 -0.0062836106 0.16011818
-0.37676737 0.45153958 0.014573478 0.07850699 0.0041334853 0.2609738 -0.8600321 0.19712037
0.39195406 0.3980931 0.04365303 0.2043294 -0.113951325 -0.07306636 0.23432364 -0.1171379
-0.45852166 -0.066028684 0.022607476 0.17495371 0.1608383 0.3164955 -0.64470744 0.04197296
-0.18708473 0.26198518 -0.89046586 -0.46365792 -0.77055824 -0.907677 0.48673025 0.7595018
0.31439722 0.14469746 -0.5108169 -0.3242389 -0.6489634 0.28729892 -0.67314166 0.89829975
0.3934825 -0.23244533 0.9431428 0.29194868 -0.77611464 -0.6796 -0.7933572 0.5433511
-0.04823656 -0.71657145 -0.42082253 -0.8912368 0.597299 -0.13711876 -0.47318295 -0.2795347
0.59471303 0.39221108 -0.3797081 -0.6855268 0.03911868 0.19367038 0.6432604 -0.2364518
-0.10608031 0.25236514 -0.40791053 -0.3953341 0.035143603 0.3104036 0.27966785 -0.024505366
-0.016095227 0.5912389 -0.27224234 0.02133101 0.22296003 -0.5270363 -0.5245171 0.042356867
0.67555004 -0.46930715 -0.18365766 -0.40809372 -0.12409859 0.35044867 -0.21960023 0.25685218
-0.6171945 0.79725313 -0.86194396 -0.5068391 -0.66385925 -0.8793705 1.1924785 0.6569772
0.87196004 0.74676204 -1.1708792 -0.83514893 -0.66199076 0.18459603 -0.61985385 1.1253821
0.32757497 -0.26572332 0.7076132 -0.50491726 -1.0086771 -1.0598031 -0.8183094 0.16533834
-0.965807 -1.3659071 -0.9712711 -0.8380175 1.1055171 -0.31163156 -0.21798375 0.7700685

linears.4.bias f4 [4]
00000000: 828d 86bc 05eb c83e 056c 6ebd 6d7a 433f
-0.016424898 0.39241806 -0.058208484 0.7635868
