Iterations/Test model/epoch_9212.pt (torch, 37739 bytes, 10 tensors)

linears.0.weight f4 [32, 2]
000000 90 df a5 3e 3a 8c 89 be c3 86 8b 3e 12 ac 18 bf
       0.32397127 -0.26864797 0.27251253 -0.5963756
000010 f0 88 73 3e e7 10 26 bf ad 6e d2 bd 06 d4 42 bf
       0.23782706 -0.6486954 -0.10275016 -0.7610477
000020 f4 c9 53 bd 01 77 0e 3f fc d6 4f 3d 3b 28 52 bf
       -0.05170627 0.55650336 0.050742134 -0.82092637
000030 b1 8d 3e 3e c2 f5 50 3f 0a de 3e 3e cc 42 ec 3e
       0.18608738 0.81624997 0.18639389 0.46144712
000040 50 9b b7 3e 19 f4 96 be fe 23 80 be 36 91 8b be
       0.35860682 -0.29483107 -0.2502746 -0.27259225
000050 c7 06 ea bd 1f 3a 2c bf 47 7e 9d be 24 dd 08 3f
       -0.11427074 -0.67276186 -0.30760404 0.53462434
000060 2f e4 07 be 1c b6 ba be f8 e0 2a 3e 83 6c 03 bf
       -0.13270639 -0.36467063 0.16687381 -0.5133745
000070 30 57 00 be cf f4 6a 3f 61 59 6f bd bc d2 ed be
       -0.1253326 0.917798 -0.058434848 -0.4644984
000080 96 8a 69 3e 49 91 43 3f 6d f4 a0 3e 99 83 ae 3e
       0.22806773 0.7639356 0.31436482 0.34084776
000090 cf cf e1 bd ff a3 03 3f 04 11 62 be 0e a7 e2 be
       -0.110259645 0.51422113 -0.22076803 -0.44268078
0000a0 e0 61 fb bd 18 92 c2 be 67 c5 93 3e 85 fb 90 3e
       -0.122745275 -0.38002086 0.28861544 0.28316894
0000b0 54 f2 2e 3f 3a f0 48 be 35 e2 92 3e 0b e3 fc be
       0.68338513 -0.19622889 0.28688207 -0.4939197
0000c0 53 91 10 bf 6c a1 e7 3e a8 7e b4 3e 9e 2a 89 be
       -0.5647175 0.45240343 0.3525288 -0.26790327
0000d0 f5 1d 3f be 0b 52 ab be 26 44 2f 3d 7a 0b 0c 3f
       -0.18663771 -0.3346103 0.0427896 0.5470501
0000e0 71 d9 a8 3d 01 11 06 bf b4 c5 f8 bc c7 7b 21 3f
       0.08244599 -0.52369696 -0.03036771 0.63079494
0000f0 6c 86 29 3e 35 91 0b bf 93 a6 45 bd 2f 62 6d 3f
       0.16555184 -0.54518443 -0.04825456 0.9272794

linears.0.bias f4 [32]
000000 25 f5 4f 3c fc 4a bd 3c 6a a8 96 3c 7c 8b f6 3b
       0.012692724 0.023107044 0.018390853 0.007523952
000010 79 4a 0c 3c 3c ac e8 bb fc 50 52 3b 17 9d 18 bd
       0.008562678 -0.00710061 0.0032091727 -0.037259188
000020 d2 01 e0 ba 47 35 e9 bc de 06 84 ba 9c 31 a5 bd
       -0.0017090386 -0.028467787 -0.0010072847 -0.08066103
000030 50 1c 28 3d 0d 97 f1 bc e5 aa 41 3c a2 4c 3b bc
       0.041042626 -0.029490972 0.01182053 -0.011431845
000040 eb f2 20 bb 03 82 57 3b 24 a6 b6 3c b3 7e ac bc
       -0.0024558853 0.003288389 0.022296019 -0.021056509
000050 7f 46 41 3c f4 65 96 bc 15 92 e7 3d 56 ed 0f 3d
       0.011796593 -0.018359162 0.1130716 0.03513845
000060 9c 50 97 bd eb a3 3c 3d e0 03 2e bc 90 bf 15 3c
       -0.07388422 0.04605476 -0.010621041 0.00913991
000070 7d 10 d6 3c d1 b1 1b 3c 21 99 08 be fc 7a 3b 3c
       0.02613091 0.009502844 -0.13339664 0.011442896

linears.1.weight f4 [64, 32]
000000 f8 4e df 3c 6c 0f 8c be 1e 72 54 be 73 c9 60 be
       0.027259335 -0.27355516 -0.20746657 -0.21951847
000010 e4 4d 75 3e 2a b0 93 bd 14 88 56 bd 97 79 8c 3e
       0.23955494 -0.07211335 -0.052375868 0.27436516
000020 e2 72 2c 3e 61 31 9d 3e 50 9a 4a 3d ec 29 a8 3e
       0.168407 0.30701736 0.04946357 0.32844484
000030 d8 5a 6f be be 73 fe be 33 a2 25 3d 04 21 55 be
       -0.23374498 -0.4969768 0.04043789 -0.20813376
000040 9f fb ac 3e bc 1f c9 3c 34 8b 64 ba 89 f9 f6 3c
       0.33785722 0.024551265 -0.00087182526 0.030148285
000050 65 cb c5 be df 08 10 bd e6 88 cb bd 28 da 3e 3e
       -0.3863174 -0.03516471 -0.09938221 0.18637908
000060 48 58 b4 3d cc 55 29 3e fe bd 93 be 38 a6 36 bd
       0.08805901 0.16536635 -0.2885589 -0.044592112
000070 d2 99 ce 3d 3f 67 3e 3e a1 85 b4 bd d3 47 38 3e
       0.10087933 0.18594073 -0.0881455 0.17996149
000080 a7 1d 0e 3d aa 0c b6 3d 4f 95 d3 bd 94 2a fb 3d
       0.034696247 0.08889134 -0.10331213 0.122639805
000090 35 bc cd bd 1b fd 23 be 39 d3 71 3e 0e 0e a5 3e
       -0.10045663 -0.16014521 0.23615731 0.32237285
0000a0 3d 45 cb 3e 6d ce 5e 3e 18 ea 16 be 95 5b 6f bd
       0.39701262 0.21758433 -0.14737737 -0.05843695
0000b0 97 5e 8f bd a9 7d 0c 3e 6e 2f 0f 3e a7 cc a0 bd
       -0.070004635 0.1371981 0.13982937 -0.07851534
0000c0 e7 a4 78 3e d5 07 2d be 82 ec 61 be 21 bc 94 bd
       0.24281655 -0.16897519 -0.22062877 -0.07262445
0000d0 db b4 07 bd 13 7e ad 3e da 6a a6 bd 93 52 09 be
       -0.03313146 0.3388525 -0.08125849 -0.13410406
0000e0 0b 10 9d 3d 25 06 ee bc ce 15 8a 3d 59 b6 1e bd
       0.076690756 -0.029055664 0.0674244 -0.03874812
0000f0 60 a8 c9 bc c4 61 3f bb 25 9f a2 3e f2 4e 86 3e
       -0.02461642 -0.002920256 0.31762043 0.26232105
000100 48 68 9d bd 84 56 e3 3d a1 a7 3f 3e d4 0e e8 3a
       -0.07685906 0.11100486 0.18716289 0.0017704614
000110 5d b0 22 3d 1d 9d c0 bc 0c 0a 1c bd 2a 59 4d be
       0.039718974 -0.023512417 -0.03809552 -0.20053545
000120 14 29 bd bd 09 5c 99 be 2d 0d 4a be 79 50 af bc
       -0.09236351 -0.2995303 -0.19731589 -0.021400677
000130 f2 14 9c 3e 04 b9 29 bb 05 e9 1b bc 4a ec 7d be
       0.3048473 -0.0025897631 -0.009516005 -0.24797168
000140 8b a7 6c bd 1e f0 84 3e 16 69 df bd b2 9d 9f bd
       -0.05777697 0.25964445 -0.109087154 -0.0779375
000150 f7 f0 1e be 04 c8 54 be ba c3 18 3e 5d 78 90 bd
       -0.15521608 -0.20779425 0.14918414 -0.070542075
000160 90 bd 4e bd ba c1 f6 3c 42 e2 5a 3d 7d 78 e3 bd
       -0.05047375 0.030121673 0.053438433 -0.11106966
000170 86 a9 8f bd a9 86 80 3e 8d d8 03 be 27 8a 81 be
       -0.07014756 0.25102738 -0.12875576 -0.25300714
000180 88 51 a0 3c 05 6c 5a 3e 38 e5 20 3e 62 ff 9a bd
       0.019570127 0.21330269 0.1571244 -0.07568242
000190 38 36 96 be 17 0b 11 be 2f 83 c6 39 08 d6 a5 bd
       -0.2933824 -0.14164387 0.00037863242 -0.08097464
0001a0 04 46 9e 3e 18 b3 64 be 21 97 53 3d e2 33 6e bd
       0.30912793 -0.22333944 0.0516578 -0.058154948
0001b0 c5 b7 cd 3c 3e 93 47 3e 31 af 91 3d f0 a1 ca be
       0.025112042 0.19489762 0.07113493 -0.39576674
0001c0 06 30 f1 bc a8 10 33 bd 5b 65 4f 3c f8 65 bc bd
       -0.029441845 -0.043717057 0.012658442 -0.091991365
0001d0 8d 7c b2 bd 47 9b 23 3e 57 cd 9b 3e 77 8f da 3d
       -0.087151624 0.15977202 0.304301 0.10671895
0001e0 54 b6 4e be 0a 0b 9c 3e 67 41 da bd e7 7a be bd
       -0.2018674 0.30477172 -0.10657006 -0.093007855
0001f0 bb 9a 85 3d 5d 36 d0 bd 65 3e 75 be 4c 10 7f bd
       0.06523653 -0.10166619 -0.23949583 -0.0622714
000200 45 17 f5 3c c3 86 03 3d 27 aa a1 bd 7d cc aa bd
       0.029918322 0.03211094 -0.07893782 -0.08339784
000210 94 72 91 3d 17 67 1e be 2e 0d 1e 3e 7b 73 41 3d
       0.07101932 -0.15469013 0.15434715 0.04722927
000220 be 6f f7 bc 15 f1 4a be ea 9d bc be ee f7 29 be
       -0.03020465 -0.19818528 -0.3683923 -0.16598484
000230 45 ad 23 be 94 fa 4f be 09 97 d9 3e 74 d5 a1 bb
       -0.15984066 -0.20310432 0.42498043 -0.0049387757
000240 37 e2 11 3e 1a eb 80 3e 5a 76 16 bd 2c 58 94 3e
       0.1424645 0.25179368 -0.036733963 0.2897352
000250 73 5a 21 be 35 e7 10 3d 0f c8 78 be d2 f9 b5 3c
       -0.1575716 0.035376746 -0.24295066 0.02221385
000260 7d 54 06 bd 59 28 f6 3c c7 3c 2b be b9 49 45 3e
       -0.032795418 0.030048536 -0.16722403 0.19266404
000270 63 0e d1 3c 7b e7 97 3d db 0c 59 bd c3 d1 7f 3e
       0.025519555 0.07417198 -0.052990776 0.24982361
000280 97 d7 12 bc 4d a6 71 be 49 64 92 be 14 18 46 be
       -0.008962533 -0.23598595 -0.28592137 -0.19345123
000290 be ba ff 3e 8a 95 ba be 19 9d 4f bd ec 58 63 bd
       0.4994716 -0.36442214 -0.05068693 -0.055504724
0002a0 08 a8 30 bd c1 a7 73 bd ea 9a 14 bd 6d ed 3f 3e
       -0.043128997 -0.059486154 -0.03628055 0.18742914
0002b0 dc 97 0e be 5f 57 44 3e 0d a2 90 3e ec 1d 90 bc
       -0.13925117 0.19173954 0.28248635 -0.017592393
0002c0 d8 bf c7 be d1 f3 a1 bb 86 d9 22 3e 11 cc 9f 3e
       -0.39013553 -0.0049423953 0.15903291 0.31210378
0002d0 a8 8c 34 3d 18 20 8b be 2e 4e 60 be d4 ac 37 be
       0.044079453 -0.27172923 -0.21904823 -0.17937022
0002e0 7d 1b 94 3e 60 b2 9f bc 4c 40 c3 3e 7f 9a 50 3d
       0.28927222 -0.019494236 0.38134992 0.05092859
0002f0 64 68 2d be 31 99 9a 3e 56 47 9e be 89 d1 31 3e
       -0.16934353 0.30195 -0.309138 0.17365088
000300 af 8c 28 be 00 b2 11 3e f4 db 88 3e 72 3e 46 3e
       -0.16459917 0.14228058 0.2673031 0.19359758
000310 57 50 6f be ea 93 44 3e 02 d0 60 bd c8 be 81 be
       -0.23370491 0.1919705 -0.05488587 -0.25340867
000320 7b 9c b9 3e a3 39 b6 be 41 a4 29 3e be b2 b3 3c
       0.36252198 -0.35590848 0.16566564 0.021935817
000330 57 20 06 be 04 2d 12 be 12 15 a0 bd 86 23 7a be
       -0.13098274 -0.14274985 -0.07816519 -0.24427614
000340 3f b4 b4 3d 02 68 0f be ea bc a7 bd f7 97 fc 3d
       0.08823442 -0.1400452 -0.081903294 0.123336725
000350 3b 92 2a 3e 73 86 2a be 1b a6 6f 3e 3b 04 fa bc
       0.16657345 -0.16652851 0.23403208 -0.030519595
000360 39 5e 75 bd 46 0c 58 bd d6 f4 1e 3e 4f 45 f6 bd
       -0.05990431 -0.05274608 0.15523085 -0.12024938
000370 db c2 b5 bd 7a e0 02 bf da e2 3d bd df 00 30 be
       -0.08875056 -0.51123774 -0.04635892 -0.17187832
000380 59 16 95 3d f8 08 17 be d9 52 02 3e dc c1 b3 bc
       0.07279653 -0.14749515 0.12726916 -0.021943025
000390 8b 54 76 3e 80 0e 8a be 4b fe 26 3e fd 98 61 3e
       0.24055688 -0.26964188 0.16307943 0.22031017
0003a0 ff 55 59 be 6b ff b6 3e 1a 22 ba 3d e3 a9 46 bd
       -0.21224211 0.35741743 0.090885356 -0.04850186
0003b0 e5 ae 58 be d2 fa d5 3d 91 03 2d 3e 15 d3 4c bc
       -0.21160467 0.10448231 0.16895892 -0.012501498
0003c0 05 ab b3 3d 29 f5 99 bd 65 4a 7c 3e f9 5e 0f be
       0.08772854 -0.07517464 0.24637754 -0.14001073
0003d0 81 da cd bd f5 34 04 be 63 25 89 3e 7e b0 8b bd
       -0.10051442 -0.12910827 0.26786336 -0.068207726
0003e0 e6 7d b8 bc b2 70 5c 3d 2d 73 58 be 71 1b 62 bd
       -0.02252097 0.053818412 -0.21137686 -0.05520195
0003f0 2a 01 59 3c 38 a2 b8 3e 98 d2 b7 be b6 fa d0 3e
       0.013244906 0.36061263 -0.35902858 0.40816277

linears.1.bias f4 [64]
000000 f6 ec ae bc 82 1f eb bc e0 69 8f 3d 6c c5 7f 3d
       -0.021353226 -0.028701548 0.07002616 0.062444136
000010 ce f1 66 3c 20 e8 44 bb 35 09 42 b9 b3 7c 9c 3d
       0.014095737 -0.0030045584 -0.00018504712 0.07640972
000020 f0 16 3b b9 1d ab 0c 3d cc af af bc cd b2 37 3d
       -0.00017842255 0.034342874 -0.021446131 0.044848252
000030 14 1d 5e bc 60 36 c4 bc 55 9a ac bc f5 bc 92 3c
       -0.013556737 -0.02395171 -0.021069685 0.017912367
000040 55 36 7d bb e1 48 f5 ba c0 2b 0d bc 09 40 17 3d
       -0.003863712 -0.0018713736 -0.008616388 0.036926303
000050 99 dd 3e bc 8f 92 cc 3b 70 08 2c 3c 20 e6 de 3a
       -0.011649513 0.006243057 0.0105000585 0.0017005838
000060 fb f1 6c bc 90 07 62 bb 18 8d 59 bc 03 92 45 3c
       -0.0144619895 -0.003448937 -0.013278268 0.012058738
000070 40 8c 91 3d 16 a8 57 bc 53 de d0 bc ca 96 3c bd
       0.07106829 -0.013162633 -0.025496637 -0.04604224
000080 38 f4 ad bc 83 6b c4 3d 73 27 14 bc b7 26 0a ba
       -0.021234617 0.09590819 -0.009042609 -0.0005270051
000090 5b 42 f3 3c c5 94 92 bc b7 d8 d1 3b 98 d3 9b 3c
       0.029694727 -0.017893204 0.0064040083 0.019021794
0000a0 8e f5 59 3c e5 c3 3e bc 3d 9e f3 bc 65 c0 cb bb
       0.013303174 -0.011643385 -0.02973854 -0.0062180036
0000b0 b7 af 1f 3e bd fc ba bb fd 93 8d 3c 0c 08 53 3c
       0.15594374 -0.0057063983 0.01728248 0.0128803365
0000c0 da 00 0e bd 0d 88 5e 3d ac 54 fe bd 40 f6 4a bc
       -0.03466878 0.054328967 -0.12418494 -0.012387812
0000d0 85 d4 dd b9 28 3c 10 3d 6c 32 88 3c 28 43 8e 3c
       -0.00042310744 0.03521362 0.016625606 0.017366007
0000e0 84 39 d7 bc dd 1b 10 bc 5c 5c 01 bc ef dd b0 3c
       -0.026272543 -0.008795706 -0.007895555 0.021590201
0000f0 ec bc 57 bb a9 b6 0b bc b5 b1 6b bb 17 bd a1 bc
       -0.0032919003 -0.008527436 -0.0035964076 -0.019743485

linears.2.weight f4 [64, 64]
000000 66 d3 25 be 56 68 d9 3c b9 14 29 bd 47 7b eb 3d
       -0.16193923 0.026539009 -0.04127953 0.11498123
000010 5d a9 1e be c0 ee 21 3d 19 d2 88 3d 5a c8 a4 3d
       -0.15494294 0.03953433 0.06680698 0.080460265
000020 b1 76 96 ba e3 4b 20 3d 38 e7 28 bc 37 21 15 3e
       -0.0011479465 0.03913487 -0.010309033 0.14563452
000030 45 51 0f 3d 59 94 21 3e 53 66 72 bd b9 a2 bb 3d
       0.034989614 0.15779246 -0.059179615 0.09161896
000040 72 e0 5f 3d 57 75 a2 3c 0a 5c ac 3e 90 5e 4f 3d
       0.054657407 0.019831343 0.3366397 0.05062729
000050 2c 4c 83 3e 9c 22 d8 bc a9 c9 07 3d d0 d1 da bd
       0.25644052 -0.02638369 0.033151302 -0.1068455
000060 47 3e 17 3e 2d 3b 1f 3e fc 0d 91 bd 19 f4 e9 bd
       0.1476985 0.15549918 -0.070827454 -0.11423511
000070 01 87 5d bd d0 b3 4d be 21 f0 a4 3c d0 12 eb 3c
       -0.054083828 -0.20088124 0.020134034 0.028695494
000080 e6 f6 73 3e 94 d3 b9 3d e9 a9 70 3e b9 4a 00 be
       0.23824653 0.090735584 0.23502316 -0.12528504
000090 7a a6 1e bd 2c 40 e0 3d 82 dd 46 bd 8a 26 0d be
       -0.038732983 0.1094974 -0.04855109 -0.13784233
0000a0 9f ca 4d 3c bf ab 5a 3e e8 36 b5 bc 3e e2 db bb
       0.012560516 0.21354578 -0.022120908 -0.00671032
0000b0 bd 85 89 3c 6b 00 85 bc 46 1a a8 3d 62 3c c8 bd
       0.016787404 -0.01623555 0.08208136 -0.09777142
0000c0 9b 66 92 be 3d df 81 be bf 91 44 be 6e ad 67 bd
       -0.28593907 -0.2536563 -0.19196223 -0.05656188
0000d0 3a 39 83 be cf 85 34 be c4 3b 85 be 10 97 fa 3d
       -0.25629598 -0.17629169 -0.2602216 0.12235844
0000e0 7f c7 66 bd 6e ed 89 3d 2b 61 8b 3d 01 df 69 3e
       -0.056342598 0.06734739 0.06805643 0.22838975
0000f0 f1 ed 3e bd ac 8a 2d 3e cc cd 3a be a4 4b 07 be
       -0.046613637 0.1694743 -0.18242568 -0.13212448
000100 51 09 6e be 57 3f 27 bd 82 3f 8e 3d cc 7f cd bd
       -0.23245741 -0.04083189 0.06945707 -0.10034141
000110 10 5f 1b bc e0 73 7b bd 39 e1 43 bd c9 ec 8e 3e
       -0.009483114 -0.061389804 -0.04782221 0.27915028
000120 17 de 23 3d dc 8a 50 be fd fe e7 bd 7a e9 dc 3c
       0.040006723 -0.2036547 -0.11327932 0.026966799
000130 63 9a 12 be 55 0f 3b be c1 62 04 3c 2b a1 14 3d
       -0.14316706 -0.18267567 0.008080185 0.036286514
000140 0b 43 5a 3e 5b 57 2d bd 6b 93 36 be 22 8c 8d 3e
       0.21314637 -0.042319637 -0.17829673 0.27645975
000150 7a bb 14 be 39 a8 d7 3d e8 aa 77 3d b6 1a 0e 3e
       -0.14524642 0.10530133 0.060465723 0.13877377
000160 1f 08 0d be 94 20 f5 bd ee 5f 79 3d cc 39 7d be
       -0.13772629 -0.119691044 0.0608825 -0.24729079
000170 bf 86 93 bd c0 d0 58 3e d5 42 a0 bd 75 9b ed 3d
       -0.07203435 0.21173382 -0.07825247 0.11601917
000180 88 16 79 be af 84 28 be 93 76 6a be 75 90 55 3d
       -0.24325001 -0.16456865 -0.22896795 0.052139718
000190 37 5a a8 be 45 e7 49 be 59 e4 18 3b e2 f4 1d 3e
       -0.32881328 -0.19717129 0.0023329465 0.15425447
0001a0 2a f1 05 be 68 46 83 3d 6a b3 00 3e 71 8d 8c 3d
       -0.13080278 0.06409913 0.12568441 0.06862915
0001b0 08 4b e1 bb 07 ec 20 3e 55 ab c2 3b 40 4c 80 3d
       -0.0068753995 0.15715037 0.0059408345 0.062645435
0001c0 4b 90 40 3e 78 b5 a0 3d be 8e 9a bd 8d a2 da bd
       0.18805043 0.078471124 -0.07546757 -0.10675535
0001d0 30 9e f9 3c 30 b8 6a bd 5a 83 28 bd a2 28 57 3e
       0.030470937 -0.05730456 -0.04114089 0.21011594
0001e0 71 77 3d 3e 29 65 f9 3d 27 3d ca 3c 83 61 fa 3c
       0.18502595 0.12177498 0.024687363 0.030564075
0001f0 9c ef d8 bc b5 02 73 bd 2c 68 61 be e5 85 70 3a
       -0.026481442 -0.059328754 -0.22012395 0.0009175225
000200 8c 2e f2 bd 36 06 6b be af 51 6d be a4 10 82 3d
       -0.11825284 -0.22951588 -0.23175691 0.0635083
000210 75 a0 49 be 35 1f 26 3e c4 85 9d 3b 9f 62 58 bc
       -0.19690116 0.16222842 0.004807206 -0.013207107
000220 a3 11 b9 3d 98 0e c0 bd 5b a8 62 be 3a e7 38 be
       0.09036567 -0.093777835 -0.22134535 -0.18056956
000230 8d 99 58 bd e2 76 f9 bd ec ef a1 3e 1a c4 bb bd
       -0.052880812 -0.12180878 0.31628358 -0.09168263
000240 e6 2a bf be a2 a8 7b bd 0d cb 53 3d 16 4e bc 3d
       -0.37337416 -0.061440118 0.051707316 0.09194581
000250 84 ce 60 be 80 10 a5 3d 2d e2 47 bd e7 b3 1a 3e
       -0.2195378 0.08059788 -0.048799682 0.1510769
000260 fd 27 9b 3d 5d 4d 17 bc b2 ff 0a 3e 6f 90 37 3e
       0.075759865 -0.009234753 0.13574103 0.17926191
000270 ae 19 09 3e 8f 1a 2f 3e 85 49 f7 bd 86 b7 26 3e
       0.13388702 0.17099975 -0.120745696 0.16280946
000280 70 bb 03 be a8 98 31 3e 49 08 75 3d e2 9e 15 be
       -0.1286447 0.1734339 0.059822354 -0.1461139
000290 d3 39 03 be d1 1c 57 3d 30 e9 9d bd c4 12 a0 3d
       -0.12815027 0.052517716 -0.077104926 0.07816079
0002a0 28 25 f4 bb 5f 03 f2 bd 0c 20 e4 3d c2 8c a4 bc
       -0.0074507184 -0.11817049 0.11138925 -0.02008665
0002b0 1e 26 a4 3d fe e4 a4 3d 98 2b 3e 3d 77 80 9c bd
       0.08015083 0.08051489 0.046428293 -0.0764169
0002c0 6c 8c 66 bc aa c7 23 3e 15 05 04 be e3 37 d2 3d
       -0.014071565 0.15994135 -0.12892564 0.10264566
0002d0 57 49 03 be 67 85 0f 3e 5a 21 ed bd 16 e3 5d 3d
       -0.12820946 0.14015733 -0.11578627 0.054171644
0002e0 e9 6a 4f bd a4 54 87 3c 79 2f 89 be d0 07 b7 bd
       -0.050639067 0.016519852 -0.2679403 -0.08937037
0002f0 c7 48 00 3e 0f 04 a5 bd bb a1 63 3d ac 7a fa bd
       0.12527762 -0.08057415 0.05557416 -0.12230429
000300 51 39 ac bd 76 87 3b 3e 7c c5 60 3e fc 5e a9 be
       -0.0840937 0.18313393 0.21950334 -0.3308028
000310 eb 06 f5 bd 99 24 3b be 9a 02 16 be ef 6b 45 be
       -0.1196421 -0.1827568 -0.1464943 -0.19279455
000320 04 7d 20 be d8 8e 2e 3d 1d 67 3b 3b a1 4e d3 bb
       -0.1567269 0.042616695 0.0028595396 -0.0064485823
000330 92 57 6b 3c a8 44 67 3e 86 f5 bb bd c5 d3 65 bd
       0.01436414 0.22584784 -0.09177689 -0.056110162
000340 29 a0 05 3f 59 49 9f 3d 2d 09 b4 3e af e4 84 3d
       0.5219751 0.07777662 0.3516325 0.064889304
000350 b7 f0 ca 3c c0 f6 14 be 54 7d 30 be 4a 0e 37 bd
       0.024772985 -0.14547253 -0.17235309 -0.04469136
000360 4b 74 aa 3d 3a 77 e2 bb 06 63 19 3d 9f eb 43 be
       0.083229624 -0.0069111856 0.03744795 -0.19132851
000370 06 ba e5 3d 14 40 ae bd 3c 25 5a 3e 7e d2 86 3e
       0.11217122 -0.08508316 0.21303266 0.26332468
000380 aa 11 a7 3d 52 d2 05 be 3a 51 94 3d cf 26 20 bd
       0.08157666 -0.13068512 0.07242055 -0.03909951
000390 0d 80 81 bd fa f2 38 be 2e 75 21 3c 18 4f 3d be
       -0.06323252 -0.18061438 0.009854598 -0.18487203
0003a0 25 4e ec 3d af da a1 3d f6 af e6 3d 26 c5 e4 bd
       0.115383424 0.07903039 0.11264031 -0.111704156
0003b0 ae 41 e9 bd c6 e8 4e 3d a9 a6 97 bd 30 f9 c2 bd
       -0.113894805 0.05051496 -0.07404835 -0.09520185
0003c0 54 8d b4 bd 0c 7f 9d bd d7 ff 22 be a1 21 2d 3d
       -0.08816019 -0.07690248 -0.15917908 0.0422684
0003d0 ce b9 34 bb 44 9f 30 be c8 98 76 3c 14 71 b6 bd
       -0.0027576569 -0.17248255 0.015051074 -0.08908287
0003e0 7b 46 f1 3d c6 c4 40 be cb f5 6c 3e 21 f3 5f 3d
       0.11781021 -0.18825063 0.23140638 0.054675225
0003f0 b6 e4 3e 3e 15 9a 9a 3e 07 31 26 bd 93 62 f2 3d
       0.18641934 0.3019568 -0.0405741 0.11835208

linears.2.bias f4 [64]
000000 db 87 ad 3c 76 ec 9a 3a 07 3c c3 3c c7 5c 29 bd
       0.021182945 0.0011819738 0.023832334 -0.041348245
000010 53 3b bc 3d bb d9 33 bd 41 a8 a9 bd 91 3e 23 ba
       0.09191003 -0.043908816 -0.08284045 -0.00062272797
000020 a6 5c bc bc 6a 3e cb 3c 13 46 08 3b b0 ae 7a bc
       -0.022993397 0.024810035 0.002079372 -0.015300438
000030 65 d0 db bc c0 26 01 3d 7a fc b6 3d 1f d9 b6 3c
       -0.026832769 0.031531096 0.08934875 0.022320328
000040 7b bc d3 bc 51 e7 e2 bc d8 b3 38 bd f6 0c 27 3b
       -0.02584671 -0.02769819 -0.045093387 0.0025489903
000050 9d 63 06 3d f2 06 89 bc 1d 53 08 bd 87 26 11 3c
       0.032809842 -0.016726945 -0.033282388 0.008859283
000060 ac db 26 3c 5d fb 1d 3d b7 a3 9c bc 3d 10 13 3c
       0.01018421 0.038569797 -0.019121034 0.0089760395
000070 a3 58 c5 3a e2 98 3b 3d 30 00 84 3c e0 db 3d ba
       0.0015056323 0.045800097 0.01611337 -0.0007242542
000080 15 09 95 bc 69 25 1b bd 91 65 19 3c fc 99 d4 bb
       -0.018192807 -0.037877474 0.009362594 -0.006488083
000090 b6 40 c7 bb f1 5f fc bb bc a2 0f 3b f1 d0 b7 bc
       -0.006080712 -0.007701867 0.0021917066 -0.022438498
0000a0 a5 f6 b6 bc d3 e5 89 bb b4 97 7c 3c 19 14 69 3d
       -0.022334406 -0.0042083054 0.015417028 0.056903932
0000b0 02 3e b2 bd ca 4a b1 bc 1f 2e ac 3c 24 ea 5c bc
       -0.08703233 -0.021642108 0.021018086 -0.013483558
0000c0 1a 33 59 3c 60 1c 41 3d 8c 73 b3 bc 5e 96 8d 3d
       0.0132568125 0.0471462 -0.021905683 0.06913446
0000d0 6c 17 bb bc 8a 72 a6 3c 3c d1 99 3d 41 07 6e 3d
       -0.022838317 0.020318288 0.075106114 0.058112387
0000e0 f2 19 71 3d 1c 29 3d 3c 21 14 ee bc 34 0d 52 bc
       0.058862634 0.011545446 -0.029062333 -0.012820531
0000f0 16 5c 29 3d 81 fd 09 3d 5c 3a e0 3c 1c 1f fe 3b
       0.041347586 0.033689026 0.027371578 0.0077551734

linears.3.weight f4 [32, 64]
000000 22 85 d2 be d6 43 ac bd ab 91 1d be 83 83 7e 3e
       -0.41117197 -0.08411376 -0.15387599 0.24854855
000010 04 22 8d 3d f8 02 07 3e 48 a8 7d 3e af 28 2f 3d
       0.068912536 0.13184726 0.24771225 0.04276341
000020 56 23 ae 3e b1 c0 8e bd 3f 44 e1 3c 51 27 ba 3d
       0.34011334 -0.06970347 0.027498363 0.0908953
000030 aa 0b f1 3d ff b3 98 be 03 34 93 be 81 b4 9b ba
       0.11769803 -0.29824826 -0.2875062 -0.0011879356
000040 19 28 b0 3d 22 af 46 3e 32 8f 02 be 8f d1 6b bc
       0.08601398 0.19402745 -0.12749937 -0.014393224
000050 42 e3 a8 3c 96 de 0d 3e f8 fb 89 3e b6 1f 4e 3d
       0.020616177 0.13854441 0.2695005 0.05032321
000060 d8 da 27 be 97 19 9b 3d d7 d4 1b be 82 21 81 be
       -0.16392076 0.0757324 -0.1521791 -0.25220877
000070 c8 23 14 bd a9 f8 ea 3d e4 e8 1d 3d 04 f5 00 3e
       -0.036166936 0.114732094 0.03855218 0.12593466
000080 05 b6 a8 bd 1c 49 15 3d 29 f9 32 3e 8b fb e1 3d
       -0.082378425 0.036446676 0.1747786 0.11034306
000090 e0 26 e3 bc 4a ed 92 3d 1e 38 44 3e 3b 55 b3 bd
       -0.027728498 0.071741655 0.19162032 -0.08756491
0000a0 dc 44 0b 3e f4 37 49 bd b6 dc 66 bd 10 1e 4d 3e
       0.13600487 -0.049125627 -0.05636283 0.20030999
0000b0 77 85 00 bc de 29 d2 bd c0 b7 8b be 61 a4 53 be
       -0.0078443205 -0.10261892 -0.27288628 -0.20668174
0000c0 0f b8 07 3e 42 44 01 3e c2 cd d4 3d 86 5b 44 3e
       0.13253807 0.12623695 0.10390808 0.19175538
0000d0 83 64 c6 3d f5 d9 80 3e 08 3d b7 be ec bb ee 3d
       0.0968714 0.25166288 -0.3578875 0.11656937
0000e0 ac 34 b0 bd 49 ae 62 bc 15 2d 84 3e ac 2a 5a 3e
       -0.08603796 -0.013835498 0.25815645 0.2130534
0000f0 01 2a 14 be 1e 58 49 3d a8 d7 95 3d b1 41 30 be
       -0.14469148 0.0491563 0.07316524 -0.1721256
000100 33 77 c8 3e 45 65 1d 3e 9a 50 12 3e 75 c4 75 3d
       0.39153442 0.15370663 0.1428856 0.06000181
000110 2a c0 b6 3e 5f 28 d6 be 55 98 75 be b9 cf f1 3d
       0.35693485 -0.41827676 -0.23983891 0.11807198
000120 01 58 e2 3d 63 4d e1 bb 27 92 0e 3e 3b 00 18 3f
       0.11051942 -0.0068756803 0.1392294 0.5937535
000130 d5 2e 1c be c0 ec 65 be 95 a4 69 3e 53 30 1b 3d
       -0.1525224 -0.22453594 0.2281669 0.037887882
000140 2f 31 2f 3e 47 26 e0 3c f7 5d 2e 3d 9f 55 99 3e
       0.17108606 0.027362002 0.04257008 0.29948136
000150 4c fa 89 3e e7 30 61 3e 1b 09 c4 3e 9b 30 9a be
       0.26948774 0.21991311 0.38288197 -0.30115208
000160 f1 d7 02 be 0c 88 98 3d 7b e3 f3 3d f4 81 f4 be
       -0.12777688 0.07447824 0.11908623 -0.47755396
000170 ad 04 39 bd c6 db 76 bd 32 c7 84 be 8f 36 aa be
       -0.045170475 -0.060268186 -0.25933224 -0.3324475
000180 4e 4f 72 3e 1f 2a c9 bd 77 24 f6 3d 63 87 23 be
       0.23663065 -0.09822487 0.12018674 -0.15969615
000190 9c 5f 07 3f 32 dd 0d 3f fa db 5f bd 31 4d 97 3e
       0.52880263 0.5541564 -0.054653145 0.2955108
0001a0 a3 2d d8 3d 4e 59 b1 be cb 8b ac be 11 8d 64 be
       0.105555795 -0.34638447 -0.33700404 -0.22319438
0001b0 28 b0 f0 3d d6 65 b3 3e 92 08 d5 3c a4 27 a6 3e
       0.11752349 0.35038632 0.026005063 0.32452118
0001c0 38 dd 9c bd f7 79 84 bd 9f 23 a9 3e 0b 85 90 be
       -0.07659382 -0.064685754 0.3303499 -0.28226504
0001d0 d3 d7 dc 3d d1 0f df 3d dc 7f 0c 3e 9a d0 8b bd
       0.10783353 0.108916886 0.1372065 -0.06826897
0001e0 d4 1a 99 3d 5c da ca bd b6 d9 13 bf 13 0e 89 3e
       0.0747582 -0.0990493 -0.57754076 0.2676855
0001f0 a7 ed 15 be 54 aa a6 be 7a 42 bf 3e fb cd b7 3e
       -0.14641438 -0.32551825 0.37355405 0.35899338
000200 9c 70 70 3e ae 39 68 be 6e d2 31 3e c0 56 80 3d
       0.23480457 -0.22678253 0.17365429 0.06266546
000210 86 7a 6c 3d f3 1c 9f 3e da 24 a9 bd 72 41 d6 bd
       0.057734035 0.31076774 -0.08258982 -0.104617015
000220 be 25 76 be 18 85 f0 bd 06 a2 97 be cd c1 67 3d
       -0.24037835 -0.117441356 -0.29615802 0.056581307
000230 1d 4a 64 bc 5f 2c 30 be 3b 4d 87 bd 21 a5 49 be
       -0.013933686 -0.17204426 -0.066065274 -0.19691898
000240 d4 0a 66 3e 90 b5 1e 3e f7 cb 63 3e 3b 65 b4 3c
       0.22465068 0.15498948 0.22245775 0.022020927
000250 09 f9 dd bd 47 53 1e 3e 00 ab 9a 3d b7 de 08 3e
       -0.10838515 0.15461455 0.07552147 0.13366209
000260 30 4c 03 be 53 86 0b be 08 9e 21 3d a6 f4 cf bc
       -0.12822032 -0.1362546 0.03945735 -0.025385212
000270 52 96 11 be f5 23 44 be 49 c4 8a 3d e8 3f 68 3c
       -0.14217499 -0.19154342 0.0677572 0.014175393
000280 84 31 5a 3e bf e2 01 bd 29 b9 c2 3e c1 74 3e 3e
       0.21307951 -0.031710383 0.3803189 0.18599226
000290 10 85 14 3d b6 df 0c be f7 74 9c 3c ad 29 68 3e
       0.03625971 -0.13757214 0.019098742 0.22672148
0002a0 44 ec 97 be ba 1e 64 be e9 a4 fe 3d b3 9f cf be
       -0.29672444 -0.22277346 0.12433798 -0.40551528
0002b0 c9 b5 5b bd 12 e9 75 3e 82 df cd be 6c ef 01 be
       -0.05364016 0.2401469 -0.40209585 -0.12688988
0002c0 bc 63 69 3e 97 97 f5 3d 4f 74 5d 3d e6 05 04 bd
       0.22791952 0.11991804 0.054066 -0.032232188
0002d0 f7 c3 83 3e 6d 39 6d 3d 63 67 a9 be 77 7b 9c 3c
       0.25735447 0.057916094 -0.3308669 0.019101841
0002e0 ab 05 39 bc b1 64 27 be a8 14 be 3c b1 5f 41 3e
       -0.011292855 -0.16347004 0.023203209 0.1888416
0002f0 ad 91 2c be c8 6f ae 3e 7a a9 c9 bd e3 b9 3b 3e
       -0.16852446 0.34069657 -0.09846778 0.18332629
000300 42 a3 8d be d8 6d 76 3e ac 81 f8 3d 88 2f 9e bd
       -0.27663618 0.2406534 0.12134108 -0.077239096
000310 18 cc a4 3d 7f fa 74 be 5d 93 80 3e 6a fc 07 3e
       0.0804674 -0.23923682 0.2511243 0.13279882
000320 12 8b 49 3d b7 51 cd be 8c 26 a3 bd 73 3c f5 bd
       0.049204893 -0.40101406 -0.079663366 -0.119744204
000330 14 76 8c 3c 20 86 f6 3d a4 b3 4e 3c 4b 2a 2b be
       0.017146148 0.12037301 0.012616072 -0.16715352
000340 7b c0 ee 3d 42 26 e8 bd 3d f6 44 3e 01 9e 7d 3e
       0.116578065 -0.11335422 0.19234557 0.24767305
000350 e2 70 1e be a2 54 a5 bd 21 e9 a7 3e ac 20 b8 bd
       -0.15472749 -0.08072783 0.3279505 -0.08990607
000360 8e 84 1d be 41 b2 22 bd 58 a2 09 3e fb a0 f6 3d
       -0.15382597 -0.039720777 0.13440835 0.12042423
000370 67 cf dd 3b f1 3b bb bd 3e 29 21 be 77 0e b4 3d
       0.006769109 -0.09142292 -0.15738389 0.087918214
000380 6b 6f 70 3d 67 12 86 3e 3d d8 33 3d 4b 50 ae be
       0.058700006 0.26185915 0.043907393 -0.34045634
000390 61 fb 32 3c 37 3b 36 be c2 10 9f 3d b8 94 28 bd
       0.010924191 -0.17796026 0.07766868 -0.041157454
0003a0 cb 10 cb 3d a0 2b 1b be 9f 29 8f bd 8d 0d cb bd
       0.099153124 -0.1515336 -0.069903605 -0.09914694
0003b0 7b 1a 82 be ae 76 a3 3e 7a a7 38 be a8 ea 0a 3e
       -0.25410828 0.31926483 -0.18032637 0.13566077
0003c0 bf 7f f8 bd 25 52 64 be 8f aa 2c 3e ac 3b 1b be
       -0.12133741 -0.2229696 0.16861938 -0.15159482
0003d0 c1 36 63 3e 20 3b e1 bd cc 1f 51 be 01 fb 17 be
       0.22188856 -0.10997605 -0.20422286 -0.14841844
0003e0 18 ce 66 3e c1 4f 1d 3e 33 76 b8 3e 77 b8 fd bd
       0.22539556 0.15362455 0.3602768 -0.123886995
0003f0 b2 a7 4c 3c a3 ff f7 3c d2 a7 15 bd 40 40 55 3d
       0.012491154 0.030273264 -0.036537 0.052063227

linears.3.bias f4 [32]
000000 5e 16 1e bd 1d b2 5c 3d 8a c9 5c bc 81 97 1f bd
       -0.03859555 0.0538808 -0.013475785 -0.038962845
000010 dd cb 1e bd 74 bd 60 bd eb c2 6e 3d 03 0c 53 3d
       -0.038768638 -0.054868177 0.058291357 0.051525127
000020 fd 89 bb 3a 49 17 bb 3c 02 b5 3b bd 95 c9 5b bd
       0.0014308091 0.022838252 -0.04582692 -0.05365904
000030 73 5a a7 bd 93 28 63 ba ba 83 5e bc 09 f6 b8 3c
       -0.08171549 -0.0008665409 -0.013581211 0.022578256
000040 31 c6 2a bb c4 08 b8 bc 43 e0 4e 3d 9c 76 9c bb
       -0.0026058073 -0.022465117 0.05050684 -0.0047748815
000050 03 b9 a6 bc 23 4b e7 bc f4 86 3d bd 51 71 5a 3d
       -0.020351892 -0.02823407 -0.04627128 0.053330723
000060 a9 dd f9 3b 8e ef 77 bd ec 63 3e bd a1 ef 7b bd
       0.007625301 -0.06053119 -0.04648201 -0.061507825
000070 79 c5 82 bd 8e 1f 0b bd fa ac 4a bc 37 f3 fe 3b
       -0.06385321 -0.03396564 -0.012370342 0.0077804583

linears.4.weight f4 [4, 32]
000000 8f 62 5e 3e b6 f1 35 be c2 13 1b be 27 a4 10 3e
       0.21717285 -0.17767987 -0.15144256 0.14125119
000010 e6 38 36 bd 5f eb 3e ba 5a e2 1e bb 77 8c 21 3e
       -0.044487856 -0.0007282998 -0.0024243803 0.1577624
000020 61 c0 bd be 77 4d e7 3e 3a 89 83 3c fe fc 9c 3d
       -0.37060836 0.45176288 0.016056646 0.07665442
000030 73 8f be 3b 8f 03 83 3e 3b eb 5c bf 5d 1c 48 3e
       0.0058154403 0.25588652 -0.86296433 0.1954207
000040 e6 7b c3 3e c1 8a cb 3e a5 f4 2d 3d 7b 53 51 3e
       0.38180465 0.39754298 0.04246964 0.20442002
000050 31 7a 00 be 2d 03 95 bd eb 5c 6d 3e 66 17 ef bd
       -0.12546612 -0.07275996 0.23179977 -0.11674385
000060 1e eb ec be 3a bd 83 bd b7 39 c7 3c a6 f7 32 3e
       -0.4627313 -0.064325765 0.024319513 0.17477283
000070 14 36 1c 3e 80 e3 a1 3e 5e 5e 25 bf 39 0d 31 3d
       0.15255004 0.3161888 -0.6459712 0.0432255
000080 de 0f fd bd 86 21 46 3e 65 1a 69 bf e3 18 d6 be
       -0.12356542 0.19348726 -0.910559 -0.41815862
000090 96 9d 44 bf 2e e8 79 bf d7 09 01 3f 67 82 43 3f
       -0.7680296 -0.97619903 0.5040564 0.76370853
0000a0 cb 8e a2 3e 77 9f ca 3d fc af 07 bf 66 4b 91 be
       0.31749567 0.09893697 -0.53002906 -0.28377837
0000b0 87 e5 24 bf f4 53 a6 3e a6 7d 20 bf 73 60 62 3f
       -0.6441273 0.32485926 -0.62691724 0.8842842
0000c0 73 18 d6 3e 7a a3 30 be 11 90 6c 3f 4e 23 a9 3e
       0.41815528 -0.17249861 0.9240733 0.33034748
0000d0 b5 47 46 bf 63 14 20 bf b3 ec 44 bf f0 c0 09 3f
       -0.77453166 -0.6253111 -0.76923674 0.53810024
0000e0 01 47 af bd d8 81 3a bf c2 86 c5 be 83 a1 55 bf
       -0.08558465 -0.72854376 -0.38579375 -0.8344957
0000f0 2a 85 24 3f b3 39 a0 bd 4e 6a e4 be 5d 14 aa be
       0.6426569 -0.07823505 -0.44612354 -0.3321866
000100 74 b8 11 3f c7 62 af 3e 73 88 b6 be c9 64 3c bf
       0.5692208 0.3425505 -0.35650977 -0.73591286
000110 26 ff 8c 3d 76 c3 78 3e d7 6f 32 3f b9 44 b0 be
       0.06884603 0.24293312 0.69701904 -0.3442743
000120 2f c5 2c be 2e 9f 8d 3e 1f 92 dd be c0 20 ca be
       -0.16872095 0.27660507 -0.43275544 -0.3947811
000130 e7 39 01 3d b6 f5 9f 3e f5 42 72 3e 18 40 e9 bd
       0.03154936 0.3124215 0.23658355 -0.11389178
000140 2f 19 9d bb 16 b1 03 3f c3 03 82 be be 6e 08 3d
       -0.004794262 0.51442087 -0.25393495 0.033308737
000150 2f 41 81 3e af aa 08 bf 07 fc 14 bf 81 35 80 3d
       0.25245044 -0.5338544 -0.58197063 0.06260205
000160 8f d5 3a 3f 86 7d df be 52 ff 2c be 4b 48 f1 be
       0.72982115 -0.43650454 -0.16894272 -0.47125468
000170 ce c6 05 be e1 be 91 3e 3a f6 8c be 83 e5 8c 3e
       -0.13064119 0.28465942 -0.27531606 0.27518854
000180 6f 33 21 bf 93 c8 58 3f f5 0d 66 bf 0b 54 fa be
       -0.62969106 0.8468105 -0.89865047 -0.48892245
000190 db bb 2f bf e3 5f 5c bf 6a 74 9d 3f 95 e6 26 3f
       -0.6864602 -0.8608381 1.2301152 0.6519559
0001a0 6e 49 69 3f b7 ec 40 3f 54 2c 93 bf 0e f8 56 bf
       0.9112767 0.753612 -1.1497903 -0.8397225
0001b0 2f 90 26 bf ec d9 36 3e 0e 02 21 bf d7 bf 8f 3f
       -0.65063757 0.17856568 -0.6289376 1.123042
0001c0 00 37 b1 3e eb 85 89 be 34 c8 38 3f 41 f3 03 bf
       0.34612274 -0.26859984 0.72180486 -0.5154305
0001d0 12 64 85 bf 84 9f 8a bf b9 60 58 bf ba 89 0c 3e
       -1.0421164 -1.082993 -0.8452259 0.13724414
0001e0 f5 26 82 bf ba 75 ad bf d9 b2 76 bf 33 53 5b bf
       -1.0168139 -1.3551552 -0.9636665 -0.85673827
0001f0 39 9a 91 3f 51 04 a3 be f2 56 6d be 01 1e 47 3f
       1.137519 -0.3183923 -0.23177698 0.7778016

linears.4.bias f4 [4]
000000 e4 6a 84 bc 6e c9 a7 3e da 10 e7 bc 23 1c 45 3f
       -0.01616425 0.32770866 -0.028206278 0.7699606
