Iterations/Test model/epoch_6370.pt (torch, 37739 bytes, 10 tensors)

linears.0.weight f4 [32, 2]
0	0x3ea5d31c	0.32387626
1	0xbe5e938b	-0.2173597
2	0x3e8c262a	0.27372867
3	0xbf082684	-0.5318377
4	0x3e732612	0.23744991
5	0xbf131a39	-0.5746189
6	0xbdd22a30	-0.10261953
7	0xbf304968	-0.6886201
8	0xbd41a9ed	-0.047281194
9	0x3efa3102	0.48865515
10	0x3d407fa5	0.04699673
11	0xbf3e97bc	-0.7445028
12	0x3e3ae6dc	0.18252128
13	0x3f3e6624	0.74374604
14	0x3e38d988	0.18051732
15	0x3ec26950	0.37970972
16	0x3eb8f6c7	0.36125776
17	0xbe7c8949	-0.24661745
18	0xbe7461e3	-0.23865466
19	0xbe3ecff5	-0.18634017
20	0xbde9db4a	-0.11418779
21	0xbf1a067b	-0.6016614
22	0xbe877fe6	-0.26464766
23	0x3eeff374	0.46865427
24	0xbdf6785e	-0.12034677
25	0xbe8c9075	-0.27453962
26	0x3e29178e	0.16512892
27	0xbee618b8	-0.44940734
28	0xbdfd68a8	-0.12373477
29	0x3f59719b	0.84938973
30	0xbd6e2838	-0.058143824
31	0xbec89a98	-0.39180446
32	0x3e656734	0.2240265
33	0x3f31e7f5	0.69494563
34	0x3e9a7d42	0.3017369
35	0x3e82e64a	0.25566322
36	0xbdddb2e5	-0.10825137
37	0x3ee5f1ae	0.4491095
38	0xbe50a5b8	-0.20375717
39	0xbeb7851f	-0.3584375
40	0xbdf3f97e	-0.11912821
41	0xbe97ef51	-0.2967477
42	0x3e8fc948	0.28083253
43	0x3e4d9577	0.20076548
44	0x3f2b86bc	0.67002463
45	0xbe1504e5	-0.14552648
46	0x3e8d2a5c	0.2757138
47	0xbed9e92c	-0.4256071
48	0xbf0fa75d	-0.5611475
49	0x3ecda505	0.40164962
50	0x3ead493d	0.3384494
51	0xbe642dde	-0.22283122
52	0xbe3b09cc	-0.18265456
53	0xbe8610d4	-0.26184714
54	0x3d34e0f6	0.044159852
55	0x3ef4c29d	0.47804728
56	0x3da25052	0.07925476
57	0xbee5ff59	-0.44921377
58	0xbce79d5b	-0.028273275
59	0x3f0f493e	0.55971134
60	0x3e25c2cb	0.16187589
61	0xbf030287	-0.5117573
62	0xbd3b8d69	-0.045789156
63	0x3f5b5ead	0.8569134

linears.0.bias f4 [32]
0	0x3c3582f4	0.011078585
1	0x3cb8e416	0.022569697
2	0x3c8f3f3e	0.01748621
3	0x3bf603b5	0.007507766
4	0x3c1839b8	0.009291105
5	0xbbf7b28f	-0.0075591276
6	0x3b580505	0.0032961976
7	0xbd194974	-0.037423566
8	0xbb85d3aa	-0.00408407
9	0xbcd3ff1c	-0.025878482
10	0xba90e0e9	-0.0011053357
11	0xbda09e1a	-0.078426555
12	0x3d29aa24	0.041422024
13	0xbcf482f5	-0.029847601
14	0x3c494371	0.012284146
15	0xbc37beaf	-0.011214896
16	0xbb27e17b	-0.0025616575
17	0x3b12bea8	0.0022391472
18	0x3cba97dd	0.022777492
19	0xbca2e378	-0.019883856
20	0x3c4c1719	0.012456679
21	0xbc9c3305	-0.019067297
22	0x3de336bf	0.11094426
23	0x3d08f96f	0.033441003
24	0xbd9171c1	-0.07101775
25	0x3d2d3d18	0.04229459
26	0xbc249285	-0.010044699
27	0x3c1adde2	0.009452315
28	0x3ccfac0f	0.025350599
29	0x3c2174c3	0.009854498
30	0xbe0d8b25	-0.1382261
31	0x3c40247e	0.01172745

linears.1.weight f4 [64, 32]
0	0x3cedd395	0.029031554
1	0xbe897617	-0.26847908
2	0xbe4d6d7f	-0.200613
3	0xbe4d39b1	-0.20041539
4	0x3e5d88ee	0.21634266
5	0xbd1c3227	-0.038133767
6	0xbd866e15	-0.06563965
7	0x3e8a8e66	0.27061766
8	0x3e2e7beb	0.17039458
9	0x3e9e6bf3	0.30941734
10	0x3d874d44	0.06606534
11	0x3ea715f9	0.3263395
12	0xbe6ca160	-0.23108435
13	0xbefac467	-0.48977968
14	0x3c9f05fe	0.019412037
15	0xbe4929d0	-0.19644856
16	0x3ea7532b	0.3268064
17	0x3ca7acfa	0.020468224
18	0xbc2c5ab0	-0.010519668
19	0x3d10db68	0.035365492
20	0xbec28b3f	-0.3799686
21	0xbd1aa269	-0.037752543
22	0xbdcdcb12	-0.10048498
23	0x3e425f3a	0.18981639
24	0x3db4a14f	0.0881983
25	0x3e2a1c5d	0.16612382
26	0xbe919f40	-0.2844181
27	0xbd7c3677	-0.06157538
28	0x3ddde2ff	0.10834312
29	0x3e23c514	0.15993148
30	0xbdafa574	-0.085764796
31	0x3e19b108	0.15008938
32	0x3d02112e	0.031754665
33	0x3db7d047	0.089752726
34	0xbdcf1fcb	-0.10113486
35	0x3e141d79	0.14464368
36	0xbded0273	-0.11572733
37	0xbe09e150	-0.13464856
38	0x3e6060c3	0.21911912
39	0x3ea21085	0.31653228
40	0x3ec95870	0.39325285
41	0x3e6410fa	0.22272101
42	0xbe0239f4	-0.1271742
43	0xbd6f472c	-0.058417484
44	0xbd876315	-0.06610695
45	0x3e0f00e2	0.1396518
46	0x3e01b903	0.12668233
47	0xbd88f7f7	-0.066879205
48	0x3e689fa8	0.22717154
49	0xbe3666d2	-0.1781266
50	0xbe66a412	-0.22523525
51	0xbd83e9bc	-0.06441066
52	0xbcbc616f	-0.022995679
53	0x3ea9ac0a	0.33139068
54	0xbdabf7bd	-0.08396862
55	0xbe096e9d	-0.13421102
56	0x3da1e2d4	0.07904592
57	0xbcfed465	-0.031107137
58	0x3d9a406a	0.07531817
59	0xbd5ef7f7	-0.054435696
60	0xbca6dffe	-0.02037048
61	0xbcb051ea	-0.021523435
62	0x3ea32357	0.318629
63	0x3e760c8d	0.24028225
64	0xbd98bdcb	-0.07458075
65	0x3de67173	0.112521075
66	0x3e41792d	0.18893881
67	0xbc03f19d	-0.008053211
68	0x3d17cb7a	0.037059285
69	0xbcca477c	-0.02469229
70	0xbd018f5d	-0.031630863
71	0xbe42e77b	-0.19033615
72	0xbdb7d5e2	-0.08976342
73	0xbe9ad39b	-0.30239567
74	0xbe51db5c	-0.20493835
75	0xbca1e324	-0.01976163
76	0x3e94d6ed	0.29070225
77	0x3b73a480	0.0037176907
78	0xbc4b2748	-0.012399502
79	0xbe82026e	-0.2539248
80	0xbd53d79e	-0.0517193
81	0x3e86de81	0.26341632
82	0xbdec46db	-0.11536952
83	0xbda9797b	-0.08275124
84	0xbe27a85f	-0.16372822
85	0xbe4f51f1	-0.20246102
86	0x3e137834	0.14401323
87	0xbd8e3310	-0.06943333
88	0xbd42c00e	-0.04754644
89	0x3cfae571	0.030626984
90	0x3d48192f	0.048852142
91	0xbdd48674	-0.103772074
92	0xbd9309db	-0.07179614
93	0x3e80ea7c	0.25178897
94	0xbddf46e3	-0.109021924
95	0xbe80e34e	-0.2517342
96	0xbc7a0d26	-0.015261924
97	0x3e411fe8	0.18859828
98	0x3e053bf8	0.13011158
99	0xbd8eb945	-0.06968931
100	0xbe8dfb08	-0.27730584
101	0xbe27aca4	-0.16374451
102	0xbcdb41dd	-0.026764804
103	0xbdac9995	-0.08427731
104	0x3e835cb5	0.25656667
105	0xbe538dea	-0.20659605
106	0x3d9c6a41	0.07637454
107	0xbd407b89	-0.046992812
108	0x3cd2839e	0.025697526
109	0x3e3d6fb7	0.18499647
110	0x3dc59d76	0.09649174
111	0xbec794c5	-0.3898069
112	0xbd879cd7	-0.06621712
113	0xbdb42ae4	-0.08797243
114	0x3cb4f5b5	0.022089818
115	0xbd990b01	-0.07472802
116	0xbd9e62de	-0.07733701
117	0x3e0e15ab	0.13875453
118	0x3e94d3ea	0.29067928
119	0x3db320db	0.08746501
120	0xbe3d8159	-0.18506373
121	0x3e932d50	0.28745508
122	0xbda9ca51	-0.08290542
123	0xbdc3af93	-0.095549725
124	0x3d56e725	0.05246653
125	0xbdb6fbaf	-0.089347236
126	0xbe749054	-0.23883182
127	0xbd3e2bcc	-0.046428487
128	0x3cf7b493	0.030237472
129	0x3d0fbbee	0.035091333
130	0xbd992ad1	-0.0747887
131	0xbd8f6ec2	-0.07003547
132	0x3d5b54c3	0.053547632
133	0xbe0460de	-0.12927577
134	0x3e151198	0.14557493
135	0x3d32cf4f	0.043654736
136	0xbcf777fa	-0.030208576
137	0xbe48e3f4	-0.19618207
138	0xbeb726dd	-0.35771838
139	0xbe2baca7	-0.1676508
140	0xbe20d9b9	-0.15708055
141	0xbe4b45c8	-0.19850838
142	0x3ed2be45	0.4116079
143	0x3b762fe1	0.003756516
144	0x3e0a4404	0.13502508
145	0x3e7e500b	0.24835221
146	0xbd31de3f	-0.04342484
147	0x3e966f27	0.29381678
148	0xbe1c197a	-0.15244094
149	0x3d056277	0.032564607
150	0xbe7a8c40	-0.24467564
151	0x3cc7783f	0.02434933
152	0xbd02694d	-0.031838704
153	0x3cf7220f	0.030167608
154	0xbe281023	-0.16412406
155	0x3e3815ac	0.17977017
156	0x3d018536	0.03162118
157	0x3d576019	0.05258188
158	0xbd5203fa	-0.051273324
159	0x3e674bd7	0.22587524
160	0x3d1ee689	0.038794074
161	0xbe42a78f	-0.19009231
162	0xbe74003d	-0.23828216
163	0xbe39f5e3	-0.18160205
164	0x3eee1431	0.4649978
165	0xbea6b4fc	-0.32559955
166	0xbd1aac0f	-0.037761744
167	0xbd7bec0a	-0.0615044
168	0x3ba0f5bb	0.004912106
169	0xbdbc4531	-0.09192885
170	0xbd2264ba	-0.03964684
171	0x3e1c4a72	0.15262774
172	0xbe022f34	-0.12713319
173	0x3e56efa0	0.20989847
174	0x3e797394	0.24360496
175	0xbca9b85a	-0.020717788
176	0xbebed610	-0.37272692
177	0x3d119349	0.035540853
178	0x3e0ee232	0.13953474
179	0x3e909457	0.28238174
180	0x3d2a96ff	0.041647907
181	0xbe7f5015	-0.24932893
182	0xbe3b9e13	-0.1832202
183	0xbe0b9d2a	-0.13634172
184	0x3e7eec83	0.2489491
185	0x3ca199c3	0.01972664
186	0x3eb3122c	0.34974802
187	0x3d35192d	0.044213463
188	0xbe04e72e	-0.12978813
189	0x3e8b82e9	0.27248314
190	0xbea23466	-0.31680602
191	0x3e112e12	0.1417773
192	0xbe2dc2c5	-0.1696883
193	0x3e09fdfe	0.13475797
194	0x3e842970	0.25812864
195	0x3e36b970	0.17844176
196	0xbe590e0b	-0.21196763
197	0x3e2476f8	0.16061008
198	0xbd3ce80d	-0.04611974
199	0xbe8068f6	-0.2508008
200	0x3eb6cb30	0.35701895
201	0xbeb5f1d9	-0.35536078
202	0x3e1d607d	0.15368839
203	0x3cd34b57	0.02579276
204	0xbe085e23	-0.1331716
205	0xbe19c9b6	-0.15018353
206	0xbd6bd01c	-0.057571515
207	0xbe818208	-0.25294518
208	0x3dc25675	0.094891466
209	0xbe0f7764	-0.14010388
210	0xbd946961	-0.07246662
211	0x3df91e9c	0.121640414
212	0x3e269a04	0.1626969
213	0xbe2ababa	-0.16672793
214	0x3e6e128e	0.23249266
215	0xbd14eca0	-0.036358476
216	0xbd6a7804	-0.057243362
217	0xbd65d440	-0.05611062
218	0x3e1e50b9	0.15460481
219	0xbdda2f6f	-0.106535785
220	0xbdc7461e	-0.09730171
221	0xbef9abdb	-0.48763928
222	0xbd450aff	-0.04810619
223	0xbe142937	-0.14468847
224	0x3d905ed0	0.07049334
225	0xbe1453d0	-0.14485097
226	0x3e06f8f9	0.13180913
227	0x3b1e8bfd	0.0024192326
228	0x3e5903c5	0.21192844
229	0xbe6ced44	-0.23137385
230	0x3e1557a6	0.14584216
231	0x3e568a19	0.20951118
232	0xbe5c65f1	-0.21523263
233	0x3eba4402	0.3638001
234	0x3de32b01	0.11092187
235	0xbd4d4e35	-0.050123412
236	0xbe4e8b40	-0.20170307
237	0x3de099cf	0.10966837
238	0x3e18f48c	0.14937037
239	0x3bc6cdbb	0.0060670055
240	0x3d949cd3	0.07256474
241	0xbdac04b4	-0.083993345
242	0x3e729009	0.23687758
243	0xbe045b7c	-0.12925524
244	0xbdb3b21a	-0.087742046
245	0xbe0cacdc	-0.13737816
246	0x3e86e6f4	0.26348078
247	0xbd890fd5	-0.06692473
248	0xbc9d2a7a	-0.019185293
249	0x3d5394dd	0.05165564
250	0xbe4fdf94	-0.20300132
251	0xbda52281	-0.08063222
252	0x3cc1770d	0.023616338
253	0x3ea5a5ff	0.32353207
254	0xbeb6ec5f	-0.35727212
255	0x3ebd95e9	0.37028435

linears.1.bias f4 [64]
0	0xbcb234cc	-0.021753691
1	0xbcedd026	-0.029029917
2	0x3d6a9e31	0.05727977
3	0x3d70bf27	0.058776047
4	0x3c66ef23	0.014095101
5	0x3c690d51	0.014224366
6	0xba2c9aa4	-0.00065843225
7	0x3d9ec55b	0.07752486
8	0xbb36671b	-0.0027832452
9	0x3cb51e05	0.022109041
10	0xbcba56a6	-0.022746395
11	0x3d2f3390	0.042773783
12	0xbc73ca1e	-0.014879731
13	0xbcc0630e	-0.023484733
14	0xbcae0b07	-0.021245493
15	0x3c917a00	0.01775837
16	0xbb7774b0	-0.003775876
17	0xbaeb007b	-0.001792922
18	0xbc24fc80	-0.010069966
19	0x3d13fb33	0.036128234
20	0xbc41f618	-0.0118384585
21	0x3c01c6e7	0.007920957
22	0x3c377866	0.011198139
23	0x3af347aa	0.0018560786
24	0xbc67214d	-0.014107061
25	0xbb8c1464	-0.0042748917
26	0xbc6ba795	-0.014383216
27	0x3c4489f2	0.011995779
28	0x3d94061f	0.0722773
29	0xbc3e0442	-0.011597695
30	0xbcd14b47	-0.02554859
31	0xbc86f678	-0.016474947
32	0xbcb2ba17	-0.02181725
33	0x3d91b618	0.0711481
34	0xbc52dcea	-0.012870053
35	0x35c18348	1.4417828e-06
36	0x3cdfc11c	0.027313761
37	0xbc9ca6a2	-0.019122425
38	0x3bb56d9d	0.0055367486
39	0x3ca4d1c5	0.020119557
40	0x3c5ec1c6	0.013596004
41	0xbc3bcda0	-0.011462599
42	0xbcf6868c	-0.030093454
43	0xbbc57f31	-0.0060271253
44	0x3e22aa84	0.15885359
45	0xbbc06593	-0.0058714836
46	0x3c955348	0.018228188
47	0x3c524474	0.012833703
48	0xbd0b3bfe	-0.03399276
49	0x3d544756	0.051825844
50	0xbdfa9c7f	-0.122368805
51	0xbc3a06c0	-0.011354148
52	0xba95f02f	-0.0011439378
53	0x3d0e70ed	0.034775663
54	0x3c87196e	0.016491618
55	0x3c9e8659	0.019351171
56	0xbce00a2c	-0.0273486
57	0xbc0408f4	-0.008058775
58	0xbc02cc57	-0.007983289
59	0x3c8ff36d	0.01757213
60	0xbb6aee59	-0.0035847633
61	0xbc0b7145	-0.008510892
62	0xbc33838b	-0.010956655
63	0xbcabbd0a	-0.020964164

linears.2.weight f4 [64, 64]
0	0xbe1fb668	-0.15596926
1	0x3cc587d0	0.024112612
2	0xbd2ee137	-0.04269525
3	0x3de5471c	0.11195204
4	0xbe1be1a8	-0.152228
5	0x3d3f5f59	0.04672179
6	0x3d73867a	0.05945442
7	0x3da95750	0.08268607
8	0xbb6f3496	-0.003649985
9	0x3d204b16	0.039134108
10	0xbc890b29	-0.016728954
11	0x3e1142d0	0.14185643
12	0x3ccd6527	0.025072647
13	0x3e1b321a	0.15155831
14	0xbd43d17b	-0.047807198
15	0x3dba14f3	0.09086027
16	0xbb5afc24	-0.0033414448
17	0x3c85adf4	0.016318299
18	0x3ea43f92	0.3207975
19	0x3d3ab232	0.045580097
20	0x3e745e20	0.23864031
21	0xbc9d4457	-0.019197626
22	0x3d1fa68d	0.038977195
23	0xbdc636fd	-0.09678457
24	0x3e0e3134	0.13885957
25	0x3e20201a	0.15637246
26	0xbd997b50	-0.07494223
27	0xbdc8996e	-0.097948894
28	0xbd6b8130	-0.05749625
29	0xbe3b30f2	-0.1828039
30	0x3bec9f78	0.0072211586
31	0x3d05196d	0.03249495
32	0x3e5dbe2c	0.21654576
33	0x3dab763b	0.0837216
34	0x3e62d495	0.22151406
35	0xbdf59ef7	-0.11993211
36	0xbd33242f	-0.04373568
37	0x3dde0000	0.10839844
38	0xbd6219a5	-0.055200238
39	0xbe083721	-0.1330228
40	0x3cc88c2e	0.024480905
41	0x3e5619ef	0.2090833
42	0xbcd23038	-0.025657758
43	0x3a9dbce9	0.0012034449
44	0x3c8d48e0	0.017246664
45	0xbc959880	-0.018261194
46	0x3db3fd94	0.087886006
47	0xbdb96c49	-0.09053857
48	0xbe907faa	-0.282224
49	0xbe836ea5	-0.25670353
50	0xbe45a9a6	-0.19302997
51	0xbd603cd6	-0.054745518
52	0xbe86a39d	-0.26296702
53	0xbe349948	-0.17636597
54	0xbe7c2654	-0.24623996
55	0x3e0751bf	0.13214777
56	0xbd74d976	-0.0597777
57	0x3d8277a0	0.06370473
58	0x3d417db0	0.047239006
59	0x3e644c46	0.22294721
60	0xbd45e598	-0.04831466
61	0x3e237d22	0.15965703
62	0xbe3e7e61	-0.18602897
63	0xbe0f12dc	-0.13972038
64	0xbe78f83d	-0.24313445
65	0xbd421cde	-0.04739081
66	0x3db2a108	0.087221205
67	0xbd905d90	-0.07049096
68	0x3b884db7	0.004159655
69	0xbd9fdeff	-0.07806205
70	0xbd16491f	-0.036690827
71	0x3ea3c90b	0.3198932
72	0x3d408f25	0.047011513
73	0xbe3c69cd	-0.18399735
74	0xbdfcea9f	-0.12349438
75	0x3d4476ce	0.047964863
76	0xbe0ba196	-0.13635859
77	0xbe5a717d	-0.21332355
78	0x3c6c029e	0.014404921
79	0x3cdb2c7d	0.026754612
80	0x3e3da380	0.18519402
81	0xbd72d0f9	-0.059281323
82	0xbe3c218a	-0.18372169
83	0x3e943650	0.28947687
84	0xbe14a0fa	-0.14514533
85	0x3db0d4fc	0.086343735
86	0x3d976702	0.07392694
87	0x3e0f6011	0.1400149
88	0xbe171306	-0.1475335
89	0xbdd82a8f	-0.105549924
90	0x3d8dc727	0.06922751
91	0xbe70a986	-0.23502168
92	0xbd0ba447	-0.034092214
93	0x3e53bb27	0.20676862
94	0xbd91dc04	-0.07122043
95	0x3dc07e3f	0.093990795
96	0xbe75fa8a	-0.24021354
97	0xbdeebc5d	-0.11657021
98	0xbe64ea5c	-0.22355026
99	0x3d0fad36	0.035077296
100	0xbea27896	-0.31732625
101	0xbe4054fa	-0.18782416
102	0x3c3fd385	0.011708145
103	0x3e346e4e	0.17620203
104	0xbe059618	-0.13045537
105	0x3d1d9491	0.038471762
106	0x3dcb985f	0.09941172
107	0x3d7d10c8	0.061783582
108	0xbb52d907	-0.0032172815
109	0x3e0437ed	0.12911959
110	0xbb3f809b	-0.0029220942
111	0x3dcebab4	0.100942045
112	0x3e2939a5	0.16525896
113	0x3dbdc632	0.092663184
114	0xbde6dac7	-0.11272197
115	0xbdfb3267	-0.12265473
116	0x3d327f83	0.043578636
117	0xbcfa8366	-0.030580234
118	0xbcc440f4	-0.023956753
119	0x3e5cd915	0.21567185
120	0x3e1ce5a7	0.1532198
121	0x3dfba64f	0.1228758
122	0xbba6f8cf	-0.0050955783
123	0x3d3e357a	0.046437718
124	0xbc730e62	-0.014834972
125	0xbdcf571e	-0.10124038
126	0xbe4f4dac	-0.20244473
127	0xbbb569f8	-0.005536314
128	0xbdfc2cca	-0.1231323
129	0xbe694855	-0.22781499
130	0xbe72f63e	-0.23726746
131	0x3d7aa9ce	0.061197095
132	0xbe641a15	-0.22275575
133	0x3e1aa588	0.15102208
134	0x3c2236b8	0.009900741
135	0xbcaa8e10	-0.020819694
136	0x3db6db4c	0.08928546
137	0xbdad08b4	-0.084489256
138	0xbe59cf1f	-0.21270417
139	0xbe397f09	-0.18114866
140	0xbd301368	-0.042987257
141	0xbdeb8e0f	-0.11501705
142	0x3e9a6742	0.30156904
143	0xbdba3f82	-0.090941444
144	0xbead0bcd	-0.33798066
145	0xbd12208c	-0.03567557
146	0x3d94d370	0.07266891
147	0x3dc09de0	0.09405112
148	0xbe501c3e	-0.20323274
149	0x3d9e96c1	0.07743598
150	0xbd727eef	-0.059203085
151	0x3e0b1099	0.1358055
152	0x3de4ce90	0.11172211
153	0xbcd2e46a	-0.025743682
154	0x3e01c3ee	0.12672397
155	0x3e1db148	0.15399659
156	0x3e030a9b	0.12797014
157	0x3e1f4a57	0.15555702
158	0xbdd96c4f	-0.10616361
159	0x3e2b1d06	0.1671029
160	0xbde3c02f	-0.111206405
161	0x3e39bb1e	0.18137786
162	0x3d8d29e0	0.06892753
163	0xbe1cf689	-0.1532842
164	0xbe1714d5	-0.1475404
165	0x3d3675c2	0.044545896
166	0xbd94a658	-0.0725829
167	0x3d8ebe40	0.06969881
168	0xbca88067	-0.02056904
169	0xbdc9d369	-0.098547764
170	0x3dfd30ae	0.123628005
171	0xbcec6842	-0.028858308
172	0x3d99c972	0.07509126
173	0x3dcbf157	0.09958141
174	0x3d3aaf47	0.045577314
175	0xbdbbfbcf	-0.09178888
176	0xbc3b0d2e	-0.0114167165
177	0x3e1d9cf4	0.15391904
178	0xbdfae064	-0.1224983
179	0x3de78725	0.11305074
180	0xbdfd83bd	-0.12378643
181	0x3e05fae0	0.13083982
182	0xbe0f0a7a	-0.1396884
183	0x3d35123d	0.044206847
184	0xbd2a32fd	-0.041552532
185	0x3cd891ed	0.02643677
186	0xbe67df68	-0.22643816
187	0xbdbaea94	-0.091267735
188	0x3df52974	0.11970797
189	0xbd6d7e7e	-0.05798196
190	0x3d6b56f9	0.05745599
191	0xbde94a76	-0.113911554
192	0xbd9e9f34	-0.07745209
193	0x3e3ed6e4	0.18636662
194	0x3e5d13ec	0.21589631
195	0xbeabab16	-0.33528966
196	0xbdf1f17c	-0.118136376
197	0xbe3a5dd1	-0.1819985
198	0xbe1a2267	-0.15052186
199	0xbe464f76	-0.1936625
200	0xbe23087d	-0.15921207
201	0x3d37adc7	0.04484346
202	0x3b54a436	0.003244651
203	0xbc2f4057	-0.010696492
204	0x3c578d73	0.013156283
205	0x3e651cb8	0.22374237
206	0xbda2dcfe	-0.07952307
207	0xbd7798d5	-0.060448486
208	0x3efd00bc	0.49414623
209	0x3d99d1c9	0.075107165
210	0x3eb20b6d	0.34774342
211	0x3d718a57	0.05896982
212	0x3c71947b	0.014744873
213	0xbe1196fc	-0.14217752
214	0xbe30b5cd	-0.17256851
215	0xbd340043	-0.043945562
216	0x3da27af1	0.079336055
217	0xbbb04cd4	-0.0053802524
218	0x3d252133	0.040314864
219	0xbe38b77d	-0.18038745
220	0x3ddc6125	0.10760716
221	0xbda9c3d5	-0.08289305
222	0x3e577ff5	0.21044905
223	0x3e889b3f	0.26680943
224	0x3d9fd520	0.07804322
225	0xbe0eb255	-0.13935216
226	0x3d90f884	0.070786506
227	0xbd008fef	-0.031387266
228	0xbd7fa438	-0.06241247
229	0xbe3456e5	-0.17611273
230	0x3c2da846	0.010599202
231	0xbe3d2b3d	-0.18473525
232	0x3dee9e38	0.116512716
233	0x3d9f30d4	0.07772985
234	0x3de76346	0.11298232
235	0xbdd7753e	-0.10520409
236	0xbdf5e3c2	-0.12006332
237	0x3d4fd070	0.05073589
238	0xbd936c3b	-0.07198378
239	0xbdbcc785	-0.09217743
240	0xbdac9149	-0.084261484
241	0xbd9dad7d	-0.07699106
242	0xbe20cb33	-0.15702514
243	0x3d2bcd6a	0.041943945
244	0xbbeeefe6	-0.0072917817
245	0xbe32ee00	-0.17473602
246	0x3cb8c8cb	0.022556683
247	0xbdb51972	-0.08842744
248	0x3df20c63	0.11818769
249	0xbe47a22c	-0.19495457
250	0x3e594aa9	0.21219887
251	0x3d541cab	0.051785152
252	0x3e41235e	0.18861148
253	0x3e97cd0d	0.2964863
254	0xbd257451	-0.04039413
255	0x3df26d4e	0.118372545

linears.2.bias f4 [64]
0	0x3cab487e	0.02090859
1	0x3ca293d4	0.01984588
2	0x3c967530	0.018366426
3	0xbd38670e	-0.045020156
4	0x3dbd3385	0.09238342
5	0xbd32290d	-0.04349618
6	0xbdb31cd5	-0.08745734
7	0xb9009da3	-0.00012265756
8	0xbca79520	-0.02045685
9	0x3ca0be9a	0.019622136
10	0x3b909c72	0.004413181
11	0xbc63a6b3	-0.013894725
12	0xbce12ee3	-0.027488178
13	0x3d0102c6	0.031496786
14	0x3db7649d	0.08954737
15	0x3ccd9d1e	0.025099333
16	0xbcde7299	-0.027154254
17	0xbcea5cff	-0.028608797
18	0xbd508e36	-0.050916873
19	0x3b9a226c	0.0047038104
20	0x3d0b1644	0.03395678
21	0xbc8c551d	-0.017130429
22	0xbd118f41	-0.03553701
23	0x3be86f0c	0.007093316
24	0x3c434db1	0.011920379
25	0x3d131985	0.03591301
26	0xbc89a006	-0.016799938
27	0x3bf4252d	0.0074507208
28	0x3b10c960	0.0022092685
29	0x3d45697d	0.048196305
30	0x3c756987	0.014978773
31	0xba713b3a	-0.0009202246
32	0xbc9c3017	-0.0190659
33	0xbd27347d	-0.04082154
34	0x3befa038	0.0073128007
35	0xbc1ccb59	-0.009569966
36	0xbb85e67a	-0.004086313
37	0xbbe31e87	-0.0069311294
38	0x3b03230a	0.0020009899
39	0xbcae0b69	-0.021245675
40	0xbca73b70	-0.020414084
41	0xbbdf62b9	-0.0068171886
42	0x3c4d350c	0.012524854
43	0x3d74b9c8	0.059747487
44	0xbda71a34	-0.08159295
45	0xbcab4349	-0.020906108
46	0x3cb4a768	0.022052482
47	0xbc2ec8a8	-0.010667957
48	0x3c43b9c8	0.011946149
49	0x3d356b13	0.044291567
50	0xbcab03b0	-0.020875782
51	0x3d827f4c	0.06371936
52	0xbcb0419e	-0.021515664
53	0x3c963ea7	0.018340422
54	0x3d9cc0d3	0.07653966
55	0x3d70f3be	0.0588262
56	0x3d8360d7	0.06414955
57	0x3c6b3018	0.014354728
58	0xbcf8ce9e	-0.03037196
59	0xbc62a060	-0.013832182
60	0x3d2f67d3	0.042823624
61	0x3cef5423	0.029214924
62	0x3d2fa0c2	0.04287792
63	0x3c1f3b75	0.0097187655

linears.3.weight f4 [32, 64]
0	0xbed2ceea	-0.41173488
1	0xbd986f2f	-0.074430816
2	0xbe1d53bc	-0.15363973
3	0x3e7c165a	0.24617901
4	0x3d92cf74	0.07168475
5	0x3e021831	0.12704541
6	0x3e7c86da	0.24660817
7	0x3d71851c	0.058964834
8	0x3eae4c44	0.3404256
9	0xbd77c04d	-0.060486127
10	0x3cfee731	0.0311161
11	0x3db2a5b1	0.087230094
12	0x3de96e81	0.1139803
13	0xbe9762bf	-0.29567525
14	0xbe90befb	-0.28270707
15	0x3c11e4e6	0.008904671
16	0x3d837394	0.06418529
17	0x3e433d95	0.1906646
18	0xbe07adb4	-0.13249856
19	0xbc69b2cc	-0.01426382
20	0x3cdae08d	0.026718402
21	0x3e0ba71e	0.13637969
22	0x3e8a0f6c	0.2696489
23	0x3d4736e8	0.048636347
24	0xbe203fc5	-0.15649326
25	0x3db9fb93	0.09081187
26	0xbe1ea7d6	-0.15493712
27	0xbe7cb31d	-0.24677701
28	0xbd0ff95d	-0.03514992
29	0x3e06ee8b	0.13176934
30	0x3d395acb	0.045252603
31	0x3e040f95	0.12896569
32	0xbdab1606	-0.0835381
33	0x3d02f330	0.031970203
34	0x3e1e0bbc	0.15434164
35	0x3dcc0fa8	0.09963924
36	0xbd0cb866	-0.034355544
37	0x3d9dec82	0.07711126
38	0x3e40f8a4	0.18844849
39	0xbdeaaa87	-0.11458307
40	0x3e098147	0.13428222
41	0xbd4a7306	-0.0494261
42	0xbd382450	-0.044956505
43	0x3e57c7ec	0.21072358
44	0xbc0ec488	-0.008713849
45	0xbdea469b	-0.11439248
46	0xbe86040f	-0.2617497
47	0xbe5bea12	-0.2147601
48	0x3e08f563	0.13374858
49	0x3e0183ef	0.12647985
50	0x3dd5a0be	0.1043105
51	0x3e45f1f5	0.1933058
52	0x3da5980d	0.08085642
53	0x3e7a833b	0.24464123
54	0xbeb609d1	-0.35554364
55	0x3df3d87e	0.11906527
56	0xbd8e7d34	-0.06957474
57	0xbae5b419	-0.0017524987
58	0x3e80c7eb	0.25152525
59	0x3e34fcb2	0.1767452
60	0xbe11196d	-0.14169855
61	0x3d482eff	0.048872944
62	0x3da5f34d	0.081030466
63	0xbe2f329c	-0.1710915
64	0x3ec258f8	0.37958503
65	0x3e40b5b6	0.18819317
66	0x3e2fa849	0.1715404
67	0x3d32467d	0.043524254
68	0x3ebc8960	0.3682356
69	0xbeec2da9	-0.46128586
70	0xbe7f8aa0	-0.24955225
71	0x3e345913	0.17612104
72	0x3e049c62	0.1295028
73	0x3d2093c4	0.03920342
74	0x3e334c21	0.1750951
75	0x3f05a7b1	0.52209
76	0xbe2e8804	-0.17044073
77	0xbe5557ee	-0.20834324
78	0x3e7de689	0.24794973
79	0x3d98093d	0.07423637
80	0x3db2efc8	0.08737141
81	0x3ac83f77	0.0015277703
82	0x3cf5a905	0.029987821
83	0x3e966423	0.29373273
84	0x3e979181	0.29603198
85	0x3e530a4a	0.20609394
86	0x3ebff78a	0.37493545
87	0xbe91dbe2	-0.2848807
88	0xbd6d4ede	-0.05793654
89	0x3e118355	0.14210255
90	0x3dd447d1	0.103652604
91	0xbee9d4fa	-0.456703
92	0xbd075144	-0.033036485
93	0x3ad5b486	0.001630441
94	0xbe7578f7	-0.23971926
95	0xbea017f9	-0.3126829
96	0x3e5db7c5	0.21652134
97	0xbdfbc442	-0.122932926
98	0x3d4695cc	0.0484827
99	0xbe6ceef1	-0.23138024
100	0x3ef788c9	0.48346546
101	0x3f0e3dbd	0.55562955
102	0xbd9d6e88	-0.07687098
103	0x3e466f42	0.19378379
104	0x3dd31ec7	0.10308605
105	0xbeb436bf	-0.35198018
106	0xbe83b047	-0.25720426
107	0xbe3d19d6	-0.18466887
108	0x3dd62f8d	0.10458288
109	0x3ea00919	0.3125694
110	0x3d98312a	0.07431252
111	0x3e866b75	0.26253858
112	0xbd47d5dc	-0.048787937
113	0xbd9e40de	-0.07727216
114	0x3e9470f3	0.28992423
115	0xbe9b998e	-0.3039059
116	0x3d1d5d62	0.038419135
117	0x3d69cfb3	0.057082843
118	0x3e17e468	0.14833224
119	0xbd27384e	-0.04082518
120	0x3e17d66f	0.14827894
121	0xbd631a74	-0.05544515
122	0xbf1a095f	-0.6017055
123	0x3e27953c	0.16365522
124	0xbe01dc0e	-0.126816
125	0xbeb6f315	-0.35732332
126	0x3ecd4926	0.4009487
127	0x3eb82deb	0.35972533
128	0x3e5e066e	0.2168214
129	0xbe562636	-0.20913014
130	0x3e39899c	0.181189
131	0x3d88dfd1	0.066833146
132	0x3d517074	0.051132634
133	0x3e9296a8	0.28630567
134	0xbd9cbb0c	-0.07652864
135	0xbdbad44b	-0.09122523
136	0xbe5c9272	-0.2154024
137	0xbdde3045	-0.108490504
138	0xbe836013	-0.25659236
139	0x3c2b5a5e	0.010458557
140	0xbc179d4d	-0.009253812
141	0xbe37bc56	-0.17942938
142	0xbd853295	-0.065037884
143	0xbe38a849	-0.18032946
144	0x3e14e22a	0.145394
145	0x3e225d5d	0.15855928
146	0x3e6baaeb	0.23014419
147	0x3d0ab0a2	0.033859856
148	0xbddb5e98	-0.10711402
149	0x3e26d611	0.16292597
150	0x3db05cdc	0.086114615
151	0x3e14bbff	0.1452484
152	0xbd9782aa	-0.07397969
153	0xbde2cf6c	-0.11074719
154	0x3d3a2ded	0.045453954
155	0xbcfbe292	-0.030747686
156	0xbe1eaac7	-0.15494834
157	0xbe1a2322	-0.15052465
158	0x3d79e280	0.061007023
159	0x3be3a18c	0.006946748
160	0x3e5c5d0b	0.21519868
161	0xbd06eed9	-0.032942627
162	0x3ea2e46a	0.3181489
163	0x3e0f0f1f	0.13970612
164	0x3ce61db4	0.028090335
165	0xbdfa5804	-0.12223819
166	0x3c4aac73	0.012370217
167	0x3e219367	0.15778886
168	0xbe903d0a	-0.2817157
169	0xbe5ce80f	-0.21572898
170	0x3e2a02bf	0.1660261
171	0xbec5d0c6	-0.38635844
172	0xbd369f7d	-0.044585694
173	0x3e728b47	0.23685943
174	0xbec58572	-0.38578373
175	0xbe170880	-0.14749336
176	0x3e69494d	0.22781868
177	0x3dd1980c	0.10234079
178	0x3d3ea0e3	0.046540152
179	0xbd8671ac	-0.0656465
180	0x3e5cbc30	0.21556163
181	0x3c1d761c	0.009610679
182	0xbead9c2c	-0.33908212
183	0x3c8daea8	0.017295197
184	0x3d1fb12d	0.038987327
185	0xbe0f6637	-0.14003836
186	0x3c83047a	0.015993346
187	0x3dbde5bc	0.09272334
188	0xbe2eae93	-0.17058782
189	0x3e9b90b0	0.30383825
190	0xbdbc98c6	-0.09208827
191	0x3e35c62e	0.17751381
192	0xbe8a985f	-0.27069375
193	0x3e5b4cac	0.21415967
194	0x3de347ee	0.11097704
195	0xbd983d92	-0.074336186
196	0x3da411c1	0.08011199
197	0xbe5439c8	-0.20725167
198	0x3e82856c	0.25492418
199	0x3db2950e	0.08719836
200	0x3d176548	0.036961824
201	0xbecc1618	-0.39860606
202	0xbdc4683a	-0.09590192
203	0xbe00ebeb	-0.12589996
204	0x3c80c95a	0.015721012
205	0x3df9689f	0.12178158
206	0x3bc79581	0.0060908203
207	0xbe4dab09	-0.20084776
208	0x3e1bea15	0.15226014
209	0xbdf0855a	-0.11744185
210	0x3e42ba37	0.19016348
211	0x3e786e69	0.24260868
212	0xbe203090	-0.15643525
213	0xbdadf492	-0.08493914
214	0x3ea22219	0.3166664
215	0xbd84c521	-0.06482912
216	0xbe3b79e1	-0.18308212
217	0xbdac181d	-0.08403037
218	0x3e0bdb41	0.13657857
219	0x3e0a483b	0.13504116
220	0x3c8c58b1	0.017132135
221	0xbe0c1f6e	-0.13683864
222	0xbe1be4bd	-0.15223975
223	0x3dce1c9a	0.10064049
224	0x3d7c217e	0.06155538
225	0x3e87dfe2	0.26537997
226	0x3da5b582	0.080912605
227	0xbe9d7004	-0.30749524
228	0x39fe49d8	0.00048501673
229	0xbe4644bb	-0.19362156
230	0x3de9d230	0.11417043
231	0x3bca2d97	0.0061699855
232	0x3dbb683c	0.091507405
233	0xbe176c08	-0.14787304
234	0xbdb5de72	-0.08880319
235	0xbdf7721d	-0.12082312
236	0xbe84a56c	-0.25907457
237	0x3ea19c38	0.31564498
238	0xbe467618	-0.19380987
239	0x3dcc8bbf	0.09987592
240	0xbdb46228	-0.08807784
241	0xbe5782f7	-0.21046053
242	0x3e341208	0.17585003
243	0xbe0cc00d	-0.13745137
244	0x3e6b5e7e	0.22985265
245	0xbdb675fd	-0.08909223
246	0xbe4ff0d7	-0.20306717
247	0xbe12313c	-0.14276594
248	0x3e4f3f36	0.20238957
249	0x3e0a5eea	0.1351277
250	0x3ebf5450	0.37369013
251	0xbd581309	-0.05275253
252	0x3bfc8bdb	0.0077071018
253	0x3d50877e	0.050910465
254	0xbd34f18b	-0.044175666
255	0x3d404df1	0.04694933

linears.3.bias f4 [32]
0	0xbd142cb9	-0.036175463
1	0x3d7beb19	0.061503503
2	0xbcb9d1c0	-0.022683024
3	0xbd1d2592	-0.038365908
4	0xbd26a5ae	-0.04068535
5	0xbde55ea4	-0.11199692
6	0x3d745197	0.059648123
7	0x3d5100eb	0.051026266
8	0x3add6c88	0.0016893307
9	0x3cb172c8	0.021661177
10	0xbd623223	-0.055223595
11	0xbd51279d	-0.05106317
12	0xbdd9f2c6	-0.106420085
13	0x3a4b71ab	0.00077607733
14	0xbc4c96f2	-0.01248716
15	0x3cd5ef31	0.026115032
16	0xba07639c	-0.0005164684
17	0xbcaba758	-0.02095382
18	0x3d7e4b2e	0.062083416
19	0xbb18e251	-0.0023328254
20	0xbcf19025	-0.029487679
21	0xbcf97195	-0.030449668
22	0xbd393c3d	-0.045223463
23	0x3d45a772	0.04825539
24	0x3ba60ab7	0.0050671953
25	0xbd8d79fe	-0.06908034
26	0xbd67eb44	-0.05662085
27	0xbd831ee6	-0.06402378
28	0xbd844001	-0.0645752
29	0xbd05d1b9	-0.03267071
30	0xbc4a2e48	-0.012340136
31	0x3a7168ed	0.00092090556

linears.4.weight f4 [4, 32]
0	0x3e60ef05	0.21966179
1	0xbe285643	-0.16439156
2	0xbde10007	-0.10986333
3	0x3e0e8ee3	0.13921694
4	0xbd330f01	-0.04371548
5	0xbbea4336	-0.0071491254
6	0xbc9e3e5c	-0.019316845
7	0x3e22ef91	0.159117
8	0xbec19fa6	-0.37817115
9	0x3ee77dd9	0.45213202
10	0x3c4fdb96	0.012686631
11	0x3d98385c	0.07432625
12	0x3b14f16b	0.0022726904
13	0x3e8118f7	0.2521436
14	0xbf58dd3e	-0.8471259
15	0x3e49acd6	0.19694838
16	0x3ec376b0	0.3817649
17	0x3ecae658	0.39628863
18	0x3d311ea0	0.043242097
19	0x3e45c1d6	0.19312224
20	0xbdd6699b	-0.104693614
21	0xbd90efde	-0.07077001
22	0x3e7539b3	0.23947792
23	0xbdee5d22	-0.116388574
24	0xbee963e4	-0.45584023
25	0xbd891183	-0.06692793
26	0x3ca860d0	0.020553976
27	0x3e3353f0	0.17512488
28	0x3e2792bc	0.16364568
29	0x3ea18823	0.31549177
30	0xbf21f321	-0.6326161
31	0x3d382ea7	0.044966366
32	0xbe768cf9	-0.24077214
33	0x3e814584	0.2524835
34	0xbf5c8809	-0.86145073
35	0xbf050637	-0.5196261
36	0xbf39215d	-0.72316533
37	0xbf5edded	-0.8705738
38	0x3eea95bc	0.45817363
39	0x3f46e9d3	0.7770054
40	0x3e93e9b3	0.28889236
41	0x3e59a8ff	0.21255873
42	0xbf0523f7	-0.52008003
43	0xbec894ca	-0.39176017
44	0xbf2ced82	-0.6754991
45	0x3e60a01c	0.21936077
46	0xbf3cf6db	-0.7381417
47	0x3f6333f3	0.88751143
48	0x3ea6ebad	0.3260168
49	0xbe91cdaf	-0.28477237
50	0x3f767a83	0.9628069
51	0x3e60d8f2	0.21957758
52	0xbf42b7ee	-0.76061904
53	0xbf259fb9	-0.6469684
54	0xbf49b104	-0.7878573
55	0x3f15ac28	0.58465815
56	0xbc3ec6ad	-0.011644048
57	0xbf3abdc3	-0.72945803
58	0xbee0c32b	-0.438989
59	0xbf6bb01a	-0.92065585
60	0x3f0fd427	0.56183094
61	0xbe587451	-0.21138121
62	0xbf0a24ca	-0.53962386
63	0xbe521e82	-0.2051945
64	0x3f16b44b	0.58868855
65	0x3eeb596d	0.45966664
66	0xbe978974	-0.29597056
67	0xbf2161a8	-0.63039637
68	0xbd477591	-0.048696104
69	0x3e6e3fe3	0.23266558
70	0x3f0f3fd5	0.55956775
71	0xbe80ec64	-0.25180352
72	0xbdfb60db	-0.12274333
73	0x3e99f887	0.30072424
74	0xbeb86757	-0.36016342
75	0xbea56d5d	-0.3231
76	0x3ddc9834	0.10771218
77	0x3ec214e5	0.37906566
78	0x3e559eec	0.20861405
79	0x3bc88f5d	0.006120606
80	0x3d7921c0	0.060823202
81	0x3f276a80	0.6539688
82	0xbe4dd387	-0.20100223
83	0x3dbe4b5d	0.09291718
84	0x3ea4bbf4	0.32174647
85	0xbf0cbebb	-0.5497853
86	0xbef9ae8a	-0.48765975
87	0xbc8c6d66	-0.017142009
88	0x3f31accc	0.6940429
89	0xbec27b74	-0.37984812
90	0xbe236acc	-0.15958709
91	0xbee54e5a	-0.4478634
92	0xbdadd7b2	-0.08488406
93	0x3eb505b0	0.35355902
94	0xbe84046a	-0.25784618
95	0x3e41ff4d	0.18945046
96	0xbf122e06	-0.57101476
97	0x3f3ef466	0.7459167
98	0xbf4fc4ef	-0.8115987
99	0xbeed16b3	-0.4630638
100	0xbf1d50b6	-0.6145128
101	0xbf55864f	-0.83408064
102	0x3f924807	1.1428231
103	0x3f1cd07a	0.6125561
104	0x3f529bcf	0.82268995
105	0x3f3303bd	0.6992758
106	0xbf8fb797	-1.1227902
107	0xbf4a53fc	-0.790344
108	0xbf1d848c	-0.61530375
109	0x3e6f412a	0.23364702
110	0xbf129ae1	-0.57267576
111	0x3f8a6b85	1.0814062
112	0x3eb103f1	0.3457332
113	0xbe60eb78	-0.21964824
114	0x3f297be8	0.6620469
115	0xbee9305d	-0.4554471
116	0xbf757f6e	-0.9589757
117	0xbf809c59	-1.0047714
118	0xbf45370e	-0.7703713
119	0x3dff1a7c	0.12456223
120	0xbf6a7151	-0.9157916
121	0xbfa937c5	-1.3220145
122	0xbf6c8ae7	-0.9239945
123	0xbf4aa034	-0.791507
124	0x3f87162e	1.0553644
125	0xbe88b443	-0.2670003
126	0xbe2f7b92	-0.17136982
127	0x3f381d8d	0.7192009

linears.4.bias f4 [4]
0	0xbc79700d	-0.015224469
1	0x3ed5c794	0.4175383
2	0xbc151c53	-0.009100991
3	0x3f374501	0.71589667
