Iterations/Test model/epoch_637.pt (torch, 37727 bytes, 10 tensors)

linears.0.weight f4 [32, 2]
00000000: c0db a53e 87cb 7ebd 2d42 8f3e 34eb 8fbe
00000010: 4f12 7c3e cad6 a9be 8a2d cebd 011e e8be
00000020: 6bc9 22bd a3a2 7e3e 1ea8 353d c6a8 e0be
00000030: 6c7e 333e c544 013f 2d9a 253e ab4a 423e
00000040: 5f9e b83e 1624 31bd 1c6b 5ebe c134 ccbd
00000050: a28d e7bd e9d1 c0be 69a6 59be 54c0 603e
00000060: 1371 d5bd 2b5e 0abe 5a81 2c3e b58d 21be
00000070: de4a fdbd 377d 1d3f bf25 72bd 657d 31be
00000080: 8538 5c3e e55b f83e f02d 8d3e c559 503d
00000090: dd37 d6bd a197 233e 2a34 1ebe 2233 13be
000000a0: a1c4 debd e5f8 d6bd 10f3 863e 57f7 f63c
000000b0: d7bd 153f c941 0fbd 3121 823e 3d63 62be
000000c0: 694b 07bf 7879 6c3e 8b61 a33e 139b efbd
000000d0: dde5 33be a8b2 99bd 3e43 403d 1cc4 7d3e
000000e0: c2d5 983d 087d 36be c9a9 ccbc 8902 9a3e
000000f0: 2c4f bf3d b07b d4bd 7cab 2fbd cba4 193f
0.32394218 -0.062205818 0.27980176 -0.28109133 0.24616359 -0.33171684 -0.1006728 -0.4533539
-0.03974287 0.24866728 0.044349782 -0.43878764 0.17528695 0.5049556 0.16172095 0.18973796
0.36058328 -0.043247305 -0.21720546 -0.099709995 -0.11306311 -0.3766015 -0.21254887 0.21948367
-0.10421958 -0.13512485 0.16846219 -0.15776713 -0.123677954 0.6151919 -0.05911803 -0.1733299
0.21505935 0.4850761 0.2757411 0.05086686 -0.10459874 0.1597581 -0.15449587 -0.14374974
-0.10877348 -0.104966916 0.26357317 0.030147238 0.584928 -0.034974847 0.25415948 -0.22108169
-0.5284944 0.23093212 0.31910357 -0.116995 -0.17568155 -0.07504779 0.046939127 0.24781841
0.07462646 -0.17821133 -0.024983304 0.3008006 0.09341273 -0.10375154 -0.04288815 0.6001708

linears.0.bias f4 [32]
00000000: 3080 183a 7e41 493c 9294 b33b 4502 923b
00000010: 2972 613b 890f 813b 9dfd a8ba c9f1 d4bb
00000020: 6e74 483a 5f84 71bb aed7 8d39 bc4a b7bb
00000030: 9dda 323c bee2 8fba fa99 243b 5179 32bb
00000040: 1bf4 8dba 1e1f 13bb b12c 5d3b b34e 6c3b
00000050: 980e 55ba 74d1 c0bb acda 8f3c 186e 523a
00000060: 0af4 53bc e7ef b63a 375c 5abb 05ab 1e3b
00000070: d239 0c3c a6a4 1d3b dab4 7b3a 81cb 143b
0.0005817441 0.012283681 0.0054803574 0.004455837 0.003440032 0.0039386195 -0.0012892965 -0.0064985496
0.0007646744 -0.003685258 0.0002705431 -0.005593626 0.010916379 -0.0010977609 0.0025116191 -0.0027232955
-0.0010830195 -0.0022448967 0.0033748562 0.003605765 -0.000812748 -0.0058843438 0.017560326 0.00080272695
-0.012936601 0.0013956995 -0.0033319124 0.0024210822 0.008558707 0.0024054437 0.0009601839 0.0022704306

linears.1.weight f4 [64, 32]
00000000: 0c08 d13c c5a0 87be 534f 47be 7c20 2ebe
00000010: 33b9 303e d687 d23c e5ff adbd 4f83 843e
00000020: 304a 293e f837 a13e 597e b43d 424e a53e
00000030: b998 61be 9582 f6be 9884 2fbc 1eb7 34be
00000040: 5dc0 9e3e 3493 4c3c 2c25 cfbc d9a0 393d
00000050: 3b27 bdbe ae75 3abd c2e0 d4bd 7e53 443e
00000060: 2fa3 bd3d 12dd 263e 2575 8ebe 2915 bfbd
00000070: f151 003e e47c b83d 9297 aabd 79c2 973d
00000080: 0fdf 773c 7692 9d3d 5d55 e8bd 90b1 2b3e
00000090: 5fcb ecbd 044f febd 9905 4c3e 2450 993e
000000a0: 9d51 c03e 9ba7 743e 2766 dbbd be55 37bd
000000b0: 92a3 46bd f7bd 043e 1d7e 043e e4a6 49bd
000000c0: 2090 543e bda8 48be 4bf0 5ebe ed59 33bd
000000d0: da9e eebb a97b a03e 406a c7bd 7937 19be
000000e0: bf1d c33d 521c 46bd 7843 b93d ceb6 99bd
000000f0: f17c cfbc 69cd ffbc acb9 943e 34ca 683e
00000100: b30f 98bd a71e df3d 5088 3e3e 5d8a 00bd
00000110: ccd6 1d3d 18e5 28bd 3a6a 94bc 0b93 2dbe
00000120: 34fd b3bd 5c40 9cbe a476 62be 241f 44bc
00000130: 1faf 843e 0c78 4b3c 1614 1dbc 6531 87be
00000140: ae12 21bd ad40 893e 3ee5 fcbd c57f c0bd
00000150: fc96 37be 8df1 46be 1479 0b3e 9f40 91bd
00000160: 66f5 21bd 10ee e83c 1302 313d 4e69 b6bd
00000170: b131 aebd 5688 893e fa34 44bd 6d21 6ebe
00000180: 72c3 b7bd 227c d03d 5516 2e3d 2e84 8bbd
00000190: c111 55be f1c8 82be bd5f 7abd d916 e8bd
000001a0: 3ee0 403e 6a82 06be 0e04 cf3d 6e90 4d3d
000001b0: 5c3f 283d 26fc 053e 9a21 3e3e d509 a9be
000001c0: 37c0 cfbd 82fd 18be d5c2 a33d 8572 6cbc
000001d0: 1d27 35bd ac73 b43d f69d 3a3e f36b 103b
000001e0: 93fd afbd 610a 513e 0b09 a5bc 8d4b 14be
000001f0: e107 54bd 8bc7 d7bc d2d6 4ebe da88 e13c
00000200: 21fe f63c 5b56 1f3d 9969 8dbd e089 66bd
00000210: ebf8 a23c b30e afbd 4fa5 0c3e f5c8 2a3d
00000220: 445a ffbc 570e 48be 003c b2be e3c3 2fbe
00000230: 74ce 20be 6bd5 41be 3c4a c73e e97b 643c
00000240: 8e81 033e 2430 7c3e 38dd 69bd a940 973e
00000250: 2f49 1abe 0350 003d c8a3 7abe e746 e53c
00000260: b8c6 f8bc 35b5 f63c ac3f 27be 0e54 253e
00000270: d98a 313d a884 5238 29e8 11bd ab54 2f3e
00000280: 2bec 003e 9983 a9bd a57c fdbd 5432 f1bd
00000290: ce11 843e c12b e2bd 398f 6abd 4736 fbbc
000002a0: 38bc c03d 85ad 18be b972 11bb e715 343d
000002b0: 159c 24be b0e8 a83e f2aa 953d 7fc1 f13c
000002c0: 8dca bdbe 780f c63d fc64 f3ba e2d5 793e
000002d0: aa55 873c 5639 3cbe a719 8dbd 375b 00bd
000002e0: e3b7 0b3e eed2 e23d 54ca 9b3e 44c8 72bd
000002f0: 9f8e d43b 9d74 2e3d ca8f 31be 1239 90bd
00000300: 5339 39be d04a ef3d 7e33 733e 07a1 233e
00000310: 62bf 18be bd40 a23d 6bb8 20bd 1e90 81be
00000320: 55a3 b13e 04ab b1be 83d8 123e 8933 343d
00000330: e112 04be d0f5 31be 353c 36bc b579 86be
00000340: 3bd5 c93d 9ae1 15be 5edd 2abd 6292 013e
00000350: d02f 293e fbd4 31be 2abe 613e 8e03 5bbd
00000360: 0317 3dbd 4edc 8abd a85d 253e c01d abbd
00000370: 25ce 02be d4c9 cbbe 7733 97bd 49c7 4cbd
00000380: b197 763d 5e62 15be f06f 0b3e 9393 613d
00000390: 4cbf 053e 2ebd fdbd 2037 dd3d 8d7a 443e
000003a0: c7e5 67be 3e7b c23e 75bc 1c3e 9363 46bd
000003b0: d64b 42be fe86 fd3d cdbc cb3d 0234 553d
000003c0: 1655 263d ab5b cebd c2f0 583e 780a e5bd
000003d0: 5b71 8bbd ec11 1abe 89f8 773e edac 8abd
000003e0: 4140 eeba cd6e 2a3d 1bd6 3ebe ae9f 19be
000003f0: 0974 1f3d e6d7 3d3e 3de7 96be 7250 6a3e
0.025516532 -0.26489845 -0.19463854 -0.1700458 0.17258148 0.025699537 -0.08496074 0.2588143
0.16532207 0.31488013 0.088131614 0.32286268 -0.22030915 -0.481465 -0.010712765 -0.17647979
0.31006137 0.012486268 -0.02528628 0.045319412 -0.36943993 -0.045522384 -0.10394432 0.19172475
0.092596404 0.16295269 -0.2782375 -0.09330208 0.12531258 0.09008196 -0.08329691 0.074101396
0.015128865 0.07693951 -0.11344407 0.16766953 -0.115622275 -0.12417415 0.1992401 0.29943955
0.37562266 0.23892061 -0.107128434 -0.044759504 -0.048495837 0.12963091 0.12938733 -0.049231425
0.20758104 -0.19595619 -0.21771352 -0.04378693 -0.00728212 0.31344345 -0.097370625 -0.14962567
0.09527158 -0.048366852 0.09046072 -0.0750557 -0.025328131 -0.031225877 0.29047906 0.22733384
-0.074248694 0.10894518 0.18606687 -0.031381954 0.038534924 -0.041234106 -0.018117059 -0.16950624
-0.08788529 -0.30517852 -0.2211557 -0.011970315 0.25914857 0.012418758 -0.009587308 -0.26404873
-0.039324455 0.26807156 -0.12348412 -0.0939937 -0.1792869 -0.19428082 0.13620406 -0.070924036
-0.03954067 0.02843383 0.04321487 -0.08906804 -0.08505572 0.2686183 -0.047902085 -0.23254938
-0.08972825 0.101799265 0.042501766 -0.06812321 -0.20807554 -0.2554393 -0.06112646 -0.11332483
0.18835542 -0.13135687 0.10108195 0.050186567 0.04107605 0.13084468 0.18567505 -0.33015314
-0.10144084 -0.14940456 0.07996146 -0.0144316 -0.044226754 0.08811125 0.1822432 0.0022037
-0.08593287 0.20414115 -0.020145914 -0.14481945 -0.051765326 -0.026340267 -0.20199135 0.027531076
0.030150475 0.038900714 -0.06904907 -0.05628383 0.019894084 -0.085477255 0.13734935 0.041695554
-0.031170972 -0.1953672 -0.348114 -0.17164569 -0.15703756 -0.18929069 0.38923824 0.013945558
0.1284239 0.24627739 -0.057095736 0.2954152 -0.1506698 0.031326305 -0.2447654 0.02798791
-0.030368194 0.030115703 -0.16332883 0.16145346 0.043345306 5.0191447e-05 -0.035621796 0.17122142
0.12590091 -0.082770534 -0.1237729 -0.117771775 0.25794834 -0.11043502 -0.057265494 -0.03066553
0.094109 -0.14909942 -0.0022193624 0.0439662 -0.16075166 0.32990026 0.07307996 0.029511211
-0.37068596 0.09670919 -0.0018569524 0.24397996 0.01652034 -0.18381247 -0.068896584 -0.03133699
0.13644366 0.11075388 0.30427802 -0.05927302 0.0064867283 0.04259168 -0.17340007 -0.07042135
-0.18088274 0.11684191 0.23750111 0.15979396 -0.14916757 0.07922504 -0.039238375 -0.25305265
0.34694925 -0.34700787 0.14340405 0.04399446 -0.12897827 -0.17378926 -0.011122753 -0.2626473
0.098551236 -0.14636841 -0.04171502 0.12653497 0.16522145 -0.17366402 0.22045198 -0.053470187
-0.046164524 -0.06780301 0.16149008 -0.08355284 -0.1277395 -0.3980242 -0.07382863 -0.04999474
0.060203258 -0.14588305 0.1361692 0.05507238 0.13061255 -0.12389599 0.1080153 0.19187374
-0.22646247 0.3798465 0.15306266 -0.048434805 -0.18974242 0.12379263 0.0994812 0.05205155
0.040608488 -0.10076078 0.21185592 -0.111836374 -0.0680873 -0.15045899 0.24215902 -0.06771264
-0.0018177108 0.041609574 -0.18636362 -0.15002319 0.03892902 0.1853939 -0.29473296 0.2288225

linears.1.bias f4 [64]
00000000: 909b 80bc 4d69 19bc 1a1b 7b3b 4ba9 63bb
00000010: 9f56 773b 3149 073b 00e8 c33a fd74 6a3c
00000020: 9ad7 97bb 7385 c038 6cec 7cbb 7e77 103b
00000030: 1993 c7bb b4aa b0bb 02f6 71bc b153 c63a
00000040: f301 9f3b 1a57 c03a 534d 5fbb 788f 683c
00000050: aac0 91bb 1fd6 903b 43ed 57bb 326a 223b
00000060: 7c28 8abb 1fff 153a d8d1 35bb a4e2 893b
00000070: 777c 4f3c 4b9b 003b 7d27 f1bb 2f88 00bb
00000080: f852 84bb 849a 4abb 0e66 abba d906 603b
00000090: df81 ee3a 5fa4 14bb 08b5 803a 82e5 603b
000000a0: 08da 953b ee1c 0f3b 4dc9 08bc 7ac6 0bbc
000000b0: 1a68 d63b bb2a 203b 60b1 5e3b ee4c 893b
000000c0: 4a47 11bb 3110 d63b 614c 7cbb 22cb 4dbb
000000d0: c12c 4cbb 42b6 a73b f19d cb3b 0a5f 303b
000000e0: 7126 a9bb a4de 603a 2882 6b39 b88c 35bb
000000f0: 4a8e afb9 3bd1 97b9 7255 73bb f0d9 74bb
-0.015699178 -0.009363485 0.0038315714 -0.0034738358 0.003774084 0.002064299 0.0014946461 0.014310119
-0.004633856 9.18013e-05 -0.0038593067 0.002204388 -0.0060905335 -0.005391443 -0.0147681255 0.0015131143
0.0048525273 0.0014674396 -0.0034073188 0.014194362 -0.004448016 0.0044200565 -0.0032947815 0.0024782536
-0.004216252 0.0005721915 -0.0027743485 0.004207926 0.012663952 0.0019623812 -0.0073594437 -0.0019612422
-0.004038211 -0.0030914852 -0.0013076679 0.003418377 0.0018196664 -0.002268098 0.0009819577 0.0034316485
0.0045731105 0.0021837312 -0.008348775 -0.008531207 0.0065431716 0.0024439532 0.0033980235 0.004190079
-0.0022167736 0.006532692 -0.0038497674 -0.0031401594 -0.0031154605 0.0051181624 0.0062138964 0.0026912116
-0.0051620533 0.0008578098 0.00022459833 -0.0027702283 -0.00033484615 -0.00028956853 -0.0037129787 -0.0037361346

linears.2.weight f4 [64, 64]
00000000: c048 17be 2f94 0e3d c4da 5bbd 7551 ce3d
00000010: 09ae 28be b93f 533d 50a2 573d 05d3 133d
00000020: 8f47 0dbc d3b9 1e3d a8ab febb 8658 033e
00000030: 165b cb3c b3ba 2f3e f927 80bd 64dc b73d
00000040: ab8f fb3c d337 e63c 3211 a93e 3be6 253d
00000050: 4c69 673e dd35 83bc 8850 f03c 7ca5 c5bd
00000060: a1cd 153e 5fcf 153e cf81 a1bd 6c1d e6bd
00000070: f559 9bbd dd57 38be 2cab 8d3b 0b74 2f3d
00000080: 0e6f 5c3e b395 a43d ab18 683e f4c4 0bbe
00000090: 24d2 56bd 3ccd c93d 85b5 66bd b86d 20be
000000a0: 1acf c03c 6ca9 663e 7862 11bc 18f7 e53b
000000b0: 1ddb 113b 784d 343c ca4f c23d c5e7 00be
000000c0: 37f5 88be 15f6 85be 8283 1abe 0ea0 3abd
000000d0: 54cb 88be 8b2f 42be abec 83be 3548 023e
000000e0: a5a9 c4bc 56df 483d f2ca d73d 108f 5d3e
000000f0: 3964 56bd 5025 403e 78bf 43be 0972 0bbe
00000100: ca33 89be cefc f63c 7d6e db3d 7201 29bd
00000110: b6ff cb3b 91c6 02be cd39 20bc aa5c 7d3e
00000120: dbf6 8b3d 7145 18be 6c00 a4bd 2511 9f3d
00000130: 89ae cfbd daca f9bd 1e73 b4bc 1037 3cbc
00000140: 8fc4 6f3e 83c5 95bd 754d eebd 3ec2 a13e
00000150: 23ba d4bd 1bec 443d db33 9b3c 38b5 cf3d
00000160: 0204 1dbe e8fd afbd 0b05 e13d 6943 83be
00000170: c8d4 ddbb a5be 1f3e e515 0cbd 4d11 883d
00000180: f731 27be 803e 76bd 0365 30be 0a48 9dbc
00000190: a1ae 8abe 074c 0fbe 943e 453d 9804 c23d
000001a0: e597 24be f229 123d 2299 133e e524 3e3d
000001b0: d4a9 6fbd 8608 003e ba96 bdbc 1923 6a3c
000001c0: c0f9 0b3e bc00 f73d 54b4 81bd f528 18be
000001d0: f2e7 9e3d b022 fabc 4a38 01bc 903b 2c3e
000001e0: e763 623e 21be 113e f3cf 813c 5c00 ba3d
000001f0: eb6e 6a3c 4152 77bd a1b0 27be e0bc 1f3d
00000200: b80e 4ebe f798 62be 4440 69be db74 833d
00000210: 0f4c 99be d4ad 173e 42e5 7c3d 4ebf dfbd
00000220: 1cb1 ce3d 31cd d6bd 966b 28be fa66 30be
00000230: 2130 1ebc 50f8 bfbc 06a7 ac3d cae8 7dbd
00000240: 71c8 5abd 3638 443d 6345 553e c272 253e
00000250: 9e1f 67bd d5d1 223d 36c8 01be cc85 b33d
00000260: 9a1a 593e 2681 9abd bd3c cf3d d3dd 26bc
00000270: a6cd 0d3e 17fe b23d d659 25bd 00dd 213e
00000280: edda a4bc 23d2 3a3e 2097 e73d b4c2 98be
00000290: 1fac 2ebe be73 a5bc 54d6 7fbd ebfa 74bc
000002a0: ffaf 86bd c248 e9bc 6e2a 543e fc1c e9bd
000002b0: 13b7 6a3d e45e 3e3e 1433 f03c e448 71be
000002c0: 90ce e1bc b2f8 1f3e da0d 56bd 5801 093e
000002d0: 30d2 78bd 143c e13d 92ef 8dbe 034f a0bc
000002e0: dc0a 593d dabd ce3d 8d93 873c 7165 86bd
000002f0: c053 ca3d c401 db3d f6b5 353d 27bd 8abd
00000300: e4c3 87bd 4e6d 223e 95d1 5e3e ab3d a9be
00000310: c7f6 d8bd 6b63 2ebe c5fc 22be 65c3 acbd
00000320: 7e03 20be 288d 353d d47f babc 446e 9cbc
00000330: 3dfd c93a cdcc 0a3e 6d67 7c3a 06d8 6fbd
00000340: 5455 a73e b0be 843d 0bed 903e 498e 583d
00000350: 3bd3 d7bc 2214 0ebe b85b f0bd 1be3 bbbc
00000360: dc2e 853d 737e 4ebb d825 083d 63fa 1dbe
00000370: 7188 eb3d cf83 75bd 3f8d 443e aaa0 893e
00000380: 0bdc e23c 6b03 14be 811c 4c3d a6d6 b2bc
00000390: 0999 8cbd d2fc 3fbe 0191 9e3a 1629 e0bd
000003a0: 0e73 073e b3bd 5b3d 106e fa3b cc69 ccbd
000003b0: 4d01 d9bd c677 193d cfdf 8dbd cf1a 463d
000003c0: 6ab4 a3bd f174 9fbd 3f11 76be ddfc 293d
000003d0: 89b1 98bc 2ae5 20be 635f 093d 766f 7abd
000003e0: c817 703c dab2 51be 984b cd3d f9ba 273d
000003f0: e3bc 3d3e b087 643e f38d 43bd 1b5e b93d
-0.14773846 0.034809288 -0.053675428 0.100741304 -0.16472639 0.051574443 0.052645028 0.036089916
-0.008623018 0.038751435 -0.007771928 0.12826738 0.024823707 0.17161064 -0.06257624 0.08977583
0.030708155 0.028102791 0.3302093 0.040502768 0.22598761 -0.016016895 0.029335275 -0.09650704
0.14629222 0.14629887 -0.07886087 -0.112360805 -0.07585517 -0.18002267 0.004323384 0.042835277
0.21526739 0.08036365 0.2266566 -0.1364935 -0.0524465 0.098535985 -0.056325454 -0.15666854
0.023536254 0.22525567 -0.008873574 0.0070179813 0.0022255846 0.011004798 0.09487875 -0.12588413
-0.26749584 -0.26164308 -0.15089229 -0.045562796 -0.26717627 -0.18963449 -0.257665 0.12722857
-0.024006674 0.049041115 0.105367556 0.21636605 -0.052341674 0.18764234 -0.19116008 -0.1361772
-0.26797324 0.030149844 0.10714433 -0.041261144 0.0062255515 -0.1277106 -0.009779406 0.2474238
0.06834193 -0.1487024 -0.08007893 0.07766942 -0.10140712 -0.12196894 -0.022027548 -0.011487737
0.23414825 -0.07313063 -0.116358675 0.31593508 -0.10387065 0.04807673 0.018945625 0.101419866
-0.1533356 -0.08593351 0.1098729 -0.25637367 -0.0067697503 0.15600069 -0.034200568 0.06643925
-0.16327654 -0.0601182 -0.17226033 -0.01919939 -0.27086356 -0.13993846 0.048155382 0.094735324
-0.16073568 0.035684533 0.14413884 0.046421904 -0.05851157 0.12503251 -0.023143161 0.0142905945
0.13669491 0.12060687 -0.06333223 -0.14859374 0.07759084 -0.030534118 -0.0078869555 0.16819596
0.22108422 0.14232685 0.015846228 0.090821 0.0143086715 -0.060381178 -0.16375972 0.038998485
-0.20122802 -0.22128664 -0.22778422 0.06418773 -0.2994084 0.14812404 0.061742075 -0.1092516
0.10092375 -0.10488356 -0.16447291 -0.17226782 -0.0096550295 -0.023433834 0.08430295 -0.061989583
-0.053413812 0.04790517 0.2082725 0.16157058 -0.056426637 0.039750893 -0.1267403 0.08765754
0.21201554 -0.07544164 0.10119007 -0.010184723 0.1384798 0.0873987 -0.040368877 0.15806961
-0.020123923 0.18244223 0.11308122 -0.29836047 -0.17057846 -0.020196792 -0.06246026 -0.014952402
-0.06576537 -0.028477076 0.2071931 -0.113824815 0.0573035 0.18590885 0.029321231 -0.23562962
-0.027564317 0.15622213 -0.052259304 0.13379419 -0.060747325 0.10997787 -0.2772184 -0.019568926
0.052988872 0.10094805 0.01654985 -0.06562317 0.09879255 0.10693696 0.044362985 -0.06774359
-0.0662916 0.15862009 0.21759637 -0.3305486 -0.10593944 -0.17030112 -0.15916736 -0.08435706
-0.15626332 0.04432407 -0.022766031 -0.019095547 0.0015410554 0.13554688 0.0009628449 -0.058555625
0.32682288 0.06481683 0.2830585 0.05287007 -0.02634584 -0.13874868 -0.11736244 -0.02293544
0.06503078 -0.0031508475 0.033239216 -0.15427546 0.115006335 -0.059940156 0.19194506 0.2688039
0.027692815 -0.14454429 0.04983187 -0.021830868 -0.06865127 -0.18748787 0.0012097658 -0.109453365
0.13227484 0.05364771 0.007642515 -0.09981117 -0.10595951 0.03746774 -0.06927454 0.04836541
-0.079933956 -0.07785977 -0.24030016 0.041500915 -0.018639343 -0.15712419 0.033538233 -0.061141454
0.014654107 -0.20478383 0.10024184 0.040949795 0.18529086 0.22317386 -0.047742795 0.09051152

linears.2.bias f4 [64]
00000000: 5de1 edba 4e3e 8d3b ee2f f2ba 26de c2bb
00000010: 829d 533c 249c 77bb bacf 0dbc aa3f 41bb
00000020: 206e 233b e060 e33b 4af3 463b e682 85bb
00000030: f4e7 babb ba1d 823b 8467 d33b 8055 be3b
00000040: d752 f3bb edf7 0cbb b8da 97bb a66e fcba
00000050: 2783 cd3b e0b0 86bb e3cf a3bb 4a37 593b
00000060: 89fd a13b b1f6 2dbb 65bd 85bb 418b 753b
00000070: 221b 4d3b 9c9c 92bc c76c 823b 6062 893b
00000080: 01fe 92bb cb5b fdbb c6f8 4a3b c556 23bb
00000090: 6843 6bbb 7985 82bb 8f37 a33b 8157 133c
000000a0: 58af 5fbb 8d0a cc3b a20d 9f3b 1ae4 463c
000000b0: 6450 013c 6d0f 5f3b 6713 b33b 15e5 99bb
000000c0: 9baa a33b c9f2 8f39 8897 a6bb 580c 17bb
000000d0: 8125 0dbc 34ec 46bb 4e61 0e3b 4099 dcb8
000000e0: c317 453c 934a 283b 44de 983a db3a a5bb
000000f0: 1d44 ab3b 619e 11bb 3bfa 0e3c d164 f0ba
-0.0018148829 0.004310406 -0.0018477419 -0.0059468923 0.012915971 -0.0037782276 -0.008655483 -0.002948741
0.0024937466 0.0069390386 0.0030357414 -0.004074442 -0.0057039205 0.003970829 0.006451549 0.0058085322
-0.0074256468 -0.002151008 -0.0046342276 -0.001925905 0.006271738 -0.0041104406 -0.0049991473 0.0033144527
0.004943554 -0.0026544745 -0.0040814155 0.0037467035 0.003129669 -0.017896943 0.0039802524 0.0041926354
-0.004485846 -0.00773189 0.0030971034 -0.0024923545 -0.0035898332 -0.0039831963 0.0049809883 0.0089930305
-0.0034131613 0.0062268437 0.00485392 0.012139345 0.007892702 0.0034036294 0.0054649594 -0.004696498
0.004994703 0.00027455974 -0.005083982 -0.002304813 -0.008614899 -0.003035319 0.0021725479 -0.000105189625
0.012029591 0.0025679215 0.001166292 -0.0050424165 0.0052266256 -0.0022219645 0.008726652 -0.0018340593

linears.3.weight f4 [32, 64]
00000000: 3209 e8be fdbf aabc 0eca 10be 2f39 e23d
00000010: 5321 e63d 8d76 e63d 22c1 513e a325 143d
00000020: 655b ae3e 386f df3c d6bd 263d 0b5a 39bd
00000030: 279c 9fbc b1b6 37be c775 82be 0ec5 66bc
00000040: 40a4 b8bc fd8a 443d 092f 4ebe f23f 52bd
00000050: d6fe 243e 1f2a 8c3d 6d31 f03d d8ac ae3d
00000060: cefc ccbd c5c3 a13d 58f2 59be 8567 47be
00000070: 6f76 423c 020c 303e 650a 113e 7304 5b3e
00000080: 3d4a 41be 9f33 c5bd e014 d13d 92eb c43d
00000090: b6ca 03be 48cc 2b3c 2f01 6d3e fd98 1fbe
000000a0: 6e2c e83d 76ec bdbd ca54 213c 59da 7a3e
000000b0: bf7c 83bd 390d 7bbe 4adb dfbd d72a cbbe
000000c0: 4cf8 523e e759 183e 045a 51bd 2b81 483e
000000d0: c2c1 a7bd 3727 623e 7ec9 96be 8d3d 593e
000000e0: ca87 91bb 08a8 4b3d 5f51 753e 6566 833d
000000f0: 1f51 58bd 3fa5 603d f0bc 283e e49f 35be
00000100: c431 1b3e 1d44 483d ca11 103d 6309 0d3c
00000110: 7a0a 723e 1765 89be 54a0 51be 3177 7abc
00000120: 8e5c fa3d 2324 393e 2aa4 533e 3503 853e
00000130: ba75 50be 578a 8fbd 239e f33d 11cb 92bd
00000140: 8a86 dfbc a845 0dbe f98a 42bd a06d 3c3e
00000150: 52a1 b73e a37e 163d 50c8 4d3e 0b22 43bd
00000160: a694 ec3d 263e 86bb 81cf fa3c 53d8 68be
00000170: 599a 163e af1d 26be 1bce 6cbd 4d81 e9bd
00000180: e3f0 153e 3dab eebd bdf0 503d 51a0 57be
00000190: 996c 403e 5c69 993e e988 fb3d 66f1 863d
000001a0: 21fc ef3c efe3 22be bc49 bdbd 6a93 56be
000001b0: 8eb4 793d 2701 643d 2f7e 193e 6e45 79bd
000001c0: 404c 6a3e 7e9a 553c ac5c 0e3e 9def 72be
000001d0: 94af 3fbe 64ff 803d 24e7 8c3d 53ce b33d
000001e0: 56fb 883e 5df7 6dbc 19b2 e8be 2a20 2dbd
000001f0: 64dc b9bd 8613 9abe 19de cb3e 4eed 003e
00000200: b757 463e ba72 12be 6ccb 4e3e 4165 6c3c
00000210: 794e 9b3d 4729 503e f4ea d7bd 5ce4 a0bc
00000220: 77a8 1abe 9ada dbbd aa50 33be a6de a23d
00000230: 13f2 b9bd 99d5 d3bd 0a47 acbc 4be8 bcbd
00000240: d949 673d a782 f83d ee9d 363e 19e4 a03d
00000250: adfa 72bb 37fc 2b3e 7728 603d f5e3 d83d
00000260: 31f0 fe3b 794d bbbc c99a 783d f432 95bd
00000270: 29ff 38be cc1e 8cbd c7d0 b93d 8e15 4dbc
00000280: 2182 3d3e 1252 dabd 5d5f 8c3e 45ab 403d
00000290: 2182 a33d dc84 4ebd e655 14bd b45f 933d
000002a0: 98c2 79be c247 83be 271e 5e3e d2eb 99be
000002b0: 0353 34bd 79dd 673e 4b0d 94be f898 debd
000002c0: b2ba 283e 27d2 223d 25eb d9bc ea58 29be
000002d0: 741c 223e 3234 a2bd 2b5c a3be dfea 5c3d
000002e0: 8e32 c93d ecc4 abbd 5141 11bd 85ca 49bd
000002f0: 1258 03be b56c 563e 1bf8 31bd 6a89 523e
00000300: dc5a a4be 10c1 713e 04e3 c73d 6abc 41be
00000310: cba0 d73d 500a 59be 5222 6f3e 746f 8a3d
00000320: d293 253d 63f4 b1be 738a b3bd f0e1 45be
00000330: 0837 d7bd ce7b 623e f0a3 803c 84ec 52be
00000340: 9934 e03d 31b2 69be e3d4 033e 44e2 5c3e
00000350: c3d3 0fbd 81b6 12be d8e2 153e cc5f 08bd
00000360: bfef 1ebe f248 bcbd b59b cc3d d979 373e
00000370: eed7 783d 5048 c6bd 006d 50bd e67e 3f3e
00000380: 9919 98bc a5c3 2e3e a98b 783d f09c 9ebe
00000390: 7a66 9bbd 6df3 75be 7f08 1a3e 3553 8bbc
000003a0: 3b06 973d 9040 0abe a3d3 83bd c9ff c9bd
000003b0: b96d 93be 311b 4f3e 190e 27bd 2858 7fbd
000003c0: 158a 02bd 5cae 3cbe 71f5 6a3d 96e2 06be
000003d0: bb8d b93d a9f3 cebd b5ef 34be 8bbf b1bd
000003e0: 1117 6f3e cdf6 2a3e 9a14 c13e 2789 f3bd
000003f0: e9c4 943d 234a 633d 5302 c03c 5467 103d
-0.45319515 -0.0208435 -0.14139578 0.11046063 0.11236825 0.112530805 0.2048383 0.036168706
0.34054103 0.027274713 0.040708385 -0.045251887 -0.019483639 -0.17940785 -0.25480482 -0.014085067
-0.022539258 0.047984112 -0.2013513 -0.051330514 0.16112837 0.068439715 0.11728177 0.08529061
-0.10009156 0.07898668 -0.21283853 -0.19473083 0.011869057 0.1719208 0.14164121 0.21388416
-0.18875976 -0.096289866 0.1020906 0.09615244 -0.12870297 0.010485716 0.23144983 -0.15585704
0.11336599 -0.09273617 0.009846875 0.24497356 -0.06420278 -0.24516763 -0.10930498 -0.39681122
0.2060253 0.14878045 -0.051111236 0.19580524 -0.08191253 0.22085272 -0.294506 0.21214886
-0.004441236 0.049720794 0.23956822 0.064160146 -0.052811738 0.05484509 0.16478324 -0.17736775
0.15155703 0.048893083 0.035173215 0.008608195 0.23636809 -0.26834938 -0.20471317 -0.0152872065
0.12224685 0.18080191 0.20668092 0.2597901 -0.20357409 -0.07008808 0.118953966 -0.07167638
-0.027285833 -0.13796103 -0.047495816 0.18401194 0.35865265 0.036741864 0.20095944 -0.047639888
0.1155179 -0.004096764 0.030616524 -0.22738771 0.14707316 -0.16222261 -0.057813745 -0.11401615
0.14642672 -0.11653755 0.051010836 -0.2105725 0.18791427 0.29963195 0.12281973 0.06589012
0.02929503 -0.15907262 -0.09242579 -0.20954672 0.060963206 0.05566516 0.14989541 -0.06085723
0.2288065 0.013037322 0.13902539 -0.23724218 -0.18719321 0.06298712 0.06880024 0.087795876
0.26754254 -0.014524308 -0.45448378 -0.042267002 -0.09075239 -0.3009302 0.39817885 0.12590525
0.19369398 -0.14301577 0.20194787 0.014428438 0.07583327 0.20328246 -0.105428606 -0.01964014
-0.15103327 -0.10735054 -0.1751124 0.07952623 -0.09079375 -0.10343475 -0.021029968 -0.09223994
0.05646691 0.12134295 0.17833683 0.07856006 -0.0037075684 0.16795431 0.05472609 0.10590354
0.007780098 -0.02286409 0.06069449 -0.07285109 -0.18066086 -0.068418115 0.09073024 -0.012517346
0.18506671 -0.10660185 0.27416506 0.047038335 0.079838045 -0.050419673 -0.03621473 0.07195988
-0.24390638 -0.25640684 0.2169119 -0.3006273 -0.04402448 0.22643079 -0.28916392 -0.1086902
0.16477469 0.0397512 -0.026601383 -0.16537824 0.15831167 -0.07920112 -0.31906256 0.053934928
0.09824096 -0.08387169 -0.03546268 -0.049265403 -0.12826565 0.20939906 -0.043449502 0.20560232
-0.3210057 0.23608804 0.09760097 -0.1891953 0.10528716 -0.2119534 0.23352936 0.06759539
0.040424176 -0.34756765 -0.087666415 -0.1932447 -0.10508543 0.2211754 0.015703171 -0.20598036
0.10947532 -0.22821881 0.12874179 0.21570688 -0.03511406 -0.14327432 0.14637315 -0.033294484
-0.15521143 -0.09193601 0.09990636 0.17917575 0.0607528 -0.09681761 -0.0508852 0.18700752
-0.018566893 0.1706682 0.060680065 -0.3097911 -0.07587905 -0.24018641 0.15042304 -0.01700745
0.07374235 -0.13501191 -0.06436851 -0.0986324 -0.2879465 0.20225216 -0.04078493 -0.06233993
-0.031869967 -0.18425888 0.057362977 -0.13172373 0.09060236 -0.10105068 -0.17669566 -0.08679112
0.23348643 0.1669571 0.3771103 -0.11891394 0.0726412 0.055490624 0.023438608 0.03525479

linears.3.bias f4 [32]
00000000: cde8 093b 3733 1e3c 90d4 bbbb ecb0 91ba
00000010: a277 a4bb eb0a a9bb effd 113c 2c02 953b
00000020: 7901 9abb 6eee 953b 3dd9 b3bb 713b 86bb
00000030: 4a5f d6bb 9542 b73b b854 93bb 0c53 ba3b
00000040: c573 8c3b fd2a a13b e4e7 a83b 952a 843b
00000050: d7af 70bb f11a b9bb 3954 0c3b d8fc 91bb
00000060: 40cb 3fbb 54fd 0dbc 5519 a9bb e3c1 beb8
00000070: 3447 a03a 5514 873b 28c3 9fbb 8796 ff3a
0.00210433 0.009655765 -0.0057321265 -0.0011115349 -0.005019144 -0.005158772 0.00891064 0.004547378
-0.0046998826 0.004575542 -0.0054885433 -0.0040964414 -0.006542121 0.005592654 -0.0044961832 0.0056861695
0.0042862617 0.0049184547 0.0051545966 0.0040333965 -0.0036725902 -0.0056489636 0.0021412505 -0.00445519
-0.0029265434 -0.008666355 -0.0051604905 -9.09602e-05 0.0012228251 0.004122297 -0.0048755594 0.0019499817

linears.4.weight f4 [4, 32]
00000000: 3883 683e 7407 b2bd a5fb 07be 1425 b93d
00000010: 3e6b 17be 5f71 abbd 6e18 403c de4c 3c3e
00000020: 19a0 b4be 21d3 f73e c09f 05be 662e 6dbd
00000030: 267a bbbd 91e6 543e 309e 50bf 8d6d 3e3e
00000040: 8993 b23e d00d ce3e a6e1 fc3d 7c26 fb3d
00000050: 4997 71be 36ff 1bbe 2af2 563e 0564 28bd
00000060: 8085 e2be d9c6 00be a087 c0bd aae5 b93d
00000070: 954a 4c3d c6c0 923e e390 1ebf 2aa9 3a3e
00000080: d802 9fbd 846a 17be 82d9 e2be 0fc8 9fbe
00000090: 840f bdbe 4838 fabe dd7a edba 5194 073f
000000a0: 4803 bebd 8917 22bd 4e02 3cbe 91ed b5bd
000000b0: 277f c1be 5907 82bb 2092 02bf 1da9 0c3f
000000c0: 832f ac3d 1e62 29be 9fb8 1b3f 5ef0 353e
000000d0: 0ad1 c4be e045 abbe c0e8 8ebe a037 b03e
000000e0: 572c b23e f1c0 e1be dac5 8cbd c392 e9be
000000f0: 98e9 ff3d 6060 433a 176e a7be b2f8 e7be
00000100: 3757 ad3e e145 e83e c996 d5bc 876c babe
00000110: fe39 953d 85b1 a63e 5cc7 4b3e 44bc 93be
00000120: eaf7 57be 87ee 043f fdc1 d3bc 5286 3c3d
00000130: ee9a 2c3e a1cf 323f a632 9f3e 96f1 a9bd
00000140: 052d 033e ba6e ed3e 67b3 74bd 5c79 7f3e
00000150: 85cf d83e a6cd 49be 1344 fabd 8131 afbe
00000160: 28af b23e 7ddb 89be 7cea e3bc 4b87 8ebe
00000170: 01e0 e0bd ed82 6c3e 9db4 87bd 0e71 02be
00000180: 9e5e 27be 262f 713d 50f6 09be fa44 d93d
00000190: 58b6 243d 1bd8 22be 7cdc ea3e 51cc 32bd
000001a0: 3dcc 973e 96b5 0b3d a8d7 ecbe 6546 e0bd
000001b0: 49b5 573d 3771 a23e 0184 9e3d 696f dc3e
000001c0: 7d20 e43e beac 303e af9e 52bc dd4f 10be
000001d0: 2f81 9abe 927a c0be b968 f5bd 518f e1be
000001e0: 96a8 8abe 5de4 27bf 8d69 81be 35a2 9abd
000001f0: c16d cf3e 9910 523e f050 f33e 8b8a bb3d
0.22706306 -0.08692828 -0.13279589 0.09040275 -0.14787003 -0.08371233 0.0117245745 0.18388698
-0.35278395 0.48403266 -0.13049221 -0.057905577 -0.09154157 0.20791079 -0.81491375 0.18596478
0.34878185 0.40244913 0.123477265 0.122632 -0.23592867 -0.15234074 0.20990816 -0.04111101
-0.44242477 -0.12575854 -0.094008684 0.09077008 0.049875814 0.286627 -0.6193983 0.18228593
-0.07764214 -0.14786726 -0.4430657 -0.3120732 -0.369259 -0.48871064 -0.0018118281 0.5296069
-0.092779696 -0.039573226 -0.18360254 -0.08883203 -0.37792322 -0.003968161 -0.5100422 0.54945546
0.084075 -0.16541335 0.60828584 0.17767474 -0.38440734 -0.33451748 -0.2791195 0.34417439
0.34799454 -0.44092515 -0.06873675 -0.45619783 0.12495726 0.00074530207 -0.3270118 -0.45306927
0.33855602 0.45365813 -0.026072877 -0.36410925 0.07286452 0.32557312 0.19900268 -0.28854573
-0.21090665 0.51926464 -0.025849337 0.046026535 0.16855976 0.69848067 0.3109333 -0.08298032
0.12810142 0.4637354 -0.059741404 0.24948639 0.42345825 -0.19707355 -0.122200154 -0.34217456
0.3489926 -0.2692527 -0.027821772 -0.27837595 -0.10980225 0.23096819 -0.06626246 -0.1273844
-0.16344687 0.058882855 -0.13472867 0.10608859 0.04021296 -0.1590275 0.4587134 -0.043651883
0.2964801 0.03410872 -0.46258283 -0.10950927 0.05266312 0.31727 0.077400215 0.4305375
0.44556037 0.17253396 -0.012855216 -0.14092965 -0.30176684 -0.37593514 -0.11982865 -0.44054654
-0.27081746 -0.6558283 -0.2527584 -0.0755047 0.40513423 0.20514144 0.47522688 0.09157284

linears.4.bias f4 [4]
00000000: 6819 903b d34f de3d 7d77 6a3d 7f4e 053e
0.00439756 0.10855069 0.05724286 0.13018225
