Iterations/Test model/epoch_1813.pt (torch, 37739 bytes, 10 tensors)

linears.0.weight f4 [32, 2]
0.32031703 -0.063529044 0.27727124 -0.2837946 0.2413648 -0.328744 -0.09989082 -0.4646289
-0.04418618 0.26236433 0.04705963 -0.46583775 0.17709646 0.5196305 0.16644989 0.18530881
0.36082172 -0.047161277 -0.22697678 -0.118810244 -0.11252247 -0.38731557 -0.2272099 0.19139662
-0.10770723 -0.12405974 0.16566116 -0.19707754 -0.123908155 0.63301647 -0.056666076 -0.1899186
0.21882184 0.4935688 0.2864693 0.0662221 -0.10849317 0.1859187 -0.16481428 -0.15580034
-0.11233679 -0.11551298 0.27321106 0.035476245 0.6331566 0.015819805 0.25805065 -0.218276
-0.5471522 0.20588024 0.3208522 -0.112443276 -0.17838262 -0.087672174 0.04385826 0.26423383
0.07746936 -0.17116974 -0.028298313 0.3160333 0.15479472 -0.20424142 -0.04584243 0.6188408
00000000: 9800 a43e 841b 82bd 7ff6 8d3e 874d 91be
00000010: 5628 773e 2251 a8be 8f93 ccbd d7e3 edbe
00000020: 91fc 34bd 9e54 863e 99c1 403d 4982 eebe
00000030: c658 353e 8106 053f d771 2a3e 98c1 3d3e
00000040: a0bd b83e 2f2c 41bd 9a6c 68be c952 f3bd
00000050: 2e72 e6bd 3a4e c6be b6a9 68be 7afd 433e
00000060: 9c95 dcbd 0813 febd 14a3 293e b2ce 49be
00000070: 8fc3 fdbd 5e0d 223f b01a 68bd 057a 42be
00000080: d512 603e 0db5 fc3e 1bac 923e 749f 873d
00000090: ab31 debd 7961 3e3e 13c5 28be 208a 1fbe
000000a0: d510 e6bd 1292 ecbd 52e2 8b3e 8a4f 113d
000000b0: 8d16 223f 8998 813c 371f 843e be83 5fbe
000000c0: 2b12 0cbf 45d2 523e bd46 a43e a948 e6bd
000000d0: efa9 36be 788d b3bd b8a4 333d a849 873e
000000e0: 41a8 9e3d 1f47 2fbe ddd1 e7bc 1ecf a13e
000000f0: 8282 1e3e aa24 51be 46c5 3bbd 5a6c 1e3f

linears.0.bias f4 [32]
0.0028070512 0.016625779 0.008599479 0.0076322053 0.010045095 -0.0061252792 0.0004958943 -0.033655137
-0.015246532 -0.0136584835 0.0006665415 -0.037116647 0.03928112 -0.026851282 0.010721746 -0.008749542
-0.005435719 0.0008613329 0.018483123 0.013945234 0.010525613 -0.01902309 0.085634306 0.0048717665
-0.0554194 0.013412614 -0.008285719 0.008353872 0.020560743 0.0063853995 -0.14150843 0.008914877
00000000: 81f6 373b c932 883c d4e4 0c3c 9417 fa3b
00000010: 2f94 243c 91b6 c8bb e7fe 013a f8d9 09bd
00000020: 97cc 79bc d5c7 5fbc d8ba 2e3a a007 18bd
00000030: 3de5 203d 38f7 dbbc 43aa 2f3c 3d5a 0fbc
00000040: 1e1e b2bb 13cb 613a eb69 973c 8d7a 643c
00000050: 9f73 2c3c 50d6 9bbc 0a61 af3d 57a3 9f3b
00000060: 74ff 62bd 95c0 5b3c d3c0 07bc aede 083c
00000070: 016f a83c 9d3c d13b 96e7 10be b40f 123c

linears.1.weight f4 [64, 32]
0.02797413 -0.26372054 -0.19371732 -0.17070967 0.17434098 0.02263038 -0.08442475 0.2601707
0.1686501 0.31438124 0.08803767 0.32288173 -0.22171605 -0.4807461 -0.009565257 -0.17562695
0.31119424 0.014419369 -0.02500173 0.044781823 -0.36933243 -0.043037824 -0.105420396 0.19302946
0.09086799 0.16511352 -0.2782277 -0.09373503 0.12286941 0.09327144 -0.07840158 0.07777269
0.025159663 0.084885344 -0.10521219 0.15854573 -0.12603083 -0.11790978 0.20743412 0.31110984
0.386921 0.23126273 -0.11478552 -0.0511668 -0.06250276 0.14001247 0.12095521 -0.0540769
0.21674961 -0.18607245 -0.22756287 -0.053272963 -0.015712637 0.32497904 -0.093609385 -0.14067145
0.08763113 -0.038946208 0.08321877 -0.07042354 -0.023082698 -0.040844202 0.3179906 0.21904922
-0.0702859 0.112980455 0.18905139 -0.030448012 0.04267881 -0.042633083 -0.017178232 -0.17136656
-0.08365438 -0.3078462 -0.22146553 -0.01580041 0.26440495 0.011365705 -0.008444937 -0.26609555
-0.038159225 0.271092 -0.12144558 -0.09378956 -0.17873861 -0.1925587 0.14286709 -0.067999214
-0.04699935 0.032771453 0.0414041 -0.08657421 -0.08101241 0.27289924 -0.06445831 -0.22890012
-0.08027829 0.11127667 0.049993537 -0.08395499 -0.20129119 -0.26176167 -0.045409758 -0.10748382
0.19702514 -0.14414324 0.084812425 0.038320325 0.04002368 0.13342223 0.18800372 -0.34962332
-0.0878431 -0.13920976 0.07818918 -0.023855852 -0.05417388 0.09516268 0.20543407 0.010282249
-0.10268493 0.21432333 -0.032223742 -0.12175863 -0.038949743 -0.015568771 -0.22711541 0.03809428
0.03211958 0.039996576 -0.06864592 -0.056680143 0.02604859 -0.09165859 0.13795923 0.040966127
-0.028604072 -0.19592552 -0.34837347 -0.17196202 -0.1547945 -0.19068748 0.39303 0.013508257
0.12925236 0.24765828 -0.05445008 0.2959505 -0.14968567 0.03243794 -0.24476308 0.028680813
-0.03283076 0.03201269 -0.16326213 0.16303587 0.04221662 0.008839052 -0.042126328 0.18024568
0.09683311 -0.109873615 -0.1515741 -0.09860891 0.29168627 -0.13625686 -0.07927585 -0.063596874
0.063068196 -0.12290442 0.018079538 0.06896697 -0.12226887 0.29624337 0.10210113 0.044895876
-0.3956038 0.06757178 0.03290256 0.27378488 0.04577564 -0.21560836 -0.108912855 -0.059858665
0.17141554 0.08224452 0.33023614 -0.06765849 -0.013366332 0.07017896 -0.24058661 -0.04679567
-0.17399424 0.12411652 0.24517395 0.14944407 -0.16069718 0.0890695 -0.029667243 -0.24333106
0.3533095 -0.35568875 0.13344243 0.03560343 -0.13999826 -0.164653 -0.020832488 -0.27220756
0.10761779 -0.13859123 -0.051988013 0.11680664 0.15525666 -0.16586174 0.23088825 -0.04572977
-0.053405184 -0.060825285 0.15240248 -0.07411605 -0.118693285 -0.4095917 -0.06090807 -0.06081122
0.06348098 -0.14348066 0.13629457 0.051116396 0.1511029 -0.14413103 0.11221152 0.18826473
-0.22282778 0.37703454 0.14905578 -0.050748006 -0.18059757 0.117802806 0.11220221 0.04560447
0.043987285 -0.09826594 0.22033925 -0.110710576 -0.06670882 -0.15035324 0.2509658 -0.06707149
-0.010505984 0.045229625 -0.18789922 -0.1391481 0.04044989 0.2164194 -0.3279688 0.2615944
00000000: 012a e53c 6106 87be d55d 46be 84ce 2ebe
00000010: 7186 323e 5963 b93c e2e6 acbd 1835 853e
00000020: 9db2 2c3e 94f6 a03e 184d b43d c150 a53e
00000030: 8809 63be 5a24 f6be 98b7 1cbc 8dd7 33be
00000040: da54 9f3e 383f 6c3c 6ed0 ccbc 256d 373d
00000050: 2419 bdbe 6e48 30bd a6e6 d7bd 84a9 453e
00000060: ff18 ba3d 8513 293e dc73 8ebe 27f8 bfbd
00000070: f5a2 fb3d 1905 bf3d 0291 a0bd 4a47 9f3d
00000080: a31b ce3c 5ed8 ad3d 7d79 d7bd d059 223e
00000090: 3a0e 01be af7a f1bd 9c69 543e ca49 9f3e
000000a0: 821a c63e 23d0 6c3e ac14 ebbd 4794 51bd
000000b0: 7201 80bd 6e5f 0f3e 5db7 f73d bd7f 5dbd
000000c0: 9cf3 5d3e c789 3ebe 3e06 69be c034 5abd
000000d0: cab7 80bc a763 a63e 47b6 bfbd 2d0c 10be
000000e0: f377 b33d 0f86 1fbd 9a6e aa3d 383a 90bd
000000f0: ed17 bdbc 404c 27bd aacf a23e 704e 603e
00000100: 0ef2 8fbd 4c62 e73d b096 413e 1c6e f9bc
00000110: facf 2e3d 07a0 2ebd 5db9 8cbc b77a 2fbe
00000120: fd52 abbd 049e 9dbe dcc7 62be dd6f 81bc
00000130: 1660 873e 3937 3a3c a25c 0abc ad3d 88be
00000140: d94c 1cbd 92cc 8a3e 76b8 f8bd be14 c0bd
00000150: 4107 37be 1c2e 45be c04b 123e 2c43 8bbd
00000160: 6482 40bd 5c3b 063d 5897 293d d24d b1bd
00000170: d6e9 a5bd 73b9 8b3e b802 84bd cb64 6abe
00000180: f268 a4bd 06e5 e33d 06c6 4c3d 98f0 abbd
00000190: 471f 4ebe a005 86be 95ff 39bd 7a20 dcbd
000001a0: f5c0 493e 499a 13be 23b2 ad3d c6f5 1c3d
000001b0: dfef 233d d69f 083e 0c84 403e d401 b3be
000001c0: 15e7 b3bd 018d 0ebe a621 a03d 596d c3bc
000001d0: 6ee5 5dbd a7e4 c23d 4f5d 523e e176 283c
000001e0: 7a4c d2bd 9377 5b3e 0bfd 03bd 975c f9bd
000001f0: c489 1fbd 2914 7fbc f190 68be bf08 1c3d
00000200: d28f 033d 73d3 233d 3b96 8cbd 7029 68bd
00000210: da63 d53c 80b7 bbbd 2f45 0d3e 19cc 273d
00000220: 1653 eabc b3a0 48be 025e b2be d016 30be
00000230: 7382 1ebe 9443 43be 3a3b c93e bd51 5d3c
00000240: bb5a 043e 229a 7d3e 0c07 5fbd d386 973e
00000250: 3347 19be a5dd 043d 2ca3 7abe 06f4 ea3c
00000260: 8c79 06bd bd1f 033d 302e 27be e0f2 263e
00000270: 56eb 2c3d acd1 103c a88c 2cbd 5392 383e
00000280: 7050 c63d 6b05 e1bd 3e36 1bbe 78f3 c9bd
00000290: e757 953e eb86 0bbe 605b a2bd 143f 82bd
000002a0: e629 813d 50b5 fbbd 8a1b 943c 8e3e 8d3d
000002b0: 1a68 fabd 36ad 973e 661a d13d bde4 373d
000002c0: 958c cabe 1363 8a3d d6c4 063d 882d 8c3e
000002d0: 3d7f 3b3d 70c8 5cbe b40d dfbd 5c2e 75bd
000002e0: 8e87 2f3e d16f a83d b614 a93e 8990 8abd
000002f0: 76fe 5abc fdb9 8f3d 565c 76be d1ac 3fbd
00000300: 8c2b 32be cd30 fe3d e10e 7b3e de07 193e
00000310: cd8d 24be 126a b63d b808 f3bc c72b 79be
00000320: fce4 b43e d61c b6be 22a5 083e e7d4 113d
00000330: b45b 0fbe cc9a 28be e5a8 aabc ca5e 8bbe
00000340: b766 dc3d dcea 0dbe 62f1 54bd 5238 ef3d
00000350: 9afb 1e3e a9d7 29be f86d 6c3e 244f 3bbd
00000360: 65bf 5abd ef23 79bd 650f 1c3e 28ca 97bd
00000370: 7715 f3bd 01b6 d1be be7a 79bd 3015 79bd
00000380: 5102 823d 98ec 12be ce90 0b3e 6d5f 513d
00000390: b8ba 1a3e 1697 13be 27cf e53d 78c8 403e
000003a0: f72c 64be ac0a c13e 14a2 183e 24dd 4fbd
000003b0: 92ee 38be 9942 f13d 46ca e53d c1cb 3a3d
000003c0: 032c 343d a73f c9bd 9da0 613e 3abc e2bd
000003d0: a29e 88bd 33f6 19be 977e 803e c75c 89bd
000003e0: 4a21 2cbc b342 393d a768 40be d77c 0ebe
000003f0: c9ae 253d 0c9d 5d3e 87eb a7be b4ef 853e

linears.1.bias f4 [64]
-0.022246307 -0.031332284 0.02314047 0.017945506 0.012133116 0.021908235 -0.00066227297 0.062366
-0.0019234614 0.01448839 -0.016094897 0.026636818 -0.03096122 -0.020571277 -0.017271666 0.02625897
-0.0011143516 0.0012968816 -0.014415537 0.02009575 -0.009974496 0.012504582 0.014830642 0.0010552672
-0.012129108 -0.004225471 -0.015431931 0.0086792605 0.053842433 -0.0004634531 -0.027172478 0.0010745337
-0.02616081 -0.026922246 -0.08029087 0.0022187233 0.019479096 -0.01458503 -0.014854509 0.014851611
0.013612645 -0.0074385717 -0.019112995 -0.012904386 0.13006723 0.0007172982 0.008077402 0.010445144
-0.020634685 0.046482705 -0.087689735 -0.0066214213 -0.003475063 0.021717943 0.012066013 0.010983826
-0.025461977 -0.0058850134 -0.008215468 -0.018795295 -0.0031046737 -0.0030292324 -0.045549065 -0.017994639
00000000: e33d b6bc 4856 00bd 1591 bd3c 7402 933c
00000010: fac9 463c e678 b33c 639c 2dba 7e73 7f3d
00000020: a81c fcba b660 6d3c 72d9 83bc 7535 da3c
00000030: 62a2 fdbc 1885 a8bc 4f7d 8dbc 0d1d d73c
00000040: 6f0f 92ba 20fc a93a 252f 6cbc d89f a43c
00000050: 126c 23bc 05e0 4c3c 39fc 723c e450 8a3a
00000060: 2bb9 46bc d275 8abb 36d6 7cbc 7533 0e3c
00000070: e289 5c3d 9ffb f2b9 d198 debc 5ed7 8c3a
00000080: 324f d6bc 0b8c dcbc 8a6f a4bd 0068 113b
00000090: a092 9f3c 0df6 6ebc 5460 73bc 2c54 733c
000000a0: 9207 5f3c 43bf f3bb db92 9cbc eb6c 53bc
000000b0: 5830 053e 1109 3c3a 1457 043c 1c22 2b3c
000000c0: 120a a9bc a664 3e3d ad96 b3bd 82f8 d8bb
000000d0: e2bd 63bb d4e9 b13c 87b0 453c 81f5 333c
000000e0: a395 d0bc 12d7 c0bb 2c9a 06bc 97f8 99bc
000000f0: c877 4bbb 1686 46bb a891 3abd 7e69 93bc

linears.2.weight f4 [64, 64]
-0.14879604 0.026725646 -0.051007673 0.1024948 -0.16334973 0.05280549 0.052066773 0.058183763
-0.0105781155 0.03558883 -0.017601721 0.13426858 0.020171057 0.15845004 -0.052858602 0.09517354
0.01401506 0.02634184 0.32105014 0.03857326 0.22611806 -0.012272463 0.034469116 -0.09264899
0.14914675 0.14868988 -0.082960464 -0.105198964 -0.072060116 -0.17438142 0.0014388998 0.04136711
0.20928346 0.07790107 0.21873327 -0.12230124 -0.054442186 0.10159978 -0.06075195 -0.14292593
0.028810835 0.22137624 -0.009118714 0.00913258 0.014831169 -0.0023202484 0.09539799 -0.11055795
-0.2727868 -0.26403838 -0.17008574 -0.04627318 -0.26931503 -0.18638693 -0.25249085 0.13621277
-0.039869826 0.057045437 0.08900461 0.21567328 -0.054349016 0.17346227 -0.19153528 -0.14251496
-0.27376238 -0.040100634 0.10726276 -0.039559364 0.0053193914 -0.10375058 -0.012214514 0.3203594
0.065022446 -0.16607593 -0.109201506 0.073239155 -0.11754845 -0.20090252 -0.032665987 0.014308753
0.23153651 -0.06257764 -0.14956833 0.3193868 -0.11171555 0.05437424 0.055330426 0.122707345
-0.14159556 -0.09625474 0.081989944 -0.2627002 0.0030043568 0.18275952 -0.049272817 0.06909419
-0.20307042 -0.08472914 -0.20392811 -0.024859851 -0.30201653 -0.1776697 0.02865435 0.15622741
-0.1436685 0.037448224 0.11720165 0.030830331 -0.0132702235 0.1257574 -0.020003673 0.06709075
0.13732272 0.108635396 -0.12491706 -0.13762297 0.07102547 -0.014281351 -0.023180114 0.19780241
0.16560023 0.15666476 0.017602207 0.07029738 -0.0010350781 -0.079954125 -0.18086146 0.009693593
-0.19995616 -0.25440145 -0.2303756 0.06134248 -0.30421734 0.16379058 0.054267146 -0.04620181
0.0925275 -0.119620584 -0.19137229 -0.17283544 -0.026289407 -0.07590043 0.08611496 -0.04244715
-0.07671536 0.054133262 0.16723536 0.15580001 -0.068548866 0.05137109 -0.09174153 0.10558596
0.2236073 -0.08105745 0.08243578 -0.008656014 0.1404787 0.10994386 -0.05587151 0.16271983
-0.050160296 0.16453062 0.087259576 -0.28619304 -0.18591139 -0.03272861 -0.07978457 0.037792955
-0.048870765 -0.026611194 0.1763574 -0.114601634 0.095403 0.1785319 0.036216147 -0.18729194
-0.027857728 0.14427507 -0.11150384 0.14182138 -0.07160793 0.11266303 -0.2809322 0.007381501
-0.003532075 0.1217084 0.00041856238 -0.07971339 0.08598445 0.08643334 0.03190135 -0.09111637
-0.06755329 0.17018355 0.22162409 -0.32809705 -0.1039334 -0.1778547 -0.156394 -0.11323437
-0.15547921 0.04844532 -0.01842601 -0.010626424 0.0055701565 0.1613767 0.014300612 -0.06248936
0.31952956 0.060584273 0.30309093 0.052645274 -0.014511446 -0.13928139 -0.13681261 -0.029731115
0.06484494 0.0024369266 0.038626887 -0.14798893 0.117732644 -0.067533165 0.19873734 0.26503426
0.042355612 -0.13780507 0.056036524 -0.0036270414 -0.062590964 -0.1759283 0.0057350565 -0.13332078
0.12844768 0.04918244 0.04020237 -0.093098246 -0.11298091 0.02432548 -0.07161664 0.018340753
-0.08663989 -0.074864484 -0.21642792 0.036743782 -0.014704484 -0.15739337 0.04101632 -0.06737711
0.04367511 -0.20648079 0.0822148 0.048698086 0.1898604 0.22206894 -0.040568598 0.09798128
00000000: fd5d 18be beef da3c 6ced 50bd cbe8 d13d
00000010: 2745 27be 924a 583d f843 553d 1952 6e3d
00000020: d54f 2dbc 98c5 113d 7c31 90bc b47d 093e
00000030: c63d a53c ba40 223e 4382 58bd 58ea c23d
00000040: 6c9f 653c d8ca d73c af60 a43e fffe 1d3d
00000050: 7e8b 673e 7112 49bc 7d2f 0d3d c1be bdbd
00000060: edb9 183e 2942 183e 2de7 a9bd 8e72 d7bd
00000070: 4194 93bd 0b91 32be 7799 bc3a 8f70 293d
00000080: 674e 563e 998a 9f3d 9dfb 5f3e 1379 fabd
00000090: c5fe 5ebd 8c13 d03d 09d7 78bd 2d5b 12be
000000a0: b304 ec3c 74b0 623e a966 15bc d1a0 153c
000000b0: 6efe 723c 4f0f 18bb 0560 c33d 356c e2bd
000000c0: b6aa 8bbe 0a30 87be f52a 2ebe f288 3dbd
000000d0: a9e3 89be 37dc 3ebe 7b46 81be 5c7b 0b3e
000000e0: 8b4e 23bd 7aa8 693d 0d48 b63d 75d9 5c3e
000000f0: 139d 5ebd 18a0 313e d321 44be 71ef 11be
00000100: 952a 8cbe 9040 24bd 94ac db3d 0009 22bd
00000110: 4a4e ae3b 2f7b d4bd 631f 48bc 2606 a43e
00000120: 7d2a 853d cf0f 2abe 0aa5 dfbd 69fe 953d
00000130: 3ebd f0bd 64b9 4dbe c5cc 05bd 436f 6a3c
00000140: e817 6d3e b528 80bd 7128 19be ab86 a33e
00000150: 1fcb e4bd 86b7 5e3d 28a2 623d fd4d fb3d
00000160: 6dfe 10be 3521 c5bd 58ea a73d a480 86be
00000170: bee4 443b 5025 3b3e 4bd2 49bd 4181 8d3d
00000180: b1f1 4fbe 7986 adbd 88d2 50be e3a6 cbbc
00000190: e9a1 9abe 0cef 35be 87bc ea3c 14fa 1f3e
000001a0: d61d 13be 4f63 193d 6b07 f03d e48f fc3c
000001b0: 5a6b 59bc 8cc6 003e bede a3bc e066 893d
000001c0: 549e 0c3e 3c7c de3d 84d4 ffbd 09ed 0cbe
000001d0: cd75 913d 54fc 69bc 39e4 bdbc b78c 4a3e
000001e0: 1b93 293e ba6c 203e 8132 903c 13f8 8f3d
000001f0: 75ab 87ba fdbe a3bd bf33 39be e0d1 1e3c
00000200: 4fc1 4cbe e840 82be 95e7 6bbe 4142 7b3d
00000210: 60c2 9bbe b8b8 273e 3a47 5e3d 1c3e 3dbd
00000220: 0f7f bd3d a3fb f4bd 19f7 43be c6fb 30be
00000230: e25c d7bc af71 9bbd 0a5d b03d 10dd 2dbd
00000240: f11c 9dbd d7ba 5d3d bf3f 2b3e 0a8a 1f3e
00000250: 5963 8cbd 7e6a 523d fce2 bbbd 743d d83d
00000260: 50f9 643e 7301 a6bd 17d4 a83d f4d1 0dbc
00000270: a6d9 0f3e 3f2a e13d 86d9 64bd 07a0 263e
00000280: e274 4dbd b77a 283e 26b5 b23d e587 92be
00000290: 8e5f 3ebe 6f0e 06bd 1866 a3bd c9cc 1a3d
000002a0: b62c 48bd b8ff d9bc 0997 343e 43b4 eabd
000002b0: a662 c33d 11d1 363e 6257 143d 75c9 3fbe
000002c0: e435 e4bc d8bc 133e 205c e4bd a039 113e
000002d0: 2ea7 92bd e0bb e63d 58d6 8fbe 85e0 f13b
000002e0: 637a 67bb 4142 f93d 7e72 db39 c640 a3bd
000002f0: 9e18 b03d f703 b13d fdaa 023d 389b babd
00000300: 6159 8abd 9944 2e3e 6df1 623e 56fc a7be
00000310: 09db d4bd 8b1f 36be c025 20be 6ce7 e7bd
00000320: f135 1fbe 9a6e 463d 25f2 96bc 741a 2ebc
00000330: dc85 b63b ef3f 253e 1d4d 6a3c d8f4 7fbd
00000340: 6199 a33e 3727 783d bc2e 9b3e 92a2 573d
00000350: 6ac1 6dbc c89f 0ebe 9b18 0cbe ab8e f3bc
00000360: 6dcd 843d d8b4 1f3b 3a37 1e3d 698a 17be
00000370: d01d f13d d44e 8abd cd81 4b3e 92b2 873e
00000380: 147d 2d3d c61c 0dbe 8e86 653d a8b3 6dbb
00000390: b12f 80bd 8c26 34be 24ed bb3b 3e85 08be
000003a0: ca87 033e 8773 493d 3eab 243d 4baa bebd
000003b0: 8962 e7bd 3b46 c73c bfab 92bd 593f 963c
000003c0: 4170 b1bd 8d52 99bd 489f 5dbe a680 163d
000003d0: 13eb 70bc ba2b 21be bb00 283d 03fd 89bd
000003e0: ace4 323d b36f 53be 3c60 a83d a577 473d
000003f0: c46a 423e 0a66 633e 422b 26bd 69aa c83d

linears.2.bias f4 [64]
0.007877702 0.030229364 0.027187044 -0.021603506 0.07122015 -0.0786 -0.05362339 0.004016766
-0.006605741 0.018855147 0.0038709547 -0.008775614 -0.028507784 0.00858191 0.06921355 0.0045174994
-0.041227162 -0.005406595 -0.0077441856 -0.0015721812 0.032467853 -0.004320189 -0.009461311 0.0014251397
0.011716148 0.028216174 -0.00012906297 0.0029768425 0.00019762455 0.10567475 -0.00017787101 0.006101332
-0.02081078 -0.042618223 -0.021848517 0.0019493178 -0.0033289432 -0.005388715 0.01767508 -0.0052086106
-0.005361278 0.007235551 0.019478785 0.029415898 -0.034230288 -0.0015844925 0.01398117 -0.0112652145
0.0116063515 0.040509146 -0.017649522 -0.008342832 -0.029049618 -0.0022344086 0.042714257 0.057895005
0.058296055 0.0070187235 -0.022342062 -0.011515521 0.01732163 0.0189149 0.037756417 0.0021493437
00000000: 7a11 013c 92a3 f73c 5db7 de3c d6f9 b0bc
00000010: dfdb 913d 09f9 a0bd 33a4 5bbd 139f 833b
00000020: f974 d8bb 1c76 9a3c d8af 7d3b 98c7 0fbc
00000030: 2889 e9bc 249b 0c3c d5bf 8d3d 8807 943b
00000040: d0dd 28bd ce29 b1bb f0c2 fdbb a611 ceba
00000050: 03fd 043d 5f90 8dbb 9d03 1bbc c1cb ba3a
00000060: 16f5 3f3c 9b25 e73c 1455 07b9 2117 433b
00000070: 7039 4f39 016c d83d e382 3ab9 afed c73b
00000080: 5e7b aabc 7290 2ebd a9fb b2bc 4080 ff3a
00000090: 662a 5abb d193 b0bb 54cb 903c feac aabb
000000a0: a9ad afbb 3318 ed3b f991 9f3c 9cf9 f03c
000000b0: 0f35 0cbd bfae cfba 4711 653c bc91 38bc
000000c0: 9128 3e3c ebec 253d bb95 90bc 60b0 08bc
000000d0: 77f9 edbc 286f 12bb 25f5 2e3d 5023 6d3d
000000e0: d8c7 6e3d 52fd e53b b306 b7bc 99ab 3cbc
000000f0: 17e6 8d3c 6cf3 9a3c 79a6 1a3d 01dc 0c3b

linears.3.weight f4 [32, 64]
-0.44997287 -0.045330703 -0.14015819 0.1626428 0.09958337 0.11951537 0.2138988 0.040004093
0.34405342 0.01725517 0.041920763 -0.033111025 0.018216971 -0.19911978 -0.26156512 -0.009280575
-0.0049494957 0.08204687 -0.18996532 -0.040872585 0.12909663 0.08453354 0.16568002 0.08956505
-0.11079241 0.07934522 -0.19966863 -0.20215836 0.0012178085 0.13312095 0.1367301 0.19555344
-0.1585664 -0.052446757 0.11337283 0.09630669 -0.119172335 0.025804479 0.2231384 -0.1449806
0.1177922 -0.070015185 0.0041948506 0.23133598 -0.055229213 -0.2228881 -0.15333126 -0.37935778
0.19927518 0.1324239 -0.020837028 0.19598268 -0.058236875 0.22759086 -0.30267724 0.20471287
-0.020356538 0.03486058 0.24092986 0.09288746 -0.07580802 0.054164607 0.13846083 -0.185929
0.20834056 0.1760461 0.09271197 -0.08606172 0.3123872 -0.3443279 -0.2589687 0.02757223
0.107905984 0.20810089 0.19803841 0.2824608 -0.29301122 -0.041578654 0.1829075 -0.061942797
-0.07539873 -0.1747457 -0.07623071 0.17584826 0.42841354 0.034227125 0.17506519 -0.11234743
0.1325653 0.029182957 -0.0059314882 -0.26523164 0.13379472 -0.058143575 -0.07572126 -0.105544865
0.0880913 -0.22560537 0.0032263221 -0.22456504 0.24078198 0.35153383 0.10391809 0.050585587
0.0255296 -0.2622853 -0.086342365 -0.15705134 0.033666722 0.080201186 0.22918007 -0.011306113
0.17934982 0.026973093 0.09067567 -0.26433334 -0.20002604 0.018006358 0.15347491 0.10459037
0.3061297 0.024075458 -0.51362455 -0.0746626 -0.025106763 -0.31403744 0.46332923 0.22559358
0.2141212 -0.15106648 0.20863564 0.045040414 0.081143126 0.20174094 -0.09939895 -0.015317042
-0.15476389 -0.11208009 -0.17637329 0.09158848 -0.055690423 -0.1432047 -0.014859024 -0.1003999
0.080238156 0.13168178 0.19070543 0.082369894 -0.047815897 0.18445314 0.08512773 0.09710665
0.0018480499 -0.01817176 0.062417686 -0.079902016 -0.18971813 -0.053311944 0.07254529 -0.039357677
0.2002954 -0.07248474 0.2733588 0.049845148 0.10353834 -0.020713028 -0.04449574 0.07552191
-0.24046808 -0.2638941 0.20631944 -0.3042202 -0.043528408 0.23916668 -0.30292943 -0.088945344
0.15343761 0.047451798 0.022578178 -0.16311102 0.19061223 -0.08358682 -0.32112864 0.03789728
0.09384151 -0.08668509 -0.037947796 -0.026724664 -0.13919672 0.21110857 -0.049181543 0.2192253
-0.3173456 0.21345966 0.09729505 -0.13483168 0.090491936 -0.2012976 0.23656638 0.06732254
0.03589627 -0.3634469 -0.094178244 -0.17594886 -0.06933553 0.20685686 0.006292943 -0.21484463
0.13394766 -0.20204148 0.14014617 0.21991368 -0.07462592 -0.12949741 0.19624542 -0.026770586
-0.17233172 -0.097458094 0.117733575 0.17397267 0.055080675 -0.1344669 -0.06607552 0.16083388
0.0130480295 0.21693729 0.07549101 -0.3023997 -0.05836616 -0.22790723 0.1456388 0.002015819
0.07258664 -0.13235904 -0.07864558 -0.11757631 -0.27495787 0.226617 -0.09128603 -0.039723314
-0.03745808 -0.19251412 0.08868886 -0.1241479 0.11449476 -0.08875571 -0.1852526 -0.08942704
0.21025588 0.14644907 0.38110673 -0.08083016 0.046882406 0.062181972 -0.009309118 0.027199723
00000000: d862 e6be b0ac 39bd a185 0fbe d68b 263e
00000010: 5ef2 cb3d 79c4 f43d 4908 5b3e 55db 233d
00000020: c527 b03e b75a 8d3c 1bb5 2b3d 6d9f 07bd
00000030: c23b 953c 0ee6 4bbe ddeb 85be 8e0d 18bc
00000040: 612f a2bb 3008 a83d 4586 42be 036a 27bd
00000050: e831 043e ec1f ad3d 06a8 293e e26d b73d
00000060: 22e7 e2bd bf7f a23d ef75 4cbe 9a02 4fbe
00000070: df9e 9f3a dc50 083e fa02 0c3e 293f 483e
00000080: 3b5f 22be 69d2 56bd 0430 e83d 713c c53d
00000090: a010 f4bd ea63 d33c 657e 643e cb75 14be
000000a0: 093d f13d 1f64 8fbd f574 893b 57e3 6c3e
000000b0: 0738 62bd c73c 64be df02 1dbe 2f3b c2be
000000c0: cb0e 4c3e 219a 073e 6ab2 aabc afaf 483e
000000d0: ca89 6ebd 940d 693e 83f8 9abe 40a0 513e
000000e0: c1c2 a6bc f8c9 0e3d 51b6 763e c83b be3d
000000f0: 3c41 9bbd b5db 5d3d adc8 0d3e 2c64 3ebe
00000100: 3a57 553e 6e45 343e c6df bd3d 2141 b0bd
00000110: 37f1 9f3e bf4b b0be 8c97 84be 28df e13c
00000120: d0fd dc3d 6618 553e 95ca 4a3e b49e 903e
00000130: 9105 96be 614e 2abd 1b4c 3b3e bbb7 7dbd
00000140: a66a 9abd 89f0 32be d91e 9cbd 9111 343e
00000150: 0559 db3e be31 0c3d 4a44 333e 6916 e6bd
00000160: 33bf 073e 1911 ef3c ee5c c2bb 71cc 87be
00000170: 7c01 093e f527 6ebd bf13 9bbd e827 d8bd
00000180: 3669 b43d 1805 67be b470 533b 61f4 65be
00000190: 8d8f 763e 3efc b33e 02d3 d43d d532 4f3d
000001a0: 7423 d13c 424a 86be 44d4 b0bd 11d2 20be
000001b0: 1ee6 093d 8540 a43d 2eae 6a3e 463d 39bc
000001c0: 7ba7 373e adf6 dc3c 2ab4 b93d b356 87be
000001d0: a0d3 4cbe 1282 933c 8728 1d3e 7a33 d63d
000001e0: 08bd 9c3e e539 c53c e67c 03bf b5e8 98bd
000001f0: b3ac cdbc 84c9 a0be 7d39 ed3e 0102 673e
00000200: 9642 5b3e 2cb1 1abe 95a4 553e 4c7c 383d
00000210: 5e2e a63d 2d95 4e3e ad91 cbbd 55f4 7abc
00000220: 6d7a 1ebe 3f8a e5bd 339b 34be be92 bb3d
00000230: a41b 64bd 41a4 12be 4473 73bc 769e cdbd
00000240: e753 a43d 97d7 063e 4948 433e 8cb1 a83d
00000250: 9ada 43bd 49e1 3c3e 7357 ae3d dadf c63d
00000260: 443a f23a f1dc 94bc b0a9 7f3d aba3 a3bd
00000270: 7845 42be a05d 5abd a092 943d 8435 21bd
00000280: 3d1a 4d3e e172 94bd aff5 8b3e 6d2a 4c3d
00000290: e90b d43d 5eae a9bc 2a41 36bd 3bab 9a3d
000002a0: 443d 76be 211d 87be 6745 533e c0c2 9bbe
000002b0: d84a 32bd 1ce8 743e 9119 9bbe fa28 b6bd
000002c0: c01e 1d3e d15c 423d dff5 b83c 9306 27be
000002d0: da2f 433e 912f abbd f96a a4be 2e3a 1b3d
000002e0: fa2f c03d f487 b1bd 266f 1bbd afed dabc
000002f0: 9689 0ebe d82c 583e 9672 49bd 997c 603e
00000300: 1f7b a2be 2b95 5a3e a142 c73d 5111 0abe
00000310: d653 b93d f520 4ebe 753e 723e 66e0 893d
00000320: f807 133d b615 babe 86e0 c0bd f02b 34be
00000330: c9ff 8dbd 49d2 533e 0835 ce3b 3b00 5cbe
00000340: 9329 093e f6e3 4ebe 7a82 0f3e 0d31 613e
00000350: 79d5 98bd f89a 04be 8ff4 483e fd4d dbbc
00000360: ba77 30be 1c98 c7bd 4d1e f13d e425 323e
00000370: 469c 613d b1b1 09be 9a52 87bd a3b1 243e
00000380: 67c7 553c cf24 5e3e 089b 9a3d 22d4 9abe
00000390: 5b11 6fbd 8360 69be 5622 153e d51b 043b
000003a0: 4ea8 943d 2189 07be ef10 a1bd d9cb f0bd
000003b0: 47c7 8cbe 490e 683e 2cf4 babd eab4 22bd
000003c0: a56d 19bd 6c22 45be 81a2 b53d 4141 febd
000003d0: 3b7c ea3d 8ec5 b5bd dcb2 3dbe 8625 b7bd
000003e0: 514d 573e bff6 153e 6c20 c33e 488a a5bd
000003f0: c407 403d 86b2 7e3d 4585 18bc f4d1 de3c

linears.3.bias f4 [32]
-0.0101032145 0.07297685 -0.019358382 -0.014682452 -0.016479004 -0.032922234 0.043967407 0.022952283
0.017174048 0.00898947 -0.0107537415 -0.012371023 -0.032135043 0.0065690684 -0.015621859 0.025504833
0.005039662 0.00393539 0.021321971 0.0023610706 -0.013103403 -0.011608948 -0.027140232 0.016904688
0.0056456635 -0.02804642 -0.012941318 -0.03356651 -0.027086554 -0.012002533 -0.017788425 -0.0011625914
00000000: f487 25bc e374 953d 7895 9ebc ab8e 70bc
00000010: fafe 86bc 77d9 06bd 2b17 343d 6d06 bc3c
00000020: 97b0 8c3c 9248 133c 7630 30bc d5af 4abc
00000030: 09a0 03bd 5741 d73b d3f2 7fbc 83ef d03c
00000040: c023 a53b 72f4 803b 6aab ae3c 31bc 1a3b
00000050: a8af 56bc 7533 3ebc 3155 debc b37b 8a3c
00000060: 42ff b83b 9bc1 e5bc d207 54bc 097d 09bd
00000070: 9fe4 ddbc 46a6 44bc 08b9 91bc 1862 98ba

linears.4.weight f4 [4, 32]
0.21691531 -0.11753668 -0.12138438 0.092591435 -0.1400997 -0.07704029 -0.0039690454 0.17405678
-0.38759878 0.4794025 -0.09804593 -0.026956681 -0.070394956 0.20693913 -0.8164547 0.18542536
0.338182 0.3984145 0.101482786 0.12514164 -0.20533521 -0.13223433 0.24102527 -0.04491568
-0.44083595 -0.10258363 -0.06253071 0.15101679 0.06862602 0.29496485 -0.612313 0.16194022
0.038560376 0.02078837 -0.58273417 -0.27070493 -0.4922035 -0.62758654 0.15808935 0.6739127
-0.003446606 0.10263724 -0.32513216 -0.23162843 -0.52455306 0.11818022 -0.6580278 0.7041422
0.22998796 -0.04939618 0.7854108 0.29506424 -0.53085685 -0.48642322 -0.48543844 0.335708
0.24731684 -0.59850055 -0.22417736 -0.6801737 0.2395062 0.032489665 -0.47531727 -0.3035688
0.31582105 0.5092362 -0.05331138 -0.34498492 0.06614708 0.34916323 0.21647225 -0.37710637
-0.120432995 0.5382141 0.044037163 -0.01125557 0.22542919 0.7144108 0.2981245 -0.055597886
0.13030186 0.4092545 -0.08895865 0.21424848 0.40209946 -0.17564787 -0.182234 -0.3735049
0.3367012 -0.3037838 -0.051529467 -0.374031 -0.103947416 0.19064665 -0.13137561 -0.13338318
-0.062494304 0.30747476 -0.32785547 0.04953185 -0.120315075 -0.3338719 0.654839 0.12912068
0.3727891 0.22208332 -0.63414925 -0.29716995 -0.1253984 0.48947605 -0.110545315 0.62761205
0.6151174 0.28922948 0.18370856 0.012788518 -0.47910714 -0.54748267 -0.3061843 -0.39719054
-0.41106158 -0.8467214 -0.4456969 -0.33284646 0.5791605 0.21072961 0.28552282 0.2728403
00000000: 0c1f 5e3e 12b7 f0bd 6098 f8bd 94a0 bd3d
00000010: 4c76 0fbe 4dc7 9dbd c40e 82bb f13b 323e
00000020: 5973 c6be 3f74 f53e 4ecc c8bd 42d4 dcbc
00000030: 3b2b 90bd dae7 533e 2d03 51bf 25e0 3d3e
00000040: 3126 ad3e fcfc cb3e 35d6 cf3d 2125 003e
00000050: 6543 52be 7068 07be 54cf 763e 81f9 37bd
00000060: 40b5 e1be 5e17 d2bd 1a10 80bd 25a4 1a3e
00000070: cc8b 8c3d a205 973e 8bc0 1cbf a8d3 253e
00000080: 7cf1 1d3d 5f4c aa3c 112e 15bf d699 8abe
00000090: 1902 fcbe 83a9 20bf 2de2 213e 8b85 2c3f
000000a0: 74e0 61bb 7933 d23d b977 a6be 0130 6dbe
000000b0: 1c49 06bf 7908 f23d 8374 28bf aa42 343f
000000c0: f781 6b3e a653 4abd af10 493f a912 973e
000000d0: 3ce6 07bf 770c f9be 638b f8be ebe1 ab3e
000000e0: a040 7d3e 5537 19bf c08e 65be dd1f 2ebf
000000f0: 1d41 753e e213 053d c95c f3be 5f6d 9bbe
00000100: 4cb3 a13e 4e5d 023f 095d 5abd dda1 b0be
00000110: 1f78 873d 86c5 b23e e7aa 5d3e 1614 c1be
00000120: 93a5 f6bd 66c8 093f 5060 343d 4869 38bc
00000130: e9d6 663e a0e3 363f c6a3 983e 9cba 63bd
00000140: da6d 053e ce89 d13e f42f b6bd f463 5b3e
00000150: fbdf cd3e 09dd 33be 8d9b 3abe 093c bfbe
00000160: 1a64 ac3e 8d89 9bbe 9010 53bd fe80 bfbe
00000170: 62e2 d4bd e038 433e 5487 06be 9a95 08be
00000180: 07fa 7fbd 556d 9d3e acdc a7be e9e1 4a3d
00000190: c067 f6bd 42f1 aabe 87a3 273f 3638 043e
000001a0: 37de be3e cf69 633e 9b57 22bf a926 98be
000001b0: 7068 00be 9b9c fa3e 9565 e2bd 2fab 203f
000001c0: 5578 1d3f e315 943e 191e 3c3e ef86 513c
000001d0: 884d f5be d327 0cbf 30c4 9cbe 8f5c cbbe
000001e0: aa76 d2be bcc2 58bf 6232 e4be da6a aabe
000001f0: dd43 143f 81c9 573e 0c30 923e b9b1 8b3e

linears.4.bias f4 [4]
0.0026562086 0.24050444 0.080141224 0.28968355
00000000: c913 2e3b cc46 763e 1521 a43d 6751 943e
