Iterations/Test model/epoch_1911.pt (torch, 37739 bytes, 10 tensors)

linears.0.weight f4 [32, 2]
0	0x3ea4355d	0.32071963
1	0xbd81c2ce	-0.06335984
2	0x3e8e19da	0.27754098
3	0xbe9235f0	-0.28556776
4	0x3e773e1d	0.24144788
5	0xbea81a3a	-0.3283251
6	0xbdcca797	-0.09992903
7	0xbeefe0d2	-0.46851212
8	0xbd352484	-0.044224277
9	0x3e878316	0.26467198
10	0x3d401b5b	0.04690109
11	0xbef0c0d2	-0.4702211
12	0x3e3553fb	0.17707817
13	0x3f05f3bb	0.5232503
14	0x3e2a7a4c	0.16648215
15	0x3e42d4f7	0.19026552
16	0x3eb93f5a	0.36181146
17	0xbd3bd20f	-0.045854624
18	0xbe68eed1	-0.22747351
19	0xbdf914ea	-0.12162192
20	0xbde68e09	-0.1125756
21	0xbec7ccd4	-0.3902346
22	0xbe696b74	-0.22794896
23	0x3e451b88	0.19248784
24	0xbddc93cc	-0.107703775
25	0xbe043c79	-0.12913693
26	0x3e295697	0.16536938
27	0xbe4e7c7b	-0.20164673
28	0xbdfd90c2	-0.12381126
29	0x3f22c9eb	0.6358935
30	0xbd6871d6	-0.056749187
31	0xbe45c162	-0.19312051
32	0x3e602666	0.21889648
33	0x3efe4fb5	0.49670187
34	0x3e92d4ab	0.28677878
35	0x3d9093b3	0.070594214
36	0xbdde1109	-0.10843093
37	0x3e41e3bf	0.18934534
38	0xbe298662	-0.16555169
39	0xbe260f9d	-0.16216893
40	0xbde672f0	-0.11252391
41	0xbdf8b98e	-0.12144767
42	0x3e8c04d4	0.27347434
43	0x3d2172bb	0.039416056
44	0x3f230b20	0.6368885
45	0x3c9c6610	0.019091636
46	0x3e8475b0	0.25871038
47	0xbe5d028e	-0.21583006
48	0xbf0cd4e3	-0.5501234
49	0x3e50b63a	0.20382014
50	0x3ea4d2c8	0.32192063
51	0xbde498d7	-0.111619644
52	0xbe36d060	-0.17852926
53	0xbdb90b4f	-0.0903536
54	0x3d33bcab	0.0438811
55	0x3e88e49d	0.26736918
56	0x3d9f41ef	0.07776248
57	0xbe305a89	-0.17222036
58	0xbce766bd	-0.028247232
59	0x3ea393d4	0.3194872
60	0x3e1f0edc	0.15533012
61	0xbe48ac4e	-0.19596979
62	0xbd3b491b	-0.045724016
63	0x3f1f6295	0.622598

linears.0.bias f4 [32]
0	0x3b174e03	0.002308727
1	0x3c84d08b	0.016212722
2	0x3c0dd9e7	0.008657909
3	0x3bf91c31	0.0076022376
4	0x3c310e49	0.0108066285
5	0xbbe186f6	-0.0068825437
6	0x3a61b9f8	0.00086107804
7	0xbd0e67f1	-0.034767095
8	0xbc8d6346	-0.017259251
9	0xbc5b3d28	-0.01338128
10	0x39ffdb3c	0.00048800732
11	0xbd1ba4f9	-0.037999127
12	0x3d26e648	0.040746957
13	0xbce4bbd7	-0.0279216
14	0x3c3b077d	0.01141536
15	0xbc1596eb	-0.00913022
16	0xbbb12c63	-0.0054069026
17	0x395893b6	0.00020654392
18	0x3ca0eba9	0.019643622
19	0x3c636f5f	0.013881533
20	0x3c37eaf4	0.011225451
21	0xbca141ca	-0.019684691
22	0x3db22c68	0.08699876
23	0x3b9423ba	0.0045208605
24	0xbd6221b0	-0.05520791
25	0x3c5be2c8	0.013420768
26	0xbc0777e8	-0.008268334
27	0x3c1255c4	0.008931581
28	0x3ca9e36c	0.020738326
29	0x3be44b35	0.006966973
30	0xbe164ae0	-0.14677
31	0x3c1c2ca4	0.0095321275

linears.1.weight f4 [64, 32]
0	0x3ce63f47	0.028106345
1	0xbe86fbed	-0.2636408
2	0xbe464b12	-0.19364575
3	0xbe2f6096	-0.17126688
4	0x3e32cded	0.17461367
5	0x3cb49c60	0.022047222
6	0xbdac226f	-0.08405005
7	0x3e856091	0.26050237
8	0x3e2cd92e	0.16879722
9	0x3ea0de7b	0.3141974
10	0x3db36a18	0.0876047
11	0x3ea546da	0.32280618
12	0xbe637152	-0.22211197
13	0xbef61333	-0.48061523
14	0xbc1982ac	-0.0093695335
15	0xbe343b89	-0.17600836
16	0x3e9f7fbe	0.31152147
17	0x3c6f0ba6	0.01459018
18	0xbccd8c80	-0.02509141
19	0x3d364713	0.044501375
20	0xbebd3ede	-0.36962026
21	0xbd2f77e2	-0.04283894
22	0xbdd864d8	-0.105661094
23	0x3e45c5c5	0.19313724
24	0x3dba4904	0.09095958
25	0x3e293086	0.16522416
26	0xbe8e8d9a	-0.27842408
27	0xbdbed79a	-0.093184665
28	0x3dfb9a54	0.12285295
29	0x3dc0889e	0.09401058
30	0xbd9fb99d	-0.07799075
31	0x3da12877	0.07869046
32	0x3cd1301e	0.02553564
33	0x3dae4e99	0.08511085
34	0xbdd70435	-0.10498849
35	0x3e216069	0.15759434
36	0xbe01236f	-0.12611173
37	0xbdf268ce	-0.11836396
38	0x3e55170b	0.20809571
39	0x3e9fb531	0.31192926
40	0x3ec65813	0.3873907
41	0x3e6c7086	0.230898
42	0xbdec8df5	-0.11550514
43	0xbd5206de	-0.05127608
44	0xbd8241a8	-0.06360179
45	0x3e0fe168	0.1405083
46	0x3df7be7b	0.12096878
47	0xbd5f7a14	-0.054559782
48	0x3e5e9c9e	0.21739432
49	0xbe3e19aa	-0.18564478
50	0xbe697e70	-0.22802138
51	0xbd5cc4d0	-0.053898633
52	0xbc85d9fc	-0.016339295
53	0x3ea6a947	0.32551023
54	0xbdbf8e37	-0.09353297
55	0xbe0fbd0c	-0.1403696
56	0x3db31da0	0.08745885
57	0xbd1e3bd8	-0.03863129
58	0x3da9aa2e	0.08284412
59	0xbd8edea6	-0.069760606
60	0xbcbe254f	-0.02321115
61	0xbd252d55	-0.040326435
62	0x3ea3e1c3	0.3200818
63	0x3e611e95	0.21984322
64	0xbd8f0fbf	-0.06985425
65	0x3de8628e	0.11346923
66	0x3e4219af	0.1895511
67	0xbcf9b2d6	-0.030480783
68	0x3d2bac65	0.041912455
69	0xbd2ac468	-0.041691214
70	0xbc8b87f0	-0.017032593
71	0xbe2f3078	-0.17108333
72	0xbdaa6ba4	-0.08321312
73	0xbe9dcb05	-0.30818954
74	0xbe62e720	-0.2215848
75	0xbc853dce	-0.016264822
76	0x3e873d3a	0.264139
77	0x3c41961d	0.011815575
78	0xbc15ca17	-0.00914242
79	0xbe885042	-0.26623732
80	0xbd1b80b9	-0.037964556
81	0x3e8afee4	0.2714759
82	0xbdf9b2c6	-0.121923015
83	0xbdc0b3ad	-0.094092704
84	0xbe375169	-0.1790215
85	0xbe44c733	-0.19216613
86	0x3e12b395	0.14326318
87	0xbd8a4c0b	-0.06752785
88	0xbd428751	-0.04749233
89	0x3d081205	0.03322031
90	0x3d283981	0.041070465
91	0xbdb1534c	-0.08658466
92	0xbda4eadf	-0.080526106
93	0x3e8b2baf	0.27181765
94	0xbd82f6fc	-0.06394765
95	0xbe6b9390	-0.2300551
96	0xbd9e3441	-0.077248104
97	0x3de9d967	0.11418419
98	0x3d582bde	0.05277621
99	0xbdb210a1	-0.08694578
100	0xbe4fbd77	-0.20287119
101	0xbe856a32	-0.26057583
102	0xbd2d0c8b	-0.04224829
103	0xbdd6c97d	-0.104876496
104	0x3e4cd516	0.20003161
105	0xbe16da9b	-0.14731829
106	0x3da76344	0.0817323
107	0x3d0fba0e	0.035089545
108	0x3d1aee75	0.037825067
109	0x3e0b0502	0.13576129
110	0x3e3e9609	0.18611921
111	0xbeb4a5cb	-0.3528274
112	0xbdad86a8	-0.08472949
113	0xbe0b5b72	-0.13609102
114	0x3d9b70a4	0.07589844
115	0xbcdb7dd7	-0.026793404
116	0xbd696519	-0.05698118
117	0x3dc8f5eb	0.0981253
118	0x3e56901a	0.20953408
119	0x3c583540	0.01319629
120	0xbdd9e3c7	-0.10639148
121	0x3e5ea885	0.21743973
122	0xbd106dd7	-0.035261
123	0xbdf2ccd8	-0.11855477
124	0xbd138d67	-0.036023524
125	0xbc872243	-0.01649583
126	0xbe683731	-0.22677304
127	0x3d190e94	0.03736742
128	0x3d03b476	0.032154523
129	0x3d23fc52	0.040035553
130	0xbd8c83dd	-0.068610884
131	0xbd692324	-0.05691828
132	0x3cd736fc	0.026271336
133	0xbdbc6bdb	-0.09200259
134	0x3e0d6d7b	0.13811295
135	0x3d282912	0.041054793
136	0xbcea242c	-0.028581701
137	0xbe48b551	-0.19600417
138	0xbeb27786	-0.34856814
139	0xbe30278b	-0.17202584
140	0xbe1e9409	-0.15486158
141	0xbe43413c	-0.19067854
142	0x3ec94c2f	0.39315936
143	0x3c59c1e8	0.01329086
144	0x3e047971	0.12936951
145	0x3e7da7b4	0.24771005
146	0xbd5ef595	-0.054433424
147	0x3e977a2c	0.29585397
148	0xbe1961e4	-0.14978749
149	0x3d05156e	0.03249114
150	0xbe7af45d	-0.2450728
151	0x3ceb4d1a	0.028723288
152	0xbd05dd18	-0.032681555
153	0x3d0342a0	0.03204596
154	0xbe2745ab	-0.1633517
155	0x3e274497	0.16334759
156	0x3d2d1de9	0.042264853
157	0x3c184227	0.009293116
158	0xbd2d79b1	-0.042352382
159	0x3e391cf3	0.1807745
160	0x3dbe7ec8	0.09301525
161	0xbde76bd5	-0.11299864
162	0xbe1e76aa	-0.15474954
163	0xbdc21398	-0.094763935
164	0x3e979106	0.29602832
165	0xbe0e6eaa	-0.13909402
166	0xbda98775	-0.082777895
167	0xbd8d037c	-0.0688543
168	0x3d7039da	0.05864892
169	0xbdf5296f	-0.119707935
170	0x3cafe357	0.021470709
171	0x3d91d210	0.07120144
172	0xbdecf735	-0.115705885
173	0x3e954b43	0.29158983
174	0x3dd7e53d	0.105417706
175	0x3d4000a9	0.04687563
176	0xbecc8851	-0.3994775
177	0x3d827ca0	0.063714266
178	0x3d19fa0f	0.03759199
179	0x3e8e64c0	0.2781124
180	0x3d4d06f2	0.05005545
181	0xbe614eec	-0.22002763
182	0xbde87ce0	-0.11351943
183	0xbd81b8cf	-0.063340776
184	0x3e33da60	0.17563772
185	0x3da12396	0.078681156
186	0x3eaaaf90	0.3333707
187	0xbd8dbfcc	-0.06921348
188	0xbc6bdb04	-0.014395479
189	0x3d964f73	0.073393725
190	0xbe808afe	-0.25106043
191	0xbd356cea	-0.04429332
192	0xbe32263e	-0.173974
193	0x3dfe1cb6	0.1240782
194	0x3e7b03b3	0.2451313
195	0x3e18fcc1	0.14940168
196	0xbe24a44f	-0.16078304
197	0x3db6773c	0.08909461
198	0xbcf2c548	-0.029635087
199	0xbe7913d6	-0.24323973
200	0x3eb4ec41	0.35336497
201	0xbeb61b81	-0.3556786
202	0x3e08a2d9	0.13343371
203	0x3d122df3	0.03568835
204	0xbe0f8b5d	-0.14018007
205	0xbe288d90	-0.16460252
206	0xbcaaa34f	-0.020829825
207	0xbe8b54de	-0.27213186
208	0x3ddc8285	0.10767082
209	0xbe0de466	-0.13856658
210	0xbd552c6a	-0.05204431
211	0x3def25d9	0.11677141
212	0x3e1ef2ee	0.15522358
213	0xbe29ccf3	-0.16582088
214	0x3e6cce9f	0.23125695
215	0xbd3b65d2	-0.0457514
216	0xbd5b803f	-0.053589102
217	0xbd791eb0	-0.06082028
218	0x3e1c1508	0.15242398
219	0xbd97f747	-0.07420211
220	0xbdf36111	-0.11883748
221	0xbed1c015	-0.4096686
222	0xbd76b455	-0.06023057
223	0xbd79530e	-0.060870223
224	0x3d8202a0	0.06348157
225	0xbe12de50	-0.14342618
226	0x3e0b8bfb	0.13627617
227	0x3d4f1e40	0.050565958
228	0x3e1c1fc4	0.15246493
229	0xbe1536db	-0.14571707
230	0x3de6b840	0.11265612
231	0x3e408694	0.18801337
232	0xbe6451ed	-0.22296877
233	0x3ec0ea10	0.37678576
234	0x3e1817b0	0.14852786
235	0xbd512bf1	-0.051067296
236	0xbe383a30	-0.17990947
237	0x3df05204	0.11734393
238	0x3de7697d	0.11299417
239	0x3d375f2e	0.044768505
240	0x3d354cd5	0.044262726
241	0xbdc921ef	-0.098209254
242	0x3e623264	0.22089535
243	0xbde2c58f	-0.110728376
244	0xbd88a8d7	-0.06672829
245	0xbe1a1222	-0.1504598
246	0x3e8060d7	0.25073883
247	0xbd89601c	-0.067077845
248	0xbc2a26d0	-0.01038523
249	0x3d397e54	0.04528649
250	0xbe40a7c5	-0.18813999
251	0xbe0d3e54	-0.13793308
252	0x3d273c4f	0.040829
253	0x3e5fcc25	0.21855219
254	0xbea9bde5	-0.3315269
255	0x3e872048	0.26391816

linears.1.bias f4 [64]
0	0xbcb7c807	-0.022434248
1	0xbd05d0b2	-0.03266973
2	0x3cbef606	0.023310672
3	0x3c9e0f26	0.019294333
4	0x3c4b41d2	0.0124058295
5	0x3cdc764e	0.02691188
6	0xbaaea8e1	-0.0013325476
7	0x3d86bf3d	0.065794446
8	0xbb01fff5	-0.00198364
9	0x3c780b30	0.015139386
10	0xbc8de61b	-0.017321637
11	0x3cd9802a	0.026550371
12	0xbd040ac1	-0.03223682
13	0xbcaee876	-0.02135108
14	0xbc8d726f	-0.01726648
15	0x3cdbecfc	0.026846401
16	0xbae9c9f4	-0.0017836676
17	0x3a812034	0.0009851516
18	0xbc779d4d	-0.015113187
19	0x3ca796a4	0.020457573
20	0xbc25b462	-0.010113807
21	0x3c584762	0.013200613
22	0x3c83f5eb	0.016108474
23	0x3ab9835f	0.0014153532
24	0xbc4cd87a	-0.012502784
25	0xbb8efa33	-0.004363322
26	0xbc890b48	-0.016729012
27	0x3c136036	0.008995106
28	0x3d657f15	0.056029398
29	0xba1f54dc	-0.00060780137
30	0xbce7c75a	-0.0282933
31	0x3b3cd623	0.002881416
32	0xbcdee051	-0.027206572
33	0xbcd5bffe	-0.026092526
34	0xbda881cb	-0.08227881
35	0x3b15f52c	0.002288173
36	0x3c9c9e04	0.019118316
37	0xbc80cdc6	-0.01572312
38	0xbc819875	-0.015819767
39	0x3c81bcbd	0.015837068
40	0x3c65a54c	0.014016461
41	0xbc04f0db	-0.008114065
42	0xbca3b9cc	-0.019986056
43	0xbc4f6049	-0.0126572335
44	0x3e091a77	0.13389002
45	0x3982ca42	0.00024946226
46	0x3c17195d	0.009222356
47	0x3c34941f	0.011021643
48	0xbcaff055	-0.021476904
49	0x3d44313b	0.047898512
50	0xbdbc6a5d	-0.09199975
51	0xbbdc24df	-0.0067182626
52	0xbb853713	-0.0040654032
53	0x3cbacb38	0.02280198
54	0x3c4a32ba	0.012341196
55	0x3c469d6d	0.012122494
56	0xbcdce46c	-0.026964389
57	0xbbc4e2d8	-0.006008487
58	0xbc0f15d5	-0.0087332325
59	0xbc9b8803	-0.018985754
60	0xbb5c1c07	-0.0033586042
61	0xbb636296	-0.0034696213
62	0xbd4303ad	-0.047610927
63	0xbc9d481c	-0.019199423

linears.2.weight f4 [64, 64]
0	0xbe18762b	-0.14888828
1	0x3ccdd29c	0.02512484
2	0xbd508fea	-0.050918497
3	0x3dd22f23	0.10262897
4	0xbe2736ce	-0.163295
5	0x3d5b0051	0.0534671
6	0x3d548ab1	0.05189008
7	0x3d807b24	0.06273487
8	0xbc2d6f06	-0.010585552
9	0x3d102095	0.035187323
10	0xbc99b861	-0.018764677
11	0x3e0980ae	0.13427994
12	0x3c9ffc4d	0.019529486
13	0x3e1f306a	0.15545812
14	0xbd56d35d	-0.052447665
15	0x3dc432ba	0.09579988
16	0x3c42967f	0.011876701
17	0x3cd82b7c	0.026387922
18	0x3ea3711a	0.31922227
19	0x3d1db99d	0.038507093
20	0x3e675aa5	0.22593172
21	0xbc44337b	-0.0119751645
22	0x3d13f3e6	0.03612127
23	0xbdbc3a48	-0.09190804
24	0x3e18eb3f	0.1493349
25	0x3e182f18	0.14861715
26	0xbdab370a	-0.08360107
27	0xbdd7fabb	-0.1054587
28	0xbd927496	-0.07151143
29	0xbe31a447	-0.17347823
30	0x3a6a6061	0.0008940753
31	0x3d29c9c5	0.041452188
32	0x3e54a02d	0.20764227
33	0x3d9ea589	0.07746417
34	0x3e5eb60c	0.21749133
35	0xbdfa2da1	-0.12215734
36	0xbd60fa7d	-0.054926384
37	0x3dceca0b	0.100971304
38	0xbd7b4dd7	-0.06135353
39	0xbe0f9ac2	-0.14023879
40	0x3cf13cdc	0.029447965
41	0x3e624ed2	0.2210038
42	0xbc37b62c	-0.011212867
43	0x3c10b365	0.0088318335
44	0x3c8423c5	0.016130337
45	0xbb3a28df	-0.0028405709
46	0x3dc385f9	0.09547038
47	0xbddae39c	-0.10687944
48	0xbe8bbb82	-0.27291495
49	0xbe87510a	-0.26429015
50	0xbe3214e7	-0.17390786
51	0xbd3cf1cf	-0.046129044
52	0xbe8a0979	-0.26960352
53	0xbe3e7556	-0.18599448
54	0xbe815f65	-0.25268093
55	0x3e0caed8	0.13738573
56	0xbd324fe0	-0.043533206
57	0x3d714c67	0.058910754
58	0x3db41bed	0.08794389
59	0x3e5c52e5	0.21515997
60	0xbd602a35	-0.05472775
61	0x3e30312d	0.17206259
62	0xbe44a28a	-0.19202629
63	0xbe130cbd	-0.14360328
64	0xbe8d1f21	-0.27562812
65	0xbd2c1aba	-0.042017676
66	0x3ddd252a	0.10798104
67	0xbd1ffcab	-0.039059322
68	0x3bb255f6	0.0054423762
69	0xbdd37597	-0.10325163
70	0xbc3e2f2a	-0.0116079245
71	0x3ea53b97	0.32272026
72	0x3d864ff5	0.06558219
73	0xbe2aebc3	-0.16691498
74	0xbddf8f36	-0.10915987
75	0x3d95d4c9	0.07315976
76	0xbdf10bfe	-0.117698655
77	0xbe4d3e3b	-0.2004327
78	0xbd15992a	-0.03652302
79	0x3c791300	0.015202284
80	0x3e6fcfb8	0.23419082
81	0xbd7e3b50	-0.062068284
82	0xbe191839	-0.14950646
83	0x3ea46d09	0.32114437
84	0xbde04554	-0.10950723
85	0x3d5fca6e	0.05463641
86	0x3d66504c	0.05622892
87	0x3dfb67aa	0.12275632
88	0xbe10eb1a	-0.14152184
89	0xbdc63aaa	-0.09679158
90	0x3da72271	0.08160866
91	0xbe88314a	-0.26600105
92	0x3ba67c03	0.0050807013
93	0x3e3af980	0.18259239
94	0xbd4912d2	-0.049090214
95	0x3d8cccd5	0.06875006
96	0xbe5046d5	-0.2033952
97	0xbdb024ba	-0.08600755
98	0xbe5176e5	-0.20455511
99	0xbcdc65eb	-0.026904067
100	0xbe9a9746	-0.30193537
101	0xbe3773e8	-0.17915308
102	0x3ce83f76	0.028350573
103	0x3e215bae	0.1575763
104	0xbe136303	-0.14393239
105	0x3d1908aa	0.03736178
106	0x3dec8d31	0.115503676
107	0x3ce738ba	0.028225292
108	0xbc481658	-0.012212358
109	0x3e00cd68	0.12578356
110	0xbca84499	-0.020540522
111	0x3d8a070e	0.06739627
112	0x3e0c26d3	0.13686685
113	0x3ddee36c	0.10883221
114	0xbe02c8d0	-0.12771916
115	0xbe0ccc31	-0.13749768
116	0x3d92e9cf	0.07173502
117	0xbc5b2e4b	-0.013377736
118	0xbcd2b48d	-0.025720859
119	0x3e4a3756	0.19747671
120	0x3e2793da	0.16364995
121	0x3e232298	0.15931165
122	0x3c987d8f	0.018614559
123	0x3d8f6695	0.07001988
124	0xbac69d03	-0.0015152994
125	0xbd9dfd13	-0.07714286
126	0xbe3a1a0f	-0.18174003
127	0x3c1fbc5a	0.009749496
128	0xbe4d4ab7	-0.20048033
129	0xbe840615	-0.2578589
130	0xbe6b9143	-0.23004632
131	0x3d7ca26f	0.061678346
132	0xbe9b78e4	-0.3036567
133	0x3e2983f9	0.1655425
134	0x3d5c8d8a	0.05384592
135	0xbd24231e	-0.040072553
136	0x3dbde7ba	0.09272714
137	0xbdf78ae1	-0.12087036
138	0xbe46211d	-0.19348569
139	0xbe315012	-0.173157
140	0xbce2a932	-0.02766857
141	0xbda44feb	-0.08023056
142	0x3dafd5d5	0.08585707
143	0xbd27b1c9	-0.040941034
144	0xbda287d9	-0.07936067
145	0x3d5d73e6	0.054065607
146	0x3e26c023	0.16284232
147	0x3e1fcaea	0.1560475
148	0xbd8c6d46	-0.0685678
149	0x3d56eca6	0.05247178
150	0xbdb33bda	-0.0875165
151	0x3ddb7f46	0.10717635
152	0x3e64d087	0.22345172
153	0xbda69635	-0.081341185
154	0x3da62f61	0.081145056
155	0xbc184ce8	-0.00929568
156	0x3e112f0b	0.14178102
157	0x3de4ec10	0.11177838
158	0xbd69f1df	-0.057115432
159	0x3e26ccfa	0.1628913
160	0xbd5be33c	-0.053683504
161	0x3e2698bd	0.16269203
162	0x3dad6986	0.084673926
163	0xbe926217	-0.28590462
164	0xbe3f3b16	-0.18674883
165	0xbd0d4efd	-0.034499157
166	0xbda61a90	-0.08110535
167	0x3d30ec0b	0.043193858
168	0xbd43c37f	-0.04779386
169	0xbce3411e	-0.027741011
170	0x3e2ea93c	0.17056745
171	0xbded07e5	-0.115737714
172	0x3dc9f830	0.09861791
173	0x3e353aba	0.17698184
174	0x3d149703	0.03627683
175	0xbe39deb4	-0.18151361
176	0xbce52f05	-0.027976522
177	0x3e134430	0.1438148
178	0xbdf1428c	-0.11780271
179	0x3e119282	0.14216045
180	0xbd93ef48	-0.07223374
181	0x3de91551	0.11381019
182	0xbe904d8a	-0.28184158
183	0x3c1a9c50	0.009436682
184	0xbc20b69e	-0.009809164
185	0x3e002c2a	0.12516847
186	0xbabc6d3b	-0.0014375815
187	0xbda60da3	-0.0810807
188	0x3dae1dab	0.085017525
189	0x3dac94b0	0.084267974
190	0x3cf934e8	0.030420735
191	0xbdbebef4	-0.09313765
192	0xbd899d58	-0.06719464
193	0x3e2e75b7	0.17037092
194	0x3e62b3d5	0.22138913
195	0xbea8120a	-0.32826263
196	0xbdd5e339	-0.1044373
197	0xbe3629bf	-0.17789362
198	0xbe203a86	-0.15647325
199	0xbdea6b26	-0.11446218
200	0xbe1f810b	-0.1557657
201	0x3d47533e	0.04866337
202	0xbc981023	-0.018562382
203	0xbc2bd85b	-0.010488595
204	0x3bb73be9	0.0055918586
205	0x3e24ba19	0.16086616
206	0x3c77911d	0.015110281
207	0xbd8015fa	-0.06254192
208	0x3ea33f58	0.31884265
209	0x3d794dd0	0.060865223
210	0x3e9b5dba	0.30344945
211	0x3d560e36	0.052259646
212	0xbc73d2df	-0.014881819
213	0xbe0edb03	-0.13950734
214	0xbe0c90a8	-0.13727057
215	0xbcf3c963	-0.029759115
216	0x3d85fbc1	0.06542159
217	0x3b1dc91c	0.002407617
218	0x3d1d8d9c	0.038465127
219	0xbe17868a	-0.14797416
220	0x3df03d59	0.11730451
221	0xbd8a2328	-0.06744987
222	0x3e4b90fc	0.19879526
223	0x3e87c2d2	0.26515824
224	0x3d2e3609	0.042532
225	0xbe0caac1	-0.13737012
226	0x3d65be7f	0.056089874
227	0xbb787540	-0.0037911683
228	0xbd80c28f	-0.06287109
229	0xbe3405ea	-0.17580381
230	0x3bbbbe31	0.0057294597
231	0xbe091d21	-0.13390018
232	0x3e03aa37	0.128579
233	0x3d4b6c2e	0.049663715
234	0x3d2dd0d4	0.042435482
235	0xbdbdb8a8	-0.09263736
236	0xbde7b5eb	-0.11313995
237	0x3ccbc416	0.024873774
238	0xbd924e77	-0.07143872
239	0x3c8a43c9	0.016878026
240	0xbdb16c4c	-0.08663234
241	0xbd99a4eb	-0.07502159
242	0xbe5c6aeb	-0.21525161
243	0x3d16e9ee	0.036844186
244	0xbc71cc5c	-0.014758196
245	0xbe219b5a	-0.15781918
246	0x3d290420	0.0412637
247	0xbd898f9c	-0.067168444
248	0x3d38a096	0.04507502
249	0xbe53c783	-0.20681576
250	0x3daa0f76	0.0830373
251	0x3d47bd2e	0.0487644
252	0x3e427699	0.18990554
253	0x3e636590	0.22206712
254	0xbd25398c	-0.040338084
255	0x3dc86d24	0.09786442

linears.2.bias f4 [64]
0	0x3c184e44	0.009296004
1	0x3d028d29	0.031872902
2	0x3cf777f9	0.030208575
3	0xbcb998b3	-0.02265582
4	0x3d98a8f0	0.07454097
5	0xbda259b2	-0.07927264
6	0xbd643d68	-0.055722624
7	0x3b9f5d60	0.004863426
8	0xbbeac435	-0.007164503
9	0x3ca84324	0.020539828
10	0x3bbe95d5	0.005816201
11	0xbc15b470	-0.009137258
12	0xbcf3e3c8	-0.0297717
13	0x3c21398e	0.009840382
14	0x3d96fbde	0.073722586
15	0x3b7266a2	0.0036987443
16	0xbd30355a	-0.04301963
17	0xbbe7d3d9	-0.0070748148
18	0xbc078cd7	-0.008273325
19	0xbb035995	-0.0020042409
20	0x3d0c57bf	0.03426337
21	0xbb8f44f1	-0.004372232
22	0xbc25c32a	-0.0101173315
23	0x3adcaa28	0.0016835378
24	0x3c4a70f1	0.012356029
25	0x3cf1d602	0.029520992
26	0x38bb401f	8.928798e-05
27	0x3b5406a3	0.0032352589
28	0xb978ff07	-0.00023746128
29	0x3dd800cf	0.10547029
30	0xb9866d47	-0.0002563989
31	0x3bbbec65	0.0057349675
32	0xbcb1d02a	-0.021705706
33	0xbd384478	-0.044987172
34	0xbcbe853c	-0.02325689
35	0x3aa4e3bb	0.0012580076
36	0xbb5b0db1	-0.0033424909
37	0xbbb156cd	-0.005411959
38	0x3c8c86db	0.017154148
39	0xbbc9a1e5	-0.0061533325
40	0xbbbea83c	-0.005818395
41	0x3bf33979	0.0074226228
42	0x3ca51a4f	0.020154146
43	0x3cf0a5fc	0.029376023
44	0xbd1b659c	-0.0379387
45	0xbae6bca9	-0.0017603833
46	0x3c6e83bd	0.014557776
47	0xbc3f52a8	-0.011677422
48	0x3c40a8e6	0.0117590185
49	0x3d2d8f54	0.042373016
50	0xbc978f25	-0.018500874
51	0xbc12185f	-0.008916943
52	0xbcf5e60f	-0.030016927
53	0xbb8d77b4	-0.0043172482
54	0x3d3f49c6	0.046701215
55	0x3d79ce36	0.060987674
56	0x3d7705bc	0.060308203
57	0x3bf4a15f	0.007465526
58	0xbcc5d4f5	-0.024149397
59	0xbc45e281	-0.0120779285
60	0x3c950b9b	0.01819401
61	0x3c9a2afc	0.018819325
62	0x3d1dd6dd	0.038534988
63	0x3b2e80a4	0.0026626969

linears.3.weight f4 [32, 64]
0	0xbee5b55c	-0.4486493
1	0xbd50a117	-0.050934877
2	0xbe110c66	-0.14164886
3	0x3e2ff563	0.17183451
4	0x3dc44034	0.09582558
5	0x3dfb214d	0.12262211
6	0x3e5f9154	0.21832782
7	0x3d204168	0.039124876
8	0x3eaff2e1	0.3436499
9	0x3c6ca304	0.014443163
10	0x3d295ca2	0.041348107
11	0xbd018790	-0.031623423
12	0x3cf04a93	0.029332435
13	0xbe547d5a	-0.20750943
14	0xbe87576a	-0.2643388
15	0xbc1f9b7b	-0.009741659
16	0x3841ffd2	4.6253037e-05
17	0x3db5c712	0.0887586
18	0xbe3f01d2	-0.18653038
19	0xbd21d2f2	-0.039507814
20	0x3df14b5f	0.11781954
21	0x3db32c5b	0.087486945
22	0x3e32cacc	0.17460173
23	0x3db94afd	0.09047506
24	0xbde86d70	-0.113489985
25	0x3d9f32e2	0.07773377
26	0xbe4accc5	-0.19804676
27	0xbe4f92ae	-0.20270798
28	0x39569bbc	0.00020466646
29	0x3e03f565	0.1288658
30	0x3e087292	0.13324955
31	0x3e452220	0.19251299
32	0xbe1b363c	-0.15157408
33	0xbd301cb6	-0.04299613
34	0x3def09b0	0.116717696
35	0x3dc74788	0.097304404
36	0xbdf21fc6	-0.118224666
37	0x3cd65ab3	0.026166296
38	0x3e63c510	0.22243142
39	0xbe12161e	-0.1426625
40	0x3df18c77	0.1179437
41	0xbd81748d	-0.063210584
42	0x3ac4079a	0.0014955879
43	0x3e697e63	0.22802119
44	0xbd55a7b9	-0.052161906
45	0xbe5ff6bd	-0.21871467
46	0xbe25cfe3	-0.16192584
47	0xbec05925	-0.37568012
48	0x3e4bfda8	0.19920981
49	0x3e06f697	0.13180004
50	0xbc1ab8e8	-0.009443499
51	0x3e4a4301	0.19752122
52	0xbd4a6583	-0.049413215
53	0x3e6ad87e	0.22934148
54	0xbe9d8064	-0.30762017
55	0x3e4b28ee	0.19839832
56	0xbcc0d5f8	-0.023539528
57	0x3d0282f7	0.03186318
58	0x3e794535	0.24342807
59	0x3dc95d3f	0.098322384
60	0xbda6d172	-0.08145417
61	0x3d615ca6	0.055019997
62	0x3e085e76	0.13317284
63	0xbe40a0cd	-0.1881134
64	0x3e5e7130	0.21722865
65	0x3e36c56c	0.17848748
66	0x3dcb8c8b	0.09938916
67	0xbda3ddf6	-0.0800132
68	0x3ea1e046	0.3161642
69	0xbeb3e333	-0.35134277
70	0xbe84bbd9	-0.25924566
71	0x3d0ec542	0.03485609
72	0x3de107c5	0.1098781
73	0x3e529882	0.2056599
74	0x3e4c3365	0.1994148
75	0x3e94ee62	0.29088122
76	0xbe932666	-0.28740233
77	0xbd62add4	-0.055341557
78	0x3e407155	0.18793233
79	0xbd58fe7d	-0.052977074
80	0xbd94fc14	-0.072746426
81	0xbe2a47a5	-0.16628893
82	0xbd90b4f6	-0.070657656
83	0x3e3a9bb4	0.18223459
84	0x3ed897e0	0.4230337
85	0x3d3e1542	0.04640699
86	0x3e42c0ac	0.19018811
87	0xbdf1bd68	-0.118037045
88	0x3e0558d8	0.13022172
89	0x3d13a671	0.036047403
90	0xbb537d83	-0.0032270856
91	0xbe8c3b74	-0.2738911
92	0x3e005eaf	0.12536119
93	0xbd5f61db	-0.05453668
94	0xbda5e7bf	-0.08100843
95	0xbdf277ff	-0.11839294
96	0x3dbf74b9	0.09348435
97	0xbe63be95	-0.2224067
98	0x3ad57ede	0.001628842
99	0xbe68e145	-0.22742184
100	0x3e80f64f	0.2518792
101	0x3ebac91a	0.36481553
102	0x3dc2c52f	0.09510266
103	0x3d4feb20	0.050761342
104	0x3cf175cc	0.029475115
105	0xbe886b50	-0.26644373
106	0xbdb4847e	-0.088143334
107	0xbe1fae60	-0.15593863
108	0x3d06dfbc	0.032928213
109	0x3dbbb37d	0.09165094
110	0x3e654be1	0.22392227
111	0xba28af7c	-0.00064348406
112	0x3e2e53a4	0.17024094
113	0x3c9d8e4b	0.01923289
114	0x3dd2e244	0.10297063
115	0xbe89c20b	-0.26905856
116	0xbe3e4f0d	-0.18584843
117	0x3c5bfb4d	0.013426614
118	0x3e202d58	0.15642297
119	0x3dcbd693	0.09953036
120	0x3e9bf8c4	0.3046323
121	0x3cbbcc71	0.022924634
122	0xbf04e934	-0.5191834
123	0xbd8bcfed	-0.06826768
124	0xbce620ba	-0.028091777
125	0xbea372fb	-0.3192366
126	0x3eeca0f5	0.4621655
127	0x3e6da54f	0.23207591
128	0x3e5d5274	0.21613485
129	0xbe1bd0f6	-0.15216431
130	0x3e55f031	0.20892407
131	0x3d478ef2	0.048720308
132	0x3da4e320	0.08051133
133	0x3e4fa0ad	0.20276137
134	0xbdc7e585	-0.09760574
135	0xbc7c88e5	-0.015413498
136	0xbe1eaa37	-0.1549462
137	0xbde7ca82	-0.11317922
138	0xbe34af95	-0.17645104
139	0x3dbc8903	0.092058204
140	0xbd4b3a82	-0.049616344
141	0xbe17634e	-0.14783975
142	0xbc7a605f	-0.015281766
143	0xbdce4dd2	-0.10073437
144	0x3da98828	0.08277923
145	0x3e0959de	0.13413188
146	0x3e45e64c	0.19326133
147	0x3da98ed6	0.08279197
148	0xbd5f2f43	-0.05448843
149	0x3e3e5ebf	0.1859083
150	0x3db5cd40	0.08877039
151	0x3dc5d446	0.096596286
152	0x3a32254f	0.00067957205
153	0xbc993224	-0.018700667
154	0x3d7f908a	0.062393703
155	0xbda56da6	-0.080775544
156	0xbe4338dd	-0.1906466
157	0xbd606307	-0.05478194
158	0x3d8f7ae7	0.07005864
159	0xbd2ad857	-0.041710224
160	0x3e4fae7a	0.20281401
161	0xbd8b5ca7	-0.068047814
162	0x3e8c5f6e	0.27416557
163	0x3d4dc12a	0.050233044
164	0x3dd73677	0.10508435
165	0xbca89b92	-0.020581994
166	0xbd391a26	-0.045190953
167	0x3d9cb63c	0.07651946
168	0xbe75f5fa	-0.24019614
169	0xbe86bf4e	-0.2631783
170	0x3e523abe	0.20530221
171	0xbe9c6d40	-0.305521
172	0xbd2f42c3	-0.04278828
173	0x3e77ca4c	0.24198264
174	0xbe9dc898	-0.30817103
175	0xbdaf8667	-0.08570557
176	0x3e1c3b1b	0.15256922
177	0x3d457ffa	0.04821775
178	0x3cde3270	0.02712366
179	0xbe25e948	-0.16202271
180	0x3e486307	0.19569026
181	0xbdaa431c	-0.08313581
182	0xbea4eb9b	-0.32211003
183	0x3d0faef0	0.035078943
184	0x3dbdb4f3	0.09263029
185	0xbdb432ce	-0.08798753
186	0xbd1a3fc4	-0.037658468
187	0xbcc14673	-0.023593163
188	0xbe10b3aa	-0.14131036
189	0x3e591f7b	0.21203415
190	0xbd54000f	-0.05175787
191	0x3e60c222	0.21949056
192	0xbea1c665	-0.31596676
193	0x3e56bfff	0.20971678
194	0x3dc4e272	0.096135035
195	0xbe02a396	-0.12757716
196	0x3db3a339	0.087713666
197	0xbe4bc6c7	-0.19900046
198	0x3e752bbc	0.23942465
199	0x3d8884c0	0.06665945
200	0x3d0f31db	0.034959655
201	0xbebb6540	-0.36600685
202	0xbdc31186	-0.09524827
203	0xbe318673	-0.17336445
204	0xbd73c60b	-0.05951504
205	0x3e4d07b3	0.20022468
206	0x3b894123	0.004188673
207	0xbe5cfaef	-0.21580099
208	0x3e0d20aa	0.13781992
209	0xbe482861	-0.19546653
210	0x3e11c8fc	0.14236826
211	0x3e61e08b	0.22058313
212	0xbdac6542	-0.08417751
213	0xbe028871	-0.12747361
214	0x3e5204d9	0.20509662
215	0xbcd5b8c2	-0.026089076
216	0xbe331bec	-0.1749112
217	0xbdca7310	-0.09885228
218	0x3df4f98a	0.11961658
219	0x3e31ded9	0.17370166
220	0x3d5f4023	0.054504525
221	0xbe0d2f4c	-0.13787574
222	0xbd8f6292	-0.07001223
223	0x3e22be90	0.15893006
224	0x3c9a8448	0.018861905
225	0x3e6548c1	0.22391035
226	0x3da03016	0.07821672
227	0xbe9a362e	-0.3011946
228	0xbd6b95ee	-0.05751603
229	0xbe68f493	-0.22749548
230	0x3e14d092	0.14532688
231	0x3b8c9b88	0.0042910017
232	0x3d9405aa	0.07227643
233	0xbe033f13	-0.1281703
234	0xbda6600a	-0.08123787
235	0xbdf63cf7	-0.12023347
236	0xbe8b73f6	-0.2723691
237	0x3e6bf88d	0.23044033
238	0xbdcad674	-0.09904185
239	0xbd12e061	-0.035858516
240	0xbd19d921	-0.037560586
241	0xbe4562ee	-0.1927602
242	0x3dc947f1	0.09828175
243	0xbdfb3d63	-0.12267568
244	0x3df9da0d	0.12199793
245	0xbdb26210	-0.0871011
246	0xbe410c4d	-0.18852349
247	0xbdc1eb62	-0.09468724
248	0x3e54637f	0.2074108
249	0x3e133032	0.14373854
250	0x3ec415b5	0.3829781
251	0xbd9c0cc5	-0.07619623
252	0x3d2d65bc	0.04233335
253	0x3d8170a1	0.063203104
254	0xbc5e21a3	-0.013557824
255	0x3cd2b948	0.025723115

linears.3.bias f4 [32]
0	0xbc56850a	-0.013093242
1	0x3d94d544	0.0726724
2	0xbcaad1cc	-0.020851992
3	0xbc86b527	-0.016443802
4	0xbc8867bb	-0.016651025
5	0xbd0e491d	-0.034737695
6	0x3d3e66a2	0.046484597
7	0x3cc91434	0.024545766
8	0x3c937d00	0.01800394
9	0x3c19b211	0.009380833
10	0xbc2c349c	-0.01051059
11	0xbc56191e	-0.013067512
12	0xbd0a9a07	-0.0338383
13	0x3bbf9cda	0.0058475556
14	0xbc8956e8	-0.016765073
15	0x3cd9fe83	0.026610618
16	0x3b867484	0.004103245
17	0x3b11fe02	0.0022276645
18	0x3cb7b633	0.022425747
19	0x3ac99e91	0.001538234
20	0xbc5bbd6b	-0.01341186
21	0xbc3639fc	-0.011122223
22	0xbced86e7	-0.02899499
23	0x3ca52c12	0.020162616
24	0x3bc89153	0.0061208396
25	0xbcee86f5	-0.029117087
26	0xbc58ef1a	-0.0132406
27	0xbd14da5e	-0.036341064
28	0xbcd6322d	-0.026146973
29	0xbc707c2b	-0.014678041
30	0xbc99d561	-0.018778505
31	0xbadd559f	-0.0016886479

linears.4.weight f4 [4, 32]
0	0x3e5e6b43	0.21720605
1	0xbdf6e81f	-0.12055992
2	0xbdf4eaae	-0.11958824
3	0x3dbf30cc	0.09335479
4	0xbe0bc2ff	-0.13648604
5	0xbd92c791	-0.071669705
6	0xbbeb071d	-0.007172479
7	0x3e2e350f	0.17012428
8	0xbec84532	-0.39115292
9	0x3ef45bed	0.47726384
10	0xbdbab906	-0.09117322
11	0xbcb73686	-0.022364866
12	0xbd8429c1	-0.064532764
13	0x3e51fb08	0.20505917
14	0xbf50ba93	-0.8153469
15	0x3e3d8e6d	0.18511362
16	0x3eac4446	0.33645838
17	0x3ecba85b	0.39776883
18	0x3dc57545	0.09641508
19	0x3dffac91	0.12484086
20	0xbe4b9f85	-0.1988507
21	0xbe03b88e	-0.12863371
22	0x3e79cf11	0.24395396
23	0xbd3edad1	-0.0465954
24	0xbee13613	-0.43986568
25	0xbdc8a10c	-0.09796342
26	0xbd5ed85b	-0.05440555
27	0x3e1df777	0.15426432
28	0x3d8f413b	0.069948636
29	0x3e984d8c	0.29746664
30	0xbf1c9013	-0.6115734
31	0x3e205b8e	0.15659925
32	0x3d15c015	0.036560137
33	0x3d1a727d	0.03770684
34	0xbf184ef1	-0.59495455
35	0xbe9002cd	-0.28127137
36	0xbf00362f	-0.5008268
37	0xbf23725c	-0.63846374
38	0x3e312dbd	0.17302604
39	0x3f2f83b9	0.6856037
40	0x3c751c72	0.014960395
41	0x3dea8f53	0.11453118
42	0xbeab4ff9	-0.33459452
43	0xbe794f5e	-0.24346682
44	0xbf091ad0	-0.5355654
45	0x3e02a058	0.12756479
46	0xbf2b8489	-0.6699911
47	0x3f37341b	0.7156388
48	0x3e7431d3	0.23847131
49	0xbd405001	-0.046951298
50	0x3f4c60dc	0.79835296
51	0x3e9af2b8	0.30263305
52	0xbf0a7d61	-0.54097563
53	0xbefd5727	-0.49480554
54	0xbf00d9a9	-0.50332123
55	0x3eb482b8	0.3525598
56	0x3e731332	0.23737791
57	0xbf1c758a	-0.6111685
58	0xbe719492	-0.23591831
59	0xbf320aa7	-0.69547504
60	0x3e822d21	0.25425056
61	0x3c3470ac	0.011013191
62	0xbef941aa	-0.4868291
63	0xbe95f3f3	-0.2928768
64	0x3ea87691	0.3290296
65	0x3f05991a	0.5218674
66	0xbd71b5aa	-0.05901114
67	0xbead2ccc	-0.3382324
68	0x3d82aba7	0.06380396
69	0x3eaff11a	0.34363633
70	0x3e5bab12	0.21451977
71	0xbeb8e73a	-0.36113912
72	0xbdda576d	-0.106612064
73	0x3f0951ad	0.5364025
74	0x3d45da40	0.048303843
75	0xbc949b14	-0.018140353
76	0x3e556f83	0.2084332
77	0x3f3584f4	0.70905995
78	0x3e96c3fa	0.29446393
79	0xbd58598f	-0.052819785
80	0x3e073b08	0.13206112
81	0x3ed9a541	0.4250889
82	0xbdbca723	-0.09211566
83	0x3e5e012e	0.21680138
84	0x3ec55b9b	0.38546452
85	0xbe3caa6f	-0.1842439
86	0xbe42542a	-0.18977419
87	0xbebcb84b	-0.36859354
88	0x3eaa08bd	0.33209792
89	0xbe9e33b8	-0.30898833
90	0xbd3ac56e	-0.04559844
91	0xbec229d7	-0.37922546
92	0xbdc3da7e	-0.095631585
93	0x3e4d7b59	0.20066585
94	0xbe12ba33	-0.14328842
95	0xbe082383	-0.13294797
96	0xbdab70c4	-0.08371118
97	0x3ea7dc67	0.3278534
98	0xbeb1e04e	-0.34741443
99	0x3cd743c7	0.026277436
100	0xbe0ae5a2	-0.1356416
101	0xbeb4320c	-0.35194433
102	0x3f2cfb79	0.67571217
103	0x3e173b62	0.14768746
104	0x3ec967f5	0.39337125
105	0x3e76a61c	0.24086803
106	0xbf263833	-0.64929503
107	0xbea1ad13	-0.31577358
108	0xbe128993	-0.14310293
109	0x3f019cc3	0.50629824
110	0xbe048196	-0.12940058
111	0x3f255538	0.6458316
112	0x3f20da18	0.62832785
113	0x3e8ee815	0.2791144
114	0x3e4f2d32	0.20232084
115	0x3cb09766	0.021556567
116	0xbefd9e0b	-0.4953464
117	0xbf0f67dd	-0.5601786
118	0xbea774c7	-0.32706282
119	0xbebb005e	-0.36523718
120	0xbede1692	-0.43376595
121	0xbf5d98fe	-0.8656157
122	0xbeed6e30	-0.4637313
123	0xbeb4717f	-0.3524284
124	0x3f1a9612	0.6038524
125	0x3e3fda28	0.18735564
126	0x3e88bd59	0.2670696
127	0x3e944d6f	0.28965327

linears.4.bias f4 [4]
0	0x3ac914eb	0.0015341317
1	0x3e7dc24e	0.24781153
2	0x3d9caa12	0.07649626
3	0x3e9b2015	0.30297914
