Iterations/Test model/epoch_1862.pt (torch, 37739 bytes, 10 tensors)

linears.0.weight f4 [32, 2]
00000000: 231c a43e 98c4 81bd 8607 8e3e d4a9 91be
00000010: 1831 773e 0120 a8be bfa4 ccbd 36cb eebe
00000020: 220f 35bd 24d8 863e 6568 403d fb84 efbe
00000030: 2459 353e 8f72 053f 6b80 2a3e 2d1f 403e
00000040: c303 b93e 0a35 3ebd 2cb3 68be 180a f6bd
00000050: 3c85 e6bd 8bf8 c6be a808 69be 7040 443e
00000060: eaae dcbd c778 01be da7a 293e d3f2 4bbe
00000070: efa6 fdbd 1362 223f a74e 68bd def6 43be
00000080: 4120 603e 7c6e fd3e 33c4 923e fec3 8b3d
00000090: 0b22 debd abef 3f3e df34 29be c5b4 22be
000000a0: a353 e6bd e255 f2bd def6 8b3e f1b8 183d
000000b0: c093 223f 712f 903c fe4d 843e 322e 5ebe
000000c0: 2d76 0cbf 88a6 513e ec8d a43e 0154 e5bd
000000d0: f4c0 36be 400b b6bd 56b6 333d 3a03 883e
000000e0: cbf1 9e3d 4b8a 2fbe af8e e7bc 9199 a23e
000000f0: f8e0 1e3e 7076 4cbe 017f 3bbd 42dc 1e3f
0.32052717 -0.063363254 0.27740115 -0.2844988 0.24139822 -0.32836917 -0.0999236 -0.46639413
-0.044203885 0.26336777 0.04697456 -0.46781144 0.17709786 0.5212793 0.1665055 0.18761893
0.36135682 -0.0464373 -0.22724599 -0.12013644 -0.11255881 -0.38861498 -0.22757208 0.19165206
-0.1077555 -0.12643729 0.1655077 -0.19916849 -0.12385356 0.634309 -0.056715634 -0.19137141
0.21887304 0.49498355 0.28665313 0.06824492 -0.10846337 0.1874377 -0.16524075 -0.1588927
-0.11246421 -0.11832787 0.27336782 0.03728575 0.635067 0.017600747 0.25840753 -0.2169731
-0.5486782 0.20473683 0.32139528 -0.11197663 -0.17847043 -0.088888645 0.04387506 0.26564962
0.07760962 -0.17142598 -0.028266279 0.31757787 0.15515506 -0.19967055 -0.045775417 0.62054837

linears.0.bias f4 [32]
00000000: 1772 233b 4c46 863c e5d0 0c3c c592 f93b
00000010: 4295 2b3c e4b7 d6bb 893b 363a 2678 0cbd
00000020: 5265 86bc 51e1 5dbc 3864 143a 301f 1abd
00000030: b856 243d a607 e1bc 550b 363c e1ff 12bc
00000040: 927d b1bb 958a 063a 66cb 9c3c 58a8 653c
00000050: fefd 323c 13ce 9ebc 21e3 b03d 3f5c 973b
00000060: a882 62bd e401 5b3c 77e3 07bc 892e 0e3c
00000070: fd33 a93c f4bb db3b edf7 13be 28a0 173c
0.002493983 0.016390942 0.008594726 0.0076163732 0.010472598 -0.006552683 0.00069516205 -0.03429427
-0.016405735 -0.013542489 0.0005660686 -0.0376274 0.040121764 -0.027469467 0.0111111 -0.008972139
-0.0054165805 0.00051323447 0.019139957 0.014017187 0.010924814 -0.019385373 0.086370714 0.004619151
-0.055300385 0.01336715 -0.008293978 0.008678087 0.020654673 0.0067057554 -0.14450045 0.009254493

linears.1.weight f4 [64, 32]
00000000: 1add e53c 9dfe 86be 084f 46be 401a 2fbe
00000010: 14a0 323e 0a59 b73c 257e acbd 994d 853e
00000020: 67cb 2c3e 68e8 a03e 96d5 b33d 9249 a53e
00000030: dd43 63be 7918 f6be 77a0 1bbc c70b 34be
00000040: 316c 9f3e 17f3 6d3c 8a66 cdbc 31c6 363d
00000050: 5c2e bdbe 24ca 2fbd c120 d8bd fdbc 453e
00000060: 0a29 ba3d ee26 293e e782 8ebe 2e66 bfbd
00000070: 9ba7 fb3d 23ac bf3d a706 a0bd ec1b a03d
00000080: fc05 d03c f828 ae3d 0b28 d7bd 10d1 213e
00000090: 1c2c 01be 46d0 f1bd 59cb 543e 9b87 9f3e
000000a0: 0840 c63e e295 6c3e fee6 ebbd 8df0 51bd
000000b0: a049 81bd 11b0 0f3e f49c f73d c19a 5ebd
000000c0: 0a54 5e3e a145 3ebe 7b52 69be 79b4 5bbd
000000d0: c3b2 83bc 7e8d a63e 7b93 bfbd bdd8 0fbe
000000e0: ce37 b33d bab3 1ebd 2ef7 a93d e77f 8fbd
000000f0: 3669 bdbc 0890 26bd 566e a33e 8ba2 603e
00000100: de7b 8fbd bde9 e73d bcdb 413e 7c82 f9bc
00000110: 0833 2d3d e69b 2cbd ca1d 8cbc f056 2fbe
00000120: b5db aabd e0b5 9dbe 76d7 62be f27e 83bc
00000130: b250 873e abf0 3d3c ae53 10bc 0448 88be
00000140: 3ce5 1bbd d8e6 8a3e 6437 f9bd 4f65 c0bd
00000150: ac2c 37be 5af9 44be 7383 123e 5cc1 8abd
00000160: 8194 41bd 0533 073d 5bde 283d 8e4e b1bd
00000170: 475d a5bd d06f 8b3e 7a9c 83bd a302 6bbe
00000180: 2b7a a1bd efb5 e63d df20 523d 6de6 aebd
00000190: 74cc 4ebe c5c6 85be c2bf 33bd 8ba8 d9bd
000001a0: c732 4b3e 9e28 15be 76a5 aa3d e49b 163d
000001b0: 17e9 1f3d efb6 093e 77a9 3f3e b1cf b3be
000001c0: 30d9 b0bd 6509 0dbe 7202 9e3d 85bc cebc
000001d0: 604e 63bd 31bc c53d 1e66 543e 97ef 3e3c
000001e0: 5ff0 d5bd e0fa 5c3e 90ed 09bd e819 f6bd
000001f0: 09c7 19bd bf53 82bc 139e 68be deff 1a3d
00000200: 9aaa 033d faf2 233d 6987 8cbd 62a4 68bd
00000210: 2431 d63c 5206 bcbd 0b5a 0d3e affb 273d
00000220: df2c eabc 1dad 48be 046b b2be 7e22 30be
00000230: 378a 1ebe be40 43be d241 c93e 4272 5b3c
00000240: e36a 043e d4a2 7d3e d105 5fbd ef7f 973e
00000250: 8555 19be f8ff 043d b7ca 7abe d134 eb3c
00000260: 4a33 06bd 9b3a 033d f93b 27be 5f1c 273e
00000270: cf15 2d3d 8528 143c 4a19 2dbd a4d0 383e
00000280: 8022 c23d 356f e4bd 29f3 1cbe 1bb1 c5bd
00000290: c683 963e 1c09 0dbe 033c a6bd f409 88bd
000002a0: e5aa 783d 6131 f8bd 8b26 a33c a6b1 8f3d
000002b0: d42f f3bd a166 963e 35b1 d43d 1252 3c3d
000002c0: 4c9e cbbe ef26 863d cf08 113d 805f 8d3e
000002d0: e1ee 443d 8c36 5fbe 44ff e3bd 1ecf 7cbd
000002e0: 3dce 313e f589 a43d d6f1 a93e 8053 8cbd
000002f0: 89e6 63bc 3824 933d e81e 7cbe 5f62 3abd
00000300: 8125 32be 0d2b fe3d 070b 7b3e 16fa 183e
00000310: df95 24be f261 b63d 38b4 f2bc c81a 79be
00000320: 73ea b43e 081e b6be 609d 083e 51f9 113d
00000330: 3d79 0fbe fd91 28be 9f94 aabc a85c 8bbe
00000340: 6480 dc3d d5e3 0dbe 4015 55bd fd25 ef3d
00000350: d7f2 1e3e 87ce 29be 50a5 6c3e ee50 3bbd
00000360: 9a33 5bbd 8f14 79bd a80e 1c3e d9d0 97bd
00000370: 3d3b f3bd 5db6 d1be 4302 78bd fc05 79bd
00000380: fe02 823d 96e3 12be 6b8f 0b3e 1b4a 503d
00000390: be72 1b3e 8468 14be b442 e63d 5aa1 403e
000003a0: 8440 64be 92f9 c03e 9a5d 183e 3996 50bd
000003b0: f388 38be abc1 f03d b89d e63d ce08 393d
000003c0: cab7 343d c330 c9bd cbed 613e 09bb e2bd
000003d0: 269e 88bd 5b06 1abe b471 803e 415d 89bd
000003e0: f957 2bbc 4865 393d 4d89 40be 1cda 0dbe
000003f0: 3c90 263d eeb8 5e3e f2e6 a8be cd89 863e
0.028059531 -0.2636613 -0.19366086 -0.17099857 0.17443877 0.022381324 -0.08422498 0.26035765
0.16874467 0.31427312 0.08780973 0.32282692 -0.22193857 -0.48065546 -0.009498707 -0.17582618
0.3113723 0.014523289 -0.025073308 0.044622604 -0.36949432 -0.042917386 -0.10553122 0.19310375
0.09089859 0.16518757 -0.27834246 -0.09345661 0.122878276 0.09359004 -0.07813769 0.07817826
0.025393479 0.08503908 -0.105056845 0.15802407 -0.12614483 -0.11807303 0.20780696 0.31158146
0.38720727 0.23104051 -0.11518668 -0.051254798 -0.06312871 0.14032008 0.12090483 -0.054346804
0.21711746 -0.18581249 -0.2278537 -0.05363891 -0.016076451 0.32529825 -0.093543015 -0.14047523
0.08750878 -0.03874562 0.08299099 -0.07006817 -0.023121458 -0.040664703 0.31920117 0.21937005
-0.07006048 0.11323879 0.18931478 -0.030457728 0.042284995 -0.042140864 -0.017104048 -0.17123008
-0.08342687 -0.30802822 -0.22152504 -0.016051743 0.26428753 0.011593024 -0.008809013 -0.26617444
-0.03806041 0.27129245 -0.12168768 -0.09394323 -0.17888135 -0.19235745 0.14307956 -0.067751616
-0.047260765 0.03300764 0.04122768 -0.08657561 -0.08074432 0.27233744 -0.0642633 -0.22950225
-0.0788463 0.1126517 0.05130088 -0.08540044 -0.2019518 -0.26128212 -0.043884046 -0.1062785
0.19843589 -0.14566275 0.083323404 0.036769763 0.03904065 0.1344869 0.1871699 -0.35119393
-0.08635175 -0.13773115 0.0771531 -0.025236377 -0.055494666 0.09655035 0.2074208 0.011653802
-0.10446238 0.21580076 -0.033673823 -0.1201666 -0.03754333 -0.015909074 -0.2271655 0.03784167
0.03214512 0.040026642 -0.06861765 -0.056797393 0.026146479 -0.09180893 0.1380388 0.04101151
-0.02858585 -0.19597287 -0.3484727 -0.17200658 -0.15482412 -0.19067666 0.3930803 0.01339394
0.12931399 0.24769145 -0.054448906 0.29589793 -0.1497403 0.032470673 -0.24491392 0.028711708
-0.032763757 0.032038312 -0.16331472 0.16319416 0.042257126 0.009042864 -0.042260446 0.1804834
0.094792366 -0.111540236 -0.15327133 -0.09652921 0.2939741 -0.13773006 -0.08116915 -0.066425234
0.060709853 -0.12118793 0.01991584 0.070163056 -0.11874357 0.29375175 0.10385362 0.045976706
-0.39769208 0.06550395 0.03540879 0.27611923 0.048079375 -0.21798152 -0.111326724 -0.06172096
0.1736383 0.08034126 0.3319232 -0.06851864 -0.013909944 0.071846426 -0.24621165 -0.04550397
-0.17397119 0.12410555 0.24515925 0.1493915 -0.16072796 0.089054 -0.02962695 -0.24326622
0.3533512 -0.35569787 0.13341284 0.035638157 -0.14011092 -0.1646194 -0.020822821 -0.2721913
0.10766676 -0.13856442 -0.05202222 0.116771676 0.15522324 -0.1658269 0.23109937 -0.045731477
-0.053516008 -0.06081062 0.15239966 -0.074128814 -0.11876533 -0.40959445 -0.060549032 -0.060796723
0.06348227 -0.1434463 0.13628928 0.050851922 0.1518049 -0.14492995 0.11243191 0.1881155
-0.22290236 0.37690407 0.14879456 -0.050924513 -0.18020992 0.11755689 0.11260551 0.045174412
0.044120587 -0.09823754 0.22063367 -0.110708304 -0.066707894 -0.15041487 0.2508675 -0.0670724
-0.010457986 0.045262605 -0.18802376 -0.13852733 0.040664896 0.21750233 -0.32988697 0.2627701

linears.1.bias f4 [64]
00000000: e129 b7bc 1064 03bd 8fbe be3c 7cf7 983c
00000010: 8c93 493c f83f c93c ed51 84ba aa85 833d
00000020: 3306 fcba b5a9 713c ed4e 89bc 4dd0 d93c
00000030: fdf2 01bd 6437 acbc e57f 8dbc 13fc d93c
00000040: 1b56 c1ba 5227 953a 89fe 72bc 8716 a63c
00000050: 1f01 25bc e72a 533c 7edf 7e3c 5fa0 a43a
00000060: 943b 4abc b86a 8cbb ef02 84bc 8008 113c
00000070: a780 613d 4b21 03ba 73ae e3bc caee ff3a
00000080: 707d dbbc c769 dcbc 1bfc a6bd 3d8b 133b
00000090: 7959 9e3c 3f02 79bc 1378 7bbc 9f99 7c3c
000000a0: 81eb 623c 458a ffbb 2a84 a0bc 14b7 51bc
000000b0: 1688 073e f169 fa39 5636 0e3c 915a 303c
000000c0: 4aa9 acbc 3dcd 413d 026e b8bd 35e7 dabb
000000d0: 8801 78bb 87cb b63c 3932 483c 8404 3e3c
000000e0: 6160 d7bc be70 c2bb 080a 0bbc ea06 9cbc
000000f0: c200 53bb a7e1 55bb 2d5f 3fbd add9 98bc
-0.022358837 -0.03207785 0.023284225 0.018672697 0.012303244 0.024566635 -0.0010095217 0.06421979
-0.0019227922 0.014749934 -0.016761268 0.026588583 -0.031725872 -0.021022506 -0.017272899 0.026609456
-0.0014750393 0.0011379516 -0.014831194 0.020274414 -0.010071068 0.012888647 0.015556214 0.0012560001
-0.012343306 -0.004285183 -0.01611468 0.008852124 0.055054333 -0.00050022145 -0.027793145 0.0019526121
-0.026793212 -0.026905907 -0.08153554 0.0022513412 0.019329773 -0.015198289 -0.015348452 0.0154174855
0.013850094 -0.0077984654 -0.01959427 -0.012799997 0.13235506 0.00047762648 0.008679947 0.01076378
-0.021076817 0.04731487 -0.09005357 -0.006680394 -0.003784271 0.022313846 0.012219005 0.011597756
-0.026291074 -0.00593385 -0.008486278 -0.019046266 -0.0032196497 -0.003263572 -0.046721626 -0.018658483

linears.2.weight f4 [64, 64]
00000000: 8665 18be 1b2f d43c 27c2 50bd 9d0c d23d
00000010: 3f3e 27be f5b2 593d 5edd 543d e0fa 773d
00000020: fc66 2dbc 06e9 103d 962c 95bc 2680 093e
00000030: 4f7f a23c 06a2 203e 4156 57bd 5095 c33d
00000040: 13b5 523c 15f9 d73c ade1 a33e 67ca 1d3d
00000050: be68 673e 1399 46bc 8fb7 103d 40f3 bcbd
00000060: 6dd4 183e de38 183e 6396 aabd d9a8 d7bd
00000070: 240c 93bd bc13 32be c501 973a d09f 293d
00000080: cb6c 553e f00f 9f3d ce51 5f3e 4943 fabd
00000090: ae0b 60bd e36c cf3d 3f20 7abd ddea 10be
000000a0: c8c1 ee3c 117f 623e 08b6 26bc 2171 133c
000000b0: a673 7e3c 63a5 29bb ba75 c33d ba79 debd
000000c0: cfb2 8bbe c441 87be 952f 30be e838 3dbd
000000d0: 39f8 89be 59a8 3ebe ab50 81be 261d 0c3e
000000e0: 4211 2bbd 1e74 6d3d 8425 b53d c492 5c3e
000000f0: 326b 5fbd dfd9 303e 0b64 44be d584 12be
00000100: e3aa 8cbe 7053 29bd 2367 dc3d 150e 21bd
00000110: a929 af3b 35af d3bd 5ea9 43bc 40cb a43e
00000120: d4b1 853d f69e 2abe fbe4 dfbd f5d0 953d
00000130: fc1d f1bd 59b8 4dbe 4818 0ebd 5248 743c
00000140: 6574 6e3e 03ee 7ebd 494c 19be f5fd a33e
00000150: 9077 e2bd 5c9a 5f3d 744e 653d b196 fb3d
00000160: 79e1 10be 15db c5bd 9a41 a73d 7170 87be
00000170: 70ee 873b 452f 3b3e edc6 49bd eb39 8d3d
00000180: bd4e 50be 9325 afbd 3956 51be 1f4b d4bc
00000190: 2fa9 9abe f9e3 36be 6186 e83c 0ff4 203e
000001a0: 002a 13be 2a40 193d 10f2 ed3d a90a f13c
000001b0: defd 4cbc 48ca 003e 9eda a5bc 0226 8a3d
000001c0: 9b66 0c3e 358d de3d e5b0 01be 6ec9 0cbe
000001d0: f91c 923d 31f2 61bc daf6 c9bc 1084 4a3e
000001e0: 0348 283e a0ed 213e f454 943c e571 8f3d
000001f0: 8f30 b5ba b9d3 a0bd cdc9 39be a406 1d3c
00000200: 060a 4dbe 4335 83be dbc1 6bbe b3db 7b3d
00000210: dca4 9bbe 01b3 283e bd4e 5d3d a3f8 2fbd
00000220: 98a4 bd3d b667 f6bd de1d 45be b72b 31be
00000230: 527b ddbc 6e22 a0bd 7fd0 af3d 276e 2abd
00000240: 4b96 9fbd 1fdc 5d3d 78e5 283e 8aab 1f3e
00000250: 8a5e 8cbd 94da 543d 6351 b7bd aafb d93d
00000260: 8ff8 643e 7d67 a6bd 3e59 a73d 6aae 14bc
00000270: d285 103e 9f2e e33d c08f 67bd e6bd 263e
00000280: cd0d 55bd 8970 273e 22dd af3d 7b80 92be
00000290: fcde 3ebe 0716 0abd 30e2 a4bd e381 263d
000002a0: 95cc 45bd f731 debc a887 313e f1f8 ebbd
000002b0: f608 c73d bc13 363e 5493 143d 98bf 3cbe
000002c0: 8d89 e4bc d973 133e fc3a ebbd 6f73 113e
000002d0: 6656 93bd c4de e73d 981d 90be 55db 0a3c
000002e0: ff02 e0bb e428 fd3d 7592 d7b9 b2ca a4bd
000002f0: 19fb ae3d f2eb ae3d 04b1 fe3c decf bcbd
00000300: 97ed 89bd f468 2e3e 4fd2 623e d006 a8be
00000310: d45c d5bd b329 36be de2f 20be 894e e9bd
00000320: e25a 1fbe cbf7 463d 346e 97bc 5bbf 2cbc
00000330: 855e b73b 6ffa 243e 7488 733c a214 80bd
00000340: 5d54 a33e 3da9 783d 3748 9b3e 14c2 563d
00000350: ca84 71bc 38c3 0ebe 2b5d 0cbe 8cc5 f3bc
00000360: f660 853d 2af5 1f3b a5f2 1d3d b377 17be
00000370: 0ba2 f03d 573d 8abd c38b 4b3e 04ba 873e
00000380: 70ec 2d3d 3fdd 0cbe 08bc 653d 5db8 6fbb
00000390: 6d75 80bd 070d 34be 1160 bc3b 94dc 08be
000003a0: a297 033e b269 4a3d f38b 293d 391a bebd
000003b0: 099a e7bd dd7b c93c 227e 92bd a54e 903c
000003c0: ad70 b1bd 9d77 99bd 3ced 5cbe 5aa8 163d
000003d0: aa5a 71bc 8764 21be bfb6 283d 79c8 89bd
000003e0: 5a09 363d 9cb4 53be 7c0f a93d e3ac 473d
000003f0: af75 423e 8054 633e c396 25bd 8b90 c83d
-0.14882478 0.025901368 -0.050966408 0.10256312 -0.16332339 0.053149182 0.051968925 0.060541987
-0.010583635 0.03537848 -0.018209737 0.13427791 0.019836096 0.15686807 -0.052572493 0.095499635
0.012860554 0.026363889 0.32008114 0.038523104 0.2259855 -0.012121457 0.035331305 -0.09226084
0.14924784 0.14865443 -0.08329465 -0.10530252 -0.0718005 -0.1739034 0.0011520913 0.041412175
0.20842282 0.07766712 0.2180855 -0.12219865 -0.05469864 0.1012819 -0.06106591 -0.14152093
0.029145136 0.22118784 -0.010175236 0.00899914 0.015530502 -0.0025885932 0.09543939 -0.10863061
-0.27284858 -0.26417363 -0.17205651 -0.04619685 -0.2694719 -0.18618907 -0.25256857 0.13682994
-0.041764505 0.057972066 0.08845046 0.21540362 -0.05454559 0.17270611 -0.19178788 -0.14308484
-0.27474126 -0.041339338 0.10761859 -0.03932007 0.0053455424 -0.103361525 -0.011942236 0.32186317
0.06528059 -0.16662201 -0.109323464 0.07315246 -0.11773297 -0.20089854 -0.034691125 0.014909821
0.23286588 -0.062238704 -0.14970507 0.3202969 -0.11057961 0.054590568 0.05598302 0.122846015
-0.14148511 -0.09660927 0.081668094 -0.26452973 0.004148297 0.1827975 -0.049261976 0.068958126
-0.20342536 -0.085520886 -0.20443048 -0.025914727 -0.30207202 -0.17860402 0.02838439 0.15718101
-0.1437149 0.037414707 0.116184354 0.029424028 -0.0125116985 0.12577164 -0.020245846 0.06745531
0.13711016 0.10866777 -0.12665136 -0.13748714 0.07134432 -0.013790653 -0.02465384 0.1977694
0.1643372 0.15813303 0.018106915 0.070041455 -0.0013823676 -0.07852883 -0.18143387 0.009584103
-0.20023355 -0.25626573 -0.23023169 0.06148882 -0.30399215 0.16474535 0.05403017 -0.042961728
0.092599094 -0.120315 -0.19249675 -0.17301832 -0.027036343 -0.07819067 0.08584689 -0.041608956
-0.07792338 0.054165002 0.16493785 0.1559278 -0.068539694 0.051966265 -0.0895107 0.10643704
0.22360443 -0.081252076 0.081713185 -0.009074787 0.14113548 0.11092877 -0.056533575 0.16283378
-0.052015115 0.16351523 0.085870996 -0.28613648 -0.1863975 -0.033712413 -0.08050954 0.040651213
-0.048290808 -0.027123434 0.17336905 -0.11522091 0.09718506 0.17780966 0.036273316 -0.18432462
-0.02789762 0.14399661 -0.1148586 0.1420419 -0.071942136 0.11321786 -0.28147578 0.008475144
-0.0068362947 0.12361315 -0.00041117115 -0.080464736 0.08543987 0.08541097 0.031090267 -0.09219335
-0.0673477 0.17032224 0.22150539 -0.32817698 -0.10418096 -0.17789344 -0.1564326 -0.113919325
-0.15562013 0.048576158 -0.018485166 -0.01054367 0.0055959844 0.16111158 0.014864076 -0.062539354
0.31900302 0.060708273 0.30328533 0.05243118 -0.014741132 -0.13941658 -0.13707416 -0.029757284
0.065126345 0.0024407604 0.038561482 -0.14791755 0.11749657 -0.06749981 0.19877534 0.26509106
0.042461812 -0.13756274 0.056087524 -0.0036578395 -0.06272397 -0.17583095 0.0057487567 -0.13365394
0.12850812 0.049417205 0.04139323 -0.09282345 -0.11308677 0.024595195 -0.07152964 0.017615626
-0.08664069 -0.074935175 -0.21574873 0.036781646 -0.014731089 -0.15761004 0.041189905 -0.0672769
0.044442512 -0.20674366 0.082549065 0.048748862 0.18990205 0.22200203 -0.04042698 0.097931944

linears.2.bias f4 [64]
00000000: 21b1 0c3c df41 ff3c a7a2 eb3c c2c4 b5bc
00000010: c88f 953d 4240 a2bd 4a85 60bd f138 913b
00000020: 0b91 e1bb c76d a13c 0e5f 9e3b 61e4 12bc
00000030: d149 efbc f915 173c 649c 923d 30ae 863b
00000040: 71f9 2cbd 40f9 cbbb 120b 03bc f252 eeba
00000050: c1f7 083d cf80 8ebb 0a37 20bc a8b2 c93a
00000060: d87d 453c 62a4 ed3c d9f2 d636 5245 4b3b
00000070: 1e12 c9b6 5f0d d93d d2d7 77b9 3367 c23b
00000080: f0a5 aebc 34cb 33bd 5b85 b9bc 0283 d23a
00000090: d4d3 59bb e6f4 b0bb 563b 8f3c 9580 bdbb
000000a0: d785 b7bb 7b90 ef3b 9fe9 a23c 798a f13c
000000b0: dc69 14bd 618a dbba 1c24 6a3c 8a19 3cbc
000000c0: 9fab 3f3c b404 2a3d 3a65 94bc 772b 0fbc
000000d0: ad5f f2bc 6101 54bb 9b55 373d fd13 743d
000000e0: de6e 733d 47cf ee3b 28e6 bebc 439d 41bc
000000f0: 20b8 913c 490b 9b3c 1ca1 1c3d 16b1 1e3b
0.008587153 0.03115934 0.028764082 -0.022188548 0.07302815 -0.079224125 -0.054814614 0.004431837
-0.0068837455 0.019705666 0.0048331087 -0.008965583 -0.029210003 0.009221547 0.071587354 0.0041101202
-0.042230073 -0.0062247813 -0.007998245 -0.0018182679 0.0334394 -0.0043488513 -0.009778747 0.0015388327
0.012053929 0.029009048 6.405968e-06 0.003101666 -5.992376e-06 0.105982535 -0.00023636155 0.0059327125
-0.02131936 -0.04389496 -0.022646597 0.0016060772 -0.0033237832 -0.005400288 0.017484348 -0.0057831504
-0.0056006717 0.0073109246 0.01988679 0.029484974 -0.036233768 -0.0016749614 0.014290836 -0.011480698
0.0116986325 0.04150839 -0.018114675 -0.00873839 -0.029586637 -0.0032349455 0.044759374 0.059589375
0.059431903 0.007287893 -0.023303106 -0.011817279 0.017787993 0.01892628 0.038239583 0.0024214438

linears.3.weight f4 [32, 64]
00000000: 8803 e6be c266 45bd c03e 10be bb5f 2b3e
00000010: c41b c83d 0403 f83d ee3f 5d3e df32 223d
00000020: 370f b03e 5736 823c afa8 2a3d 956c 04bd
00000030: fe7d c33c c22d 50be da9e 86be 21fa 1bbc
00000040: ab5d 1ebb 60e0 ae3d 8ecb 40be d986 24bd
00000050: 9b9b fc3d c334 b03d ea53 2e3e 4158 b83d
00000060: 53a6 e5bd d3e3 a03d dc9b 4bbe 3e4f 4fbe
00000070: 89f0 303a 3c03 063e 9f40 0a3e f7a4 463e
00000080: 74c3 1ebe 8c0e 43bd 099b eb3d 4f34 c63d
00000090: 6c04 f3bd 6f7f d53c 7b18 643e d643 13be
000000a0: e869 f13d 9d58 88bd a7e5 393b d62e 6b3e
000000b0: b4ef 5bbd da15 62be 0c6a 21be 7747 c1be
000000c0: 1aff 4b3e 3f37 073e cd92 76bc 4971 493e
000000d0: 9a81 5cbd 31ec 693e 3d35 9cbe 9a73 4e3e
000000e0: b7e2 b3bc de9e 083d c2f9 773e a4e7 c33d
000000f0: 6409 a1bd ae74 5f3d db0d 0b3e 8281 3fbe
00000100: fc08 5a3e 6c0b 363e 6c4c c53d da5a abbd
00000110: e919 a13e 1044 b2be a2e6 84be ad83 003d
00000120: acb4 de3d 7a1a 543e 8364 4b3e 71d4 923e
00000130: 9dea 94be 04f3 44bd fc38 3e3e fdc9 6bbd
00000140: 93ed 98bd f3ff 2ebe 2537 97bd a11e 373e
00000150: 044c da3e 3f6c 243d 84dc 3a3e 4157 ecbd
00000160: e5c2 063e d264 063d ffd6 9abb 5a09 8abe
00000170: 01b5 043e 2b0d 65bd b454 a0bd 8b18 e5bd
00000180: 6eda b83d f202 66be 73d6 043b 376d 67be
00000190: 9a67 7c3e d97e b73e 10d2 cb3d b7b6 4e3d
000001a0: 27a0 e03c 898e 87be 5e27 b2bd 61e0 1fbe
000001b0: 0689 063d 0ddb af3d fa77 683e 34f5 c0bb
000001c0: 8bd1 323e e63d bf3c 2439 c53d 669a 88be
000001d0: 21e4 45be 6af8 7d3c f228 1f3e 2a47 d23d
000001e0: 038c 9c3e 3b2b c33c 0149 04bf ff1f 93bd
000001f0: a1df d5bc ec19 a2be c227 ed3e e0a7 6a3e
00000200: c94c 5c3e 5f3e 1bbe a1d1 553e 6905 403d
00000210: 0a9d a53d c612 4f3e d1bd c9bd da72 7bbc
00000220: 128f 1ebe e29d e6bd 6e9f 34be f4ff bb3d
00000230: 23b5 57bd 78fc 14be e65a 76bc a9eb cdbd
00000240: 4cef a63d ecff 073e 4c96 443e 2326 a93d
00000250: a491 51bd 26a4 3d3e 46f3 b13d 6753 c63d
00000260: a610 a83a 01d9 96bc ac86 7f3d 7c90 a4bd
00000270: 1bc2 42be 85f3 5cbd c917 923d c33f 26bd
00000280: 3f5d 4e3e 53db 8fbd 2927 8c3e 51e5 4c3d
00000290: 31b6 d53d 98eb a8bc bfbe 37bd cba5 9b3d
000002a0: 4a17 76be acef 86be 6ac3 523e 5e16 9cbe
000002b0: d3db 30bd 3b53 763e 9565 9cbe 9feb b2bd
000002c0: 04a9 1c3e e3fc 433d 55ab cb3c 9d81 26be
000002d0: dec2 453e 40cb aabd 95a9 a4be 4994 153d
000002e0: b4fc be3d 15d0 b2bd 5cf0 1abd c91b cebc
000002f0: 0a97 0fbe 60a1 583e d2a0 4ebd 95a7 603e
00000300: e81b a2be d29a 583e 3816 c63d 4541 06be
00000310: 0273 b63d 5be6 4cbe d9a3 733e 8d35 893d
00000320: 9e10 113d 0fba babe 1cf8 c1bd 87d4 32be
00000330: 77f1 83bd 0977 503e 2c79 ab3b 5487 5cbe
00000340: 2033 0b3e d58f 4bbe 4b9b 103e 7989 613e
00000350: 42cb a2bd d890 03be 8b8b 4d3e 5d69 d8bc
00000360: b6cd 31be 7e0b c9bd 0817 f33d 6603 323e
00000370: cd61 603d 5a8f 0bbe 1a55 8bbd ffb4 233e
00000380: 0ef8 823c 83ca 613e 2c70 9d3d d384 9abe
00000390: 6c48 6dbd 5b21 69be 97f7 143e 33f0 503b
000003a0: ce51 943d 925f 05be c1ca a3bd 2a93 f3bd
000003b0: 191a 8cbe 9001 6a3e 37ca c2bd 06c8 1abd
000003c0: 74a4 19bd 8749 45be d896 bf3d a5be fcbd
000003d0: d907 f23d a310 b4bd 5659 3fbe 666b bcbd
000003e0: bbcf 553e 308d 143e a99c c33e 6aa1 a0bd
000003f0: 23ac 363d 5a63 803d 4fdf 3bbc 199f d83c
-0.4492457 -0.0481937 -0.14086437 0.16735737 0.09770921 0.1210995 0.21606418 0.039599296
0.34386608 0.015895052 0.041664775 -0.032330114 0.023863789 -0.20329955 -0.2629307 -0.009520085
-0.0024164717 0.0853889 -0.1882765 -0.040167663 0.12334367 0.086038135 0.17024198 0.09001208
-0.112133645 0.07855954 -0.19883674 -0.20245072 0.000674971 0.13087171 0.13501213 0.19398867
-0.15504247 -0.047621295 0.1150418 0.09677946 -0.11866078 0.026061742 0.22274964 -0.14381346
0.11787778 -0.06657527 0.0028365643 0.22967085 -0.053695396 -0.22078648 -0.1576311 -0.37749836
0.19921532 0.13204668 -0.0150496485 0.19672121 -0.053834535 0.22844006 -0.30509368 0.20161286
-0.021958692 0.033354633 0.24216369 0.09565666 -0.07863119 0.054554634 0.13579504 -0.18701747
0.2129249 0.17777795 0.09633717 -0.08366938 0.3146508 -0.34817553 -0.2595721 0.031375576
0.10874304 0.20713225 0.19862561 0.28677705 -0.29085246 -0.04808332 0.18576425 -0.057565678
-0.07467189 -0.17089824 -0.07383565 0.17882778 0.4263612 0.040142294 0.18248183 -0.1154008
0.13160284 0.032810993 -0.0047253366 -0.2696026 0.12959673 -0.05592076 -0.07828656 -0.11186322
0.09026037 -0.22462061 0.0020269423 -0.22600256 0.24648896 0.35838965 0.099521756 0.05046722
0.027420117 -0.26475933 -0.08698915 -0.15612938 0.03284552 0.085867025 0.22702017 -0.0058886055
0.17462747 0.023344945 0.09630039 -0.26680297 -0.19325306 0.015501121 0.15542963 0.1026748
0.3057557 0.023824325 -0.51673895 -0.07183837 -0.026107611 -0.31660402 0.46319395 0.22915602
0.21513666 -0.15160511 0.20880748 0.04688016 0.080865934 0.20222005 -0.09850658 -0.015347207
-0.15484264 -0.112605825 -0.17638943 0.091796786 -0.05266298 -0.14549434 -0.01503632 -0.10054714
0.08151111 0.1328122 0.19197959 0.08259227 -0.051164284 0.18519649 0.08688979 0.096838765
0.0012822344 -0.018414022 0.062384292 -0.08035371 -0.19019358 -0.053943176 0.07133443 -0.04058815
0.20152758 -0.07024255 0.27373627 0.05002338 0.10435141 -0.020620152 -0.044859644 0.07599982
-0.24032322 -0.2635473 0.20582357 -0.30485815 -0.04317839 0.24055187 -0.3054625 -0.087363474
0.1529885 0.047848593 0.02486197 -0.16260381 0.19312617 -0.08339548 -0.3216063 0.03651837
0.09325543 -0.08731095 -0.03782688 -0.025159733 -0.1402246 0.2115531 -0.05044634 0.21938927
-0.31661916 0.2115281 0.09672207 -0.13110836 0.08908655 -0.20009749 0.23792972 0.06699667
0.035416238 -0.36470076 -0.09471151 -0.17463885 -0.0644254 0.20357908 0.0052329507 -0.21535999
0.13593721 -0.19879086 0.1412174 0.22025098 -0.079489246 -0.12848222 0.20072763 -0.026417429
-0.17363629 -0.09816645 0.11869627 0.17384109 0.05478077 -0.13628903 -0.06803341 0.15987013
0.015987422 0.22049908 0.07687411 -0.30179462 -0.057930395 -0.2276663 0.14547573 0.003188145
0.072421655 -0.13024738 -0.079976566 -0.11893304 -0.2736366 0.22852159 -0.09511226 -0.037788413
-0.03751035 -0.1926633 0.09354943 -0.1234105 0.11817903 -0.08792236 -0.18686423 -0.09200172
0.20880024 0.14506984 0.3820546 -0.07843287 0.044597756 0.0626895 -0.011466815 0.026443051

linears.3.bias f4 [32]
00000000: 88a5 3dbc d0a1 953d f2d5 a4bc 045e 7ebc
00000010: 8713 88bc f2cb 0abd 9d23 393d ced3 c23c
00000020: c7f4 903c 74a1 163c a4aa 2ebc f37f 50bc
00000030: 7053 07bd 0c3a cc3b d5d8 84bc 5de3 d53c
00000040: f91e 973b 1513 4d3b fb7e b33c 9e2e 023b
00000050: 0dcc 59bc 42c9 3abc d09f e6bc 01f3 973c
00000060: be1d c13b 6154 eabc 52c1 56bc 4b39 0fbd
00000070: 1266 dbbc 4f2e 5bbc dc14 96bc e4eb b6ba
-0.01157511 0.07306254 -0.020121548 -0.015525345 -0.016610874 -0.033885904 0.04519998 0.023782637
0.017694844 0.009193767 -0.010660801 -0.012725818 -0.033038557 0.0062325057 -0.016216675 0.026109392
0.0046118465 0.0031291891 0.021911135 0.0019864212 -0.013293278 -0.011400523 -0.028152376 0.01854849
0.005893438 -0.028604688 -0.013107615 -0.03496675 -0.02678207 -0.01337774 -0.018320493 -0.0013955799

linears.4.weight f4 [4, 32]
00000000: 6c2e 5e3e c627 f4bd 99b7 f6bd 374f be3d
00000010: 8caa 0dbe 507f 98bd 4f9c b9bb cf3b 303e
00000020: cf77 c7be abe8 f43e 22c4 c1bd 45b9 c9bc
00000030: e332 8abd 67f9 523e 5bdc 50bf e9b0 3d3e
00000040: bcb1 ac3e 96ce cb3e 37a7 ca3d 13e5 ff3d
00000050: 31ee 4ebe 5f7e 05be c274 783e 1527 3bbd
00000060: e076 e1be f030 cdbd b02e 6fbd 1e7f 1c3e
00000070: bdfd 8d3d c8b0 973e 90a3 1cbf e01f 233e
00000080: 17ed 1b3d 7447 f23c 1bc2 16bf 0f20 8dbe
00000090: 7540 febe b40e 22bf ef9e 293e ca05 2e3f
000000a0: 0436 cc3b 7586 de3d b0f3 a8be 0045 73be
000000b0: 6bb3 07bf a8ef fb3d a1ff 29bf edc0 353f
000000c0: a602 703e fc49 44bd d0bf 4a3f 833b 993e
000000d0: be35 09bf 1741 fbbe d052 fdbe cefd af3e
000000e0: 5b35 783e 43db 1abf 18a3 6bbe 0a26 30bf
000000f0: 7cb7 7c3e f65a ae3c 3e58 f6be 36a3 98be
00000100: 830e a53e c6ea 033f c9b5 65bd 88a5 aebe
00000110: 1823 853d d76f b13e 3cc7 5b3e 48fa bcbe
00000120: 88ca e9bd c57e 093f 67c6 423d 4db1 6cbc
00000130: 6226 5e3e 683a 363f 0c0c 983e 8554 61bd
00000140: 979b 053e 82be d53e 35e3 babd 7f79 5c3e
00000150: d6f7 c93e d83f 37be beda 3dbe 4514 bebe
00000160: 2dae aa3e 5c5e 9cbe 1c0a 44bd 966e c0be
00000170: 1953 ccbd 6ebf 483e 4f82 0bbe 3c90 09be
00000180: bc6a 94bd 62db a23e b301 adbe 130f 1b3d
00000190: e949 03be 27a0 afbe bc5f 2a3f 16d5 0d3e
000001a0: 835f c43e 5548 6d3e b358 24bf 5200 9dbe
000001b0: 0096 09be dd1f ff3e c212 f6bd 6b0e 233f
000001c0: ee3a 1f3f 4a0b 923e 12e0 453e 5a77 943c
000001d0: 3589 f9be 4ed5 0dbf 9e56 a2be 10f0 c2be
000001e0: f088 d8be bd3b 5bbf 8ce8 e8be 8c9d afbe
000001f0: df8b 173f 644c 4b3e bf5b 8d3e 7d1d 903e
0.21697396 -0.11921649 -0.12046737 0.09292453 -0.1383459 -0.07446158 -0.0056643854 0.17210315
-0.38958594 0.47833762 -0.094612375 -0.024624476 -0.06747987 0.20602952 -0.81586236 0.18524517
0.3372935 0.3980605 0.09895175 0.12494864 -0.2020805 -0.13036488 0.2426329 -0.04569157
-0.44036007 -0.100191 -0.058394134 0.15282866 0.06933162 0.2962706 -0.61187077 0.15930128
0.038067903 0.029575087 -0.5888993 -0.2756352 -0.49658552 -0.63303685 0.16564535 0.67977583
0.006232025 0.108654894 -0.3299842 -0.2375679 -0.53008145 0.1230157 -0.66405684 0.70997506
0.2343851 -0.04792212 0.7919893 0.29928216 -0.5359763 -0.49073097 -0.49477243 0.34373325
0.24239103 -0.60490817 -0.23011434 -0.68808043 0.24679369 0.021283608 -0.48114198 -0.2981202
0.32237634 0.5153011 -0.056081567 -0.34110665 0.06500834 0.3465564 0.2146272 -0.369097
-0.11415583 0.5370906 0.047552492 -0.014446569 0.2169433 0.7118287 0.2969669 -0.055012245
0.13047634 0.41746908 -0.091253676 0.21530722 0.39446896 -0.17895448 -0.18540475 -0.3712484
0.3333601 -0.3054074 -0.047861204 -0.3758437 -0.09976787 0.19604275 -0.13623928 -0.13433927
-0.072469205 0.31808 -0.3379036 0.037856173 -0.12821163 -0.34301874 0.6655233 0.13850817
0.3835412 0.23172124 -0.64197844 -0.30664307 -0.13436127 0.49828997 -0.120152965 0.63693875
0.62199295 0.28524238 0.19323757 0.018123318 -0.48737493 -0.554036 -0.3170671 -0.38073778
-0.42291975 -0.8563803 -0.4548992 -0.34299886 0.591978 0.1985336 0.2760906 0.28147498

linears.4.bias f4 [4]
00000000: 155f 0b3b 0f13 7a3e b30f a03d 82c2 973e
0.002126639 0.24421333 0.078154944 0.29640585
