Iterations/Test model/epoch_5782.pt (torch, 37739 bytes, 10 tensors)

linears.0.weight f4 [32, 2]
000000 d8 1d a6 3e a4 24 3e be c6 60 8d 3e 52 58 fc be
       0.32444644 -0.18568665 0.27612895 -0.49286133
000010 f9 c0 75 3e 8a 44 08 bf 0c c6 cf bd 1e d3 25 bf
       0.23999394 -0.5322958 -0.10145196 -0.64775264
000020 d6 a7 40 bd 30 33 e6 3e 7c 97 40 3d 58 89 33 bf
       -0.04703506 0.44960928 0.047019467 -0.70131445
000030 fa b5 38 3e 3e 1a 34 3f a3 0f 34 3e fd 0e ac 3e
       0.18038169 0.7035254 0.1758409 0.33605185
000040 9f 2b ba 3e 21 31 5a be b9 6d 72 be 46 cc 19 be
       0.36361405 -0.21307804 -0.23674668 -0.1501933
000050 ce 58 e8 bd 97 df 0f bf 70 df 85 be 79 4c da 3e
       -0.11345063 -0.56200546 -0.26147032 0.4263647
000060 1c 4e ea bd 4f 1e 66 be 8f 82 28 3e bc 6a d2 be
       -0.114406794 -0.224725 0.16456054 -0.41097057
000070 8e bf fd bd 75 95 4f 3f 23 58 6c bd b8 fd b3 be
       -0.12390052 0.8108743 -0.05770124 -0.3515451
000080 1a b1 63 3e a9 ee 27 3f e6 6e 98 3e da f3 57 3e
       0.22235528 0.6559854 0.2977211 0.21089116
000090 ba 87 dd bd 9d ec d1 3e 63 70 47 be 0d 23 a1 be
       -0.108169034 0.41000834 -0.19476466 -0.31472054
0000a0 01 da ef bd bf fb 80 be 09 b8 8e 3e 19 59 21 3e
       -0.11711503 -0.25192067 0.27874783 0.15756644
0000b0 c6 a6 2c 3f e7 05 ea bd e0 62 8d 3e c4 f2 c5 be
       0.67441976 -0.11426907 0.27614498 -0.38661778
0000c0 28 47 11 bf 0f f9 bc 3e 63 38 ad 3e 57 6e 48 be
       -0.567492 0.36908767 0.33832082 -0.19573341
0000d0 86 98 39 be 83 94 63 be d0 ca 33 3d d3 c8 e0 3e
       -0.1812459 -0.22224621 0.04389459 0.43903217
0000e0 ec f7 a5 3d a1 f7 cf be 00 46 ea bc 0a be 04 3f
       0.08103928 -0.40618613 -0.028597832 0.51852477
0000f0 eb 03 24 3e 56 47 f6 be 53 02 3c bd 2a ff 50 3f
       0.1601712 -0.481013 -0.045900654 0.8163935

linears.0.bias f4 [32]
000000 fb 88 32 3c 7e 1c ab 3c 96 c9 83 3c 64 c1 c6 3b
       0.0108969165 0.02088761 0.016087335 0.0060655344
000010 30 0d 2c 3c 31 f6 19 bc b4 a1 9e 3b 6f 6c 11 bd
       0.010501191 -0.0093970755 0.004841054 -0.0355038
000020 7a ca b4 bb 1f 03 e7 bc a0 15 11 bb bb 85 9f bd
       -0.005517301 -0.02819973 -0.0022138134 -0.07789179
000030 bd 94 24 3d d0 78 01 bd 5b ca 5c 3c 07 85 53 bc
       0.04018091 -0.031609356 0.01347598 -0.012910134
000040 b0 1d bf ba 70 87 a0 3b dc e1 c5 3c 08 29 ba bc
       -0.0014580991 0.004898958 0.02415555 -0.022724643
000050 36 e6 2e 3c 81 17 91 bc 31 37 e3 3d 3a db 06 3d
       0.010675004 -0.017711403 0.11094511 0.032923914
000060 d9 78 91 bd 07 67 2c 3d 9b ea 3a bc 24 db 32 3c
       -0.07103128 0.042090442 -0.011408473 0.010916505
000070 9e f7 ca 3c ec 1b 34 3c b1 17 12 be 24 c5 58 3c
       0.024776276 0.010992985 -0.1426685 0.013230596

linears.1.weight f4 [64, 32]
000000 eb 6f ec 3c a1 7f 88 be d1 c0 4a be 87 d7 42 be
       0.02886196 -0.26659873 -0.19800116 -0.1902753
000010 f7 1e 50 3e a4 5e a2 bc 31 69 93 bd a1 62 88 3e
       0.20324312 -0.019820519 -0.07197798 0.26637748
000020 5d 0b 2e 3e d4 34 9f 3e 0e b7 96 3d ca 37 a6 3e
       0.16996522 0.31094992 0.07359134 0.3246444
000030 43 9a 68 be 5d 56 f9 be e1 eb 29 3c 17 33 42 be
       -0.22715096 -0.48698702 0.010371179 -0.18964802
000040 c3 8f a4 3e b8 62 94 3c 72 f8 77 bc 1f 29 1e 3d
       0.3214093 0.018113479 -0.015134918 0.038613435
000050 fa 4f c0 be b3 dc 23 bd b4 c5 d1 bd 0b d8 43 3e
       -0.37561017 -0.040005397 -0.10242787 0.19125383
000060 9d 7c b6 3d 2f 0d 2a 3e a8 6b 90 be 55 b6 92 bd
       0.08910487 0.16606592 -0.28207135 -0.07163683
000070 2b 14 e9 3d 92 00 11 3e 0a f6 ad bd 71 94 05 3e
       0.113808 0.14160374 -0.08494194 0.13044907
000080 2d e3 f2 3c 3b fa b4 3d 45 41 d1 bd dd fc 19 3e
       0.029649341 0.0883679 -0.10217527 0.15037866
000090 5f 6f f6 bd 54 bb 02 be fa aa 5b 3e 75 07 a1 3e
       -0.12032961 -0.12766773 0.21451941 0.31451002
0000a0 b8 55 c8 3e 62 13 67 3e e0 28 fa bd 17 53 67 bd
       0.39127898 0.22565988 -0.122148275 -0.056475725
0000b0 ba 6b 85 bd df 8f 0f 3e 7e 10 fe 3d 0f 18 7e bd
       -0.06514688 0.14019726 0.124054894 -0.062034663
0000c0 07 78 64 3e 02 6c 39 be e2 12 68 be 78 4d 77 bd
       0.22311412 -0.18107608 -0.22663453 -0.060376614
0000d0 50 8e a3 bc 90 74 a8 3e d0 45 b2 bd 62 59 0b be
       -0.01996532 0.3290143 -0.08704722 -0.13608316
0000e0 49 65 a7 3d a4 65 09 bd f6 7a a0 3d 33 84 77 bd
       0.081736155 -0.033544198 0.07835953 -0.06042881
0000f0 44 b7 a9 bc 0b b0 ea bc de e4 a3 3e 4a 1c 6e 3e
       -0.02071727 -0.028648397 0.3201055 0.23252979
000100 82 ab 91 bd 9b 94 eb 3d 04 d9 43 3e 85 c5 85 bc
       -0.07112791 0.115029536 0.19125754 -0.016329536
000110 76 32 1e 3d b7 0b f1 bc 91 1c cf bc c2 0e 3c be
       0.038622342 -0.029424531 -0.025282176 -0.18365005
000120 72 6f b0 bd 1d f0 9c be 0f f8 58 be 7a d5 b3 bc
       -0.086150065 -0.30651942 -0.21188377 -0.02195238
000130 3a cb 90 3e 64 c5 e0 3b fd 93 50 bc 4d 70 85 be
       0.2828005 0.0068594683 -0.012730596 -0.2606224
000140 36 92 3b bd b4 32 89 3e 14 40 f1 bd e9 35 b5 bd
       -0.045793734 0.26796496 -0.117798 -0.08848173
000150 85 f7 2d be 17 6d 4a be 04 97 16 3e b1 63 88 bd
       -0.16988952 -0.19768177 0.14706045 -0.066596396
000160 4a 8d 4e bd 58 91 0a 3d ec 37 35 3d 69 85 c3 bd
       -0.050427713 0.033830017 0.044242784 -0.0954693
000170 be b9 92 bd e9 64 84 3e 0e 6e d2 bd 7b 58 7b be
       -0.07164334 0.25858238 -0.102748975 -0.24545471
000180 65 75 95 bc f7 2b 3b 3e f4 67 fb 3d ed 57 b2 bd
       -0.018244455 0.1827849 0.12275687 -0.08708177
000190 74 a7 85 be a0 80 3e be b2 70 79 bc 74 c7 a6 bd
       -0.2610432 -0.18603754 -0.015224623 -0.081435114
0001a0 b7 7c 81 3e 2e df 54 be 14 a9 7e 3d 8f 49 38 bd
       0.25290462 -0.20788261 0.062172964 -0.044992026
0001b0 b7 53 c5 3c 06 f7 36 3e d1 c4 ea 3d 0b 1c cc be
       0.02408777 0.1786767 0.11463321 -0.39865145
0001c0 aa c6 67 bd 5c 2d b0 bd d1 63 f6 3c 31 7d a1 bd
       -0.056585945 -0.086024016 0.030076893 -0.078852065
0001d0 53 c0 aa bd 34 15 0f 3e c6 e6 94 3e c5 f8 aa 3d
       -0.08337464 0.13972932 0.29082316 0.0834823
0001e0 6a 29 3c be e0 54 92 3e de 2a b0 bd 7a 92 aa bd
       -0.18375173 0.2858038 -0.08601926 -0.083287194
0001f0 4c 54 3d 3d 90 5d 92 bd 76 9c 76 be 44 25 d6 bc
       0.04622297 -0.07146752 -0.24083123 -0.026140817
000200 ab 35 fb 3c f8 02 16 3d 41 2c 95 bd 40 4b 85 bd
       0.03066524 0.036623925 -0.072838314 -0.065084934
000210 98 e3 37 3d 7b b6 f0 bd c1 11 12 3e 21 ee 2b 3d
       0.044894785 -0.117535554 0.14264585 0.041975144
000220 c6 e0 f4 bc 46 81 48 be ec 52 b5 be 55 28 2d be
       -0.029892337 -0.19580564 -0.35414827 -0.16909917
000230 27 14 1f be 82 f7 48 be e2 dd cf 3e b2 06 f2 3b
       -0.15535031 -0.19625667 0.4059897 0.007386052
000240 58 d7 07 3e 1e 90 7d 3e da 95 3f bd 86 13 97 3e
       0.13265741 0.24762008 -0.04677377 0.29507083
000250 75 60 1a be e5 e9 02 3d 59 73 7b be 98 41 d2 3c
       -0.15075858 0.03196134 -0.2455572 0.025666043
000260 4d c9 01 bd 68 9f fa 3c fa 48 27 be 71 30 32 3e
       -0.031686116 0.030593589 -0.16336432 0.17401291
000270 5a cc 10 3d 74 d4 21 3d f5 2a 4d bd dd a8 59 3e
       0.035351135 0.03950925 -0.050089795 0.21255822
000280 ca 6e 33 3d df 2c 38 be 88 c2 67 be 29 ee 22 be
       0.04380683 -0.17985867 -0.22632802 -0.15911163
000290 95 a5 df 3e e4 1a 98 be d3 a7 5f bd db 70 8e bd
       0.43681017 -0.29708016 -0.05460341 -0.06955119
0002a0 58 c8 29 3c 30 d5 b6 bd d7 b3 a2 bc 6b 17 13 3e
       0.010362707 -0.08927381 -0.019861145 0.14364402
0002b0 74 eb f4 bd b9 c4 65 3e 58 85 62 3e e5 c9 24 3b
       -0.119589716 0.22438325 0.22121179 0.0025144753
0002c0 3a ac c5 be 5b c9 06 3d a5 9e f6 3d ae 38 95 3e
       -0.3860796 0.03290687 0.12041978 0.29144806
0002d0 43 cd 53 3d 8c 62 80 be 24 ea 38 be 7f 71 02 be
       0.051709425 -0.25075185 -0.18058068 -0.12738608
0002e0 b1 45 79 3e 59 d2 c7 3c 51 e8 b5 3e 06 73 87 3c
       0.24342991 0.024392294 0.35528806 0.01653434
0002f0 81 3c e3 bd 36 e8 77 3e 10 1d 9a be 0f f3 e8 3d
       -0.110955246 0.24209675 -0.30100298 0.11374485
000300 df 99 2e be ac 13 07 3e 52 54 82 3e 77 fc 2c 3e
       -0.17050885 0.13191098 0.25454956 0.16893183
000310 e9 a1 4a be 95 0e 11 3e ff b2 25 bd 62 54 7d be
       -0.19788326 0.14165719 -0.040453907 -0.2473922
000320 bb 78 b6 3e f6 50 b6 be 0c 4c 16 3e be 0e e8 3c
       0.35638985 -0.35608643 0.14677447 0.028327342
000330 00 bb 0b be 17 a6 1d be 7b c8 42 bd 33 d1 84 be
       -0.13645554 -0.1539539 -0.047554474 -0.25940856
000340 29 d6 cb 3d e6 00 0e be d6 f4 88 bd 74 3c f4 3d
       0.09952957 -0.1386753 -0.06687324 0.11925593
000350 cb ff 22 3e db 67 29 be 57 19 6f 3e 6a de 1e bd
       0.1591789 -0.16543524 0.2334951 -0.03878633
000360 5f e9 69 bd 40 76 69 bd 8c b6 1c 3e 0a d6 c5 bd
       -0.057107326 -0.056997538 0.15304011 -0.09659965
000370 dd 2e d4 bd e9 dc ef be fb 37 4a bd fe e1 fe bd
       -0.10360501 -0.4684823 -0.049369793 -0.12445448
000380 b6 75 8d 3d 13 fe 12 be 24 22 09 3e cf 10 7d 3c
       0.06907217 -0.14354734 0.1339193 0.015445902
000390 14 d9 49 3e d0 fc 57 be 92 72 0c 3e a5 6b 4e 3e
       0.19711715 -0.21092534 0.1371558 0.2015825
0003a0 24 65 5e be 1d bb bb 3e a1 a7 f7 3d 83 66 57 bd
       -0.2171827 0.36666194 0.120925196 -0.052587997
0003b0 f5 94 44 be 33 3a e3 3d 9b f0 0f 3e 0d 27 81 3c
       -0.19197448 0.11095085 0.14056627 0.015765691
0003c0 73 da 84 3d 10 88 b4 bd 7a d2 6e 3e c7 03 fe bd
       0.064869784 -0.08815014 0.23322478 -0.12403064
0003d0 36 6b a5 bd d0 28 11 be 97 69 85 3e 78 28 87 bd
       -0.080770895 -0.14175725 0.2605712 -0.06599516
0003e0 7a 52 8f bc 36 06 50 3d 87 ca 4b be 9d c9 c1 bd
       -0.017495383 0.050787173 -0.19901477 -0.09462283
0003f0 56 5a ff 3c 5e 59 99 3e a7 73 b8 be 7f cd b1 3e
       0.031171005 0.29950994 -0.36025736 0.34727094

linears.1.bias f4 [64]
000000 9a 1b ab bc 58 df fa bc 84 67 5f 3d 6c b6 72 3d
       -0.020887185 -0.030624077 0.05454208 0.059256002
000010 64 fb 6e 3c 5f f9 2e 3c 17 ee d1 ba 6b 16 ac 3d
       0.014586303 0.010679572 -0.0016016391 0.084027134
000020 6a fd 8c ba 6c 70 0d 3d a3 29 b7 bc 95 ae 29 3d
       -0.0010756676 0.034531042 -0.022358721 0.04142626
000030 cc 79 97 bc c4 32 cf bc f4 10 9c bc 8f 57 86 3c
       -0.018490694 -0.025292762 -0.019051053 0.016399173
000040 2a b2 c2 bb b6 40 21 bb 3f 1b 44 bc 2e 5c 10 3d
       -0.005941649 -0.002460522 -0.011969387 0.03524416
000050 ba 4b 50 bc 08 5a 06 3c 28 62 64 3c b4 40 0d 3b
       -0.012713367 0.008200176 0.013939418 0.0021553459
000060 2e 4a 76 bc 30 82 79 bb 3a d9 54 bc 67 09 56 3c
       -0.015032334 -0.0038071983 -0.012991244 0.013063765
000070 d3 68 95 3d dd 7c 33 bc c1 b1 e9 bc ff ae 93 bc
       0.07295384 -0.010955063 -0.028527142 -0.01802778
000080 5d 57 c5 bc 23 8b 9c 3d 03 5a f6 bc 9d f7 6d 39
       -0.02408951 0.07643726 -0.030072218 0.00022694324
000090 78 fa f1 3c 1b e0 93 bc 28 7a 2e 3b df 9d a8 3c
       0.029538378 -0.018051198 0.0026623104 0.020583091
0000a0 c9 a8 78 3c 2c 55 5a bc 87 f6 f6 bc d2 74 cf bb
       0.01517696 -0.013325971 -0.03014685 -0.0063310647
0000b0 30 84 1f 3e b4 79 b8 bb 85 34 93 3c 82 81 65 3c
       0.1557777 -0.0056297425 0.01796938 0.014007928
0000c0 9d 7e 0d bd b1 6d 72 3d 99 93 04 be 5a 1c 57 bc
       -0.034544576 0.05918664 -0.12946929 -0.013129318
0000d0 ad 28 91 ba 64 fe 11 3d ba d3 90 3c 63 9c a3 3c
       -0.0011074744 0.035642996 0.017679084 0.019972032
0000e0 8c e2 f5 bc f1 de 20 bc 1b 7a 2d bc 59 89 6a 3c
       -0.030015253 -0.009818778 -0.010588194 0.014314973
0000f0 b2 a9 8b ba 0c 06 1a bc fa 75 28 bc 7d 02 b2 bc
       -0.0010655432 -0.009400856 -0.010282034 -0.021729702

linears.2.weight f4 [64, 64]
000000 d4 3d 1c be 54 27 bc 3c f2 a1 36 bd 83 08 e1 3d
       -0.1525796 0.022967972 -0.044588037 0.109879516
000010 cb 12 1d be 09 f5 4a 3d 50 42 66 3d 5f e7 a9 3d
       -0.153392 0.04955009 0.056215584 0.08296084
000020 82 f2 a2 bb b2 73 1b 3d 66 6c 9f bc 60 46 0f 3e
       -0.004972757 0.037952133 -0.019460868 0.1399169
000030 c2 bc b5 3c 4e 63 18 3e da fe 25 bd d3 26 bd 3d
       0.022184733 0.14881632 -0.04052625 0.09235921
000040 b9 34 7c bc 92 77 8d 3c e1 ae a1 3e 57 fe 2d 3d
       -0.015393429 0.01726893 0.31578735 0.042478886
000050 70 7a 6d 3e 82 68 82 bc 2f f5 27 3d d1 e0 bf bd
       0.23191237 -0.015918974 0.04100531 -0.09369052
000060 13 f8 0e 3e 6b f3 1e 3e 73 0c 9f bd 3f 58 c1 bd
       0.1396182 0.15522544 -0.077660464 -0.0944066
000070 69 13 78 bd a9 3c 36 be 21 91 6e 3b fb 96 0f 3d
       -0.060565386 -0.17796578 0.0036402422 0.035056096
000080 dd ba 56 3e 97 2b a8 3d b4 3f 5f 3e dc e0 ee bd
       0.2096972 0.08211439 0.21801645 -0.11663982
000090 26 00 40 bd 87 e1 da 3d 51 c4 6c bd 92 4e 06 be
       -0.04687514 0.10687547 -0.05780441 -0.1311591
0000a0 73 8d e3 3c 6b 6a 56 3e ec a6 d6 bc 4b 15 9c 3b
       0.02777741 0.20939033 -0.026202641 0.0047632805
0000b0 26 08 96 3c e6 84 8d bc f0 d6 b8 3d f6 f2 b4 bd
       0.018314432 -0.017275285 0.09025371 -0.088354036
0000c0 97 2c 8f be 07 8e 84 be a8 46 45 be 7e 24 58 bd
       -0.27963707 -0.25889608 -0.19265234 -0.052769177
0000d0 e9 3f 88 be c1 02 36 be a1 d9 7a be 62 4c 0b 3e
       -0.2661126 -0.17774488 -0.24497081 0.13603356
0000e0 0e 2f 78 bd 6b f4 7f 3d 5e 90 3a 3d 66 40 61 3e
       -0.06059175 0.062488955 0.045547836 0.21997222
0000f0 74 7b 4d bd a8 cb 20 3e 5e 94 40 be 78 3f 12 be
       -0.050166562 0.15702689 -0.18806598 -0.14282024
000100 3e 13 82 be 28 72 41 bd e2 e7 ba 3d 16 26 86 bd
       -0.25405306 -0.04722801 0.091262594 -0.06550233
000110 64 5a 04 3b a8 c8 a9 bd 44 c4 f4 bc 99 b4 a2 3e
       0.0020195479 -0.08290225 -0.029878743 0.3177841
000120 e8 db 4c 3d ec ea 3a be d4 08 f2 bd 2c 96 56 3d
       0.050014406 -0.18253678 -0.1181809 0.05238931
000130 cb e1 06 be fb db 50 be 53 9b 09 bc cd 08 d7 3c
       -0.1317207 -0.20396416 -0.008398849 0.026249314
000140 eb 0b 56 3e b8 0d 68 bd 7a 4e 30 be f6 1b 99 3e
       0.20902984 -0.05665371 -0.17217436 0.29904145
000150 75 c2 06 be f0 c2 a2 3d 71 50 8b 3d 4d 1f 0a 3e
       -0.13160117 0.079473376 0.06802452 0.13488503
000160 77 cd 12 be 53 52 d9 bd 31 53 91 3d 5b f6 80 be
       -0.14336191 -0.10611405 0.070959456 -0.25187954
000170 d4 12 cc bc be 88 4c 3e b8 53 85 bd 1a 8f b6 3d
       -0.024911322 0.19974038 -0.06510109 0.08914013
000180 1a b8 69 be 63 4d e7 bd 58 26 5f be e9 f3 8f 3c
       -0.22824135 -0.11294057 -0.2179197 0.01757236
000190 4d 36 a1 be 95 83 41 be d8 f1 78 3c b0 98 2d 3e
       -0.3148674 -0.18897851 0.015194379 0.16952777
0001a0 f6 dd 0a be 37 ce 32 3d 01 cd d6 3d 2a 9e 4f 3d
       -0.13561234 0.043653693 0.1048832 0.050687946
0001b0 28 1a a7 bb 0a f6 07 3e d9 3c e9 bb 89 91 ac 3d
       -0.0050995536 0.1327745 -0.0071178493 0.08426196
0001c0 a2 17 23 3e 4b 97 c3 3d b8 c7 eb bd 9d ae fe bd
       0.15926984 0.09550341 -0.11512703 -0.124356486
0001d0 b5 ab 50 3d d9 09 e9 bc 92 d0 00 bd 80 63 56 3e
       0.050945003 -0.028447079 -0.03144891 0.20936394
0001e0 e8 3e 22 3e 16 ad 0c 3e 55 bf 0a 3c cd 67 52 3d
       0.1584431 0.13737902 0.008468469 0.051368523
0001f0 33 b6 5a bc f0 3c a9 bd 6e 6a 4c be 7f 08 62 b9
       -0.013349104 -0.08263576 -0.19962475 -0.00021556205
000200 7f 7f 10 be b2 c4 70 be bd 42 6e be 61 75 85 3d
       -0.14111136 -0.23512533 -0.23267646 0.06516529
000210 aa a9 73 be 9d 48 17 3e 62 77 ca 3c a9 fe a5 bc
       -0.2379519 0.14773794 0.02471513 -0.020263033
000220 ca 8a c1 3d 7a d4 bb bd 9f c1 56 be cc 11 34 be
       0.094503 -0.09171386 -0.20972298 -0.17584914
000230 fe 64 0f bd 67 f2 e5 bd 13 5a 8a 3e 2b 16 a2 bd
       -0.035008423 -0.11227875 0.27021846 -0.079143845
000240 c8 a9 9b be a0 2c 94 bc 7e 0e b5 3d b9 04 df 3d
       -0.3040297 -0.018087685 0.08840655 0.10889573
000250 7b f9 32 be 7a 3f 89 3d 02 d2 7c bd 72 98 02 3e
       -0.17477982 0.0670156 -0.061723717 0.12753466
000260 5b 61 0b 3e 9b c6 16 bd a7 d4 ed 3d cb 82 fc 3d
       0.13611357 -0.0368105 0.11612826 0.12329634
000270 80 df 07 3e 6d ba 0f 3e a4 29 b8 bd 86 1b 26 3e
       0.13268852 0.1403596 -0.08992317 0.16221437
000280 9a da c7 bd 7d 95 39 3e ca ed 9b 3d c2 5f 31 be
       -0.09758492 0.18123432 0.07613714 -0.17321685
000290 54 67 1e be 4d 41 d8 3c e3 17 93 bd 98 61 8c 3d
       -0.15469104 0.026398325 -0.071822904 0.06854552
0002a0 2a ee ea bc e2 ec b2 bd e0 a4 00 3e fe b6 46 bd
       -0.028678019 -0.08736588 0.12562895 -0.04851436
0002b0 f8 e8 a6 3d 02 00 e1 3d 55 f1 1f 3d 00 79 d0 bd
       0.08149904 0.109863296 0.03904851 -0.10179329
0002c0 69 7f 90 bc d0 c2 1d 3e be a5 00 be 41 4b ef 3d
       -0.017638879 0.15406346 -0.12563226 0.116842754
0002d0 b0 95 e0 bd 52 f5 05 3e c2 ff 2b be ae 95 16 3d
       -0.109660506 0.13081864 -0.16796783 0.03676384
0002e0 34 88 26 bd 9c 26 3c 3d 46 2a 46 be f6 e8 ac bd
       -0.040657237 0.04593526 -0.19352064 -0.08442871
0002f0 74 4f e6 3d 13 41 1f bd 10 df 62 3d 85 f1 e1 bd
       0.11245623 -0.03888042 0.05538851 -0.11032394
000300 98 15 98 bd 55 6d 3c 3e a4 12 5d 3e f2 ba ab be
       -0.07425994 0.18401082 0.21589142 -0.33541065
000310 dc 6f ef bd e4 b0 38 be f2 40 1c be ec 50 3f be
       -0.11691257 -0.18036228 -0.1525915 -0.18683213
000320 07 6f 23 be d4 91 3b 3d 9d 9f 45 ba 83 99 3a bc
       -0.15960322 0.04579337 -0.0007538738 -0.011389139
000330 b9 4f 38 3c a0 84 5b 3e 62 06 84 bd f9 7f 79 bd
       0.011249476 0.21437311 -0.0644653 -0.06091306
000340 7b e5 f1 3e be a8 96 3d 39 50 ae 3e 20 1b 67 3d
       0.47245392 0.07356404 0.3404558 0.056422353
000350 64 25 0c 3c 49 d1 0f be d0 6d 2b be a5 d1 28 bd
       0.0085538365 -0.1404468 -0.16741109 -0.041215558
000360 55 5a 9f 3d 39 fd 92 bb 92 cd 21 3d d8 06 32 be
       0.07780901 -0.004485753 0.039502688 -0.17385423
000370 25 d0 da 3d f6 dc a2 bd da f4 54 3e 2b 01 89 3e
       0.10684232 -0.07952301 0.20796528 0.26758704
000380 54 56 91 3d 2f 40 0e be 55 2f 8b 3d b7 42 cb bc
       0.07096544 -0.13891672 0.06796137 -0.024812086
000390 84 8a 81 bd 9c 5c 34 be eb fb 17 3c 2a 11 36 be
       -0.06325248 -0.17613453 0.0092763705 -0.17779985
0003a0 ef 1c f4 3d 6c 9b 97 3d 55 57 d8 3d 1c 1d d0 bd
       0.11919581 0.07402691 0.10563532 -0.10161802
0003b0 8b 70 f3 bd ca 30 43 3d 5c 17 91 bd 25 9b a4 bd
       -0.118867 0.04765395 -0.070845336 -0.08037404
0003c0 39 0f ab bd ca 64 9e bd ac ba 25 be 7c b9 2a 3d
       -0.08352513 -0.07734068 -0.16184491 0.041680798
0003d0 6c 2a 1c bc 6e 87 31 be b9 55 d4 3c 0a c4 ac bd
       -0.009531599 -0.17336819 0.025919782 -0.08435829
0003e0 7f f1 e2 3d ae b8 4b be ae c0 47 3e 4a 53 4f 3d
       0.11081218 -0.19894668 0.19507095 0.05061654
0003f0 56 1e 41 3e 51 62 92 3e 70 54 26 bd 4a ae ea 3d
       0.18859228 0.28590634 -0.04060787 0.11459024

linears.2.bias f4 [64]
000000 1b ef a0 3c 80 c1 c0 3c b9 82 c2 3c 98 e5 32 bd
       0.019645264 0.023529768 0.023743974 -0.04367599
000010 0b c6 bd 3d e7 7d 3b bd 15 39 ac bd 5f 73 5c 3b
       0.09266289 -0.045774367 -0.08409325 0.0033638102
000020 7e a9 a5 bc 4b 87 d0 3c a2 aa 47 3b 6f 5b 7a bc
       -0.020222422 0.025455138 0.0030466695 -0.0152805885
000030 37 cc fd bc 82 4a 01 3d 25 66 ba 3d 7f 63 98 3c
       -0.030981166 0.031565197 0.09101514 0.018602131
000040 d0 82 02 bd cd b6 f4 bc 4f df 26 bd 15 01 d3 3a
       -0.031863034 -0.029872322 -0.040740307 0.0016098345
000050 fe 24 16 3d 9f 78 68 bc 27 1a 0a bd e9 69 e0 3b
       0.036656372 -0.014188915 -0.033716347 0.006848563
000060 ee 46 49 3c 6a bc fa 3c bf fc 54 bc f5 1b e4 3b
       0.012284977 0.030607421 -0.0129997125 0.0069613406
000070 2b 30 f7 39 6d 5c 58 3d a6 6d 53 3c a7 b0 02 38
       0.000471474 0.05282252 0.01290456 3.1158936e-05
000080 36 e4 ab bc 86 1b 4f bd 55 e0 b2 ba c5 bc 8e bb
       -0.020982843 -0.050563358 -0.0013647178 -0.004355999
000090 e2 c3 af bb 2e 75 00 bc 3e c3 37 3b 6b e1 a6 bc
       -0.005363927 -0.007840438 0.0028039957 -0.02037116
0000a0 bf d7 8e bc e1 90 a8 bb 4b b3 69 3c da fc 48 3d
       -0.01743686 -0.005144224 0.014263938 0.049069263
0000b0 0c 66 ab bd b5 d0 98 bc d5 58 ab 3c 20 1a 5f bc
       -0.08369073 -0.018654207 0.020916382 -0.0136170685
0000c0 ee 33 46 3c 16 9a 46 3d 54 3a ba bc da b8 81 3d
       0.012097342 0.04848679 -0.022732891 0.06334086
0000d0 f0 90 d5 bc 33 48 91 3c 3a 0b 9f 3d 14 71 82 3d
       -0.026070088 0.017734623 0.07765813 0.06369224
0000e0 23 ed 8b 3d 12 46 4f 3c db ec 00 bd 9d 01 70 bc
       0.068323396 0.012650983 -0.031475883 -0.014648822
0000f0 61 4a 1b 3d 2d b7 03 3d f3 e5 42 3d 99 8c 10 3c
       0.03791273 0.032157112 0.047582578 0.008822584

linears.3.weight f4 [32, 64]
000000 68 38 d5 be c4 30 9d bd 55 bb 1c be b4 f8 79 3e
       -0.41644597 -0.07675317 -0.15305836 0.24411279
000010 93 4b 93 3d 83 13 05 3e 85 74 7d 3e e3 03 56 3d
       0.07192149 0.12995724 0.2475148 0.0522498
000020 e6 22 ae 3e 22 0c 57 bd 17 6f 02 3d c8 96 8e 3d
       0.34011 -0.052501805 0.031844225 0.06962353
000030 8e d7 e3 3d 9a af 95 be ea f5 90 be be e6 57 3b
       0.11125098 -0.29235536 -0.28312618 0.003294393
000040 7c f9 6a 3d fd 93 3d 3e b9 fe 09 be 9c c2 8b bc
       0.057366833 0.18513484 -0.13476075 -0.01706057
000050 9c 81 fa 3c 5c be 07 3e e1 c4 88 3e 3e 93 73 3d
       0.03057938 0.1325621 0.26712707 0.059466593
000060 59 d1 1b be c9 7c ad 3d 81 20 22 be ad 6d 74 be
       -0.15216579 0.084710665 -0.15832712 -0.23869963
000070 6c ae f4 bc bd 9f fe 3d 0c 54 56 3d b3 2d 0c 3e
       -0.029868327 0.124328114 0.052326247 0.13689308
000080 e3 73 b0 bd e7 22 f1 3c 66 6a 1a 3e 80 8d d0 3d
       -0.08615854 0.029435588 0.1507965 0.10183239
000090 33 13 3f bd fe e0 8e 3d 6a 64 48 3e ac 49 ee bd
       -0.04664917 0.069765076 0.19569555 -0.116351455
0000a0 38 b5 06 3e 0f c2 3a bd 1a cc 1c bd 24 48 54 3e
       0.13155067 -0.045595225 -0.038280584 0.20730644
0000b0 8a cf 35 bc 86 e7 fd bd 7f 51 83 be c2 6b 6e be
       -0.011096844 -0.12397675 -0.25648114 -0.23283294
0000c0 10 6c 16 3e fa 9c 02 3e 4a 40 c8 3d 95 c8 47 3e
       0.1468966 0.12755194 0.09777887 0.1951011
0000d0 bd eb 8f 3d 94 17 7a 3e a3 3b b5 be f6 df fd 3d
       0.070273854 0.24423057 -0.35397062 0.12396233
0000e0 8c ec 81 bd a3 29 a7 b9 6f df 81 3e 53 e5 2d 3e
       -0.06343946 -0.00031883744 0.2536578 0.16982011
0000f0 6f ff 0e be b8 80 54 3d 13 64 aa 3d 33 88 35 be
       -0.13964628 0.05188057 0.08319869 -0.17727737
000100 67 7c bf 3e dd ad 40 3e da d7 2e 3e 4e 5e 35 3d
       0.373996 0.18816324 0.17074528 0.04427939
000110 79 93 bb 3e 9a 37 f1 be 23 5e 7d be 32 38 37 3e
       0.3663595 -0.47112733 -0.24742942 0.1789253
000120 59 10 0a 3e ad 99 2f 3d 98 f6 39 3e cb 69 04 3f
       0.13482799 0.042871166 0.18160474 0.5172393
000130 d7 8d 2e be dd dd 55 be 1a cf 7c 3e 2d cb a0 3d
       -0.17046295 -0.20885415 0.24688378 0.07851253
000140 58 06 a4 3d 6a a9 7b 38 06 07 00 3d 4c 89 97 3e
       0.080090225 6.0000842e-05 0.031256698 0.29596937
000150 ef 0f 98 3e 5f b5 53 3e 15 7e c0 3e 2d a4 8f be
       0.29699656 0.20674656 0.37596193 -0.28054944
000160 78 4f 3d bd f7 51 19 3e fa d6 d7 3d d7 55 e9 be
       -0.046218365 0.14972673 0.105390504 -0.45573303
000170 71 46 06 bd e9 38 b0 3a bf 27 75 be 50 de 9f be
       -0.032782022 0.0013444695 -0.23940943 -0.31224298
000180 04 b9 5d 3e 6d 2b fd bd 95 f9 35 3d 68 e4 75 be
       0.21652609 -0.123617984 0.044427473 -0.24012911
000190 43 42 f6 3e ec c8 0e 3f 3d 27 9f bd 69 dc 3a 3e
       0.4809743 0.5577533 -0.07771156 0.18248142
0001a0 d7 37 d9 3d d3 cb b2 be e1 6c 80 be 90 09 3d be
       0.10606354 -0.3492113 -0.25083068 -0.18460679
0001b0 ec 10 d7 3d 40 61 9e 3e 4d 64 9e 3d fd d1 83 3e
       0.105012745 0.3093357 0.077339746 0.25746146
0001c0 0e b5 3e bd 0e c6 a7 bd 06 7b 93 3e 7f 54 9e be
       -0.046559386 -0.08192073 0.28804797 -0.3092384
0001d0 e8 68 09 3d 59 bb 45 3d 46 4e 16 3e bd 6d 20 bd
       0.033547312 0.04827437 0.14678296 -0.039167155
0001e0 1f a9 1e 3e 4a a6 5b bd 5d ba 19 bf 1a 23 1c 3e
       0.15494202 -0.053625382 -0.6004999 0.15247765
0001f0 3b 5f 02 be 1b d8 b9 be 9b 5a cd 3e ef 42 b6 3e
       -0.1273164 -0.36297688 0.4010819 0.3559794
000200 d5 fe 61 3e bb 43 46 be 20 2e 3d 3e d0 2f 91 3d
       0.22069867 -0.19361775 0.18474627 0.07089198
000210 f7 98 56 3d 55 77 88 3e 90 94 a3 bd f1 29 8e bd
       0.052391972 0.26653543 -0.079873204 -0.069415934
000220 f8 1d 50 be e9 4a fa bd ec 94 76 be e7 3c 35 3d
       -0.20323932 -0.12221319 -0.24080247 0.044247534
000230 e1 eb 51 bb 86 a7 40 be e7 4a 67 bd 4f e9 20 be
       -0.0032031464 -0.18813905 -0.056467917 -0.15714
000240 77 eb 0d 3e d8 17 30 3e be 5f 6c 3e b7 fd 3c 3d
       0.13859354 0.17196596 0.23083398 0.0461404
000250 7d 7a e4 bd a6 80 31 3e b6 d4 ca 3d 67 54 fb 3d
       -0.11156175 0.17334232 0.09903853 0.12271958
000260 89 37 71 bd 2c a7 af bd fc 88 52 3d e6 14 49 bd
       -0.058890853 -0.085768074 0.05140017 -0.049092196
000270 f2 8c 2d be e3 f5 00 be 67 84 4b 3d c0 b3 52 bc
       -0.16948298 -0.12593798 0.049686816 -0.012860239
000280 ab 09 62 3e 6e 4a ea bc 68 a9 9e 3e 5a 14 f2 3d
       0.22074 -0.028599944 0.30988622 0.11820288
000290 0c be 5c 3d cc fa c6 bd a9 dc 00 bc 95 e0 0c 3e
       0.05389218 -0.097158045 -0.0078651095 0.13757546
0002a0 10 25 8a be 47 a7 65 be de 38 2e 3e e9 5c ba be
       -0.269814 -0.22427092 0.1701388 -0.3639901
0002b0 1c 13 16 bd 6d f1 80 3e 13 26 c4 be 00 f3 e7 bd
       -0.036639318 0.25184193 -0.38310298 -0.113256454
0002c0 e9 f3 4b 3e 87 53 bc 3d 8f f9 77 3d 0b 20 a7 bd
       0.19917263 0.09195619 0.060540732 -0.081604086
0002d0 9e 97 6e 3e ba 28 29 bc 0f 6e af be 23 80 cf 3b
       0.23300025 -0.010324651 -0.34263656 0.0063324138
0002e0 1a 85 34 3d 99 3b 02 be b7 ff 3a 3b 21 0e 8e 3d
       0.044072248 -0.12718047 0.0028533766 0.069362886
0002f0 ed f6 2e be cd 3c 92 3e 78 28 b7 bd 09 3a 44 3e
       -0.17086382 0.28562012 -0.08943266 0.19162764
000300 55 ef 89 be b9 dc 57 3e c0 0f db 3d 7f a5 92 bd
       -0.26940408 0.21080293 0.106963634 -0.07160472
000310 d6 3a a6 3d f0 71 54 be 77 86 82 3e f0 f3 ae 3d
       0.08116691 -0.20746589 0.25493214 0.08542621
000320 20 71 15 3d 65 d7 cc be df 8e c4 bd 50 24 ec bd
       0.036484838 -0.40008083 -0.09597563 -0.115303636
000330 21 5d 80 3c a5 ae fc 3d ff be 89 3b d8 86 50 be
       0.015669407 0.12337998 0.0042036767 -0.20363939
000340 37 c2 1f 3e da 73 f2 bd a9 18 40 3e 1c 8f 78 3e
       0.15601431 -0.11838503 0.18759407 0.24273342
000350 5b e8 20 be b5 00 ae bd 6e f8 a1 3e b9 13 71 bd
       -0.15713637 -0.084962286 0.3163485 -0.0588567
000360 76 39 3f be a6 eb af bd 54 38 10 3e b2 f3 0d 3e
       -0.18674263 -0.08589868 0.14083987 0.13862494
000370 d2 68 b3 3c 17 23 0f be b2 72 1a be 85 cc d6 3d
       0.021900568 -0.1397823 -0.15082815 0.10488228
000380 04 1d 84 3d 55 90 88 3e 65 f4 ac 3d e1 b0 9c be
       0.06450847 0.26672617 0.08445052 -0.30603698
000390 df 86 47 b9 6d 3e 43 be 5c b5 ef 3d 54 a5 1b 3c
       -0.00019028362 -0.19066782 0.117045134 0.0094998665
0003a0 ec 49 b5 3d fb d5 18 be 7f 29 c0 bd fc 33 ff bd
       0.0885199 -0.14925377 -0.09382915 -0.12461087
0003b0 82 2d 84 be 6c 61 a1 3e fa c3 45 be cd 86 ba 3d
       -0.2581597 0.3151964 -0.1931304 0.091077425
0003c0 73 ed a9 bd f7 b9 57 be c1 4a 37 3e 8f a7 0d be
       -0.08297243 -0.21067034 0.1789961 -0.1383345
0003d0 e8 3f 6c 3e 94 4e b4 bd 80 0a 4f be 47 9f 13 be
       0.23071253 -0.0880405 -0.20218849 -0.14416228
0003e0 9b c4 4a 3e ed 73 06 3e ce cd c0 3e d1 e5 44 bd
       0.19801562 0.1313016 0.37657017 -0.048070733
0003f0 f8 8f b6 3b 76 9a 51 3d 02 d4 37 bd de 6b 38 3d
       0.0055713616 0.051172696 -0.04487992 0.045024745

linears.3.bias f4 [32]
000000 c0 82 11 bd 09 9c 72 3d e2 76 c9 bc 4c 75 12 bd
       -0.035525084 0.059230838 -0.02459282 -0.035756394
000010 dd 17 1a bd a3 2d cb bd 6f a5 87 3d 8b 11 45 3d
       -0.037620414 -0.09920814 0.06623351 0.048112433
000020 33 e5 ba 3b 78 a6 a3 3c 7a 0a 30 bd 12 6f 43 bd
       0.005703592 0.01997684 -0.04297874 -0.047713347
000030 0d f2 b2 bd 82 a4 68 ba e1 71 86 bc 35 e1 01 3d
       -0.08737574 -0.0008874611 -0.016411724 0.031708915
000040 90 2d 3c bb ac cc 9c bc fa 83 66 3d 7e 4e 76 bb
       -0.002871368 -0.019140564 0.056278206 -0.0037583406
000050 65 bb e8 bc 78 f8 da bc f5 61 3b bd 68 93 39 3d
       -0.02840967 -0.026729807 -0.045747716 0.045306593
000060 98 9d 00 3c 4b 4a 73 bd dd 37 39 bd fe 2a 85 bd
       0.007850073 -0.059397023 -0.04521929 -0.06502341
000070 81 5d 8d bd 57 b3 09 bd 8d 04 48 bc 28 d7 ec ba
       -0.069026 -0.033618297 -0.012208116 -0.0018069493

linears.4.weight f4 [4, 32]
000000 7f 49 5f 3e 68 7e 29 be 17 a9 d7 bd a6 b2 0b 3e
       0.2180538 -0.16552126 -0.10530298 0.13642368
000010 dd ad 33 bd 7b 8c d9 bb a9 d2 cc bc 91 ba 1e 3e
       -0.04386698 -0.006639061 -0.025002794 0.15500857
000020 33 1d c6 be 92 46 e8 3e 2e c8 36 3c 9f ea 84 3d
       -0.38694152 0.4536634 0.011156125 0.06490063
000030 cf 33 ab 39 38 3a 6e 3e 39 cb 55 bf 0c 48 46 3e
       0.00032654262 0.23264396 -0.8351322 0.19363421
000040 97 80 b5 3e 91 10 c9 3e ef a3 38 3d 89 1e 33 3e
       0.3544967 0.39270452 0.045078214 0.17492117
000050 67 c6 d8 bd 70 86 93 bd 70 b3 7b 3e 05 03 e7 bd
       -0.10584717 -0.07203376 0.24580169 -0.11279873
000060 e6 23 e8 be 1e 4c 8a bd 3b d4 97 3c f9 51 33 3e
       -0.45339888 -0.067527995 0.018533817 0.17511739
000070 e4 54 21 3e 98 97 a0 3e 93 36 1f bf 3c d7 56 3d
       0.1575504 0.31365657 -0.6219265 0.052451357
000080 4c b5 6c be c3 b0 61 3e f0 ca 52 bf a5 63 0a bf
       -0.23116034 0.22040085 -0.8234091 -0.54058295
000090 92 8f 2e bf eb 5d 5a bf c5 2b d7 3e 70 66 4d 3f
       -0.6818782 -0.8529956 0.4202558 0.8023443
0000a0 6a 73 82 3e 62 9c 82 3e b4 5f 07 bf a8 97 dd be
       0.2547868 0.25509936 -0.52880406 -0.43279767
0000b0 5a 2f 32 bf da d8 29 3e 2f 35 47 bf a6 8e 61 3f
       -0.696035 0.16586629 -0.77815527 0.8810829
0000c0 eb 23 8a 3e 97 c3 91 be a4 ea 7a 3f 49 db 28 3e
       0.26980528 -0.28469536 0.98014283 0.164899
0000d0 59 11 3b bf 2a a3 25 bf 6d 71 41 bf e5 6b 1b 3f
       -0.73073345 -0.64702094 -0.755637 0.6071151
0000e0 d9 1e 08 3d 5d 82 40 bf b6 d0 df be 7f 8f 67 bf
       0.033232544 -0.7519892 -0.4371392 -0.9045333
0000f0 2c 23 07 3f 38 08 69 be 7c 05 17 bf 1e 3f 2b be
       0.52788043 -0.22757041 -0.58992743 -0.16723296
000100 47 3e 10 3f 23 66 ff 3e 90 2e 7d be 6a c8 18 bf
       0.5634503 0.49882612 -0.24724793 -0.5968081
000110 3b 35 d2 bd f0 fb 8d 3e 7c 17 05 3f 4b 90 8e be
       -0.10264059 0.27731276 0.5198896 -0.27844462
000120 24 92 d9 bd 6a d3 b2 3e 45 8d a6 be 91 94 8c be
       -0.10623577 0.3492692 -0.32529655 -0.27457097
000130 82 3f 20 3e 01 bc da 3e e9 ed 48 3e 41 2e de bc
       0.15649226 0.4272156 0.19622006 -0.027121665
000140 7b c4 fc 3d 3c a9 27 3f fe 44 07 be 7b 9d 16 3e
       0.12342163 0.65492606 -0.13209912 0.14708512
000150 11 ec b1 3e ab 4e 09 bf 2e 9d ec be 2e d6 6c bd
       0.34750417 -0.5363566 -0.4621367 -0.057821445
000160 29 ed 2e 3f b3 6a b7 be f1 67 06 be cf 2a 02 bf
       0.6833063 -0.35823593 -0.13125588 -0.5084657
000170 4d b4 79 bd bd f7 9b 3e ef bc 97 be db 4b 1d 3e
       -0.060962964 0.30462447 -0.29636332 0.15360968
000180 15 85 05 bf 40 bb 31 3f b6 5f 42 bf 56 94 d5 be
       -0.5215619 0.69426346 -0.75927293 -0.41714734
000190 64 3c 0f bf 31 47 49 bf d0 b6 8b 3f 47 ba 10 3f
       -0.55951524 -0.78624254 1.0915165 0.56534237
0001a0 6f b4 45 3f d1 2a 26 3f e2 49 89 bf 7a 68 3e bf
       0.77228445 0.6490908 -1.0725672 -0.7437817
0001b0 7b 38 11 bf e7 26 8f 3e 83 90 06 bf 95 8f 84 3f
       -0.5672681 0.27959368 -0.5256426 1.0356318
0001c0 8f 90 c2 3e c7 21 30 be 2f 20 1d 3f a2 f4 d0 be
       0.38000914 -0.17200385 0.61377233 -0.4081164
0001d0 95 06 68 bf ed 66 73 bf b8 08 38 bf f1 1d a8 3d
       -0.90635043 -0.9507893 -0.71888304 0.08208836
0001e0 28 7c 5b bf fb 26 a3 bf 6f 29 60 bf 31 cf 3d bf
       -0.8573632 -1.2746271 -0.8756322 -0.74144274
0001f0 08 01 80 3f 7e d7 5f be a2 fe f8 bd 20 be 2a 3f
       1.0000315 -0.21859547 -0.12157942 0.6669636

linears.4.bias f4 [4]
000000 c3 73 56 bc 36 eb d0 3e 0e 29 a7 3c 89 e1 2a 3f
       -0.013089123 0.40804452 0.020405319 0.6675039
