Iterations/Test model/epoch_1960.pt (torch, 37739 bytes, 10 tensors)

linears.0.weight f4 [32, 2]
000000 fa 4f a4 3e 5c 0f 82 bd b3 2f 8e 3e 59 e9 92 be
       0.32092267 -0.06350586 0.27770767 -0.28693655
000010 3a 54 77 3e 31 38 a8 be b7 98 cc bd 62 15 f1 be
       0.24153224 -0.3285537 -0.099900655 -0.47086626
000020 20 54 35 bd 42 4d 88 3e be eb 3f 3d 17 28 f2 be
       -0.04426968 0.26621443 0.04685568 -0.4729621
000030 9a 47 35 3e 56 84 06 3f 7e 63 2a 3e 97 b0 45 3e
       0.17703095 0.5254568 0.16639516 0.19305645
000040 55 77 b9 3e cb 3f 3a bd 8f 23 69 be a7 53 fc bd
       0.36223856 -0.045470994 -0.22767471 -0.12320643
000050 d7 86 e6 bd a2 be c8 be 03 e3 69 be 97 55 46 3e
       -0.112561874 -0.3920794 -0.22840504 0.19368587
000060 f5 50 dc bd 52 16 07 be 08 39 29 3e 57 5e 51 be
       -0.10757629 -0.13192108 0.16525662 -0.20446144
000070 b2 88 fd bd 68 40 23 3f c9 79 68 bd f8 c3 47 be
       -0.12379588 0.6377015 -0.05675677 -0.1950835
000080 28 24 60 3e 49 4c ff 3e ef df 92 3e ee ca 95 3d
       0.21888793 0.49862888 0.28686473 0.073140964
000090 6c 0a de bd 28 2d 44 3e 2b c5 29 be b2 7e 29 be
       -0.108418316 0.1915785 -0.1657912 -0.16552237
0000a0 4e 78 e6 bd 09 6b ff bd 4d 0d 8c 3e c4 e1 2a 3d
       -0.11253415 -0.12471587 0.27353898 0.041719213
0000b0 63 85 23 3f a0 ee a6 3c 55 9e 84 3e ca fe 5b be
       0.63875407 0.020377457 0.25902048 -0.21483913
0000c0 28 34 0d bf c0 fb 4f 3e 3e 1a a5 3e 5e 10 e4 bd
       -0.5515771 0.20310879 0.32246584 -0.11135934
0000d0 a5 d7 36 be b1 66 bc bd 2d a8 33 3d 8a e3 89 3e
       -0.178557 -0.09199274 0.043861557 0.2693141
0000e0 fe a4 9f 3d 02 94 31 be 32 7c e7 bc 04 b1 a4 3e
       0.07795142 -0.17341617 -0.028257463 0.32166302
0000f0 71 2b 1f 3e c9 32 46 be 74 32 3b bd 18 f9 1f 3f
       0.15543915 -0.1935531 -0.045702413 0.6248946

linears.0.bias f4 [32]
000000 c8 93 0f 3b 26 9a 83 3c 5f 69 0f 3c f6 a9 f8 3b
       0.0021908153 0.016064715 0.00875315 0.0075886203
000010 27 be 35 3c da d7 ea bb ed ac 84 3a 59 0c 10 bd
       0.011092699 -0.007166845 0.0010122337 -0.035168026
000020 3f 2c 93 bc 26 8f 58 bc 47 66 db 39 36 28 1d bd
       -0.017965434 -0.013217723 0.00041847138 -0.038368426
000030 ad 11 29 3d a7 e3 e7 bc 38 53 3f 3c 59 b8 17 bc
       0.041276623 -0.028306795 0.011677556 -0.0092602605
000040 94 d8 b0 bb ec d0 92 b8 54 77 a4 3c c3 29 5f 3c
       -0.005396912 -7.000737e-05 0.020076431 0.013620797
000050 bd 1f 3c 3c 08 72 a3 bc dd 66 b3 3d fb 5e 94 3b
       0.011482176 -0.019951835 0.08759854 0.004527924
000060 8a e1 61 bd 69 f8 5d 3c 62 da 06 bc d7 e9 15 3c
       -0.05514673 0.013547995 -0.008230777 0.00914999
000070 5a 8b aa 3c 1b f7 eb 3b 8e 47 18 be e9 3e 20 3c
       0.020818401 0.007201088 -0.14871046 0.009780624

linears.1.weight f4 [64, 32]
000000 de 49 e6 3c b6 fe 86 be 66 52 46 be 39 9e 2f be
       0.028111394 -0.26366204 -0.1936737 -0.17150201
000010 e6 0c 33 3e 67 51 b1 3c da d8 ab bd 9d 6d 85 3e
       0.17485389 0.021645261 -0.083909705 0.2606019
000020 7d db 2c 3e 8f d9 a0 3e 4a 10 b3 3d 41 49 a5 3e
       0.16880603 0.31415984 0.08743341 0.3228245
000030 91 91 63 be 71 14 f6 be d1 7d 16 bc b5 63 34 be
       -0.22223498 -0.4806247 -0.00918527 -0.1761616
000040 78 8e 9f 3e 1e 79 6f 3c 7f 45 cd bc 85 f4 35 3d
       0.31163383 0.014616279 -0.025057552 0.044422645
000050 0b 4a bd be aa 53 2f bd 22 bb d8 bd 4f c3 45 3e
       -0.36970553 -0.042804398 -0.10582568 0.19312786
000060 72 7d ba 3d 53 2f 29 3e 4b 93 8e be 25 55 be bd
       0.09105958 0.16521959 -0.2784675 -0.09293584
000070 07 79 fb 3d 5a 8e c1 3d 9f 9d 9f bd 61 5e a2 3d
       0.122789435 0.094509795 -0.07793736 0.079281576
000080 9a c6 d1 3c fd 52 ae 3d 86 02 d7 bd bf 04 21 3e
       0.025607396 0.085119225 -0.10498528 0.15724467
000090 45 04 01 be f1 24 f3 bd c2 4f 55 3e 18 d7 9f 3e
       -0.12599285 -0.118722804 0.20831206 0.3121879
0000a0 1e 66 c6 3e 46 5c 6c 3e f2 0e ed bd e9 e1 51 bd
       0.38749784 0.23082075 -0.11575116 -0.051240835
0000b0 14 03 83 bd 41 fd 0f 3e 13 05 f8 3d 0e 1d 60 bd
       -0.063970715 0.14061452 0.12110343 -0.05471521
0000c0 9d d1 5e 3e 64 00 3e be 94 94 69 be 8e 80 5d bd
       0.21759649 -0.18554837 -0.22810584 -0.054077677
0000d0 8e 60 87 bc c1 ba a6 3e 08 a8 bf bd 4b b3 0f be
       -0.016525533 0.32564357 -0.09358221 -0.14033239
0000e0 ed 24 b3 3d df 0a 1e bd 82 7f a9 3d 8d 5b 8e bd
       0.087472774 -0.038584586 0.08276273 -0.06951056
0000f0 3a 40 bf bc 25 77 23 bd 67 3c a4 3e 22 ad 61 3e
       -0.023346055 -0.039908547 0.32077333 0.22038701
000100 de ad 8e bd 53 cf e8 3d fe 50 42 3e 55 e7 f9 bc
       -0.06966756 0.11367669 0.18976209 -0.030505816
000110 ad 5d 2a 3d a6 2e 29 bd 82 fb 8a bc 79 0e 2f be
       0.041593242 -0.041304253 -0.016965631 -0.17095365
000120 10 06 aa bd 1b de 9d be 07 f6 62 be ab cf 86 bc
       -0.083019376 -0.30833516 -0.22164164 -0.016456446
000130 5f 2c 87 3e 2d ca 44 3c 82 87 1a bc 2b 58 88 be
       0.2640104 0.012011093 -0.009431722 -0.26629767
000140 44 24 1b bd 94 14 8b 3e 2b 1e fa bd 6c f9 c0 bd
       -0.037876382 0.27164137 -0.12212785 -0.094225734
000150 ea 71 37 be 45 9a 44 be 6c e0 12 3e 04 e3 89 bd
       -0.17914549 -0.19199474 0.14343423 -0.06732753
000160 97 67 43 bd 25 dc 08 3d 98 a5 27 3d 5c 53 b1 bd
       -0.047706213 0.03341307 0.040929407 -0.08658478
000170 dc 85 a4 bd 56 f1 8a 3e fd 6d 82 bd 02 10 6c be
       -0.08033344 0.2713725 -0.06368635 -0.23052981
000180 e0 85 9a bd a5 61 ed 3d 9e 03 5f 3d 0c 86 b5 bd
       -0.07545066 0.1159089 0.05444681 -0.08863458
000190 57 e8 50 be 39 f4 84 be bb b2 25 bd 9f 83 d3 bd
       -0.2040113 -0.25967577 -0.040453654 -0.10327839
0001a0 67 ae 4e 3e 33 bc 18 be 0e d2 a3 3d 17 17 08 3d
       0.20183717 -0.14915542 0.07999049 0.033225145
0001b0 d0 22 15 3d 6a 88 0c 3e 40 4d 3d 3e 1b 8d b5 be
       0.036410153 0.13723913 0.184865 -0.35459217
0001c0 04 da a9 bd 05 7a 09 be a1 71 98 3d 0a e0 e9 bc
       -0.08293536 -0.13425453 0.07443548 -0.028549213
0001d0 34 3e 70 bd 04 9c cc 3d 65 f2 58 3e e8 c2 74 3c
       -0.05865307 0.09990695 0.21186216 0.014939047
0001e0 32 49 de bd c7 8a 60 3e 8f a8 17 bd ad 4a ef bd
       -0.10853805 0.2192794 -0.037025984 -0.11684165
0001f0 b8 a4 0c bd c2 92 8d bc 7b 91 67 be 88 62 16 3d
       -0.034336776 -0.017281894 -0.2261409 0.03671506
000200 2d a3 03 3d bf e7 23 3d a4 8f 8c bd 9c 91 69 bd
       0.03213804 0.040015932 -0.06863335 -0.05702363
000210 f9 8e d8 3c cc e9 bc bd cf 7b 0d 3e 13 40 28 3d
       0.026435362 -0.09224281 0.1381676 0.04107673
000220 42 50 ea bc ee b6 48 be 8b 81 b2 be c4 24 30 be
       -0.028602723 -0.19601032 -0.34864458 -0.17201525
000230 ec 98 1e be f0 48 43 be 54 5b c9 3e 6d 68 58 3c
       -0.15488023 -0.19070792 0.3932749 0.013208491
000240 a9 82 04 3e 0f a6 7d 3e 98 c6 5e bd 7d 77 97 3e
       0.12940468 0.24770378 -0.054388613 0.2958335
000250 58 68 19 be dc 10 05 3d a8 23 7b be 50 2a eb 3c
       -0.1498121 0.03248678 -0.2452532 0.0287067
000260 be 6c 05 bd a0 2e 03 3d bc 48 27 be 97 68 27 3e
       -0.032574408 0.032026887 -0.1633634 0.16348492
000270 05 03 2d 3d 5d 34 1d 3c f4 ea 2d bd 71 77 39 3e
       0.042239208 0.009595004 -0.042460397 0.1811197
000280 fc 0b bb 3d 1a 4d ea bd f4 ea 1f be e8 c9 be bd
       0.09133145 -0.11440487 -0.15616971 -0.09315854
000290 9c 96 98 3e 24 da 0f be f2 90 ac bd 74 98 91 bd
       0.29802406 -0.14048058 -0.084260836 -0.07109156
0002a0 da 43 68 3d f8 48 f2 bd a5 95 bb 3c b4 ea 93 3d
       0.056705333 -0.11830324 0.022898505 0.072225004
0002b0 a5 44 e7 bd 6e 41 94 3e 89 08 db 3d a5 70 43 3d
       -0.1129239 0.2895617 0.10694987 0.047714848
0002c0 da 60 cd be 6d 10 7e 3d 2d 68 22 3d 49 56 8f 3e
       -0.40112954 0.062027384 0.03965013 0.27995518
0002d0 39 8b 54 3d 0d 44 63 be d4 d7 ec bd bb e2 84 bd
       0.051890586 -0.22193928 -0.115646034 -0.06488558
0002e0 5c d5 35 3e f3 e5 9d 3d 10 63 ab 3e 9a 07 8f bd
       0.17757171 0.07709875 0.33474016 -0.06983872
0002f0 5f a8 74 bc c0 83 99 3d f0 ca 82 be 56 52 30 bd
       -0.014932721 0.074958324 -0.25545454 -0.04304727
000300 89 21 32 be 0e 1c fe 3d da 03 7b 3e cc 00 19 3e
       -0.17395605 0.12407695 0.24513188 0.1494171
000310 4c c3 24 be 44 b7 b6 3d 01 cf f2 bc d1 08 79 be
       -0.16090125 0.08921674 -0.029639723 -0.2431977
000320 be f0 b4 3e 38 1b b6 be d9 a7 08 3e 37 48 12 3d
       0.35339922 -0.3556764 0.13345279 0.0357134
000330 cd a1 0f be 4b 81 28 be b8 1f ab bc 7c 4d 8b be
       -0.14026566 -0.16455571 -0.020889148 -0.27207553
000340 39 88 dc 3d 22 e0 0d be 89 67 55 bd 71 1d ef 3d
       0.1076817 -0.13855031 -0.052100692 0.116755374
000350 d6 ee 1e 3e 21 c6 29 be 4d fa 6c 3e bb 5f 3b bd
       0.15520796 -0.16579486 0.23142357 -0.045745593
000360 5c de 5b bd 4a 12 79 bd b8 16 1c 3e 26 23 98 bd
       -0.053678855 -0.060808457 0.15243042 -0.07428579
000370 b9 75 f3 bd 89 d6 d1 be 9b 3a 75 bd f6 0f 7a bd
       -0.11887688 -0.4098399 -0.059870344 -0.061050378
000380 b1 fd 81 3d 7a dd 12 be a3 84 0b 3e c7 e7 4d 3d
       0.06347216 -0.14342299 0.13624816 0.05026987
000390 45 cf 1c 3e 2e 0d 16 be 93 2d e7 3d 78 6f 40 3e
       0.15313442 -0.14653465 0.112879895 0.18792522
0003a0 54 64 64 be 38 dc c0 3e a7 d1 17 3e 3b a7 51 bd
       -0.22303897 0.37668014 0.1482607 -0.051184874
0003b0 6c f3 37 be b8 e2 ef 3d 60 3d e8 3d 9b c2 35 3d
       -0.17963952 0.11713165 0.11339831 0.044375043
0003c0 a8 e2 35 3d d5 16 c9 bd 7b 77 62 3e 40 d2 e2 bd
       0.04440561 -0.09818808 0.2211589 -0.11075258
0003d0 cc b4 88 bd ff 1d 1a be d7 4d 80 3e 41 69 89 bd
       -0.06675109 -0.15050505 0.25059387 -0.06709529
0003e0 87 b1 28 bc c7 8a 39 3d 3f c3 40 be a3 a4 0c be
       -0.010296232 0.045298364 -0.1882448 -0.13734679
0003f0 17 c2 27 3d 9a e6 60 3e 89 87 aa be d6 ba 87 3e
       0.040956583 0.21962968 -0.3330653 0.26509732

linears.1.bias f4 [64]
000000 e1 43 b8 bc d6 f4 07 bd 7c 40 bf 3c 2c ff a2 3c
       -0.022493305 -0.033192478 0.023346178 0.019897066
000010 fb 74 4c 3c 72 d4 ed 3c ab bb d7 ba d5 b6 89 3d
       0.012479062 0.029031966 -0.0016459128 0.067243256
000020 7f 74 07 bb 4d bc 7f 3c 20 10 92 bc aa 5c d9 3c
       -0.0020668802 0.015608859 -0.017829955 0.026533443
000030 76 9a 05 bd d6 26 b1 bc 84 61 8d bc c4 59 dd 3c
       -0.03261801 -0.021624964 -0.017258413 0.027020343
000040 1d 74 07 bb 0d 0d 5d 3a cf 3a 7b bc 0e 55 a9 3c
       -0.0020668574 0.00084324257 -0.015333845 0.02067044
000050 c4 1c 26 bc df b3 5c 3c a1 d0 87 3c 93 08 cb 3a
       -0.010138694 0.013470619 0.016578974 0.0015490226
000060 5b 06 4f bc b8 e8 91 bb 11 a4 8d bc 6a 7d 15 3c
       -0.012635793 -0.004452791 -0.017290147 0.009124139
000070 6e 1b 69 3d e5 ab 44 ba 6a 5c eb bc d6 cc 79 3b
       0.056910925 -0.0007502421 -0.02873059 0.0038116476
000080 c0 7c e1 bc 76 5b cb bc db 94 a9 bd f3 e1 17 3b
       -0.027525306 -0.024823885 -0.08280345 0.0023175448
000090 d3 c4 9a 3c 68 d6 84 bc a3 24 85 bc 99 ab 84 3c
       0.018892681 -0.016215518 -0.016252821 0.016195105
0000a0 e5 a7 67 3c ca df 09 bc dd a9 a6 bc 45 b8 4c bc
       0.01413915 -0.008415172 -0.020344669 -0.012495105
0000b0 c2 5a 0a 3e 56 d2 f2 37 83 5f 1f 3c 31 4f 38 3c
       0.13511184 2.8946593e-05 0.009727362 0.011249349
0000c0 c1 06 b3 bc 59 35 46 3d cd 1b c0 bd 96 5b dd bb
       -0.021853806 0.04839072 -0.093803026 -0.0067553027
0000d0 8e 85 8d bb ae 6b be 3c b8 08 4c 3c a6 84 4e 3c
       -0.0043188995 0.023244705 0.012453251 0.012604868
0000e0 d9 cb e1 bc 24 c3 c7 bb 71 0d 13 bc b6 a5 99 bc
       -0.027563022 -0.0060962606 -0.008975373 -0.018755775
0000f0 9a 6a 65 bb b9 20 70 bb 36 fc 45 bd 69 36 a1 bc
       -0.0035006166 -0.0036640598 -0.04833623 -0.019679265

linears.2.weight f4 [64, 64]
000000 d3 8f 18 be 41 0a c8 3c c7 45 50 bd 21 5d d2 3d
       -0.14898615 0.024418952 -0.050847795 0.10271669
000010 6f 2b 27 be a2 1b 5c 3d be 5d 54 3d 99 9b 84 3d
       -0.16325162 0.05373729 0.051847212 0.064749904
000020 29 1b 2d bc 33 85 0f 3d 69 c9 9d bc 37 88 09 3e
       -0.0105655575 0.035039138 -0.019261079 0.13430868
000030 0d da 9d 3c 43 e3 1d 3e 41 97 56 bd 33 b9 c4 3d
       0.019269014 0.15418725 -0.05239034 0.096056364
000040 9a f9 33 3c 2a 34 d8 3c ec 0e a3 3e 7a cd 1d 3d
       0.010984803 0.026392061 0.31847322 0.038526036
000050 2e 5c 67 3e cb 69 42 bc e5 d2 16 3d c4 9b bb bd
       0.22593758 -0.011866043 0.03682222 -0.09160569
000060 7d fc 18 3e 4c 2b 18 3e d1 c1 ab bd 25 50 d8 bd
       0.14940067 0.14860266 -0.08386577 -0.10562161
000070 6a d1 91 bd c8 44 31 be 38 af 32 3a bc d8 29 3d
       -0.07120021 -0.17311394 0.0006816271 0.04146646
000080 70 eb 53 3e dc 5a 9e 3d 0d 2c 5e 3e a2 35 fa bd
       0.20695281 0.07732174 0.21696492 -0.12217261
000090 17 c0 61 bd b0 3b ce 3d 25 4e 7c bd bd 6c 0e be
       -0.05511483 0.10069978 -0.061597962 -0.13908668
0000a0 dc 60 f3 3c ab 1b 62 3e 9f 3c 47 bc 69 86 0d 3c
       0.029709272 0.22080867 -0.012160449 0.008638003
0000b0 9f 4a 88 3c 56 f8 4a bb b5 87 c3 3d 86 98 d7 bd
       0.016637145 -0.0030970774 0.095473684 -0.105271384
0000c0 d5 c7 8b be ee 5b 87 be 5b d2 33 be 6a c8 3c bd
       -0.27300897 -0.26437324 -0.17560713 -0.046089567
0000d0 5f 15 8a be 6b 3f 3e be 84 6c 81 be f5 2f 0d 3e
       -0.2696943 -0.1857888 -0.25278103 0.13787825
0000e0 9f ed 38 bd a7 20 75 3d 36 25 b3 3d 99 1f 5c 3e
       -0.045148488 0.059845593 0.08747332 0.21496429
0000f0 c7 c3 60 bd 2b 95 2f 3e e3 d5 44 be 2f 85 13 be
       -0.054874208 0.17146747 -0.19222216 -0.14406274
000100 81 8d 8d be e8 e4 2d bd 92 ed dd 3d b4 c5 1e bd
       -0.2764702 -0.04245463 0.108363286 -0.038762763
000110 d4 5d b7 3b 25 82 d3 bd 4c 17 38 bc fa 8e a5 3e
       0.005595902 -0.103275575 -0.011236023 0.32335645
000120 1f 06 87 3d d6 14 2b be 0f 01 df bd c6 f9 95 3d
       0.065929644 -0.16707167 -0.10888874 0.07323031
000130 f9 c2 f0 bd 58 a8 4c be 9e 81 1c bd 3d 55 7b 3c
       -0.11755938 -0.19986093 -0.03820955 0.015340147
000140 bd 1b 71 3e 96 f6 7d bd 43 c7 18 be 32 d8 a4 3e
       0.23545738 -0.06200274 -0.14919762 0.32196194
000150 4e 33 de bd 12 8f 5f 3d 26 ad 66 3d de 05 fb 3d
       -0.10849629 0.0545798 0.05631747 0.122569785
000160 c5 0a 11 be f8 63 c6 bd 73 42 a7 3d 34 d6 88 be
       -0.14164265 -0.09687036 0.08166971 -0.26725924
000170 90 19 c2 3b 2e ab 3a 3e db 12 48 bd e7 45 8c 3d
       0.0059234574 0.18229362 -0.048846107 0.0684927
000180 5d 1b 50 be 9b d3 b0 bd b0 6d 51 be dc 4d e4 bc
       -0.20322938 -0.086341105 -0.20451999 -0.027869157
000190 43 7a 9a be 44 d3 37 be 92 e8 e8 3c f9 8d 21 3e
       -0.30171403 -0.17951685 0.02843121 0.15776815
0001a0 02 af 13 be 6e 9e 18 3d a1 71 eb 3d c0 32 de 3c
       -0.14422229 0.037260465 0.11496282 0.027123809
0001b0 f1 ae 46 bc 5d c8 00 3e 6a 01 ab bc f9 b9 89 3d
       -0.01212667 0.12576433 -0.020874698 0.067249246
0001c0 6f de 0b 3e 01 5f df 3d c7 9c 03 be 0a e5 0c be
       0.1365907 0.109067924 -0.12852775 -0.13759246
0001d0 36 ca 93 3d 16 6b 54 bc f5 86 d9 bc 04 d3 49 3e
       0.07216303 -0.012964984 -0.02655361 0.19709402
0001e0 cf 16 27 3e bb 36 24 3e 55 9d 9c 3c d1 95 8f 3d
       0.16317295 0.16036503 0.01911799 0.07010997
0001f0 bd 19 c9 ba 74 6e 9b bd 8b 45 3a be f6 1a 24 3c
       -0.0015342754 -0.07589427 -0.18190591 0.010016194
000200 20 83 4d be 5e bc 84 be a4 54 6b be bc a4 7d 3d
       -0.20069551 -0.25924963 -0.22981507 0.06192468
000210 6f 3f 9b be 91 32 2a 3e 22 ff 5b 3d 49 2b 19 bd
       -0.30321833 0.16620852 0.05371011 -0.037394796
000220 16 4a be 3d 70 6d f8 bd af 0e 47 be 4e 64 31 be
       0.092914745 -0.121302485 -0.19439195 -0.1732342
000230 12 1a e7 bc 57 42 a8 bd 1d 87 b0 3d b6 86 25 bd
       -0.028210673 -0.08215778 0.08619521 -0.040411673
000240 f9 28 a6 bd 85 87 5c 3d 6e b7 24 3e f9 e6 1f 3e
       -0.08113284 0.05384018 0.16085598 0.15615453
000250 f3 9f 8c bd 27 9e 58 3d 42 79 af bd b9 d8 dc 3d
       -0.068664454 0.0528852 -0.0856805 0.10783524
000260 8f 87 64 3e e9 8e a6 bd 88 44 a5 3d 41 a6 18 bc
       0.22317336 -0.08132727 0.08069712 -0.009316982
000270 33 d6 11 3e 33 7a e6 3d cd 15 6c bd cd cc 26 3e
       0.14241867 0.112537764 -0.05763798 0.16289063
000280 15 3e 62 bd 36 ee 25 3e a0 3d ab 3d 6b 2f 92 be
       -0.055234987 0.16204152 0.083613634 -0.28551802
000290 bd 7b 3f be 0e d4 0f bd 85 1d a7 bd fc 83 3a 3d
       -0.18699546 -0.03511434 -0.08159927 0.045536026
0002a0 fc f4 41 bd 99 39 e9 bc e0 ef 2b 3e 41 e8 ed bd
       -0.047352776 -0.028469848 0.16790724 -0.116165645
0002b0 57 64 cc 3d 14 43 34 3e a8 62 14 3d 31 06 37 be
       0.09980076 0.17603713 0.0362269 -0.17873456
0002c0 9b 3c e6 bc f9 29 13 3e 97 b8 f6 bd fc 98 11 3e
       -0.02810507 0.1437148 -0.120469265 0.14218515
0002d0 83 75 94 bd 13 67 ea 3d 67 65 90 be 43 1d 29 3c
       -0.07248976 0.11445441 -0.28202364 0.010321918
0002e0 c6 fd 4d bc 43 7f 01 3e 0b 80 2f bb fe 14 a7 bd
       -0.012572711 0.12646203 -0.00267792 -0.08158301
0002f0 f1 77 ad 3d fd d7 a9 3d 95 c2 f4 3c 6e 82 c0 bd
       0.08470143 0.082931496 0.02987794 -0.093998775
000300 89 64 89 bd 91 83 2e 3e 41 9a 62 3e 12 1b a8 be
       -0.06708629 0.17042376 0.22129156 -0.32833153
000310 d9 63 d6 bd a2 2d 36 be 2f 3f 20 be 65 a3 eb bd
       -0.10468263 -0.17790845 -0.15649103 -0.115057744
000320 e3 a2 1f be ab b2 47 3d ee 6f 98 bc fc c8 2a bc
       -0.1558948 0.048754375 -0.01860806 -0.010423895
000330 e9 94 b7 3b ff 93 24 3e 09 9d 78 3c f7 18 80 bd
       0.0056024683 0.16072081 0.015174159 -0.06254762
000340 8c 50 a3 3e 69 f1 79 3d 7d 79 9b 3e f3 84 55 3d
       0.3189739 0.061021242 0.30366126 0.052128743
000350 d8 e8 74 bc a0 f3 0e be e6 ca 0c be c0 fa f3 bc
       -0.014948092 -0.13960123 -0.13749275 -0.029782653
000360 cd 90 86 3d 15 a4 1b 3b b9 37 1d 3d ec a2 17 be
       0.06570587 0.0023748924 0.03838322 -0.14808244
000370 9b e5 ef 3d 51 18 8a bd d8 9b 4b 3e 84 c9 87 3e
       0.11713716 -0.06742919 0.19883668 0.26520932
000380 71 a8 2e 3d ee 75 0c be 37 d3 65 3d b5 c6 82 bb
       0.042641107 -0.13716862 0.056109633 -0.003990973
000390 9e 04 81 bd 59 ff 33 be a2 81 bb 3b 05 67 09 be
       -0.06299709 -0.17577876 0.0057222405 -0.13418205
0003a0 aa b6 03 3e 0a 6d 4c 3d da 17 32 3d 2f 75 bd bd
       0.1286265 0.049908675 0.043479778 -0.092508666
0003b0 2b d7 e7 bd 50 fd cd 3c 52 28 92 bd 72 54 83 3c
       -0.11320337 0.025145203 -0.07136597 0.016031478
0003c0 37 6f b1 bd de ca 99 bd ee e5 5b be aa 22 17 3d
       -0.08663791 -0.07509397 -0.2147443 0.036898293
0003d0 c5 d4 71 bc 1c cf 21 be 5d 32 29 3d 88 6a 89 bd
       -0.014760201 -0.15801662 0.041307796 -0.06709772
0003e0 e9 5c 3b 3d 4f c6 53 be 11 4c ab 3d 99 da 47 3d
       0.045742903 -0.20681117 0.08364118 0.048792455
0003f0 cb 78 42 3e 2d 8e 63 3e cd d9 24 bd 6e 5a c8 3d
       0.18991391 0.22222205 -0.040246774 0.09782873

linears.2.bias f4 [64]
000000 66 a4 23 3c 34 21 05 3d 4a 49 01 3d 20 18 bd bc
       0.009987926 0.032502368 0.031564035 -0.023082793
000010 a1 64 9b 3d 00 ea a1 bd a1 7d 67 bd 53 76 ae 3b
       0.07587553 -0.0790596 -0.056516293 0.005324164
000020 9e 5b f4 bb d0 ac ae 3c 20 ed dd 3b eb 4c 18 bc
       -0.0074572107 0.021322638 0.0067726523 -0.009295682
000030 5a ea f7 bc ac 6d 2b 3c c5 18 9b 3d d8 f4 58 3b
       -0.030263115 0.0104631595 0.07573084 0.0033104923
000040 dd f5 32 bd 04 32 02 bc 3d 72 0c bc 84 d9 0d bb
       -0.043691505 -0.007946495 -0.008572158 -0.0021644542
000050 8d 60 0f 3d 0c 07 90 bb 55 99 2b bc 39 f3 f0 3a
       0.035004187 -0.0043953713 -0.010473569 0.0018383033
000060 6d 0b 4f 3c bd eb f4 3c 04 b1 17 39 52 c5 5c 3b
       0.012637001 0.029897565 0.00014466426 0.0033686948
000070 91 df f8 b9 f5 38 d6 3d f1 36 83 b9 50 0e b5 3b
       -0.00047468816 0.104600824 -0.00025027202 0.005525388
000080 95 78 b4 bc d5 5f 3c bd 5c a7 c2 bc 04 2e 74 3a
       -0.022030154 -0.04598983 -0.023761444 0.0009314718
000090 ed c6 5c bb 95 c3 b1 bb a3 42 89 3c 9a 5f d2 bb
       -0.0033687905 -0.0054249265 0.016755408 -0.006420088
0000a0 fe 39 c5 bb 42 25 f6 3b 01 bd a6 3c 40 f5 ef 3c
       -0.006018876 0.0075117657 0.020353796 0.029291749
0000b0 5e 0f 22 bd 18 9e f5 ba b8 80 72 3c e6 38 42 bc
       -0.039565437 -0.0018739132 0.014801197 -0.011854386
0000c0 d0 46 41 3c b7 d9 30 3d a6 70 9a bc 95 42 11 bc
       0.011796668 0.04317638 -0.018852543 -0.008865972
0000d0 36 02 f9 bc c2 61 b0 bb a3 10 47 3d 0d fb 7e 3d
       -0.030396562 -0.0053827474 0.04859985 0.06225114
0000e0 4d 21 7a 3d ce dd f8 3b 27 5c cc bc 2b d0 49 bc
       0.061066914 0.0075948006 -0.024946285 -0.0123176975
0000f0 ea 32 98 3c 06 25 99 3c 13 b9 1e 3d 8b d8 3d 3b
       0.018578965 0.018694412 0.03875072 0.002896818

linears.3.weight f4 [32, 64]
000000 14 78 e5 be 41 3e 5b bd 11 e3 11 be 33 48 34 3e
       -0.44818175 -0.053526167 -0.14246775 0.17605667
000010 7d 79 c0 3d 07 0c fe 3d 93 e5 61 3e bd 3e 1e 3d
       0.09398172 0.12404638 0.22060232 0.03863405
000020 49 d8 af 3e 00 3e 54 3c 8d f6 27 3d 90 86 fd bc
       0.343447 0.012954235 0.041006614 -0.030947953
000030 ba 52 0d 3d 2d ba 58 be 70 0f 88 be c7 5a 22 bc
       0.034502722 -0.2116477 -0.26574278 -0.009909338
000040 bf 6e 1c 3b f0 ac bc 3d 42 31 3d be c1 2f 1f bd
       0.002386972 0.09212673 -0.18475822 -0.0388639
000050 1e b1 e6 3d c8 11 b6 3d 5e 19 37 3e 89 35 ba 3d
       0.11264251 0.0889011 0.1788077 0.09092242
000060 2a 23 eb bd 88 8d 9d 3d cd 04 4a be 9a d4 4f be
       -0.114813164 0.076930106 -0.19728394 -0.20295945
000070 8e a6 68 b9 a2 17 02 3e 74 a8 06 3e 60 b5 43 3e
       -0.0002218729 0.12704328 0.13150197 0.19112158
000080 63 c6 17 be dd 41 1e bd af 65 f2 3d da 5c c8 3d
       -0.14821772 -0.03863703 0.11835801 0.09783335
000090 e2 48 f1 bd 08 dd d6 3c 2d 7b 63 3e 73 f6 10 be
       -0.117814794 0.026228443 0.22214957 -0.14156513
0000a0 17 b5 f1 3d d8 cd 75 bd 13 7d 5c 39 8d df 67 3e
       0.11802118 -0.06001076 0.00021027429 0.22643872
0000b0 cf 86 4f bd 26 e3 5d be db 15 2a be ec 6f bf be
       -0.050665673 -0.21668682 -0.166099 -0.37390077
0000c0 f2 ff 4b 3e af be 06 3e cd 41 87 bb 00 13 4b 3e
       0.19921854 0.13158678 -0.004127717 0.19831467
0000d0 63 b3 38 bd 85 c7 6b 3e c6 cd 9e be 95 e1 47 3e
       -0.04509295 0.2302533 -0.31016368 0.19519646
0000e0 91 51 cd bc d0 34 f9 3c 8d 8c 7a 3e 15 87 ce 3d
       -0.025063308 0.03042069 0.24467678 0.100843586
0000f0 f3 78 ac bd a6 49 63 3d 43 ca 05 3e de b8 41 be
       -0.08421507 0.05549016 0.13065438 -0.18918177
000100 ec 9d 62 3e 1e ed 36 3e 92 26 d1 3d b2 0e 9b bd
       0.22130555 0.1786389 0.10212435 -0.07571162
000110 e4 72 a2 3e fa 62 b5 be 85 49 84 be a4 85 1c 3d
       0.3172828 -0.35427076 -0.2583734 0.038213387
000120 f3 eb e3 3d 66 c4 50 3e e4 30 4d 3e 66 f8 96 3e
       0.11128988 0.2038742 0.20038182 0.29486388
000130 a2 0c 91 be 6d 86 80 bd 88 4b 42 3e de e3 44 bd
       -0.2832995 -0.0627564 0.18974125 -0.048068874
000140 7c d2 8f bd 92 30 25 be 79 4d 89 bd 85 67 3e 3e
       -0.070225686 -0.1613181 -0.0670423 0.18594177
000150 e3 8f d6 3e fd 29 58 3d 62 91 4a 3e ae b9 f6 bd
       0.41906652 0.05277442 0.19782022 -0.12047134
000160 d7 bd 03 3e 63 74 20 3d 0f ea cb ba 0c 6d 8e be
       0.12865387 0.039173495 -0.0015557426 -0.2781757
000170 a8 0a f8 3d f5 38 5b bd e3 9f ab bd c5 d2 ff bd
       0.121114075 -0.053521115 -0.08380105 -0.12491373
000180 eb 34 c7 3d 20 c9 60 be 56 03 d9 3a 78 69 6a be
       0.0972689 -0.21951723 0.001655678 -0.22891796
000190 03 a5 83 3e 0c f7 bd 3e 68 aa b9 3d 48 9a 51 3d
       0.2571183 0.37102544 0.090657055 0.051172525
0001a0 4d d0 01 3d 94 11 89 be 95 56 b7 bd 1f d9 1f be
       0.03169279 -0.26771224 -0.08952061 -0.15610169
0001b0 2a 41 09 3d 49 7d c7 3d f0 a4 61 3e e0 3c 92 3b
       0.03350941 0.09740693 0.22035575 0.0044628233
0001c0 a5 00 2a 3e 9b 1a 72 3c 90 34 e1 3d c4 ea 8a be
       0.16601808 0.014776851 0.109963536 -0.27132237
0001d0 a6 ad 36 be 86 24 3d 3c 9d 97 20 3e aa 0c c4 3d
       -0.17839679 0.011544352 0.15682836 0.09572728
0001e0 e1 35 9b 3e a2 b9 b1 3c 5b 73 05 bf 6c f8 83 bd
       0.30314544 0.021694962 -0.52129143 -0.06443867
0001f0 b1 e8 fa bc 24 e0 a4 be e5 dd eb 3e fe 4c 70 3e
       -0.030628534 -0.32202256 0.4606773 0.2346687
000200 1c 4f 5e 3e ba 72 1c be ea fb 55 3e da 32 4f 3d
       0.21709865 -0.1527814 0.20896879 0.050585605
000210 9b fb a3 3d a6 41 50 3e 13 03 c6 bd 01 a0 7e bc
       0.08006974 0.20337543 -0.09668555 -0.015541078
000220 f2 d2 1e be bb 1e e9 bd 7e d2 34 be f5 24 bd 3d
       -0.15510157 -0.113828145 -0.17658421 0.092355646
000230 d9 99 3e bd 04 de 19 be 46 c5 7f bc 5f cc ce bd
       -0.04653344 -0.15026098 -0.0156109985 -0.100975744
000240 ff 3b ac 3d a2 df 0a 3e 59 39 47 3e d3 e1 a9 3d
       0.08409881 0.13561872 0.1945547 0.08295026
000250 16 e2 6c bd c7 0f 3f 3e 35 c4 b9 3d a8 68 c5 3d
       -0.0578328 0.18658362 0.09070627 0.09639102
000260 a8 81 71 37 90 17 9c bc 80 bf 7f 3d da 33 a6 bd
       1.4394907e-05 -0.019054204 0.062438488 -0.08115359
000270 51 a6 43 be 9a 55 64 bd 9d b4 8c 3d 5c 1f 2f bd
       -0.19106413 -0.0557457 0.06870387 -0.042754516
000280 46 11 51 3e f7 d0 86 bd e2 a0 8c 3e ed dd 4e 3d
       0.20416746 -0.06582826 0.27466494 0.050504614
000290 1b 8f d8 3d d3 f3 a8 bc 36 41 3a bd 9a e6 9d 3d
       0.1057417 -0.020624077 -0.045472346 0.077099994
0002a0 a9 dd 75 be a1 86 86 be a5 a4 51 3e a6 ca 9c be
       -0.24010338 -0.2627459 0.20472963 -0.30623358
0002b0 b5 69 2d bd 09 46 79 3e d4 3e 9f be e8 06 ac bd
       -0.04233714 0.24343123 -0.31102622 -0.08399755
0002c0 89 d8 1b 3e ce 29 47 3d a4 44 f1 3c 40 34 25 be
       0.1521932 0.048623852 0.029451676 -0.16133213
0002d0 e1 15 4b 3e 22 8d a9 bd 33 38 a5 be 7b 6a 09 3d
       0.19832565 -0.08278872 -0.3226944 0.033548813
0002e0 d3 4c bc 3d 2f b3 b5 bd 98 48 19 bd 59 00 b4 bc
       0.091943406 -0.08872067 -0.037422746 -0.021972822
0002f0 2e e4 11 be dc b1 59 3e 1c 9e 59 bd 21 cb 60 3e
       -0.142472 0.21259254 -0.0531293 0.21952488
000300 f8 74 a1 be 18 12 55 3e 89 c2 c3 3d cb 7d fe bd
       -0.31534553 0.20807683 0.09558589 -0.12426337
000310 30 03 b1 3d 78 cb 4a be 6c b8 76 3e eb ec 87 3d
       0.08643186 -0.1980418 0.24093789 0.066369854
000320 22 88 0d 3d 0b 10 bc be 0a 1f c4 bd 08 31 30 be
       0.034553654 -0.3673099 -0.09576233 -0.17206204
000330 ad 84 60 bd c4 9d 49 3e 9c 6f 52 3b be 56 5d be
       -0.05481403 0.19689089 0.0032109981 -0.21615121
000340 0e e8 0e 3e 64 bc 44 be b0 06 13 3e 84 3d 62 3e
       0.1395571 -0.1921249 0.1435802 0.22093779
000350 84 5e b5 bd 7c 7a 01 be 15 70 56 3e a4 9a d3 bc
       -0.08855918 -0.1264438 0.20941193 -0.025830574
000360 4d 58 34 be 11 b2 cb bd cd c9 f6 3d aa ad 31 3e
       -0.17611809 -0.09946073 0.12050209 0.17351404
000370 67 0f 5e 3d 45 9c 0e be d6 6a 93 bd 1f c9 21 3e
       0.054213908 -0.139268 -0.07198112 0.15799378
000380 a9 05 b1 3c a3 88 68 3e d3 c3 a2 3d 55 ed 99 be
       0.021609144 0.22708373 0.07947507 -0.30063882
000390 16 ad 69 bd da bd 68 be ab a2 14 3e b0 c0 ad 3b
       -0.057049833 -0.22728673 0.14515178 0.005302511
0003a0 b7 d2 93 3d 0c 59 01 be 44 c5 a8 bd 7f af f8 bd
       0.07217925 -0.12631625 -0.082407504 -0.12142848
0003b0 3b d9 8a be c4 f8 6d 3e 9f d2 d2 bd d0 bc 0a bd
       -0.2711886 0.23239428 -0.10294079 -0.033871472
0003c0 19 46 1a bd 3f 83 45 be 08 74 d2 3d 4b dc f9 bd
       -0.037664507 -0.19288348 0.102760375 -0.12200221
0003d0 f1 db 00 3e f8 cc b0 bd 6e af 42 be e9 5a c7 bd
       0.12583901 -0.08632845 -0.19012234 -0.097341366
0003e0 d7 0f 53 3e 29 e8 11 3e e5 84 c4 3e 58 cf 97 bd
       0.20611511 0.14248718 0.3838264 -0.074125946
0003f0 1b 7a 24 3d b3 63 82 3d 9f 5c 7e bc 80 89 cd 3c
       0.04015551 0.06366672 -0.015525012 0.02508998

linears.3.bias f4 [32]
000000 63 5a 6f bc 2b 75 93 3d ef a9 b0 bc 80 58 8e bc
       -0.014608952 0.072000824 -0.021565406 -0.017376184
000010 2c 6f 88 bc 70 a5 11 bd 64 a3 43 3d a0 39 cf 3c
       -0.016654573 -0.035558164 0.047763243 0.025296032
000020 01 74 95 3c 6a a9 1c 3c 50 9c 29 bc 31 05 5c bc
       0.018243792 0.009561876 -0.010352209 -0.013428972
000030 cd bc 0d bd 6a 71 b2 3b af 93 8d bc af 77 dd 3c
       -0.034603883 0.005445649 -0.017282335 0.027034609
000040 b6 c6 69 3b 4d 0f a8 3a 39 ba bb 3c e5 cb 8b 3a
       0.003567142 0.0012821943 0.022915946 0.0010665624
000050 d3 76 5d bc 63 5c 31 bc e6 ee f3 bc fb fd b1 3c
       -0.013517099 -0.010825249 -0.029777002 0.021727553
000060 34 ab cf 3b eb 98 f2 bc 56 39 5b bc f5 ac 1a bd
       0.0063375477 -0.029613933 -0.013380369 -0.0377626
000070 96 eb d0 bc ce 80 82 bc 5c 1d 9d bc b9 df 02 bb
       -0.025502961 -0.01593056 -0.019179039 -0.0019969775

linears.4.weight f4 [4, 32]
000000 62 bd 5e 3e 0d 3d f9 bd 3e 47 f3 bd bb 51 c0 3d
       0.21751931 -0.12169848 -0.11878823 0.09390589
000010 52 d2 09 be c0 ec 8c bd d0 89 0a bc 3c 4b 2c 3e
       -0.13459137 -0.06881094 -0.008455709 0.16825575
000020 df f0 c8 be 9c d9 f3 3e de bb b3 bd ea 63 a5 bc
       -0.3924627 0.4762696 -0.08776067 -0.020189244
000030 14 83 7c bd 0d 09 51 3e 60 a4 50 bf e3 84 3d 3e
       -0.061648443 0.20413609 -0.81500816 0.18507724
000040 4c de ab 3e fd 89 cb 3e e1 63 c0 3d e0 9a ff 3d
       0.33568037 0.39753714 0.093940504 0.12480712
000050 ae 5f 48 be 69 02 02 be 7e f5 7a 3e 14 3a 43 bd
       -0.19567749 -0.12696232 0.2450771 -0.04766281
000060 57 fc e0 be 16 97 c4 bd dd 56 4f bd 84 35 1f 3e
       -0.4394252 -0.0959913 -0.05061995 0.15547758
000070 3a b3 90 3d ed db 98 3e ce 87 1c bf 87 9d 1d 3e
       0.07065435 0.2985529 -0.6114472 0.15392123
000080 46 d4 0b 3d 56 49 39 3d 99 d2 19 bf 4f 39 93 be
       0.034137987 0.045235954 -0.6008697 -0.2875466
000090 9b 42 01 bf a4 d4 24 bf 7b 83 38 3e aa fe 30 3f
       -0.50492257 -0.64386964 0.18018906 0.69138587
0000a0 83 88 bb 3c ed 45 f6 3d cd 91 ad be db 48 7f be
       0.022892242 0.12025056 -0.339003 -0.24930136
0000b0 16 7f 0a bf 9d f6 06 3e 76 02 2d bf 82 9c 38 3f
       -0.5410017 0.13180013 -0.6758188 0.7211381
0000c0 67 15 78 3e 51 5f 3e bd 11 f5 4d 3f 59 3c 9c 3e
       0.24226914 -0.04647762 0.80452067 0.30514792
0000d0 de bd 0b bf ce 54 ff be a5 dc 02 bf 26 43 b9 3e
       -0.5458659 -0.49869388 -0.51117927 0.36184043
0000e0 a2 0d 6e 3e ef 05 1e bf 56 66 77 be 85 d0 33 bf
       0.23247388 -0.61727804 -0.24160132 -0.7024005
0000f0 45 f5 85 3e d2 b5 cf 3a 82 18 fc be ee 5d 93 be
       0.26163688 0.0015847033 -0.49237448 -0.287826
000100 9d bd ab 3e 13 5f 07 3f 1f 05 7f bd 46 df ab be
       0.335431 0.52879447 -0.062260743 -0.33568782
000110 75 38 80 3d 2d 76 ae 3e c4 09 5d 3e 9b f2 b4 be
       0.06260768 0.34074536 0.21585757 -0.35341343
000120 f3 d0 c9 bd a5 3c 09 3f 62 aa 44 3d 2b 6d b6 bc
       -0.09854307 0.5360816 0.048014052 -0.022268852
000130 09 3e 4d 3e da cc 34 3f f2 f2 94 3e e8 27 4b bd
       0.20043196 0.7062508 0.29091603 -0.049598604
000140 f5 90 09 3e 1c 41 dd 3e 7c eb bc bd 53 bd 5f 3e
       0.13434203 0.43213737 -0.092246026 0.21849565
000150 c1 b6 c0 3e ab bb 42 be 8e c5 47 be c5 57 bb be
       0.3763943 -0.19016902 -0.19508955 -0.365904
000160 00 cd a9 3e 90 b4 a0 be e9 ed 33 bd 8e 63 c4 be
       0.33164215 -0.31387758 -0.04392806 -0.38357204
000170 64 ef b8 bd 5a 48 51 3e ba 12 1b be 75 86 05 be
       -0.09030035 0.20437756 -0.15143862 -0.13039573
000180 1a 30 c3 bd 34 84 ac 3e 3d 81 b6 be 7d 7d 74 3c
       -0.09530659 0.33694613 -0.35645476 0.014922497
000190 38 08 12 be 06 a8 b8 be 59 78 2f 3f 30 68 20 3e
       -0.14260948 -0.36065692 0.6854301 0.15664744
0001a0 80 0f ce 3e 25 91 7f 3e 81 f9 27 bf 9b 30 a6 be
       0.402462 0.24957712 -0.6561509 -0.32458958
0001b0 97 43 1b be 37 79 03 3f 20 a1 0d be 4b 82 27 3f
       -0.15162502 0.51356834 -0.13830996 0.65433186
0001c0 eb 56 22 3f 4b d2 8a 3e 13 14 58 3e b3 4c bb 3c
       0.63413876 0.27113566 0.21101408 0.022863721
0001d0 87 c7 00 bf 50 e2 10 bf 52 34 ac be 16 9d b3 be
       -0.50304455 -0.56595325 -0.33633667 -0.35080785
0001e0 5a 2c e3 be 81 dd 5f bf c4 c8 f1 be 9c f6 b8 be
       -0.44369775 -0.87447363 -0.47223485 -0.36125648
0001f0 eb 69 1d 3f 24 3f 35 3e c2 50 84 3e a2 46 98 3e
       0.61489743 0.17699867 0.25842863 0.2974139

linears.4.bias f4 [4]
000000 88 2f 73 3a c9 ad 80 3e 8a 8f 99 3d 67 6b 9e 3e
       0.0009276797 0.25132588 0.07498081 0.30941316
