Iterations/Test model/epoch_9604.pt (torch, 37739 bytes, 10 tensors)

linears.0.weight f4 [32, 2]
0.3244479 -0.27381125 0.27288345 -0.60275817 0.23840903 -0.6565944 -0.10280507 -0.7681725
-0.052035302 0.56329054 0.050986808 -0.8286084 0.18622229 0.8235926 0.18691514 0.46877998
0.35991693 -0.29996327 -0.25136217 -0.2810353 -0.11425947 -0.6797659 -0.31055498 0.54128695
-0.13384674 -0.37257797 0.16716728 -0.51976925 -0.12550807 0.9246917 -0.058568884 -0.4717178
0.22823262 0.7706202 0.3153954 0.34912908 -0.11049445 0.5207513 -0.22175437 -0.45093143
-0.12303188 -0.38779542 0.28910604 0.2909448 0.6848876 -0.20080186 0.288347 -0.5008838
-0.56555885 0.45721668 0.3544466 -0.27268556 -0.18678322 -0.34183764 0.0426914 0.55380636
0.08268268 -0.5310005 -0.030498935 0.63767385 0.16611344 -0.5485406 -0.048420347 0.9341666
00000000: 091e a63e fd30 8cbe 61b7 8b3e 5c4e 1abf
00000010: 7f21 743e 9216 28bf 778b d2bd f4a6 44bf
00000020: f822 55bd cf33 103f 8bd7 503d ae1f 54bf
00000030: 0eb1 3e3e f7d6 523f af66 3f3e ee03 f03e
00000040: 0847 b83e c994 99be 8bb2 80be dce3 8fbe
00000050: de00 eabd 2305 2ebf 1001 9fbe c891 0a3f
00000060: 1f0f 09be 8ac2 bebe e62d 2b3e 990f 05bf
00000070: 3085 00be 98b8 6c3f ede5 6fbd ff84 f1be
00000080: d0b5 693e 5e47 453f 827b a13e 0cc1 b23e
00000090: ea4a e2bd f54f 053f 9413 63be 7ce0 e6be
000000a0: 23f8 fbbd 1f8d c6be b505 943e b8f6 943e
000000b0: cb54 2f3f 019f 4dbe 38a2 933e ec39 00bf
000000c0: 77c8 10bf 4e18 ea3e 067a b53e 719d 8bbe
000000d0: 1a44 3fbe 5805 afbe 2ddd 2e3d 41c6 0d3f
000000e0: 8955 a93d a6ef 07bf e7d8 f9bc 983e 233f
000000f0: a419 2a3e 286d 0cbf 6a54 46bd 8b25 6f3f

linears.0.bias f4 [32]
0.012843877 0.02314265 0.018440038 0.007516429 0.00850396 -0.0070459554 0.0032032696 -0.037195638
-0.0014869152 -0.028644715 -0.0009966448 -0.080696024 0.040982928 -0.029456697 0.011767069 -0.011437235
-0.0024501581 0.0033858865 0.02219932 -0.021136194 0.011680081 -0.01827171 0.11314985 0.035293266
-0.07408906 0.04626855 -0.010677197 0.009104539 0.02619299 0.009457782 -0.13272704 0.011404088
00000000: 206f 523c a895 bd3c 900f 973c 604c f63b
00000010: 3254 0b3c c2e1 e6bb f2ed 513b 745a 18bd
00000020: 98e4 c2ba 52a8 eabc daa1 82ba f543 a5bd
00000030: b7dd 273d 2c4f f1bc aaca 403c 3e63 3bbc
00000040: d592 20bb c0e5 5d3b 59db b53c d025 adbc
00000050: cf5d 3f3c 8eae 95bc 1cbb e73d ac8f 103d
00000060: 01bc 97bd 1784 3d3d 69ef 2ebc 342b 153c
00000070: ae92 d63c d0f4 1a3c 99e9 07be 36d8 3a3c

linears.1.weight f4 [64, 32]
0.027069163 -0.27387115 -0.20790209 -0.22104022 0.2407784 -0.07415066 -0.05112173 0.27450758
0.16807537 0.30685875 0.047741525 0.3285082 -0.23382929 -0.49736392 0.041860923 -0.20877309
0.33903572 0.024921259 -0.00038622238 0.029842634 -0.3867679 -0.03498863 -0.09933361 0.18620583
0.0880755 0.16532162 -0.28890172 -0.043669883 0.10059421 0.18714927 -0.08827098 0.18142827
0.034792103 0.08875218 -0.10353741 0.12087205 -0.09960623 -0.16171248 0.23779538 0.32269493
0.39719212 0.21732165 -0.1495144 -0.05839177 -0.07023218 0.13707054 0.14075273 -0.079165295
0.2444949 -0.16816603 -0.2203989 -0.07306367 -0.033865985 0.3393983 -0.08120759 -0.13416709
0.07667129 -0.029023368 0.06684602 -0.03785331 -0.024857633 -0.0019945083 0.3176044 0.263451
-0.07566406 0.11220995 0.18838322 0.00058637216 0.0385513 -0.022503171 -0.036843013 -0.19951157
-0.09121846 -0.30085713 -0.19855963 -0.022810513 0.30397546 -0.0016116647 -0.01061966 -0.2492954
-0.05657003 0.2608816 -0.11003857 -0.07949789 -0.15643701 -0.2066477 0.15053928 -0.06920567
-0.051730774 0.03141539 0.05216292 -0.10980997 -0.06885195 0.25043908 -0.12885785 -0.2537496
0.021701943 0.21438332 0.15829143 -0.07751647 -0.29398343 -0.1410228 0.0039200922 -0.0803325
0.31472704 -0.22422703 0.04745504 -0.058506537 0.024681969 0.19555967 0.0700232 -0.39633375
-0.023707332 -0.039329216 0.012094103 -0.09305326 -0.08846222 0.16170225 0.30487987 0.1074974
-0.20260097 0.30551675 -0.1082274 -0.09246239 0.065494046 -0.1019446 -0.23932044 -0.06263942
0.02983976 0.031860583 -0.07927168 -0.08481704 0.072013706 -0.15641141 0.15532516 0.047520194
-0.03026781 -0.1983259 -0.36966655 -0.16587202 -0.16005892 -0.20330708 0.4259949 -0.00550943
0.1433542 0.25215736 -0.036427937 0.28944376 -0.15816212 0.035708297 -0.24294986 0.022047138
-0.032745633 0.029986618 -0.16755593 0.19349502 0.02520004 0.07521407 -0.05300601 0.2510922
-0.013359151 -0.23966193 -0.2899127 -0.19548897 0.5017475 -0.3679963 -0.051501367 -0.054757643
-0.048196375 -0.057125106 -0.036851928 0.18958935 -0.14020482 0.19120634 0.28560618 -0.0170023
-0.39123178 -0.008925505 0.15965049 0.31432176 0.04361801 -0.2728038 -0.22141962 -0.18241364
0.29202765 -0.022222525 0.38398063 0.051139787 -0.17184873 0.30379552 -0.30830362 0.1760428
-0.16404733 0.14284207 0.26798093 0.19468452 -0.2347703 0.19375242 -0.055514723 -0.25352502
0.36331257 -0.35604084 0.16670176 0.021697441 -0.13087402 -0.14240348 -0.07950466 -0.24394912
0.087708384 -0.13986333 -0.08231719 0.12330051 0.16681398 -0.16644587 0.23418763 -0.030118568
-0.060142443 -0.052465905 0.15516652 -0.12082939 -0.08832974 -0.51222163 -0.04633821 -0.17310618
0.07244449 -0.14821339 0.1263754 -0.024273725 0.24287903 -0.27321064 0.16448645 0.2209577
-0.21252763 0.35733545 0.08905598 -0.048084177 -0.21213795 0.10396266 0.17117238 -0.013511858
0.088977076 -0.074747324 0.24713233 -0.14036834 -0.10156442 -0.12860674 0.26775274 -0.06876419
-0.022288762 0.05351147 -0.21175021 -0.05363584 0.012337123 0.36297464 -0.35898742 0.41095722
00000000: 26c0 dd3c d738 8cbe 49e4 54be 5e58 62be
00000010: 9d8e 763e 4ddc 97bd 0565 51bd 428c 8c3e
00000020: f31b 2c3e 971c 9d3e 9e8c 433d 3a32 a83e
00000030: f270 6fbe 7ca6 febe 5c76 2b3d 9dc8 55be
00000040: 1796 ad3e ab27 cc3c e47d cab9 8a78 f43c
00000050: 7106 c6be 3d50 0fbd 6b6f cbbd beac 3e3e
00000060: ee60 b43d 124a 293e edea 93be 31df 32bd
00000070: 5604 ce3d 0fa4 3f3e 6ac7 b4bd 55c8 393e
00000080: 2a82 0e3d b4c3 b53d 6c0b d4bd c48b f73d
00000090: 5afe cbbd f597 25be a280 733e 4538 a53e
000000a0: c45c cb3e 9189 5e3e 4e1a 19be 352c 6fbd
000000b0: e4d5 8fbd 385c 0c3e 7c21 103e 6a21 a2bd
000000c0: df5c 7a3e b733 2cbe 40b0 61be 68a2 95bd
000000d0: 0fb7 0abd 9dc5 ad3e 2a50 a6bd 1963 09be
000000e0: d605 9d3d 6ac2 edbc 91e6 883d 130c 1bbd
000000f0: 3ca2 cbbc 4cb6 02bb 0b9d a23e 0de3 863e
00000100: c2f5 9abd 55ce e53d 88e7 403e c5b6 193a
00000110: f8e7 1d3d 9258 b8bc b3e8 16bd c34c 4cbe
00000120: bed0 babd f209 9abe 3753 4bbe 1ddd babc
00000130: aca2 9b3e 7e3e d3ba 15fe 2dbc 4b47 7fbe
00000140: fab5 67bd 4692 853e e75b e1bd cacf a2bd
00000150: 0631 20be 749b 53be f826 1a3e b4bb 8dbd
00000160: a6e3 53bd 6dad 003d c9a8 553d 0de4 e0bd
00000170: 4002 8dbd 8d39 803e 50f3 03be 78eb 81be
00000180: 46c8 b13c 4d87 5b3e 2617 223e f4c0 9ebd
00000190: ff84 96be 4868 10be 1e74 803b 5e85 a4bd
000001a0: e723 a13e c59b 65be 3760 423d 8da4 6fbd
000001b0: d731 ca3c cb40 483e 5368 8f3d 42ec cabe
000001c0: e135 c2bc ac17 21bd 5826 463c b592 bebd
000001d0: ae2b b5bd 4695 253e 3719 9c3e 9927 dc3d
000001e0: a176 4fbe b16c 9c3e 54a6 ddbd ec5c bdbd
000001f0: be21 863d 55c8 d0bd 6b10 75be 1949 80bd
00000200: 8372 f43c 3e80 023d 3159 a2bd 8eb4 adbd
00000210: ec7b 933d 502a 20be 8f0d 1f3e 89a4 423d
00000220: 33f4 f7bc f215 4bbe ef44 bdbe 5bda 29be
00000230: 7ce6 23be bb2f 50be 011c da3e 7388 b4bb
00000240: 72cb 123e c51a 813e 7635 15bd f931 943e
00000250: 40f5 21be dd42 123d d9c7 78be 339c b43c
00000260: 4920 06bd 7fa6 f53c c893 2bbe 8f23 463e
00000270: 5070 ce3c d609 9a3d d41c 59bd 288f 803e
00000280: 57e0 5abc f069 75be 706f 94be 432e 48be
00000290: 8672 003f 036a bcbe 19f3 52bd 8d49 60bd
000002a0: 9069 45bd 04fc 69bd 0cf2 16bd b623 423e
000002b0: da91 0fbe 98cb 433e f93a 923e 6848 8bbc
000002c0: 884f c8be 483c 12bc 6b7b 233e c8ee a03e
000002d0: cca8 323d f1ac 8bbe d3bb 62be a4ca 3abe
000002e0: a684 953e 030c b6bc 1c99 c43e f477 513d
000002f0: 1df9 2fbe 168b 9b3e f9d9 9dbe 9044 343e
00000300: 06fc 27be 3145 123e cc34 893e 615b 473e
00000310: a067 70be 0967 463e 6863 63bd 08ce 81be
00000320: 1b04 ba3e fc4a b6be deb3 2a3e d5be b13c
00000330: d703 06be 38d2 11be 57d3 a2bd cccd 79be
00000340: 74a0 b33d 5538 0fbe ea95 a8bd fa84 fc3d
00000350: 49d1 2a3e c970 2abe e2ce 6f3e 37bb f6bc
00000360: ec57 76bd 7de6 56bd f9e3 1e3e 6675 f7bd
00000370: 39e6 b4bd f520 03bf 23cd 3dbd bf42 31be
00000380: c75d 943d 40c5 17be 8e68 013e b1d9 c6bc
00000390: 48b5 783e 44e2 8bbe 236f 283e bc42 623e
000003a0: d8a0 59be acf4 b63e fb62 b63d eaf3 44bd
000003b0: b13a 59be 60ea d43d d047 2f3e d760 5dbc
000003c0: 9d39 b63d 2015 99bd 4210 7d3e b8bc 0fbe
000003d0: 0201 d0bd 7cb1 03be e316 893e 3dd4 8cbd
000003e0: ec96 b6bc d82e 5b3d 0cd5 58be 41b1 5bbd
000003f0: a521 4a3c d0d7 b93e 33cd b7be fc68 d23e

linears.1.bias f4 [64]
-0.02130022 -0.028717762 0.07082116 0.062396362 0.014056366 -0.0042308336 -0.00011574016 0.07620003
0.00019138026 0.035311528 -0.02121521 0.044929452 -0.013567937 -0.02395573 -0.021036597 0.017816907
-0.003833921 -0.0019017727 -0.00853607 0.0369461 -0.011646313 0.006045138 0.010347825 0.0016798703
-0.014494705 -0.0033580877 -0.013214288 0.012063451 0.071114354 -0.0132312495 -0.025531005 -0.05246121
-0.021184875 0.09749153 -0.008993712 -0.00057181105 0.029785095 -0.017742079 0.0065195262 0.018854134
0.013394088 -0.011658234 -0.029635224 -0.0062859897 0.15525198 -0.0056314482 0.017178731 0.012864301
-0.03475032 0.054307412 -0.12203798 -0.012536891 -0.00036691214 0.035066467 0.016612908 0.017185165
-0.026110468 -0.008856908 -0.007904489 0.02173059 -0.0031439213 -0.008487428 -0.0032759295 -0.019548789
00000000: cd7d aebc 8341 ebbc af0a 913d 5493 7f3d
00000010: ac4c 663c cea2 8abb 86b9 f2b8 c30e 9c3d
00000020: 3fad 4839 d2a2 103d 85cb adbc f207 383d
00000030: 0d4c 5ebc cf3e c4bc f154 acbc c3f4 913c
00000040: 8542 7bbb e744 f9ba dfda 0bbc cb54 173d
00000050: 2dd0 3ebc 4b16 c63b ec89 293c 182f dc3a
00000060: 337b 6dbc 5d13 5cbb be80 58bc c8a5 453c
00000070: 67a4 913d e2c7 58bc 6626 d1bc 91e1 56bd
00000080: e78b adbc a4a9 c73d 5d5a 13bc 97e5 15ba
00000090: dfff f33c d657 91bc c0a1 d53b fc73 9a3c
000000a0: e072 5b3c 2d02 3fbc 92c5 f2bc b4fa cdbb
000000b0: 60fa 1e3e 0388 b8bb 69ba 8c3c cac4 523c
000000c0: 5a56 0ebd 7371 5e3d 0cef f9bd 8867 4dbc
000000d0: 1d5e c0b9 dba1 0f3d cb17 883c e7c7 8c3c
000000e0: 9fe5 d5bc 911c 11bc d481 01bc 5a04 b23c
000000f0: 3f0a 4ebb da0e 0bbc fab0 56bb c824 a0bc

linears.2.weight f4 [64, 64]
-0.1622578 0.026493965 -0.041327197 0.11491652 -0.15582855 0.039705336 0.06708809 0.08029908
-0.0009897335 0.03834432 -0.010053002 0.1456287 0.03551042 0.15800537 -0.06001729 0.09249656
0.06097759 0.02090679 0.33752018 0.050848823 0.25751016 -0.026537605 0.032904014 -0.10735989
0.15038979 0.15484008 -0.07144182 -0.11612157 -0.054145638 -0.20193878 0.020897938 0.028747853
0.2391385 0.09068173 0.23584984 -0.12563637 -0.03927501 0.10889684 -0.048610743 -0.13803867
0.01190754 0.2141616 -0.021892065 -0.007202897 0.016905425 -0.015725035 0.08188912 -0.098232225
-0.28592876 -0.25383165 -0.1918693 -0.056272812 -0.2560469 -0.17647405 -0.2630762 0.12196824
-0.05615014 0.06788367 0.0708774 0.22841798 -0.04723801 0.17032719 -0.18274428 -0.13187273
-0.23246491 -0.041216243 0.06743661 -0.10358444 -0.012256794 -0.059108432 -0.04874662 0.2750675
0.039258763 -0.20612115 -0.11209581 0.02485011 -0.14394538 -0.17903587 0.004378508 0.03824067
0.21946722 -0.03899365 -0.17698954 0.27581853 -0.14359231 0.10747177 0.05870751 0.13838771
-0.13494538 -0.12215481 0.058823593 -0.2514295 -0.07601438 0.21234734 -0.078837655 0.11908912
-0.24343754 -0.16880909 -0.22960716 0.052348483 -0.3311013 -0.19966887 0.00082150486 0.15179874
-0.13094871 0.06846167 0.12903604 0.06833193 -0.0063962024 0.16153851 0.0069278358 0.057106614
0.19048649 0.07628833 -0.07215335 -0.10424626 0.029382652 -0.060722664 -0.045132563 0.20947948
0.18847887 0.12501992 0.031137692 0.028666927 -0.028530344 -0.052435443 -0.22247794 0.0016349662
-0.11842506 -0.23030981 -0.23109141 0.06408741 -0.19564036 0.16228034 0.004871164 -0.012288499
0.09076217 -0.09315788 -0.22254114 -0.18009141 -0.054432955 -0.12304751 0.31666833 -0.09193931
-0.37763512 -0.06289061 0.049465112 0.09224004 -0.2208009 0.080369174 -0.047620945 0.15282124
0.0733747 -0.008136419 0.13532442 0.18060127 0.13443027 0.17510362 -0.1221027 0.1621677
-0.13153508 0.17389324 0.057181895 -0.14639428 -0.1276833 0.052146316 -0.07796852 0.079241894
-0.005259397 -0.11946787 0.11037953 -0.02005359 0.08081694 0.07949657 0.046352077 -0.07502535
-0.014570284 0.16057476 -0.12971875 0.10186569 -0.12803346 0.14095512 -0.11350396 0.05571276
-0.05164403 0.016686367 -0.27055782 -0.08901203 0.12598482 -0.08228244 0.056088865 -0.12361479
-0.08631723 0.18097936 0.22094461 -0.329629 -0.12018588 -0.18260317 -0.14521374 -0.1913645
-0.15553744 0.041812822 0.0016695879 -0.005336113 0.014381063 0.22458315 -0.09574775 -0.054582912
0.5300271 0.078751184 0.35146254 0.066890694 0.02765994 -0.14646788 -0.17096275 -0.04419408
0.084811956 -0.0074223485 0.035996217 -0.1954833 0.11345174 -0.08520287 0.21355492 0.26204586
0.081014834 -0.12959236 0.07242361 -0.041630268 -0.06382249 -0.18294846 0.009258215 -0.1833675
0.11570326 0.078979395 0.11114838 -0.11397256 -0.11166049 0.050226003 -0.0746902 -0.09454775
-0.08937509 -0.07681187 -0.16083814 0.042253435 -0.00136737 -0.1714025 0.012152327 -0.08827698
0.116338246 -0.18495366 0.23718025 0.055540334 0.18556148 0.30263737 -0.040830594 0.11723851
00000000: e926 26be df09 d93c b546 29bd 5a59 eb3d
00000010: 8591 1fbe 10a2 223d 7b65 893d d873 a43d
00000020: f2b9 81ba ef0e 1d3d 59b5 24bc b11f 153e
00000030: 6073 113d 29cc 213e b1d4 75bd d66e bd3d
00000040: a3c3 793d b744 ab3c 72cf ac3e db46 503d
00000050: 5fd8 833e 6465 d9bc 5cc6 063d 81df dbbd
00000060: c8ff 193e 668e 1e3e 1750 92bd 25d1 edbd
00000070: d1c7 5dbd 0ac9 4ebe 2732 ab3c 9e80 eb3c
00000080: b9e0 743e 58b7 b93d 9f82 713e d2a6 00be
00000090: d5de 20bd 4e05 df3d 0f1c 47bd 025a 0dbe
000000a0: d817 433c 2e4d 5b3e fd56 b3bc 4806 ecbb
000000b0: 3f7d 8a3c cad1 80bc 7cb5 a73d fa2d c9bd
000000c0: 4165 92be 39f6 81be 6379 44be 527e 66bd
000000d0: 9418 83be 9db5 34be ecb1 86be 7cca f93d
000000e0: b0fd 65bd 9806 8b3d 2c28 913d 67e6 693e
000000f0: a57c 41bd 406a 2e3e 5121 3bbe a509 07be
00000100: 480b 6ebe 5dd2 28bd 351c 8a3d 1424 d4bd
00000110: b8d0 48bc af1b 72bd 89aa 47bd a6d5 8c3e
00000120: cccd 203d 6c11 53be 7d92 e5bd 7592 cb3c
00000130: 6b66 13be 2e55 37be 9679 8f3b 40a2 1c3d
00000140: 04bc 603e ceb7 1fbd bf3c 35be 1638 8d3e
00000150: dd09 13be 291a dc3d 4977 703d 82b5 0d3e
00000160: 1f2f 0abe 4d2c fabd 02f1 703d 5ebb 80be
00000170: 6dad 9bbd 9571 593e a375 a1bd ffe4 f33d
00000180: b147 79be 4adc 2cbe 241e 6bbe 5d6b 563d
00000190: 1c86 a9be ff75 4cbe 425a 573a 2171 1b3e
000001a0: 6b17 06be a235 8c3d 0622 043e 9cf1 8b3d
000001b0: 3c97 d1bb 5a6a 253e e602 e33b a0e8 693d
000001c0: e40e 433e 0e3d 9c3d 23c5 93bd 107f d5bd
000001d0: e3b3 f03c 54b8 78bd ecdc 38bd ca81 563e
000001e0: 9b00 413e 3905 003e 7914 ff3c e7d6 ea3c
000001f0: 78b8 e9bc 8cc6 56bd 42d1 63be 5d4c d63a
00000200: d688 f2bd 56d6 6bbe 3aa3 6cbe 4340 833d
00000210: f255 48be d12c 263e 499e 9f3b b355 49bc
00000220: 84e1 b93d 8fc9 bebd d3e1 63be e269 38be
00000230: 17f5 5ebd 5500 fcbd 5a22 a23e ad4a bcbd
00000240: 6459 c1be cbcc 80bd ee9b 4a3d 59e8 bc3d
00000250: a219 62be 9898 a43d 2e0e 43bd 2c7d 1c3e
00000260: 7a45 963d 9d4e 05bc 7c92 0a3e 8aef 383e
00000270: 17a8 093e 5d4e 333e fb10 fabd 4a0f 263e
00000280: 22b1 06be 1211 323e 9037 6a3d 62e8 15be
00000290: 69bf 02be 6097 553d f6ad 9fbd 9349 a23d
000002a0: 0557 acbb 92ab f4bd aa0e e23d 6d47 a4bc
000002b0: 5a83 a53d 19cf a23d addb 3d3d e4a6 99bd
000002c0: 33b8 6ebc b66d 243e fed4 04be f59e d03d
000002d0: 341b 03be 8a56 103e c474 e8bd 1033 643d
000002e0: b188 53bd d9b1 883c 8e86 8abe f04b b6bd
000002f0: 2a02 013e b283 a8bd 70bd 653d c029 fdbd
00000300: 16c7 b0bd a752 393e 4e3f 623e 22c5 a8be
00000310: 0424 f6bd 53fc 3abe e9b2 14be 0ef5 43be
00000320: 3545 1fbe ec43 2b3d 13d6 da3a 8fda aebb
00000330: 8d9e 6b3c 20f9 653e 6517 c4bd 5592 5fbd
00000340: dbaf 073f 4d48 a13d e6f2 b33e fdfd 883d
00000350: 1997 e23c adfb 15be dc10 2fbe da04 35bd
00000360: e4b1 ad3d 2c37 f3bb c570 133d c62c 48be
00000370: 6359 e83d d87e aebd 24ae 5a3e e02a 863e
00000380: 1beb a53d dcb3 04be d452 943d 8084 2abd
00000390: 5eb5 82bd d756 3bbe c5af 173c b1c4 3bbe
000003a0: d5f5 ec3d f3bf a13d c3a1 e33d 726a e9bd
000003b0: 41ae e4bd c8b9 4d3d 2df7 98bd 40a2 c1bd
000003c0: 4a0a b7bd 8b4f 9dbd c1b2 24be f011 2d3d
000003d0: 5339 b3ba 2384 2fbe 8e1a 473c 90ca b4bd
000003e0: bf42 ee3d 7e64 3dbe 61df 723e 437e 633d
000003f0: d403 3e3e 49f3 9a3e fb3d 27bd be1a f03d

linears.2.bias f4 [64]
0.021138113 -0.0005390968 0.024530714 -0.039559014 0.09218909 -0.0437533 -0.08180782 -0.0006695563
-0.022991125 0.025743678 0.0020168114 -0.015370724 -0.02678896 0.031226294 0.0893951 0.021386707
-0.025753204 -0.02736793 -0.044023573 0.0026127913 0.03290724 -0.016568772 -0.032484934 0.008953304
0.010051502 0.038256314 -0.019329384 0.009030535 0.0014262294 0.045447674 0.016016042 -0.00066021876
-0.017982474 -0.037789915 0.009300065 -0.005935475 -0.006319566 -0.007746376 0.0022515617 -0.022228582
-0.02211833 -0.0038470002 0.015586028 0.056495618 -0.08310328 -0.020967327 0.020940902 -0.0137685025
0.01343005 0.04731931 -0.021993075 0.06939273 -0.023126876 0.020795317 0.074942276 0.057978332
0.05855575 0.011213806 -0.02884196 -0.012730995 0.040869076 0.033935994 0.026108969 0.007570832
00000000: d629 ad3c 2d52 0dba a3f4 c83c a208 22bd
00000010: a2cd bc3d a936 33bd dc8a a7bd 2a85 2fba
00000020: e257 bcbc 68e4 d23c 7b2c 043b 7dd5 7bbc
00000030: 8574 dbbc 49ce ff3c c714 b73d 2d33 af3c
00000040: 62f8 d2bc b632 e0bc 1052 34bd 5d3b 2b3b
00000050: bec9 063d 3cbb 87bc ec0e 05bd e1b0 123c
00000060: 0eaf 243c a7b2 1c3d a858 9ebc cff4 133c
00000070: 51f0 ba3a 5727 3a3d 1334 833c 8812 2dba
00000080: fb4f 93bc 99c9 1abd 4d5f 183c 607e c2bb
00000090: 5d14 cfbb 50d5 fdbb f08e 133b b718 b6bc
000000a0: 8031 b5bc f41d 7cbb 8a5c 7f3c f367 673d
000000b0: 0d32 aabd acc3 abbc 418c ab3c 4995 61bc
000000c0: b609 5c3c e5d1 413d d22a b4bc c71d 8e3d
000000d0: 9374 bdbc f15a aa3c 567b 993d b07a 6d3d
000000e0: 27d8 6f3d 1dba 373c f945 ecbc aa95 50bc
000000f0: 5566 273d 7800 0b3d 7ae2 d53c be14 f83b

linears.3.weight f4 [32, 64]
-0.41100067 -0.08632653 -0.15373841 0.24827074 0.06911419 0.13222674 0.24775277 0.03938534
0.3395738 -0.06934099 0.026656685 0.087434016 0.11743499 -0.29791215 -0.2875731 -0.0031844866
0.08686319 0.19359733 -0.12777494 -0.014897501 0.020880582 0.13812761 0.26915762 0.05297628
-0.16469105 0.073111564 -0.15252015 -0.25121015 -0.03529625 0.11184918 0.0389456 0.1268647
-0.0827448 0.036294475 0.17777447 0.11202126 -0.028915735 0.070721805 0.19398159 -0.083743975
0.13552207 -0.04898958 -0.056069832 0.19930555 -0.0082478 -0.10298906 -0.2727556 -0.20786694
0.1344053 0.12665096 0.103180185 0.1921068 0.09615412 0.2528028 -0.35757744 0.117044784
-0.08677233 -0.014749004 0.2587319 0.21598977 -0.14447024 0.049673088 0.07314633 -0.17246073
0.3917858 0.15185499 0.14238809 0.060145676 0.356817 -0.4173274 -0.23961273 0.1129594
0.11001633 -0.00703565 0.13906674 0.5943827 -0.15243043 -0.22463726 0.2277993 0.036162637
0.17200188 0.027392061 0.04258215 0.29940283 0.26929507 0.21991213 0.38264877 -0.29955178
-0.12869023 0.071196996 0.119227156 -0.47724792 -0.044766597 -0.059482846 -0.25931877 -0.33220822
0.23676328 -0.09806557 0.120788336 -0.15850668 0.52896214 0.553702 -0.05145221 0.2972919
0.10542615 -0.34619892 -0.33801365 -0.22409007 0.117392436 0.35049304 0.025276773 0.3240237
-0.07539279 -0.06413013 0.33079323 -0.2826915 0.10855795 0.10912525 0.13713048 -0.06827002
0.07390925 -0.0997937 -0.5768389 0.27025563 -0.14662614 -0.325697 0.37313214 0.35877123
0.23617913 -0.22627002 0.17274363 0.06311672 0.057840798 0.3102486 -0.08331056 -0.09977931
-0.24097556 -0.12035316 -0.29757082 0.06870859 -0.013284469 -0.17265873 -0.0659222 -0.19379777
0.23501328 0.15651536 0.22250734 0.022626027 -0.10954588 0.15539142 0.07626405 0.12628956
-0.13123333 -0.13362616 0.0397719 -0.028170995 -0.14318238 -0.19085215 0.06683556 0.011842076
0.21400781 -0.030561179 0.38521844 0.18743533 0.04055945 -0.1356224 0.014448974 0.2329605
-0.29633048 -0.22395295 0.12018565 -0.4048942 -0.053099863 0.24250688 -0.4040725 -0.11990973
0.22331585 0.11997957 0.056948956 -0.031741858 0.26446778 0.059949506 -0.3310174 0.017337624
-0.01826794 -0.16471098 0.022540499 0.19735287 -0.16887891 0.3411453 -0.09940902 0.18502516
-0.27714488 0.24539901 0.12258885 -0.07772485 0.08093612 -0.24216479 0.25059542 0.13915451
0.050286766 -0.4005382 -0.078083076 -0.122753665 0.0168548 0.12075428 0.013604595 -0.16441092
0.110480174 -0.11359864 0.19212763 0.2477579 -0.15408231 -0.08079341 0.32849437 -0.0922639
-0.15097328 -0.033906817 0.13400576 0.12012658 0.0062837177 -0.08347718 -0.15726075 0.087604925
0.058241323 0.26119098 0.038566116 -0.34427354 0.010458048 -0.17693192 0.07355689 -0.048756577
0.09923294 -0.15198228 -0.067344755 -0.096417606 -0.2538448 0.31888106 -0.17807224 0.1364247
-0.123064406 -0.2239337 0.16747111 -0.15286313 0.21932983 -0.11208855 -0.2039203 -0.14849305
0.22938967 0.15625013 0.3586915 -0.1334716 0.013171562 0.028391395 -0.035097223 0.052519683
00000000: ae6e d2be f7cb b0bd 9a6d 1dbe af3a 7e3e
00000010: be8b 8d3d 7266 073e e7b2 7d3e 8652 213d
00000020: 9edc ad3e a602 8ebd 1f5f da3c 9b10 b33d
00000030: c281 f03d f187 98be c83c 93be d2b2 50bb
00000040: 54e5 b13d 613e 463e 6fd7 02be a614 74bc
00000050: c10d ab3c 5371 0d3e 07cf 893e a8fd 583d
00000060: c5a4 28be 84bb 953d 3e2e 1cbe 9e9e 80be
00000070: cd92 10bd 2f11 e53d 6c85 1f3d d2e8 013e
00000080: 1b76 a9bd 84a9 143d 830a 363e 676b e53d
00000090: b1e0 ecbc 98d6 903d 1ca3 463e f681 abbd
000000a0: 4cc6 0a3e 4ca9 48bd 7ba9 65bd c116 4c3e
000000b0: c821 07bc eeeb d2bd 9fa6 8bbe 12db 54be
000000c0: 8ba1 093e cab0 013e 2250 d33d a5b7 443e
000000d0: 74ec c43d 5e6f 813e 6414 b7be 2db5 ef3d
000000e0: b1b5 b1bd cea5 71bc 8278 843e 6c2c 5d3e
000000f0: 02f0 13be 0276 4b3d becd 953d 8c99 30be
00000100: 2698 c83e e07f 1b3e 2fce 113e 505b 763d
00000110: b8b0 b63e f0ab d5be 0a5d 75be 4257 e73d
00000120: 3e50 e13d 4f8b e6bb 8367 0e3e 7729 183f
00000130: b916 1cbe 4f07 66be 3844 693e 461f 143d
00000140: 4321 303e 5165 e03c 9f6a 2e3d 544b 993e
00000150: 0be1 893e a530 613e 8aea c33e da5e 99be
00000160: 5fc7 03be bbcf 913d 5e2d f43d d759 f4be
00000170: 2e5d 37bd 49a4 73bd 6ec5 84be 3217 aabe
00000180: 1372 723e 9ad6 c8bd e05f f73d 934f 22be
00000190: 106a 073f 6abf 0d3f 8dbf 52bd a536 983e
000001a0: aae9 d73d fc40 b1be 2010 adbe de77 65be
000001b0: 726b f03d d373 b33e 3c11 cf3c 6fe6 a53e
000001c0: 8967 9abd a856 83bd bb5d a93e f1bc 90be
000001d0: a153 de3d 0f7d df3d ef6b 0c3e 27d1 8bbd
000001e0: bc5d 973d a460 ccbd b7ab 13bf f25e 8a3e
000001f0: 2a25 16be c2c1 a6be 2d0b bf3e ddb0 b73e
00000200: f1d8 713e 54b3 67be b5e3 303e 5743 813d
00000210: 79ea 6c3d e8d8 9e3e ba9e aabd 1859 ccbd
00000220: 4cc2 76be b87b f6bd 345b 98be 17b7 8c3d
00000230: 1aa7 59bc 73cd 30be 3802 87bd ec72 46be
00000240: 52a7 703e 9045 203e f7d8 633e 385a b93c
00000250: 9759 e0bd ee1e 1f3e 5430 9c3d 0d52 013e
00000260: 0862 06be 4cd5 08be dce7 223d dcc6 e6bc
00000270: 679e 12be bf6e 43be 15e1 883d 4405 423c
00000280: dd24 5b3e 705b fabc 5a3b c53e 0cef 3f3e
00000290: aa21 263d 99e0 0abe 64bb 6c3c 338d 6e3e
000002a0: a1b8 97be ec53 65be e523 f63d 4b4e cfbe
000002b0: 3e7f 59bd b953 783e 97e2 cebe 3c93 f5bd
000002c0: e9ac 643e d9b7 f53d 4f43 693d c003 02bd
000002d0: 5268 873e 9d8d 753d 1d7b a9be a207 8e3c
000002e0: a6a6 95bc ffa9 28be daa6 b83c df16 4a3e
000002f0: 98ee 2cbe 99aa ae3e f596 cbbd 3c77 3d3e
00000300: efe5 8dbe e149 7b3e dd0f fb3d 352e 9fbd
00000310: d6c1 a53d 0cfa 77be 0b4e 803e 857e 0e3e
00000320: 7ff9 4d3d 5813 cdbe 05ea 9fbd 4666 fbbd
00000330: 1413 8a3c 054e f73d cfe5 5e3c 565b 28be
00000340: 6e43 e23d 67a6 e8bd 1bbd 443e 3fb4 7d3e
00000350: c1c7 1dbe 0477 a5bd 6a30 a83e dbf4 bcbd
00000360: bd98 1abe e0e1 0abd ce38 093e ed04 f63d
00000370: a5e7 cd3b 15f6 aabd f608 21be 366a b33d
00000380: 748e 6e3d d3ba 853e 81f7 1d3d 9f44 b0be
00000390: 3c58 2b3c a42d 35be ffa4 963d fab4 47bd
000003a0: a43a cb3d 3ea1 1bbe 0cec 89bd 9876 c5bd
000003b0: f2f7 81be 6144 a33e 9258 36be ebb2 0b3e
000003c0: 3109 fcbd e04e 65be 8c7d 2b3e 2788 1cbe
000003d0: 0098 603e af8e e5bd 7cd0 50be 900e 18be
000003e0: 20e5 6a3e 0900 203e 6aa6 b73e c7ac 08be
000003f0: 89cd 573c 1295 e83c 1bc2 0fbd e11e 573d

linears.3.bias f4 [32]
-0.038371842 0.05377617 -0.0131757585 -0.038614333 -0.037178602 -0.042813655 0.062373746 0.051156603
0.0011118304 0.023087632 -0.04046743 -0.053456195 -0.07171363 -0.0011670395 -0.013874126 0.022430569
-0.0028926518 -0.02228589 0.048332565 -0.004981266 -0.019092022 -0.027166275 -0.046069797 0.053037435
0.008141345 -0.058092713 -0.04269879 -0.061269727 -0.06415614 -0.033763174 -0.012525022 0.00870721
00000000: cb2b 1dbd 6744 5c3d 23df 57bc 102a 1ebd
00000010: 9748 18bd 5f5d 2fbd 9d7b 7f3d 9689 513d
00000020: d6ba 913a 4622 bd3c 2dc1 25bd e2f4 5abd
00000030: 98de 92bd 59f7 98ba 4d50 63bc 50c0 b73c
00000040: a592 3dbb e690 b6bc 5ef8 453d e339 a3bb
00000050: df66 9cbc cf8b debc afb3 3cbd c83d 593d
00000060: 4763 053c a0f2 6dbd ede4 2ebd f7f5 7abd
00000070: 4b64 83bd 414b 0abd c035 4dbc b0a8 0e3c

linears.4.weight f4 [4, 32]
0.21699883 -0.1786914 -0.15330805 0.14125133 -0.0435983 -0.00017681233 0.000620221 0.15716337
-0.36892095 0.45179167 0.016257297 0.076586775 0.006144204 0.25555038 -0.8632241 0.19506772
0.38352 0.39743075 0.04187187 0.2048203 -0.12640308 -0.07226946 0.23164234 -0.11687155
-0.4631278 -0.06400727 0.024628753 0.17494415 0.15172824 0.3161755 -0.64576554 0.04338828
-0.109312035 0.17840911 -0.91181725 -0.40756163 -0.76371855 -0.9926849 0.5049437 0.7670033
0.31364417 0.08831332 -0.54031795 -0.2738834 -0.6514556 0.33358085 -0.61580247 0.8762186
0.4221649 -0.15928076 0.91848177 0.33921444 -0.7690528 -0.6098878 -0.76011455 0.5410766
-0.09355142 -0.73426545 -0.37776396 -0.8208884 0.6522299 -0.06528503 -0.44139934 -0.3447139
0.56222 0.33321503 -0.34598836 -0.7479101 0.07502518 0.25463405 0.7079229 -0.35947984
-0.19095887 0.2850255 -0.43847576 -0.38824022 0.042936936 0.31910896 0.21806933 -0.12593801
0.004509659 0.49961394 -0.24652423 0.041195367 0.26686403 -0.53491366 -0.5938154 0.0626674
0.7451639 -0.42465448 -0.15109734 -0.4856163 -0.12551722 0.27184308 -0.29027787 0.27642655
-0.6309689 0.8593971 -0.9067918 -0.47815716 -0.69225407 -0.84977037 1.2388343 0.6459034
0.92015445 0.7523508 -1.1375751 -0.83781874 -0.64137006 0.18285626 -0.62808895 1.1181828
0.3569485 -0.26560396 0.72444594 -0.513937 -1.0503 -1.0876478 -0.8509455 0.12456744
-1.0296351 -1.3468772 -0.95604575 -0.85960495 1.1442553 -0.31700826 -0.23279281 0.7767187
00000000: f134 5e3e e1fa 36be c9fc 1cbe 30a4 103e
00000010: 2294 32bd b366 39b9 5496 223a 6fef 203e
00000020: 35e3 bcbe 3d51 e73e 062e 853c 87d9 9c3d
00000030: 5255 c93b 80d7 823e 41fc 5cbf d5bf 473e
00000040: bc5c c43e 0b7c cb3e d781 2b3d 6abc 513e
00000050: cf6f 01be 0302 94bd a633 6d3e 5a5a efbd
00000060: 161f edbe 3e16 83bd 3dc2 c93c 8f24 333e
00000070: a65e 1b3e c1e1 a13e e450 25bf e9b7 313d
00000080: fdde dfbd e1b0 363e db6c 69bf ebab d0be
00000090: 0f83 43bf 9920 7ebf fe43 013f 545a 443f
000000a0: f895 a03e 9ddd b43d 4752 0abf 723a 8cbe
000000b0: cbc5 26bf 1ccb aa3e 3ba5 1dbf dd4f 603f
000000c0: ff25 d83e 7f1a 23be 9f21 6b3f 84ad ad3e
000000d0: a5e0 44bf 9b21 1cbf de96 42bf ff83 0a3f
000000e0: e397 bfbd d2f8 3bbf 476a c1be be25 52bf
000000f0: 8af8 263f 28b4 85bd 18ff e1be 577e b0be
00000100: a6ed 0f3f 299b aa3e 6325 b1be 0977 3fbf
00000110: cda6 993d 655f 823e 6f3a 353f be0d b8be
00000120: b98a 43be ddee 913e e57f e0be 6cc7 c6be
00000130: a4de 2f3d 4062 a33e 914d 5f3e e5f5 00be
00000140: c3c5 933b 66cd ff3e d970 7cbe 79bc 283d
00000150: 67a2 883e 1af0 08bf 4904 18bf c457 803d
00000160: 10c3 3e3f 506c d9be 43b9 1abe b3a2 f8be
00000170: 9687 00be 042f 8b3e 4d9f 94be c887 8d3e
00000180: 2e87 21bf 7301 5c3f 8223 68bf 04d1 f4be
00000190: 9037 31bf 8d8a 59bf 1f92 9e3f ed59 253f
000001a0: 3e8f 6b3f 109a 403f 109c 91bf 4a7b 56bf
000001b0: d430 24bf ac3e 3b3e 70ca 20bf 9d20 8f3f
000001c0: f4c1 b63e 3efd 87be 4a75 393f 6091 03bf
000001d0: 3b70 86bf 0b38 8bbf 90d7 59bf 371d ff3d
000001e0: 15cb 83bf 7966 acbf 6abf 74bf 120f 5cbf
000001f0: f576 923f e84e a2be 3d61 6ebe 09d7 463f

linears.4.bias f4 [4]
-0.016056905 0.3131265 -0.016661264 0.76817214
00000000: c589 83bc 1e52 a03e 347d 88bc eea6 443f
