Iterations/Test model/epoch_1078.pt (torch, 37739 bytes, 10 tensors)

linears.0.weight f4 [32, 2]
0	0x3ea48389	0.32131603
1	0xbd7f083c	-0.062263712
2	0x3e8e7ce7	0.27829668
3	0xbe8fdc7f	-0.28097913
4	0x3e79a477	0.24379145
5	0xbea99c41	-0.33127025
6	0xbdcd1a8e	-0.100148305
7	0xbee93b2c	-0.45552957
8	0xbd27888b	-0.040901702
9	0x3e80fb8d	0.25191918
10	0x3d394696	0.04523333
11	0xbee3a7d2	-0.44463974
12	0x3e34357a	0.17598525
13	0x3f02023e	0.5078467
14	0x3e2609ee	0.16214725
15	0x3e40788d	0.18795986
16	0x3eb71e44	0.35765278
17	0xbd322e8f	-0.043501433
18	0xbe60f2db	-0.21967642
19	0xbdd40423	-0.103523515
20	0xbde71d05	-0.11284832
21	0xbec20e94	-0.37901747
22	0xbe5cea33	-0.21573715
23	0x3e5eb173	0.21747379
24	0xbdd4f6e0	-0.1039865
25	0xbe081fdd	-0.13293405
26	0x3e2b4c97	0.16728435
27	0xbe2969ab	-0.16544215
28	0xbdfd23d0	-0.12360346
29	0x3f1e880f	0.6192636
30	0xbd6e2e86	-0.058149837
31	0xbe351ce9	-0.1768681
32	0x3e5d7650	0.21627164
33	0x3ef8e30f	0.48610732
34	0x3e8eada0	0.2786684
35	0x3d5e9942	0.054345377
36	0xbdd7bbe3	-0.105338834
37	0x3e28ce2c	0.16484898
38	0xbe1f68ea	-0.15567365
39	0xbe13c942	-0.14432243
40	0xbdde82b2	-0.10864772
41	0xbdd9a808	-0.106277525
42	0x3e885f4c	0.26635206
43	0x3cfa04ea	0.030519921
44	0x3f18f5b4	0.59749913
45	0xbcb61cc9	-0.022230523
46	0x3e8193bf	0.25308034
47	0xbe6410d9	-0.22272052
48	0xbf0818f4	-0.53163075
49	0x3e652cb3	0.22380333
50	0x3ea2c5a1	0.31791404
51	0xbdedc0b2	-0.11609019
52	0xbe349a6c	-0.17637032
53	0xbd9f438a	-0.07776554
54	0x3d3c6181	0.045991424
55	0x3e80b967	0.2514145
56	0x3d9a0ead	0.075223304
57	0xbe367a9a	-0.17820206
58	0xbcd57a66	-0.02605934
59	0x3e9ba5e3	0.304
60	0x3dd0b6d1	0.101911195
61	0xbe0949a6	-0.13407001
62	0xbd33ef01	-0.043929104
63	0x3f1ab678	0.60434675

linears.0.bias f4 [32]
0	0x3ba10e35	0.0049150237
1	0x3c82acee	0.0159516
2	0x3c0b8487	0.008515484
3	0x3baeb08a	0.0053311037
4	0x3b903c7b	0.004401741
5	0x3af762fe	0.0018874106
6	0xbaafcb08	-0.0013411948
7	0xbc484ff5	-0.0122260945
8	0x3b8942cb	0.0041888705
9	0xbbcc5d4d	-0.0062367083
10	0x3a0f8227	0.00054744113
11	0xbc3851c5	-0.011249964
12	0x3c83d938	0.016094789
13	0xbbf22234	-0.0073893312
14	0x3b861797	0.0040921676
15	0xbb6f0270	-0.0036469959
16	0xbb495fa6	-0.0030727177
17	0x39c067ea	0.00036698516
18	0x3bbd7588	0.005781833
19	0x3b94e9ab	0.004544457
20	0x3a72728f	0.0009248638
21	0xbc19bc96	-0.009383341
22	0x3d378558	0.0448049
23	0x3b868f19	0.004106414
24	0xbd09d1ab	-0.03364722
25	0x3c04752d	0.0080845775
26	0xbb990332	-0.0046695704
27	0x3b59e69a	0.0033249022
28	0x3c489eae	0.012244863
29	0x3b44e550	0.0030043907
30	0xbccaa150	-0.024735123
31	0x3b81543a	0.003946808

linears.1.weight f4 [64, 32]
0	0x3cd4bcdd	0.025968963
1	0xbe879bb1	-0.2648597
2	0xbe47686d	-0.19473429
3	0xbe2d72c5	-0.16938312
4	0x3e322643	0.17397408
5	0x3cc679b1	0.024227949
6	0xbdaf00bf	-0.08545064
7	0x3e844539	0.25834063
8	0x3e29fb32	0.1659973
9	0x3ea1608e	0.31518978
10	0x3db5f1b4	0.08883992
11	0x3ea57a89	0.3232005
12	0xbe60db17	-0.21958576
13	0xbef6c6a6	-0.48198432
14	0xbc1f7874	-0.009733308
15	0xbe33d4fd	-0.17561717
16	0x3e9e9ae5	0.3097755
17	0x3c4f69c9	0.0126594985
18	0xbcc7cd1d	-0.024389798
19	0x3d3bf753	0.045890164
20	0xbebcbe05	-0.36863723
21	0xbd39a403	-0.04532243
22	0xbdd571f9	-0.10422129
23	0x3e445674	0.19173604
24	0x3dbc710d	0.0920125
25	0x3e274822	0.1633611
26	0xbe8e2e5c	-0.27769744
27	0xbdc0a2e9	-0.09406073
28	0x3dfe6c41	0.124229915
29	0x3dbbf3a7	0.09177332
30	0xbdac4dda	-0.084132865
31	0x3d9b4699	0.07581825
32	0x3c892fea	0.01674648
33	0x3d9fe0b7	0.07806533
34	0xbde60fd0	-0.11233485
35	0x3e2b05f3	0.16701488
36	0xbdedc2fc	-0.11609456
37	0xbdfe7cb9	-0.12426133
38	0x3e4cc587	0.19997226
39	0x3e99cfb0	0.30041265
40	0x3ec13da2	0.37742335
41	0x3e73bf95	0.23803551
42	0xbddc729b	-0.10764047
43	0xbd3ae36b	-0.04562704
44	0xbd4aa0d5	-0.049469788
45	0x3e05a421	0.13050891
46	0x3e03e794	0.12881309
47	0xbd4a8ab2	-0.049448676
48	0x3e5585e5	0.20851858
49	0xbe4733a3	-0.19453292
50	0xbe5f9327	-0.21833478
51	0xbd36a0d5	-0.044586975
52	0xbbfe8d18	-0.0077682845
53	0x3ea14699	0.31499174
54	0xbdc6e612	-0.09711851
55	0xbe17ebf7	-0.14836107
56	0x3dc06f74	0.09396258
57	0xbd3fb13b	-0.04679988
58	0x3db7dffb	0.08978268
59	0xbd994194	-0.07483211
60	0xbccfe7fc	-0.025379173
61	0xbd01324e	-0.031542115
62	0x3e951fe1	0.29125884
63	0x3e68a387	0.2271863
64	0xbd961055	-0.07327334
65	0x3de0b7a3	0.10972526
66	0x3e3f1d4f	0.18663524
67	0xbcffa96a	-0.031208713
68	0x3d21e510	0.03952509
69	0xbd2aefd9	-0.041732643
70	0xbc934b70	-0.017980307
71	0xbe2da93a	-0.16959086
72	0xbdb19d41	-0.08672572
73	0xbe9c742c	-0.30557382
74	0xbe626c0e	-0.22111532
75	0xbc4b01ae	-0.012390537
76	0x3e84fec2	0.25975615
77	0x3c4b3527	0.012402809
78	0xbc164d7e	-0.009173749
79	0xbe8735a1	-0.26408103
80	0xbd1fdbbb	-0.03902791
81	0x3e899c43	0.2687703
82	0xbdfc1487	-0.12308603
83	0xbdc06fa8	-0.09396297
84	0xbe37739c	-0.17915195
85	0xbe4653e2	-0.19367936
86	0x3e0c2aea	0.13688245
87	0xbd900b2a	-0.070333794
88	0xbd274089	-0.04083303
89	0x3cf0d99c	0.02940064
90	0x3d303af6	0.04302498
91	0xbdb612b8	-0.08890289
92	0xbdadf2d9	-0.08493585
93	0x3e8a1df1	0.26975968
94	0xbd46f29b	-0.04857121
95	0xbe6d1642	-0.23153022
96	0xbdb8845a	-0.09009619
97	0x3dcffd37	0.10155719
98	0x3d2c1e7a	0.042021252
99	0xbd8e8d12	-0.06960501
100	0xbe533de0	-0.20629072
101	0xbe838c60	-0.25693035
102	0xbd75c783	-0.060004722
103	0xbde7fbdd	-0.11327336
104	0x3e407620	0.18795061
105	0xbe06c9c2	-0.13162902
106	0x3dcc2e30	0.09969747
107	0x3d4e6163	0.050385844
108	0x3d29522e	0.04133814
109	0x3e057518	0.13032949
110	0x3e3f83de	0.18702647
111	0xbea9e2bd	-0.331808
112	0xbdce2aaa	-0.10066731
113	0xbe1935a4	-0.14961869
114	0x3da51217	0.08060091
115	0xbc701101	-0.014652492
116	0xbd37418d	-0.04474025
117	0x3db37d36	0.087641165
118	0x3e3bcaf0	0.18339133
119	0x3ae1f034	0.0017237724
120	0xbdb07514	-0.08616081
121	0x3e50a836	0.20376667
122	0xbca7de5c	-0.020491771
123	0xbe11e175	-0.14246161
124	0xbd530eea	-0.051527895
125	0xbcc5a687	-0.024127258
126	0xbe4fe083	-0.20300488
127	0x3cf27983	0.029598957
128	0x3cfdc243	0.03097642
129	0x3d211842	0.039329775
130	0xbd8cfff0	-0.06884754
131	0xbd66d7b9	-0.056358073
132	0x3cb28f24	0.02179677
133	0xbdb2d7cf	-0.087325685
134	0x3e0cd482	0.1375294
135	0x3d2a53b7	0.041583743
136	0xbcf6b8f2	-0.030117486
137	0xbe483cc0	-0.19554424
138	0xbeb23d42	-0.3481236
139	0xbe2fcad5	-0.17167218
140	0xbe204471	-0.15651108
141	0xbe4226b0	-0.1896007
142	0x3ec7e53a	0.39042073
143	0x3c65a100	0.014015436
144	0x3e03d3b1	0.12873723
145	0x3e7cc3b9	0.24684037
146	0xbd66a664	-0.056311026
147	0x3e9754bf	0.29556844
148	0xbe19f470	-0.15034652
149	0x3d0266e5	0.03183641
150	0xbe7a4d92	-0.24443653
151	0x3ce7d51d	0.028299863
152	0xbd00c27a	-0.031435467
153	0x3cfd19b8	0.030896053
154	0xbe273040	-0.16327
155	0x3e259a05	0.16172035
156	0x3d2efded	0.04272263
157	0x3b3393d4	0.0027401345
158	0xbd157cce	-0.036495976
159	0x3e321a8b	0.17392938
160	0x3dfb87e0	0.122817755
161	0xbdb0b1b6	-0.08627646
162	0xbe0246d1	-0.12722327
163	0xbdf140e8	-0.11779958
164	0x3e862d5d	0.26206484
165	0xbdea75e2	-0.114482656
166	0xbd6f00e3	-0.058350455
167	0xbd057c9e	-0.032589547
168	0x3dba36ea	0.09092505
169	0xbe15e2be	-0.14637277
170	0xbabf874f	-0.0014612469
171	0x3d423bf7	0.04742047
172	0xbe22ccda	-0.15898457
173	0x3ea74df7	0.3267667
174	0x3d9d8caa	0.07692845
175	0x3cfa911d	0.030586774
176	0xbebe8e52	-0.37217957
177	0x3dc063b8	0.0939402
178	0x3acf09b0	0.0015795734
179	0x3e7c1a56	0.24619421
180	0x3c9a4153	0.018829977
181	0xbe3eea07	-0.18643962
182	0xbd9be545	-0.07612089
183	0xbd0d77a0	-0.03453791
184	0x3e1179f7	0.14206682
185	0x3ddc416c	0.10754666
186	0x3e9d2c06	0.3069765
187	0xbd71bbc5	-0.05901696
188	0x3b2434f7	0.0025055984
189	0x3d3ecaf0	0.046580255
190	0xbe34d344	-0.17658716
191	0xbd88a377	-0.066718034
192	0xbe38593c	-0.1800279
193	0x3df1c0cc	0.11804351
194	0x3e74a791	0.23892047
195	0x3e219db3	0.15782814
196	0xbe1c123c	-0.15241331
197	0x3da85b49	0.08220536
198	0xbd198f2f	-0.037490066
199	0xbe80942b	-0.25113043
200	0x3eb1f406	0.34756488
201	0xbeb27b90	-0.34859896
202	0x3e10d96c	0.1414544
203	0x3d2d71f5	0.042345006
204	0xbe067b77	-0.13133036
205	0xbe2ff518	-0.1718334
206	0xbc608449	-0.013703414
207	0xbe877ea6	-0.26463813
208	0x3dcd07e4	0.10011271
209	0xbe14acd8	-0.1451906
210	0xbd34c82e	-0.04413622
211	0x3dff1ec2	0.124570385
212	0x3e270420	0.16310167
213	0xbe30945a	-0.17244092
214	0x3e62f783	0.2216473
215	0xbd557ec3	-0.052122843
216	0xbd3f0e6c	-0.046644613
217	0xbd89066d	-0.06690679
218	0x3e237edc	0.15966362
219	0xbda773f9	-0.08176417
220	0xbe0084cc	-0.12550658
221	0xbecdb62f	-0.40178058
222	0xbd924171	-0.07141388
223	0xbd5beafa	-0.053690888
224	0x3d7b5b9e	0.06136667
225	0xbe14a6f6	-0.14516816
226	0x3e0b9888	0.13632405
227	0x3d5f1f2a	0.05447308
228	0x3e0a3129	0.13495316
229	0xbe02dfc3	-0.12780671
230	0x3ddeb19f	0.10873722
231	0x3e4426b0	0.19155383
232	0xbe66549c	-0.22493213
233	0x3ec24065	0.37939754
234	0x3e1c2bdd	0.15251108
235	0xbd468bbf	-0.048473116
236	0xbe40ff2f	-0.18847345
237	0x3dfbe7f1	0.12300099
238	0x3dd147d9	0.10218782
239	0x3d5295b7	0.05141231
240	0x3d29961f	0.041402932
241	0xbdcccbe6	-0.09999828
242	0x3e5a9a18	0.21347845
243	0xbde49257	-0.111607246
244	0xbd8ad40f	-0.06778728
245	0xbe19960d	-0.14998646
246	0x3e7a4539	0.24440469
247	0xbd8a1f4b	-0.0674425
248	0xbb8d1ba7	-0.004306275
249	0x3d2ef5c6	0.042714857
250	0xbe3ef129	-0.18646683
251	0xbe18168a	-0.14852348
252	0x3d1d25a4	0.038365975
253	0x3e44ad81	0.19206811
254	0xbe97f3f3	-0.29678306
255	0x3e714fdc	0.2356562

linears.1.bias f4 [64]
0	0xbc85ba43	-0.016324168
1	0xbc4ba17b	-0.012428637
2	0x3bdc56bc	0.0067242067
3	0xba2fc6aa	-0.00067053235
4	0x3bc748c2	0.0060816715
5	0x3aa301be	0.0012436432
6	0x396ebe6e	0.0002276839
7	0x3cc8ed36	0.024527173
8	0xbbbb3f1b	-0.00571431
9	0x3c018fd4	0.007907826
10	0xbbbe07fd	-0.005799292
11	0x3c44df88	0.012016185
12	0xbc0b033d	-0.008484659
13	0xbc0d20cc	-0.008613776
14	0xbc70ad3c	-0.01468974
15	0x3c02b9bc	0.007978853
16	0x3b5d31b1	0.0033751542
17	0x3a212043	0.000614647
18	0xbb9fb42b	-0.0048737726
19	0x3c7746f0	0.015092596
20	0xbbc64851	-0.0060511013
21	0x3bd32a26	0.0064442335
22	0xb9ab24e1	-0.0003264314
23	0x3ae7fdd0	0.0017699543
24	0xbbe02f99	-0.0068416116
25	0xbab92f15	-0.0014128411
26	0xbbb898d5	-0.0056334534
27	0x3bc4afb2	0.00600239
28	0x3ca9c29e	0.020722684
29	0x3a1123fb	0.00055366725
30	0xbc56ff4b	-0.01312239
31	0xb9779434	-0.00023610966
32	0xbbe0b6ad	-0.006857714
33	0xb8da2b8a	-0.0001040316
34	0xbc85e4d5	-0.016344467
35	0x3b8da98b	0.0043231896
36	0x3c03812b	0.0080264015
37	0xbb464d0c	-0.0030258326
38	0xbba3cf55	-0.004999081
39	0x3b949cff	0.004535317
40	0x3bef4df9	0.0073029962
41	0xba479241	-0.0007613041
42	0xbc355ef4	-0.011070002
43	0xbc0d58af	-0.008627101
44	0x3ce390e4	0.02777905
45	0x3ac1a605	0.0014774209
46	0x3b83eada	0.004025799
47	0x3bc1baf3	0.0059121787
48	0xbbede7b1	-0.007260286
49	0x3c69ed2c	0.014277738
50	0xbc9d6716	-0.019214194
51	0xbb805c2a	-0.003917237
52	0xbb486d11	-0.0030582587
53	0x3c0eef5f	0.008724063
54	0x3c083d53	0.008315402
55	0x3b635d1e	0.0034692953
56	0xbc15e777	-0.009149424
57	0xbb430f06	-0.0029763593
58	0xbb2676b8	-0.0025400352
59	0xbb48e547	-0.0030654238
60	0xbb62775f	-0.0034556014
61	0xba95e049	-0.001143464
62	0xbc6aa31e	-0.014321117
63	0xbbc7d14a	-0.0060979472

linears.2.weight f4 [64, 64]
0	0xbe174c8e	-0.14775297
1	0x3d0aac75	0.033855874
2	0xbd5a631f	-0.053317185
3	0x3dcda661	0.100415
4	0xbe28a7a7	-0.16470204
5	0x3d530737	0.051520552
6	0x3d54dbf7	0.051967587
7	0x3d1cc8fe	0.03827762
8	0xbc23da92	-0.010000842
9	0x3d1be3d5	0.038059074
10	0xbc2769c6	-0.010218089
11	0x3e049c4b	0.12950246
12	0x3cc1c6f5	0.02365444
13	0x3e2f422d	0.17115088
14	0xbd769bc1	-0.060207132
15	0x3dba0f6e	0.09084974
16	0x3ce11c9f	0.027479468
17	0x3ce44a47	0.02786745
18	0x3ea8ad3c	0.32944667
19	0x3d21df79	0.03951976
20	0x3e677413	0.22602873
21	0xbc650cbe	-0.013980089
22	0x3ceec628	0.029147223
23	0xbdc40a89	-0.09572322
24	0x3e16e1f5	0.14734633
25	0x3e165ca8	0.14683783
26	0xbda35d3a	-0.07976766
27	0xbde1336e	-0.109961376
28	0xbd99f9b5	-0.07518331
29	0xbe372a79	-0.17887296
30	0x3b67394c	0.0035281954
31	0x3d2f06c0	0.042731047
32	0x3e5c1f7a	0.21496382
33	0x3da35ef7	0.079770975
34	0x3e669185	0.22516449
35	0xbe0620ec	-0.13098496
36	0xbd586bee	-0.052837305
37	0x3dcd019c	0.100100726
38	0xbd6a6eaf	-0.057234462
39	0xbe1f120d	-0.1553423
40	0x3ccd637d	0.025071854
41	0x3e662dbc	0.22478384
42	0xbbe6a268	-0.0070384033
43	0x3c0df681	0.008664728
44	0x3b6c7451	0.0036080072
45	0x3bebd921	0.0071975146
46	0x3dc3d3af	0.0956186
47	0xbe006624	-0.12538964
48	0xbe89915b	-0.2686871
49	0xbe866fba	-0.26257116
50	0xbe1cb25e	-0.15302417
51	0xbd3acf8e	-0.045608096
52	0xbe8952ca	-0.26820976
53	0xbe41fc0c	-0.18943805
54	0xbe831b0b	-0.2560657
55	0x3e046783	0.12930112
56	0xbccf8621	-0.025332512
57	0x3d4b14fc	0.04958056
58	0x3dcddf81	0.100523956
59	0x3e5d7a7d	0.21628757
60	0xbd5844d6	-0.052800022
61	0x3e3d60d6	0.18493971
62	0xbe436bcb	-0.19084089
63	0xbe0ca65d	-0.13735338
64	0xbe88fbeb	-0.26754698
65	0x3cd583c8	0.026063815
66	0x3ddb1d96	0.106990024
67	0xbd29803b	-0.041382056
68	0x3c144426	0.009049451
69	0xbe01b6ac	-0.1266734
70	0xbc2a366c	-0.010388952
71	0x3e822c00	0.25424194
72	0x3d8a4604	0.06751636
73	0xbe18e7d0	-0.1493218
74	0xbda9e035	-0.08294717
75	0x3d9e6bd4	0.0773541
76	0xbdd26605	-0.10273365
77	0xbe08c804	-0.1335755
78	0xbca4d6e9	-0.020122008
79	0xbc301aae	-0.010748548
80	0x3e6d44f8	0.2317084
81	0xbd99e96d	-0.075152256
82	0xbdf56008	-0.11981207
83	0x3ea141ec	0.31495607
84	0xbddc6045	-0.107605495
85	0x3d46c1e1	0.04852474
86	0x3cb21011	0.021736177
87	0x3dd3d702	0.10343744
88	0xbe20062b	-0.15627353
89	0xbdae8a61	-0.085224874
90	0x3dde553a	0.108560994
91	0xbe803676	-0.2504155
92	0xbbee6ed8	-0.007276397
93	0x3e22b796	0.15890345
94	0xbd13e9f6	-0.036111794
95	0x3d885f7e	0.06658839
96	0xbe2b4f30	-0.16729426
97	0xbd7a1098	-0.06105098
98	0xbe324c41	-0.17411901
99	0xbc8f4d08	-0.017492786
100	0xbe8c0005	-0.27343765
101	0xbe0dd09c	-0.1384911
102	0x3d40706c	0.046982214
103	0x3dcdf6c9	0.10056836
104	0xbe227672	-0.15865496
105	0x3d131391	0.03590733
106	0x3e110ec9	0.14165796
107	0x3d40c352	0.047061272
108	0xbd65cecb	-0.056105416
109	0x3dfe7529	0.1242469
110	0xbcb75efa	-0.022384156
111	0x3cb2e094	0.021835603
112	0x3e0c7125	0.13715036
113	0x3df570b1	0.11984385
114	0xbd88ae9a	-0.066739276
115	0xbe183631	-0.14864422
116	0x3d9bbcb0	0.07604349
117	0xbce790f2	-0.028267357
118	0xbafff025	-0.0019526525
119	0x3e2fc7b6	0.17166027
120	0x3e5d72a9	0.2162577
121	0x3e10d20f	0.14142631
122	0x3c7639b1	0.015028403
123	0x3db73c89	0.08947093
124	0x3c61d45e	0.013783542
125	0xbd88c695	-0.066785015
126	0xbe282b0a	-0.16422668
127	0x3d1401c5	0.0361345
128	0xbe4d4757	-0.20046745
129	0xbe655d17	-0.22398792
130	0xbe698b6b	-0.2280709
131	0x3d81e36b	0.06342205
132	0xbe99893f	-0.29987523
133	0x3e18a21a	0.14905587
134	0x3d777da0	0.06042254
135	0xbdcfc3c7	-0.101447634
136	0x3dca20d2	0.09869541
137	0xbdd97ffc	-0.10620114
138	0xbe2d1b2d	-0.16904898
139	0xbe2f8ddc	-0.17143959
140	0xbc42fca1	-0.011901052
141	0xbcfed02c	-0.031105123
142	0x3db50b73	0.088400744
143	0xbd75e60e	-0.06003385
144	0xbd774e02	-0.06037713
145	0x3d4503f4	0.048099473
146	0x3e509246	0.20368299
147	0x3e2352b6	0.1594952
148	0xbd774b54	-0.060374573
149	0x3d2b030b	0.04175095
150	0xbdfe2ff8	-0.12411493
151	0x3db83b4e	0.089956865
152	0x3e5ae36f	0.21375822
153	0xbd9a11d5	-0.075229324
154	0x3dcaac66	0.09896164
155	0xbbd6a487	-0.006550375
156	0x3e0d8d5e	0.13823459
157	0x3db9b27e	0.09067248
158	0xbd2eec67	-0.04270592
159	0x3e224457	0.15846382
160	0xbcbe7a21	-0.023251595
161	0x3e3941ab	0.18091457
162	0x3de1847f	0.110116
163	0xbe9536ec	-0.29143465
164	0xbe30a492	-0.17250279
165	0xbc9bf93b	-0.01903974
166	0xbd83ea94	-0.064412266
167	0xbc1348ba	-0.008989507
168	0xbd804628	-0.06263381
169	0xbce4246c	-0.027849399
170	0x3e54021b	0.20703928
171	0xbde43bdb	-0.11144229
172	0x3d77a683	0.060461532
173	0x3e3b6412	0.18299893
174	0x3cfc9e2f	0.030837147
175	0xbe6abcc3	-0.2292357
176	0xbce7ab8b	-0.02828004
177	0x3e1e1096	0.15436015
178	0xbd6c60da	-0.057709552
179	0x3e0994c7	0.1343566
180	0xbd8113db	-0.06302615
181	0x3de19c02	0.11016084
182	0xbe8caafd	-0.27474204
183	0xbc74aeca	-0.014934251
184	0x3d40925a	0.04701457
185	0x3dcf6e8d	0.10128508
186	0x3c2df688	0.01061786
187	0xbd88addf	-0.06673788
188	0x3dc80d4f	0.097681634
189	0x3dcfae00	0.1014061
190	0x3d34fa91	0.04418427
191	0xbd9173f6	-0.07102196
192	0xbd8842d0	-0.066533685
193	0x3e2378f7	0.15964113
194	0x3e5fa038	0.21838462
195	0xbea94725	-0.3306209
196	0xbdd8259b	-0.10554048
197	0xbe2f5aec	-0.17124528
198	0xbe2361c7	-0.15955268
199	0xbdb539fc	-0.0884895
200	0xbe20a291	-0.15687014
201	0x3d34da25	0.04415335
202	0xbcbd43c6	-0.023103606
203	0xbc905fd3	-0.017623818
204	0x3ab20854	0.0013582804
205	0x3e12483e	0.1428537
206	0x3b503666	0.0031770705
207	0xbd6edc3f	-0.05831551
208	0x3ea693e3	0.32534704
209	0x3d836d4f	0.06417333
210	0x3e929605	0.2863008
211	0x3d573e69	0.052549753
212	0xbcb439ce	-0.02200022
213	0xbe0b9acb	-0.13633268
214	0xbdf70ef7	-0.12063401
215	0xbcc17a68	-0.023617938
216	0x3d862537	0.06550067
217	0xbb1d4074	-0.0023994716
218	0x3d09c9fa	0.033639885
219	0xbe1d0e3b	-0.1533746
220	0x3dee2a42	0.11629154
221	0xbd79889f	-0.060921308
222	0x3e454b3b	0.1926698
223	0x3e896ceb	0.2684091
224	0x3cf86c0b	0.030324956
225	0xbe13c888	-0.14431965
226	0x3d4bc824	0.049751416
227	0xbc61209d	-0.013740686
228	0xbd8a4b2d	-0.0675262
229	0xbe3dfaa7	-0.18552648
230	0x3aa729b2	0.0012753515
231	0xbde7e86f	-0.1132363
232	0x3e0769f7	0.13224016
233	0x3d54998c	0.051904246
234	0x3c546f6c	0.012966018
235	0xbdc7fa8f	-0.09764587
236	0xbdd9efc4	-0.10641435
237	0x3d03d829	0.03218857
238	0xbd8da0d7	-0.069154434
239	0x3d2aa639	0.04166243
240	0xbda6b841	-0.081406124
241	0xbd9fbc5d	-0.07799599
242	0xbe74764c	-0.23873252
243	0x3d27e12c	0.040986225
244	0xbc98711c	-0.018608622
245	0xbe2103e9	-0.15724148
246	0x3d0bea53	0.034159016
247	0xbd7ca2da	-0.061678745
248	0x3c980b1b	0.018559983
249	0xbe514ca0	-0.20439386
250	0x3dbd41bd	0.09241054
251	0x3d2b406c	0.041809484
252	0x3e3dd73a	0.18539134
253	0x3e6497f2	0.22323588
254	0xbd4072be	-0.046984427
255	0x3dbb4931	0.091448195

linears.2.bias f4 [64]
0	0xb90b2e1c	-0.0001327325
1	0x3bf58a33	0.0074932813
2	0x3b33af36	0.0027417666
3	0xbc139c3f	-0.00900942
4	0x3ce9d779	0.028545128
5	0xbc90a9f7	-0.01765917
6	0xbc896f5e	-0.016776737
7	0xbb1cc104	-0.0023918757
8	0x39e1905e	0.00043022906
9	0x3c47655c	0.012170162
10	0x3b42e89f	0.0029740704
11	0xbbd50116	-0.0065003736
12	0xbc335a47	-0.010946817
13	0x3ba1fdc4	0.0049435813
14	0x3ca5044a	0.020143647
15	0x3be24f68	0.0069064386
16	0xbc78a2e6	-0.015175557
17	0xbb4b0013	-0.0030975386
18	0xbbd95a8e	-0.0066331094
19	0xba221f91	-0.00061845133
20	0x3c5301d5	0.012878855
21	0xbbad37a2	-0.005286173
22	0xbbf5f40c	-0.0075058993
23	0x3b7fda79	0.0039040132
24	0x3be672c7	0.0070327255
25	0x3a626f91	0.00086378405
26	0xbb98f4ba	-0.0046678456
27	0x3b95ea2e	0.0045750355
28	0x3afba41b	0.0019198688
29	0xbaf3c50b	-0.0018598152
30	0x3b8bf4ce	0.0042711264
31	0x3bbb1ad4	0.0057099853
32	0xbc06f7ad	-0.008237761
33	0xbc813636	-0.01577292
34	0xba11989c	-0.00055540516
35	0xbaab732d	-0.001308059
36	0xbba17add	-0.0049279765
37	0xbbb9e3c6	-0.0056729047
38	0x3c018814	0.007905979
39	0x3be30ada	0.006928784
40	0xbb8d65a2	-0.004315094
41	0x3c216bfb	0.009852405
42	0x3bf3c08e	0.007438726
43	0x3c0635dd	0.008191553
44	0x3be8fb55	0.0071100392
45	0x3ac99c4c	0.0015381663
46	0x3c0afa41	0.008482517
47	0xbbfc0435	-0.007690931
48	0x3bfb5589	0.0076701087
49	0x3c1b3e96	0.009475371
50	0xbc099f0a	-0.008399734
51	0xbb0c893c	-0.0021444103
52	0xbc6c303a	-0.014415795
53	0xbb834895	-0.004006455
54	0x3c267b7e	0.010161279
55	0x3c42a403	0.011879924
56	0x3cb58df7	0.02216242
57	0x3b25478d	0.002521965
58	0xbb1508fe	-0.0022740955
59	0xbbfdf5de	-0.007750257
60	0x3c0ccce0	0.008593768
61	0x3aeb2ad8	0.0017941846
62	0x3c7f6da4	0.015590105
63	0xbb3c9603	-0.0028775937

linears.3.weight f4 [32, 64]
0	0xbee7f1b5	-0.45301595
1	0xbcbd500d	-0.02310946
2	0xbe0f6d09	-0.14006437
3	0x3df35f63	0.11883428
4	0x3de588fb	0.112077676
5	0x3de29572	0.11063661
6	0x3e519328	0.20466292
7	0x3d1cc7fd	0.03827666
8	0x3eaeb5ed	0.34123173
9	0x3cce7b77	0.025205357
10	0x3d26c863	0.040718447
11	0xbd2a9e51	-0.04165489
12	0xbc7c2699	-0.015390062
13	0xbe3adf77	-0.18249308
14	0xbe82301e	-0.25427336
15	0xbc44f144	-0.012020413
16	0xbca5b6a0	-0.020228684
17	0x3d61601a	0.05502329
18	0xbe4dc58f	-0.20094894
19	0xbd493a9f	-0.04912817
20	0x3e235590	0.15950608
21	0x3d91baff	0.07115745
22	0x3e011932	0.12607267
23	0x3dafd1ca	0.08584936
24	0xbdd1b04f	-0.10238706
25	0x3da446ac	0.08021292
26	0xbe56f7d5	-0.20992978
27	0xbe4941fb	-0.19654076
28	0x3c0cd165	0.008594845
29	0x3e2db062	0.16961816
30	0x3e119ea4	0.14220673
31	0x3e569abb	0.20957462
32	0xbe3be8c4	-0.18350512
33	0xbdb6b44d	-0.089211084
34	0x3dd29659	0.10282583
35	0x3dc544d6	0.0963227
36	0xbe0166ce	-0.12636873
37	0x3c793e21	0.015212567
38	0x3e6b3974	0.22971135
39	0xbe1d85c2	-0.15383056
40	0x3deaaa43	0.11458256
41	0xbdb9ba2d	-0.09068713
42	0x3c20b9dc	0.009809937
43	0x3e78676e	0.24258205
44	0xbd81d3e7	-0.06339245
45	0xbe768414	-0.24073821
46	0xbdf1adea	-0.118007496
47	0xbec963e6	-0.3933403
48	0x3e504a3b	0.20340817
49	0x3e15fb44	0.14646631
50	0xbd3da562	-0.0463003
51	0x3e47b930	0.19504237
52	0xbda2ac8b	-0.07943066
53	0x3e62cf4e	0.22149393
54	0xbe969c58	-0.29416156
55	0x3e5a47e9	0.21316494
56	0xbbf55aea	-0.0074876444
57	0x3d430149	0.047608647
58	0x3e72f49d	0.23726125
59	0x3d8f3ca3	0.069939874
60	0xbd668694	-0.056280687
61	0x3d60ba2d	0.05486505
62	0x3e24838b	0.16065805
63	0xbe359c1b	-0.17735331
64	0x3e1e0512	0.15431622
65	0x3d8f9bb0	0.07012117
66	0x3d0f0c51	0.034923855
67	0xbbd8d021	-0.006616608
68	0x3e766154	0.24060565
69	0xbe885955	-0.26630655
70	0xbe5891e3	-0.21149401
71	0xbc9440bd	-0.018097276
72	0x3def929d	0.11697886
73	0x3e3bee66	0.1835266
74	0x3e4fee83	0.20305829
75	0x3e837bde	0.2568044
76	0xbe5f437c	-0.21803087
77	0xbd71f394	-0.059070185
78	0x3df4665d	0.11933587
79	0xbd9fc97c	-0.07802102
80	0xbce0b2b7	-0.027428968
81	0xbe18c177	-0.14917551
82	0xbd56b42c	-0.05241792
83	0x3e363a11	0.17795588
84	0x3ebba070	0.36645842
85	0x3cee8fc7	0.029121293
86	0x3e41e4db	0.18934958
87	0xbd536962	-0.051614173
88	0x3dee511f	0.11636566
89	0xbc08666f	-0.008325203
90	0x3cc298ac	0.02375444
91	0xbe673e6c	-0.22582406
92	0x3e1dfd55	0.1542867
93	0xbe20ed24	-0.15715462
94	0xbd7ad3d3	-0.061237168
95	0xbdd33b44	-0.103140384
96	0x3e0d0094	0.13769752
97	0xbe0cc910	-0.13748574
98	0x3d55011a	0.052003004
99	0xbe56ba60	-0.20969534
100	0x3e40b93b	0.1882066
101	0x3e95d8b6	0.292669
102	0x3e033b03	0.1281548
103	0x3d8bddff	0.06829452
104	0x3cc04c84	0.023473985
105	0xbe31408b	-0.17309777
106	0xbdc4b1b4	-0.09604207
107	0xbe52a51a	-0.20570794
108	0x3d883884	0.066514045
109	0x3d58d40b	0.052936595
110	0x3e2bf2e6	0.16791877
111	0xbd7862e6	-0.060641192
112	0x3e6e4177	0.2326716
113	0x3ca44200	0.020051003
114	0x3e04f3d5	0.1298364
115	0xbe7045af	-0.23464082
116	0xbe436476	-0.19081292
117	0x3d833f20	0.064085245
118	0x3d99fc1d	0.0751879
119	0x3db049d3	0.08607831
120	0x3e89f860	0.26947308
121	0xbc54dca2	-0.012992056
122	0xbee72dc7	-0.45152113
123	0xbd4f6d4f	-0.050641354
124	0xbdab65b5	-0.083690085
125	0xbe985a53	-0.29756412
126	0x3ecf39a4	0.40473664
127	0x3e0a0318	0.13477743
128	0x3e4af5a6	0.1982027
129	0xbe15948d	-0.14607449
130	0x3e4f94a8	0.20271552
131	0x3cb83fb9	0.022491323
132	0x3d9bf877	0.0761575
133	0x3e510e3c	0.20415586
134	0xbdd7ee3f	-0.10543489
135	0xbc9f758c	-0.01946523
136	0xbe1ccf5a	-0.15313473
137	0xbdde982f	-0.108688705
138	0xbe34a529	-0.17641129
139	0x3dab2e10	0.08358395
140	0xbdad5171	-0.08462799
141	0xbde4b26b	-0.11166843
142	0xbca57005	-0.020195017
143	0xbdc8f55d	-0.09812424
144	0x3d800007	0.06250005
145	0x3dfc6e49	0.12325723
146	0x3e388813	0.18020658
147	0x3da0b960	0.078478575
148	0xbc5327f8	-0.012887947
149	0x3e2f64d8	0.17128313
150	0x3d7d2ae5	0.061808486
151	0x3dd63b5c	0.10460541
152	0x3bc5e53f	0.006039291
153	0xbcb6aec4	-0.022300132
154	0x3d7f9c30	0.06240481
155	0xbd9618c9	-0.07328946
156	0xbe3a203b	-0.18176357
157	0xbd8c701e	-0.06857322
158	0x3db02df0	0.08602512
159	0xbc8fe2bc	-0.01756417
160	0x3e410031	0.1884773
161	0xbdca98fc	-0.09892461
162	0x3e8c9571	0.27457765
163	0x3d470579	0.048589204
164	0x3dad0ac2	0.084493175
165	0xbd2ca568	-0.04214993
166	0xbd19f159	-0.037583683
167	0x3d9730e1	0.0738237
168	0xbe79a3bc	-0.24378866
169	0xbe84c9f8	-0.2593534
170	0x3e5a3a7d	0.21311374
171	0xbe9a9d18	-0.30197978
172	0xbd326793	-0.043555807
173	0x3e69704f	0.22796749
174	0xbe956e0f	-0.2918553
175	0xbdd6f5ff	-0.10496139
176	0x3e26e171	0.16296937
177	0x3d296725	0.041358132
178	0xbc86b4d1	-0.016443642
179	0xbe280549	-0.16408266
180	0x3e27ee57	0.16399513
181	0xbda2a000	-0.07940674
182	0xbea360af	-0.319097
183	0x3d541113	0.051774096
184	0x3dc5aca6	0.09652071
185	0xbdaeeacd	-0.085408784
186	0xbd0f3e9f	-0.03497183
187	0xbd35031a	-0.04419241
188	0xbe065d1a	-0.13121453
189	0x3e5751b9	0.21027268
190	0xbd3769ca	-0.044778623
191	0x3e54af92	0.207701
192	0xbea52e89	-0.32262066
193	0x3e6b4b40	0.22977924
194	0x3dc4dbb3	0.09612217
195	0xbe347d7d	-0.17625995
196	0x3dcf4b90	0.10121834
197	0xbe570128	-0.20996535
198	0x3e6c39a8	0.23068869
199	0x3d86ccc9	0.065820284
200	0x3d156094	0.036469057
201	0xbeb56179	-0.35425928
202	0xbdbd1aae	-0.09233604
203	0xbe3f745b	-0.1869673
204	0xbdce9363	-0.100867055
205	0x3e622dae	0.22087738
206	0x3c504412	0.012711542
207	0xbe58e94e	-0.21182749
208	0x3deef6c9	0.11668164
209	0xbe679edf	-0.22619198
210	0x3e03ec46	0.128831
211	0x3e5b2dc1	0.21404172
212	0xbd2ca9d9	-0.042154167
213	0xbe11a210	-0.14221978
214	0x3e1f3dd6	0.15550932
215	0xbcf05be6	-0.029340696
216	0xbe25ee4e	-0.16204187
217	0xbdc316ce	-0.09525834
218	0x3ddaf16a	0.10690577
219	0x3e3860d4	0.18005687
220	0x3d7af172	0.061265416
221	0xbdcbcd0c	-0.09951219
222	0xbd622a2f	-0.05521601
223	0x3e366c75	0.1781481
224	0xbc26ce2e	-0.010180993
225	0x3e3c324f	0.18378566
226	0x3d855605	0.065105475
227	0xbe9c115e	-0.30482
228	0xbd90d6ce	-0.07072221
229	0xbe73b151	-0.2379811
230	0x3e1b3e96	0.15160593
231	0xbc1f5393	-0.0097245155
232	0x3d922a39	0.071369596
233	0xbe0f20b9	-0.13977326
234	0xbd8f084c	-0.069840044
235	0xbdd8b539	-0.105814405
236	0xbe912c53	-0.2835413
237	0x3e53516a	0.20636526
238	0xbd64576f	-0.055747446
239	0xbd6f96eb	-0.058493536
240	0xbd036f27	-0.032088425
241	0xbe3a52cc	-0.18195647
242	0x3d860bb9	0.06545205
243	0xbe027c67	-0.12742768
244	0x3dbe7466	0.09299545
245	0xbdc49efc	-0.09600636
246	0xbe3843f6	-0.17994675
247	0xbda936e9	-0.082624264
248	0x3e66697a	0.22501174
249	0x3e243bbd	0.16038413
250	0x3ec1a90b	0.37824282
251	0xbdde2f3e	-0.108488545
252	0x3d857f49	0.06518418
253	0x3d760578	0.06006381
254	0x3c5e9989	0.01358641
255	0x3d058c98	0.032604784

linears.3.bias f4 [32]
0	0xb9453906	-0.00018808627
1	0x3cd97d53	0.026549017
2	0xbc1b681d	-0.009485272
3	0xbbc226f0	-0.005925052
4	0xbc0acffc	-0.008472439
5	0xbc4ca685	-0.012490873
6	0x3c9f1595	0.01941947
7	0x3c14e865	0.00908861
8	0xbb8cad62	-0.00429313
9	0x3bcbca97	0.006219219
10	0xbbfd0f8a	-0.0077227997
11	0xbbb96b2f	-0.0056585292
12	0xbc5ac606	-0.0133528765
13	0x3bd7f2e7	0.0065902355
14	0xbbf8f6e9	-0.0075977934
15	0x3c3bc4eb	0.011460523
16	0x3b9d7b98	0.0048059933
17	0x3bc6fa1e	0.0060722968
18	0x3c0e41bd	0.008682665
19	0x3b3af4b3	0.00285272
20	0xbbc5cae6	-0.0060361503
21	0xbbfdf463	-0.0077500804
22	0xbb23886e	-0.0024953145
23	0x3838436a	4.3931803e-05
24	0xbae9b904	-0.0017831628
25	0xbc746c6d	-0.014918429
26	0xbbec89ed	-0.0072185905
27	0xbbf3a6de	-0.0074356636
28	0xb8ec698a	-0.00011273015
29	0x3b32915f	0.0027247292
30	0xbc0b65e9	-0.008508184
31	0x39ea2170	0.0004465687

linears.4.weight f4 [4, 32]
0	0x3e6691f1	0.2251661
1	0xbdb5ea00	-0.088825226
2	0xbe0494c8	-0.1294738
3	0x3db5b8cc	0.08873138
4	0xbe14a4fa	-0.14516059
5	0xbda50d57	-0.08059185
6	0x3c061c00	0.008185387
7	0x3e39d85f	0.18148945
8	0xbeb35ec8	-0.3503325
9	0x3ef6a739	0.48174456
10	0xbdfac7ad	-0.122451164
11	0xbd559499	-0.052143667
12	0xbdb12452	-0.08649506
13	0x3e52ae3e	0.2057428
14	0xbf506e57	-0.81418365
15	0x3e3d2e45	0.18474682
16	0x3eb18d5e	0.34678167
17	0x3ecc3457	0.39883682
18	0x3df6f74f	0.12058889
19	0x3dfe01d6	0.12402694
20	0xbe6ca5cf	-0.23110126
21	0xbe195ecc	-0.14977568
22	0x3e59b3df	0.21260022
23	0xbd235986	-0.039880298
24	0xbee15849	-0.4401267
25	0xbdf74145	-0.12072996
26	0xbdb6ad5b	-0.08919784
27	0x3dc6bd40	0.09704065
28	0x3d4bf431	0.049793426
29	0x3e92205a	0.28540307
30	0xbf1e0872	-0.61731637
31	0x3e369016	0.17828402
32	0xbd084295	-0.033266623
33	0xbda322d0	-0.07965624
34	0xbf00cfbd	-0.50316983
35	0xbe85074f	-0.2598214
36	0xbed908b6	-0.42389458
37	0xbf0bb1af	-0.54568
38	0x3d64dbdb	0.055873733
39	0x3f1550f3	0.58326644
40	0xbdf68d2f	-0.120386474
41	0x3c96a376	0.018388491
42	0xbe73780a	-0.2377626
43	0xbe1a910e	-0.15094396
44	0xbedf318a	-0.43592483
45	0x3d586891	0.052834097
46	0xbf117707	-0.56822246
47	0x3f1c235b	0.6099145
48	0x3e0e64a5	0.1390558
49	0xbde8f6df	-0.11375212
50	0x3f2b12ec	0.6682575
51	0x3e342b1f	0.17594574
52	0xbee26890	-0.442204
53	0xbec8cb65	-0.39217678
54	0xbeb8369b	-0.3597916
55	0x3e95cee6	0.29259413
56	0x3e956b4d	0.29183426
57	0xbf005a9b	-0.5013825
58	0xbe0384f0	-0.1284368
59	0xbf0d2c06	-0.551453
60	0x3e3c9b45	0.18418606
61	0x3d1fabfc	0.038982376
62	0xbec55562	-0.38541704
63	0xbecb10a4	-0.39661133
64	0x3ea1b33e	0.31582063
65	0x3ef5773c	0.4794253
66	0xbd405748	-0.046958238
67	0xbeb5e9b4	-0.35529864
68	0x3d73f2e0	0.059557796
69	0x3ea8b9c4	0.32954228
70	0x3e6f7e0b	0.23387925
71	0xbeb0e9e5	-0.34553447
72	0xbe2463e6	-0.16053733
73	0x3f0b1c2f	0.5433988
74	0xbcb7bf72	-0.022430155
75	0x3b88f888	0.004180018
76	0x3e485a7c	0.19565767
77	0x3f38811b	0.72072
78	0x3e962eba	0.29332525
79	0xbd741dfe	-0.059598915
80	0x3e0eb439	0.13935937
81	0x3edb0097	0.42773888
82	0xbd8bc014	-0.06823745
83	0x3e67705b	0.22601454
84	0x3ece958f	0.4034848
85	0xbe3f57b7	-0.18685804
86	0xbe254183	-0.16138272
87	0xbebc092e	-0.36725754
88	0x3eaf32df	0.342185
89	0xbe9f104f	-0.3106713
90	0xbd805108	-0.062654555
91	0xbeb2710a	-0.34851867
92	0xbdce4867	-0.100724034
93	0x3e452c9b	0.19255297
94	0xbdf34c81	-0.11879826
95	0xbde775a2	-0.113017336
96	0xbdcf965e	-0.10136102
97	0x3e07950e	0.13240454
98	0xbe4e861e	-0.20168349
99	0x3e1bb900	0.1520729
100	0xbcbebbb2	-0.02328286
101	0xbe669be9	-0.22520413
102	0x3f066cec	0.5250995
103	0x3cb27cb8	0.021787986
104	0x3e797b19	0.24363364
105	0x3dcfb644	0.10142186
106	0xbf074405	-0.52838165
107	0xbe34e93b	-0.17667095
108	0xbc72ead0	-0.0148264915
109	0x3ec31ae2	0.38106447
110	0x3c14e1f6	0.009087076
111	0x3f0063f0	0.5015249
112	0x3f032335	0.51225597
113	0x3e715965	0.23569258
114	0x3d6c38a6	0.05767121
115	0xbd9fbf79	-0.078001924
116	0xbebd1dbf	-0.36936757
117	0xbee36064	-0.44409478
118	0xbdf7a226	-0.12091474
119	0xbef58590	-0.47953463
120	0xbea7e7f9	-0.3279417
121	0xbf395dd4	-0.72408795
122	0xbea55d46	-0.32297724
123	0xbe30c31f	-0.17261933
124	0x3eed8f4a	0.46398383
125	0x3e887b33	0.26656494
126	0x3ed09337	0.40737316
127	0x3e2284a8	0.15870917

linears.4.bias f4 [4]
0	0x3b9011a4	0.004396634
1	0x3e27e175	0.16394599
2	0x3da07d4e	0.078364
3	0x3e47ab39	0.1949891
