Iterations/Test model/epoch_7840.pt (torch, 37739 bytes, 10 tensors)

linears.0.weight f4 [32, 2]
00000000: 0f3c a53e 2ce4 7fbe f835 8b3e 14b1 12bf
00000010: 1183 713e e6ea 1ebf 6c4c d2bd ee2d 3cbf
00000020: 3e7c 4bbd d71f 083f 8cfe 483d 0bf5 4abf
00000030: 177a 3d3e 9c30 4a3f abef 3b3e 6417 de3e
00000040: f20a b63e c700 8ebe bda2 7abe f466 77be
00000050: 403a eabd 6eaa 25bf 4ccb 93be a5d0 023f
00000060: 9d9d 02be 3520 abbe ebc2 293e 85ea fabe
00000070: 5ad4 febd 568a 643f efe8 6dbd 0d4b e0be
00000080: 9815 683e 0c4d 3d3f 1b10 9e3e 49f9 9e3e
00000090: 553a dfbd 9110 fb3e 10f2 5abe d135 d3be
000000a0: 23bf f7bd 1ce3 b3be 2222 923e 004d 823e
000000b0: 04ec 2c3f 18f7 36be 3346 8f3e e69c efbe
000000c0: 01af 0fbf aa59 de3e d925 b03e bfb1 80be
000000d0: 43e2 3dbe 4400 9ebe b5e0 313d 3aaf 053f
000000e0: 52d4 a43d 4952 febe afc1 f0bc 4ef8 1a3f
000000f0: bc38 273e 9b70 08bf 691c 41bd f0e0 663f
0.32272384 -0.24989384 0.27189612 -0.5730145 0.23585154 -0.62077177 -0.102684826 -0.73507583
-0.049679033 0.53173584 0.04907088 -0.79280156 0.18503605 0.7898042 0.18353145 0.4337722
0.35555226 -0.27734968 -0.24476142 -0.24160367 -0.114368916 -0.6471318 -0.2886604 0.51099616
-0.12755437 -0.3342301 0.16578262 -0.4900705 -0.124428466 0.89273584 -0.05808347 -0.4380726
0.22664487 0.7394569 0.30871662 0.31049564 -0.10899798 0.49036077 -0.21381402 -0.41251996
-0.12097003 -0.35134208 0.28541666 0.2544937 0.6754763 -0.17867696 0.27983245 -0.46799392
-0.5612641 0.43427783 0.34403875 -0.2513561 -0.18543343 -0.30859578 0.043427188 0.522205
0.080483094 -0.49672154 -0.02938923 0.6053513 0.16330236 -0.5329682 -0.047146235 0.9018698

linears.0.bias f4 [32]
00000000: f135 4a3c e260 be3c bcf7 963c b514 fe3b
00000010: 9910 0d3c 75c1 e8bb 319f 453b 2407 1abd
00000020: fea7 1bbb 6795 e0bc 62ee 65ba 4156 a5bd
00000030: f3cd 293d 46f9 f0bc fecd 413c 12ef 36bc
00000040: 0559 2dbb a050 2b3b abc7 b73c fe29 a8bc
00000050: 0454 4b3c fb91 9abc ac07 e73d 6184 0e3d
00000060: dedf 95bd 7197 393d a9de 26bc 0f0e 153c
00000070: 336e d53c 69d4 1b3c b2c1 0abe ffb8 3a3c
0.012341962 0.023239557 0.018428676 0.0077539333 0.008609914 -0.00710314 0.00301547 -0.037604466
-0.0023751254 -0.02741499 -0.00087711785 -0.08073092 0.041456174 -0.029415738 0.0118288975 -0.011165397
-0.0026450765 0.0026140586 0.022434076 -0.020527836 0.012410168 -0.018868437 0.1128076 0.034794215
-0.0731809 0.04531044 -0.010184922 0.00909759 0.026053524 0.009511092 -0.13550451 0.011396646

linears.1.weight f4 [64, 32]
00000000: 35ad e43c 8756 8bbe af64 52be d198 5abe
00000010: 5bd3 6e3e 34ab 7ebd b237 6abd cd3e 8c3e
00000020: 157c 2d3e dfa1 9d3e 800d 643d 1314 a83e
00000030: c130 6fbe 6451 fdbe 2bc7 093d dacc 51be
00000040: f4e5 aa3e 7700 bd3c ae71 6cbb 99ed 013d
00000050: c9f7 c4be 4255 12bd 40a9 ccbd e59b 3f3e
00000060: 39e0 b43d 655b 293e ebfd 92be 2cae 49bd
00000070: 2078 d13d 6edb 373e dec2 b2bd 0270 303e
00000080: 0e19 093d 1372 b63d 455b d2bd 1acc 053e
00000090: 26ab d5bd b4a4 1cbe 3dc6 6a3e be12 a43e
000000a0: 7f5c ca3e 027b 603e 8a64 0ebe f1af 6fbd
000000b0: 2b9e 8cbd b6ce 0c3e 4e4c 0b3e 82fd 99bd
000000c0: 2fd3 713e 121a 31be 51d1 62be 2180 8fbd
000000d0: 41e2 f0bc 4beb ab3e d1df a7bd d760 09be
000000e0: 9569 9e3d e4c3 f2bc 0538 903d d512 31bd
000000f0: 13f3 bfbc 0a7a f2bb 019a a23e 0882 833e
00000100: f625 a6bd 7242 db3d d5bc 3b3e 6d47 b03b
00000110: a894 313d 7d5b d9bc 0a20 2cbd 6a29 51be
00000120: e40b c6bd 7c27 97be 044a 46be 082f 87bc
00000130: 84e6 9d3e f975 c2bb 14ea c9bb 2c2a 7abe
00000140: 9102 7dbd 21a7 823e feda d8bd 7436 95bd
00000150: 2d13 1bbe 2b08 59be e9cb 113e 8c99 99bd
00000160: b3df 36bd b940 d03c 3fe5 6a3d 0e9e eabd
00000170: bfe4 96bd 03b5 813e 56e6 04be 0e3f 80be
00000180: 90a4 af3b 7411 523e 6ed3 173e 6240 8abd
00000190: c0db 93be 23e4 16be f93a 8abc 4d4b acbd
000001a0: 2b88 903e bc37 5ebe 4d56 8e3d 9286 61bd
000001b0: 0dce dc3c 9a71 433e bf43 a23d 89d9 c8be
000001c0: 82cc 59bd 1d14 89bd 9090 843c c9b8 adbd
000001d0: 12a2 a4bd d887 183e 847b 993e f820 ce3d
000001e0: 59f1 48be 981e 993e 8382 c4bd 7467 c4bd
000001f0: 477b 7f3d 27c7 cabd 08cb 75be 5986 70bd
00000200: 771a f63c 9190 073d a5d2 9ebd de44 a0bd
00000210: 202b 873d 2f31 16be 9175 1a3e a2cf 3c3d
00000220: 0c46 f7bc 8531 4abe f561 babe 055f 2abe
00000230: aed9 22be 0ab5 4ebe b745 d73e 55a9 11bb
00000240: bec5 0e3e 0630 803e 8dc0 1dbd d00f 953e
00000250: 3641 1fbe 4216 0c3d 583c 79be d12e bb3c
00000260: 9261 05bd 6685 f63c 04ee 29be 283d 413e
00000270: 9dd5 dd3c 8ab4 8c3d f9d6 57bd 002a 793e
00000280: 4434 803c 1305 5dbe 6991 87be 209b 46be
00000290: 654a f93e efbc b2be 1290 1abd 62ce 5cbd
000002a0: beed 85bc 7483 99bd b82e 36bd 3232 343e
000002b0: 63cb 0dbe a7b7 4b3e cb30 883e 2190 c0bc
000002c0: f203 c0be 7e3e a33c 7acd 1b3e f7a6 973e
000002d0: bb31 1c3d 24f9 83be 650e 52be a1ee 25be
000002e0: 7cc3 8b3e ece5 5bbb efce b93e 6bb9 593d
000002f0: fee6 20be b2ce 953e a94b 9fbe bc4c 263e
00000300: ecde 2abe 1d08 0f3e e13b 873e 98c9 413e
00000310: 1b73 69be 1063 3b3e 3092 56bd f59a 81be
00000320: 2f36 b83e 1ef4 b5be fbba 253e 5121 bc3c
00000330: 0160 06be df58 14be 6190 92bd 6903 7cbe
00000340: 2e74 b83d ba0a 10be 97a3 a2bd d2b4 fc3d
00000350: e9db 293e 231c 2bbe c720 6f3e d9ab 04bd
00000360: 7cbc 71bd bdf2 5cbd 8842 1f3e 1ddd efbd
00000370: 8800 babd e87a 01bf 7680 3fbd b229 29be
00000380: a67e 953d 7e21 15be c8ef 043e 3482 5cbc
00000390: 5c72 6c3e 5307 83be 542e 213e cfc4 5e3e
000003a0: 0e6b 59be 8da9 b73e ed48 c83d eae1 4abd
000003b0: cd73 56be 126d da3d 42f8 243e 7a86 f0bb
000003c0: 6d84 a93d 0df6 9ebd c8de 783e 86bd 0cbe
000003d0: 0687 c5bd 0c99 06be 9bdb 883e e0f8 88bd
000003e0: 31cd b6bc e94e 5d3d 6f2c 56be d442 80bd
000003f0: 3fc5 883c 9423 b33e 67aa b7be 67d4 ca3e
0.027914623 -0.27214453 -0.2054622 -0.21347357 0.23322813 -0.06217499 -0.05718202 0.27391663
0.16941865 0.3078756 0.055676937 0.32827815 -0.23358442 -0.4947616 0.033637207 -0.20488301
0.33378565 0.02307151 -0.00360785 0.03172073 -0.38470295 -0.03572584 -0.099932194 0.18711813
0.088318296 0.1653877 -0.2870935 -0.04923837 0.1022799 0.179548 -0.08728574 0.17230228
0.03347116 0.08908477 -0.102713145 0.1306614 -0.104330346 -0.15297204 0.22927184 0.3204555
0.39523694 0.21921924 -0.1390554 -0.0585174 -0.06866106 0.13750729 0.13603327 -0.07519056
0.23615716 -0.17295101 -0.2215016 -0.070068605 -0.029404761 0.33577952 -0.081969865 -0.13415848
0.07734982 -0.029634424 0.07041935 -0.04323085 -0.023431337 -0.007399802 0.3175812 0.25685143
-0.08112709 0.10706033 0.18333752 0.0053796084 0.04335466 -0.026532883 -0.042022742 -0.20425954
-0.09670237 -0.29522312 -0.19364172 -0.016501918 0.30839932 -0.0059344736 -0.0061619375 -0.2443015
-0.061770026 0.25518134 -0.105886444 -0.07285777 -0.15144034 -0.21194522 0.14237942 -0.0749999
-0.04464693 0.025421487 0.057347532 -0.11455928 -0.073678486 0.25333413 -0.12978491 -0.25048107
0.0053601936 0.2051447 0.14826748 -0.06750561 -0.28878593 -0.14735465 -0.016873823 -0.084128
0.28228888 -0.21700948 0.06950054 -0.055059977 0.026953721 0.19086304 0.07923078 -0.39228466
-0.05317355 -0.066932894 0.016182214 -0.084825106 -0.08038725 0.1489557 0.29977047 0.10064882
-0.19623317 0.29906154 -0.09595206 -0.095900446 0.062373426 -0.099012665 -0.24003232 -0.058721874
0.030041916 0.033096854 -0.07755021 -0.078256354 0.06600022 -0.146672 0.1508391 0.04609645
-0.030184768 -0.19745453 -0.3640286 -0.1663781 -0.1590335 -0.20186248 0.42045376 -0.0022226174
0.1394262 0.2503664 -0.03851371 0.29113626 -0.1555222 0.034200914 -0.24339426 0.022849472
-0.032563753 0.030092906 -0.16594702 0.18870986 0.027079398 0.068703726 -0.05269525 0.24332428
0.015649922 -0.21583967 -0.26478127 -0.19395113 0.4868957 -0.3490977 -0.037735052 -0.05390776
-0.016348716 -0.07495776 -0.04447815 0.17597273 -0.13847117 0.19894277 0.26599726 -0.023506226
-0.3750301 0.01992726 0.15215102 0.29619572 0.038133364 -0.25776017 -0.20513304 -0.16204311
0.2729758 -0.0033553792 0.3629069 0.053155344 -0.15713117 0.29259259 -0.31112412 0.1624021
-0.166866 0.13967939 0.2641287 0.18924558 -0.22797816 0.18299508 -0.05238551 -0.25313535
0.3597884 -0.3553781 0.16184609 0.022965105 -0.1312256 -0.14487027 -0.07156444 -0.24610676
0.090065345 -0.14066592 -0.079413585 0.12339176 0.16587795 -0.16709952 0.23352347 -0.03239045
-0.059017643 -0.05394243 0.15552723 -0.11712096 -0.090821326 -0.50578165 -0.04675337 -0.16519812
0.07299547 -0.14563558 0.12982094 -0.013458777 0.230905 -0.25591525 0.15740329 0.21754764
-0.21232244 0.35871544 0.097795345 -0.049531855 -0.20942612 0.10665335 0.16110328 -0.0073402496
0.08277211 -0.07761774 0.24303734 -0.13744172 -0.09644894 -0.1314432 0.26730046 -0.06688094
-0.02231464 0.054030333 -0.20915388 -0.062627465 0.016695617 0.3498808 -0.35872194 0.39615175

linears.1.bias f4 [64]
00000000: 3c98 b2bc e5d1 e9bc ebc4 8b3d 5f2d 7e3d
00000010: f180 673c 5533 d83a 08f6 9cb9 834f 9d3d
00000020: 65ed 80ba d048 de3c 3e75 b5bc 489c 363d
00000030: 149b 51bc 46e4 c1bc 86b0 afbc ec10 953c
00000040: 03be 74bb 6cbd d0ba a95b 10bc ca5b 173d
00000050: e7ac 3dbc 69fb dc3b 53a1 2d3c 64d4 d33a
00000060: 0262 67bc 38f8 7dbb be08 62bc c5c6 423c
00000070: 3e28 923d 5009 53bc 610c cdbc 24c3 debc
00000080: a45b aebc c2c5 b73d a062 08bc f332 f2b9
00000090: 3d9c eb3c 166b 99bc 1e48 ee3b 392b a03c
000000a0: 5496 563c 8fa1 3abc 4bf2 f5bc 6f0f c8bb
000000b0: 306d 223e df8a c2bb afe7 8f3c 60a3 513c
000000c0: 9e9e 0cbd 52ce 5a3d ac45 02be 16b9 42bc
000000d0: 9119 f0b9 4dcb 113d 990c 873c 25e5 923c
000000e0: b4b9 dabc 47da 06bc ad81 f6bb c6a3 ad3c
000000f0: b8a6 86bb f997 0bbc 121f adbb c361 a6bc
-0.021801107 -0.028542468 0.068246685 0.062054988 0.014129863 0.001649479 -0.00029937946 0.07681181
-0.0009836374 0.02713433 -0.022150632 0.044582635 -0.012793321 -0.02366842 -0.021446478 0.018196546
-0.00373447 -0.0015925593 -0.008810916 0.03695277 -0.011576868 0.0067438376 0.010597545 0.001616132
-0.014122488 -0.0038752686 -0.01379603 0.011888211 0.07136582 -0.012880638 -0.025030317 -0.02719266
-0.021283932 0.08973266 -0.008324295 -0.00046195797 0.028761024 -0.01872782 0.0072717806 0.01955186
0.013097364 -0.011391058 -0.03002276 -0.0061053555 0.15861964 -0.005936965 0.01756653 0.012795299
-0.034330957 0.05341942 -0.1272189 -0.011884948 -0.00045795416 0.035594273 0.0164855 0.01793153
-0.026699878 -0.008230752 -0.007522783 0.021196257 -0.00410923 -0.00852012 -0.005283245 -0.020310288

linears.2.weight f4 [64, 64]
00000000: b734 24be fea1 d63c 6095 28bd e4a2 eb3d
00000010: b9e7 1bbe 2887 223d 8c5d 853d e1b2 a63d
00000020: 78a0 f6ba 5eb3 2c3d 6e6a 46bc d7e3 143e
00000030: 1288 033d a3bd 1f3e 19c8 62bd 2727 b63d
00000040: 0d80 de3c 0f12 863c 8dc4 a93e 3473 4a3d
00000050: 1a62 803e e681 cebc 798c 0e3d d47d d4bd
00000060: 6452 103e 5561 213e 78ea 8fbd 33c1 dabd
00000070: a4f4 5dbd 2453 47be 77c0 833c e519 ec3c
00000080: 5a81 6d3e 1851 b93d 5efe 6b3e 8484 fdbd
00000090: bf59 1dbd 2513 e33d c140 4abd bdbd 0bbe
000000a0: 079f 873c 9511 583e 86d9 bebc 23f7 8dbb
000000b0: 250f 863c 6794 93bc 39c0 aa3d 6e00 c3bd
000000c0: f845 92be 66b2 81be 1421 45be c5f8 6abd
000000d0: 25f5 83be 54d7 33be 198d 80be a32c 003e
000000e0: d592 6bbd a93e 863d d3f9 663d 2739 693e
000000f0: 9071 38bd b151 293e 48de 39be 805c 09be
00000100: 5e97 71be a24a 29bd 9ebb 9d3d 72d4 b1bd
00000110: 7b9f 1dbb e4a6 90bd 7ef8 2ebd 3cac 963e
00000120: 7cb1 313d c6a0 46be cd50 efbd ee40 143d
00000130: 1bd5 0ebe 2412 48be e20a 693c e6ea f63c
00000140: 259a 4a3e 5583 52bd 9331 38be 6713 903e
00000150: 811f 16be ee25 c43d ad7c 853d 4333 0e3e
00000160: 18fe 12be c5c6 e5bd 8c77 883d deb8 75be
00000170: f066 64bd 5d9e 553e f5c3 98bd 68c5 d63d
00000180: b143 76be d2c5 14be e52a 67be 433e 3c3d
00000190: 5ded a4be fa37 43be 1579 003c 5812 263e
000001a0: 6c4e 06be c2b5 553d 9007 ee3d 098e 873d
000001b0: 9104 f5bb 9ee6 133e 6d07 ce3a a14c a13d
000001c0: e227 363e 9854 b03d 9e94 b5bd 4da9 ebbd
000001d0: bc09 153d 8a85 3abd 7933 fdbc 69d4 583e
000001e0: 8595 313e 56f2 f13d 3bbc 113c 5e93 1c3d
000001f0: 9de0 a1bc dfde a1bd 6127 58be ad04 8fba
00000200: 8006 eebd 61e5 66be 0c8c 71be 116d 773d
00000210: 5a2c 51be e88f 233e eecb 5a3b 7b57 93bc
00000220: f340 b33d e29b bbbd 251b 5dbe 04a9 3bbe
00000230: 6963 48bd 52b6 eebd 9fe1 a13e 0cac c0bd
00000240: d4de b8be 3a64 5dbd 987e 773d f2f1 b63d
00000250: e22d 5ebe 0de9 a83d 435e 5fbd 6321 133e
00000260: fcc1 af3d 8557 6ebc 3e52 0c3e 8c44 333e
00000270: 224d 053e edea 253e adbe efbd 7280 2a3e
00000280: 6bd0 f3bd 7eed 303e b6bc 853d aa80 13be
00000290: e1f4 07be 8988 603d 9245 97bd 714e 953d
000002a0: de41 74bc ed54 e4bd bac0 ef3d 6171 9cbc
000002b0: ef10 9b3d 614c b13d 2795 443d abb5 a9bd
000002c0: 696d 32bc 4a74 203e 86c6 febd b6d8 da3d
000002d0: 051a 05be 33b8 0a3e 2abf f8bd 6317 453d
000002e0: 3f4b 3abd 9a88 783c 2c2a 83be 31b5 bcbd
000002f0: d1d0 fd3d 325e 95bd e5ce 5f3d faf9 eebd
00000300: bfac a0bd 36ae 413e 03d1 5d3e 5e5c aabe
00000310: 8697 efbd 4de7 3cbe 0166 18be fa7b 48be
00000320: 25bb 22be a60b 3b3d 8ca9 b73b 4b4f 09bc
00000330: 86ed 753c 42ca 693e 50bc a1bd 7175 79bd
00000340: bbcc fd3e 5227 973d a908 b43e 3545 763d
00000350: 1d31 8c3c e50b 14be efd6 33be a3b6 3bbd
00000360: 264c a03d 7014 8fbb 9d10 2c3d 1daf 37be
00000370: aee9 e13d 5527 afbd 0f84 593e 8e9c 873e
00000380: b9fc aa3d adab 08be 23c7 953d 6ac1 03bd
00000390: e7b1 77bd ba1f 32be 649c 483c d0fb 40be
000003a0: bba3 ea3d 254a 9e3d 48b3 ed3d b871 d9bd
000003b0: 0f71 f6bd 799f 4a3d a72b 96bd c015 c3bd
000003c0: dc98 b0bd fe33 9bbd d2eb 1ebe c922 273d
000003d0: 4b5f b0bb 2f2e 32be 653e c13c bb35 babd
000003e0: bd00 f83d 3b51 4bbe 8e66 543e 050d 5c3d
000003f0: 833b 423e 9825 983e 3c86 1ebd b3ab f73d
-0.16035734 0.02620029 -0.04115808 0.11505678 -0.15225114 0.039679676 0.06511983 0.08139587
-0.0018816134 0.042163245 -0.012110336 0.14540039 0.03211219 0.15599684 -0.05536661 0.088941865
0.027160669 0.016366033 0.3315777 0.049426273 0.25074846 -0.025208425 0.034801934 -0.10375562
0.1409393 0.15759785 -0.07027143 -0.10681381 -0.054188386 -0.1946531 0.016082985 0.028820941
0.23193875 0.090486705 0.23046252 -0.12378791 -0.038415667 0.11087636 -0.04937816 -0.13646598
0.016555322 0.21100457 -0.023297083 -0.0043324395 0.016364643 -0.0180151 0.08337445 -0.09521566
-0.28569007 -0.2533142 -0.192509 -0.05736615 -0.25772968 -0.1756261 -0.2510765 0.12517028
-0.057513077 0.0655492 0.056390595 0.22775708 -0.045030177 0.16535069 -0.181512 -0.13414192
-0.23592898 -0.04133094 0.07701801 -0.08683099 -0.0024051357 -0.07063082 -0.04271745 0.2942828
0.043382153 -0.19397268 -0.116853334 0.036194734 -0.13948481 -0.1953817 0.014223786 0.030141305
0.19785364 -0.05139478 -0.17987661 0.28139803 -0.14660455 0.09577547 0.06517921 0.13886742
-0.14354742 -0.11219553 0.06663427 -0.23996302 -0.05576223 0.20861192 -0.07459251 0.10486871
-0.2404926 -0.14528587 -0.22574957 0.045957815 -0.32212344 -0.19064322 0.007841368 0.16217935
-0.13115853 0.05217529 0.11622536 0.06618888 -0.007477351 0.14443442 0.0015718766 0.07875944
0.17788652 0.08609885 -0.08866237 -0.11506901 0.036386237 -0.04553751 -0.030908333 0.21174778
0.17342193 0.118138 0.008894975 0.038226478 -0.019760424 -0.079038374 -0.21108772 -0.0010911428
-0.116223335 -0.22548439 -0.2358858 0.06040675 -0.20427075 0.15972865 0.0033385712 -0.01798605
0.087526225 -0.09160592 -0.21592386 -0.18326193 -0.04892293 -0.116558686 0.31617448 -0.09407815
-0.36107504 -0.05405066 0.060423464 0.08932866 -0.2169719 0.08247576 -0.054533254 0.14368205
0.085819215 -0.0145472335 0.13703248 0.17506617 0.13017705 0.16202898 -0.117062904 0.1665056
-0.11904987 0.17278096 0.065301344 -0.1440455 -0.13277008 0.05481771 -0.07386316 0.07290352
-0.014908282 -0.11149011 0.117066815 -0.019097032 0.07571589 0.08657146 0.047993805 -0.082866035
-0.010890343 0.15669361 -0.12440209 0.106858656 -0.12998207 0.13546829 -0.12145837 0.048118006
-0.045481917 0.015169287 -0.25618112 -0.09214247 0.12393344 -0.07293357 0.05464067 -0.11668773
-0.07845449 0.18914112 0.21661763 -0.33273596 -0.11698823 -0.18447609 -0.14882661 -0.19578543
-0.15891702 0.045665406 0.0056049284 -0.008380721 0.015010243 0.22831061 -0.07897246 -0.060903016
0.4957026 0.07380547 0.35162857 0.060124595 0.017113263 -0.14457662 -0.1756246 -0.045828473
0.07827024 -0.00436645 0.04200803 -0.17937894 0.11030899 -0.08552424 0.21241783 0.2648663
0.08348984 -0.13346739 0.07313373 -0.032166876 -0.060472395 -0.17394915 0.012244318 -0.18846059
0.1145701 0.07728986 0.11606461 -0.10617393 -0.12033283 0.04946849 -0.07332545 -0.09525633
-0.086229056 -0.07578276 -0.15519646 0.040804658 -0.0053824536 -0.1740043 0.023589322 -0.090922795
0.12109516 -0.19855206 0.20742247 0.053723354 0.18968014 0.29716182 -0.038702235 0.12093296

linears.2.bias f4 [64]
00000000: a745 af3c 34c0 033c d3a3 a03c 9b09 3bbd
00000010: 1116 bb3d 6d33 34bd dd88 b5bd 2616 41ba
00000020: 1605 bcbc 1f81 a43c a19d 203b 5ce6 73bc
00000030: 898e dabc bf08 063d 260f b63d 1794 d43c
00000040: 9017 d2bc a7a8 e9bc 2527 4ebd b2c8 283b
00000050: 0283 053d 0e02 90bc 715e 13bd 5178 083c
00000060: ee92 2d3c f26f 1e3d 8c73 96bc f18b 113c
00000070: f492 063b 121e 3b3d ce1b 883c 733f 60ba
00000080: 2e64 97bc 3ac7 19bd 3314 3f3c 1083 12bc
00000090: 80ae a1bb c72b fcbb 9ea7 fe3a 74f5 b2bc
000000a0: 21ec bfbc ba84 c0bb 7fa9 683c 8f31 703d
000000b0: 6c58 bebd c120 b9bc 0aa7 b03c a817 40bc
000000c0: 17ec 4d3c 08c9 3b3d ebc1 afbc ed40 8a3d
000000d0: 3ac5 aebc 72cc 9f3c ca07 9b3d 6be7 6d3d
000000e0: 58d1 723d 7275 5c3c de73 f0bc d185 57bc
000000f0: 7c59 313d e880 033d 1f10 f83c 4b3d 113c
0.021395518 0.00804143 0.019609367 -0.045663457 0.09135068 -0.043994356 -0.08863995 -0.0007365666
-0.022951644 0.020081101 0.0024508017 -0.014886465 -0.026679294 0.032723185 0.08889608 0.025949521
-0.025646001 -0.028522803 -0.0503303 0.002575439 0.032595642 -0.017579105 -0.03597874 0.008329467
0.010594113 0.038680978 -0.018365644 0.008883462 0.0020534368 0.045682974 0.01661482 -0.00085543765
-0.018480387 -0.037543513 0.011662531 -0.008942381 -0.004934132 -0.0076956484 0.0019428616 -0.021845557
-0.023428025 -0.0058751972 0.014200567 0.058641013 -0.09294209 -0.022598626 0.021564025 -0.01172439
0.012568495 0.045846015 -0.021454772 0.06750665 -0.02133428 0.019506667 0.07569845 0.058082025
0.059281677 0.0134557355 -0.029352125 -0.013154463 0.04329823 0.032105356 0.030281125 0.008864711

linears.3.weight f4 [32, 64]
00000000: 61d2 d2be bbf2 a0bd 13cd 1dbe 8c9e 7e3e
00000010: b363 8d3d 1c75 053e 28aa 7d3e 5854 593d
00000020: f6ca ae3e 62ed 8abd 3602 f83c 3bc7 bc3d
00000030: ba48 f03d c4bf 98be 50ad 92be 02a5 a23b
00000040: 3091 9c3d 848e 463e 2be0 02be 1899 5bbc
00000050: 539b b03c ed37 0e3e 5837 8a3e 86f6 3f3d
00000060: 3262 24be 0ac7 ac3d c086 1bbe 8565 81be
00000070: 246c 1abd 1a9f ff3d 92f8 1f3d 61d0 ff3d
00000080: edec a7bd 9157 113d c3dc 263e ca32 d53d
00000090: dae5 dfbc 3b16 993d 4a49 3f3e 801c d2bd
000000a0: 47ed 0b3e 501d 4abd d7aa 5bbd 415d 513e
000000b0: 52d5 eebb de20 d6bd 2293 8abe 7853 54be
000000c0: 0f47 043e 8a79 003e ee52 d73d 3daf 433e
000000d0: 0064 bd3d 4047 7d3e f653 b7be a280 ee3d
000000e0: 938f a3bd 81cd 18bc 47e4 823e 96b0 493e
000000f0: 190b 14be 176e 433d 139b 993d 3e85 2fbe
00000100: 2cbd c63e 274b 213e 4290 183e 9e83 673d
00000110: 57a2 b73e cc71 d5be d81b 76be 0b7c ee3d
00000120: 4374 e63d 0fe8 a53b 571d 113e 5d81 103f
00000130: 448a 20be dbd5 61be 7135 6c3e 69f0 013d
00000140: 91b6 1f3e ca71 a73c d152 263d b972 973e
00000150: 10f3 8c3e 1c90 5c3e 1bbe c13e ab92 92be
00000160: 0fe0 f2bd 0464 9a3d 34ab ec3d c761 efbe
00000170: a7a0 26bd 5238 87bd 6420 82be ce77 a5be
00000180: c752 6d3e 7ea8 d3bd 76b6 e53d 12a5 29be
00000190: a1cd 023f 26eb 0b3f b0f9 2bbd 3fdf 913e
000001a0: 6984 d33d 21c1 b0be c618 a4be cefc 61be
000001b0: 76e2 e83d 6fa0 ae3e 773f 0e3d 6aa7 993e
000001c0: f4fa 6abd de0b 85bd 3024 a33e 3196 8fbe
000001d0: 5481 b43d 2f64 d73d df0e 0f3e e0e2 75bd
000001e0: 78e8 b33d ba38 bfbd 1262 14bf 712e 813e
000001f0: 7669 12be c008 a6be 8db0 c13e cf55 b63e
00000200: 99fd 693e 75d6 67be 41b2 363e 0463 783d
00000210: 697e 6a3d 792d a03e 9cb6 a3bd 87d1 f2bd
00000220: d4aa 72be 4f25 d3bd 3891 93be f100 9d3b
00000230: e877 8abc 548c 2dbe 3176 87bd 0c6e 55be
00000240: 00b2 3b3e acbb 173e 40c8 633e 0ae4 9f3c
00000250: 75d4 d2bd cee3 1a3e d63e 943d e94b 213e
00000260: d1b8 e7bd 83cd 12be 9cc0 1a3d 40f2 67bc
00000270: 5f80 0dbe 83cd 43be 947b 933d 1204 c63c
00000280: 41fc 553e 6bc2 16bd 8ce5 b63e bb9e 353e
00000290: a427 773c e47d 15be 0506 123d 01b7 4f3e
000002a0: 9a76 98be 7612 5fbe 55bd 153e 340a d0be
000002b0: 5369 64bd 5616 6b3e fb49 c9be 5176 25be
000002c0: 4fe5 7f3e ee40 f43d 2f1c 263d 38bd 12bd
000002d0: 7622 633e dfec 3f3d 8f19 a9be 58ee de3c
000002e0: 2d50 843c 10bc 20be 410a cd3c 02da 1c3e
000002f0: 65c6 2abe dfac ac3e 3310 c1bd d8ab 343e
00000300: bc4a 8cbe 18ca 673e 7bb2 ef3d abbb 9bbd
00000310: 14f5 a23d 671f 67be 3066 813e 63cb dd3d
00000320: c655 333d 4a6d cdbe 36c1 b2bd fb79 f2bd
00000330: 2332 8d3c 71c4 f53d 935b 1b3c 2fd5 3abe
00000340: 4f11 0c3e 531a e9bd 08fb 443e f8ff 7b3e
00000350: 67f9 1fbe c463 a7bd 88ef a53e 1822 a4bd
00000360: 96b9 2abe 4e25 80bd 7a6d 0a3e a0c6 fe3d
00000370: 21f4 223c 326d efbd e342 20be 7219 bb3d
00000380: d8da 743d a4fe 863e 7f05 853d 1de1 a5be
00000390: f1b6 1a3c 49e0 3cbe 0374 c33d aa37 6ebc
000003a0: 3f21 c73d 5682 19be 49ea a2bd 7272 dfbd
000003b0: 6b17 83be 0892 a33e 1855 40be bbd7 003e
000003c0: 7aa2 dfbd 8b06 5fbe 0d3d 303e bfb0 14be
000003d0: d804 6b3e 9847 cdbd bb68 51be 942f 16be
000003e0: e2c5 593e d625 143e 3e8b bb3e d99c afbd
000003f0: bc40 2a3c ebea 203d 2cb4 27bd 1844 4e3d
-0.4117613 -0.07858797 -0.15410261 0.24865168 0.06903782 0.13032955 0.2477194 0.053058952
0.34139222 -0.067835584 0.030274492 0.09217688 0.117326215 -0.29833806 -0.28647852 0.004963518
0.0764488 0.19390303 -0.12780826 -0.0134032 0.02155844 0.13888521 0.2699535 0.046865962
-0.16053084 0.08436401 -0.15188122 -0.25272766 -0.037700787 0.12481518 0.039055414 0.12490917
-0.08199487 0.0354839 0.16295151 0.10410078 -0.027331281 0.07474943 0.18680301 -0.10259342
0.13664733 -0.04934436 -0.053629722 0.2044573 -0.0072886134 -0.10455488 -0.27065378 -0.20734966
0.12917732 0.12546363 0.105138645 0.19109817 0.09247589 0.24734211 -0.35806245 0.116456285
-0.07986369 -0.00932634 0.25564787 0.19696268 -0.14457358 0.04771241 0.07500281 -0.17140672
0.38816202 0.15751325 0.1489878 0.056522004 0.35866043 -0.41688383 -0.24034059 0.11644753
0.11252644 0.005063064 0.14171349 0.5644739 -0.15677744 -0.22054236 0.23067261 0.031723414
0.15596987 0.020440001 0.040606324 0.29579714 0.27529192 0.21539348 0.3784035 -0.28627524
-0.11859142 0.07538608 0.11556092 -0.46754286 -0.040680554 -0.06602539 -0.25415337 -0.32317966
0.23176108 -0.10334872 0.11216442 -0.16566876 0.51095015 0.54655683 -0.041986167 0.28490636
0.103279896 -0.34522346 -0.3205015 -0.22069094 0.11371319 0.34106776 0.034728494 0.3001054
-0.057368234 -0.06496404 0.31863546 -0.28044274 0.0881373 0.105171554 0.13970517 -0.060030818
0.08784574 -0.093369916 -0.57962143 0.25230744 -0.14298043 -0.3242855 0.3783001 0.35612342
0.22850646 -0.22640403 0.17841436 0.060641304 0.05724946 0.31284693 -0.07993814 -0.118563704
-0.23697978 -0.103098504 -0.2882173 0.004791372 -0.016902879 -0.16948062 -0.0661434 -0.20842761
0.1832962 0.14817685 0.22244358 0.019517917 -0.10294429 0.15125963 0.072385475 0.15751614
-0.11314548 -0.14336209 0.037781343 -0.014156878 -0.13818501 -0.19121365 0.07201305 0.024171863
0.20897008 -0.036806505 0.35722005 0.17736332 0.015085135 -0.14598805 0.035650272 0.20284654
-0.29777986 -0.21784386 0.14623006 -0.40632784 -0.055764508 0.22957739 -0.39314255 -0.16158415
0.24989818 0.11926447 0.04055422 -0.035824984 0.22181115 0.046856757 -0.33027312 0.02721326
0.016151512 -0.1569674 0.025029304 0.15317538 -0.16677244 0.3372564 -0.09426918 0.17643678
-0.27400768 0.22635686 0.11703964 -0.07604154 0.07956901 -0.22570573 0.25273275 0.108298086
0.04378297 -0.40122443 -0.08728258 -0.11839672 0.017235821 0.12000359 0.009482282 -0.18245386
0.13678478 -0.11381974 0.19236386 0.24609363 -0.15622483 -0.08173326 0.3240931 -0.08014315
-0.16672358 -0.06257115 0.13518324 0.124402285 0.0099459 -0.11690749 -0.15650515 0.09135713
0.05977902 0.2636615 0.06495189 -0.3239831 0.009443031 -0.18444933 0.09543612 -0.0145396385
0.09723138 -0.14991125 -0.079548426 -0.109105006 -0.25603804 0.3194735 -0.1878246 0.12582295
-0.10919662 -0.2177984 0.17210789 -0.14520548 0.22951066 -0.10023421 -0.20450108 -0.14666587
0.21266893 0.14467558 0.3662967 -0.08574838 0.01039141 0.039286535 -0.04094331 0.050357908

linears.3.bias f4 [32]
00000000: 026c 1ebd 976b 613d f733 73bc c355 22bd
00000010: a75f 32bd 127c c7bd e799 453d 8d77 583d
00000020: 020d ac3a 0415 b63c bbd3 73bd aa71 5bbd
00000030: 7da9 e4bd 81d4 3d3a 9f5e 4dbc 7656 c03c
00000040: da44 09ba 4f63 babc 46ff 713d 8871 4ebb
00000050: 0f0a d2bc 2596 02bd 6a8a 41bd 9391 593d
00000060: 7967 b03b a119 8dbd 1f48 72bd e4bc 7fbd
00000070: f190 82bd ef76 0bbd 63c9 42bc 8bb0 973b
-0.038677223 0.055034246 -0.014843932 -0.03963257 -0.043548252 -0.097404614 0.048242476 0.052848388
0.0013126435 0.022226818 -0.059528094 -0.053575195 -0.1116514 0.00072414434 -0.012534766 0.023478728
-0.0005236395 -0.022752432 0.05908134 -0.0031500775 -0.025639562 -0.03188147 -0.047251143 0.053117346
0.0053834287 -0.06889654 -0.05915081 -0.062436 -0.06375302 -0.03404897 -0.011888835 0.0046292

linears.4.weight f4 [4, 32]
00000000: 7deb 5f3e 234d 27be 36d0 0cbe 169c 103e
00000010: b301 40bd 94be 61bb 5d77 c4bb 3b9a 233e
00000020: dd00 c1be 8b2d e73e 4125 743c c54d a03d
00000030: 028e 913b f545 853e 0753 5cbf 3c86 493e
00000040: eaa3 c73e a9d1 cb3e 97cb 323d 214e 513e
00000050: 1be4 ecbd c3bf 95bd 0586 6f3e 38c3 efbd
00000060: 3e1a ebbe 6796 86bd 2fdf bb3c dd1f 333e
00000070: dc9e 233e d20c a23e 0623 25bf 8d4c 2c3d
00000080: e24b 36be ef83 823e 8ddc 64bf cdbe e9be
00000090: e8ef 45bf b509 6abf bdcf fa3e 2609 423f
000000a0: 30fd a13e e0e6 0c3e 7370 02bf 7baa a2be
000000b0: 5c15 25bf 3f58 963e 5b74 2abf 219c 653f
000000c0: ce26 cc3e f5e2 64be 6b0c 713f 7bd4 983e
000000d0: a0f8 46bf f566 2dbf 6097 4abf 8a2a 0a3f
000000e0: 49ae 5abd 0842 37bf 4a81 d4be a369 62bf
000000f0: 1165 1a3f 1635 03be 758a efbe 9633 93be
00000100: ecb7 173f 66ae c43e f1e1 c3be ab54 31bf
00000110: c732 3d3d 170c 453e 52f9 263f ce4c 81be
00000120: f071 dbbd c922 813e 7ea2 d3be 81b9 ccbe
00000130: 7af0 cb3c 08ea 9c3e ba2c 913e 07eb 20bd
00000140: aad0 a1bc 96a1 143f b85d 8dbe f31e 953c
00000150: 4780 603e b9a4 06bf 5d2c 08bf 6a52 433d
00000160: cb7f 2d3f 3f30 f3be 360c 44be 706d d3be
00000170: 5d62 01be e166 af3e 6a12 63be 193d 863e
00000180: a0a5 1ebf 6879 4d3f 51d1 5dbf b004 02bf
00000190: cdac 2abf e062 61bf dd37 993f 9a9f 283f
000001a0: c576 603f 6acc 3f3f 0101 96bf 1c5b 56bf
000001b0: e9df 29bf 8ca1 393e dd61 1fbf d948 903f
000001c0: c07e a73e 4937 89be 63c1 353f 560a 02bf
000001d0: 759d 81bf b811 88bf 0d67 52bf 68a6 293e
000001e0: 2a9c 78bf 1a02 afbf bd18 79bf db49 57bf
000001f0: a108 8e3f 80bb a0be fb28 62be c0c7 453f
0.21867175 -0.16338019 -0.13751301 0.14122042 -0.04687662 -0.0034445869 -0.0059956745 0.15976803
-0.3769597 0.45151934 0.01490146 0.07827333 0.0044419775 0.26029935 -0.8606419 0.19680113
0.38992244 0.39808396 0.04365119 0.2043996 -0.11566945 -0.07311966 0.23390968 -0.11707157
-0.4591846 -0.06571656 0.02293357 0.17492624 0.15978569 0.31650406 -0.64506567 0.042065192
-0.17802384 0.25491282 -0.89399034 -0.45653382 -0.7731919 -0.9142106 0.48986617 0.7579521
0.3163848 0.13759947 -0.50952834 -0.3177069 -0.64485717 0.293642 -0.66583794 0.8969136
0.39873356 -0.22352202 0.94159573 0.2984961 -0.7772312 -0.67735225 -0.7913723 0.5397116
-0.053388868 -0.7158513 -0.4150489 -0.8844244 0.60310465 -0.1281322 -0.46785322 -0.28750294
0.5926502 0.38414305 -0.38258317 -0.6926982 0.046191003 0.19242893 0.6522418 -0.2525391
-0.10715091 0.2522185 -0.4133491 -0.39985278 0.024894942 0.30647302 0.28354436 -0.03928664
-0.01975282 0.5805906 -0.27610564 0.018203234 0.21923934 -0.52595097 -0.53192693 0.047686018
0.6777312 -0.47497746 -0.19145283 -0.41294432 -0.12635179 0.34258178 -0.22174993 0.2621849
-0.61971474 0.80263376 -0.86647516 -0.507884 -0.66669923 -0.88041496 1.1970173 0.6586853
0.8768123 0.74921286 -1.1719056 -0.8373277 -0.66357285 0.18128031 -0.622587 1.1272231
0.3271389 -0.26799992 0.7099821 -0.5079702 -1.0126177 -1.0630407 -0.82188493 0.16567385
-0.9711329 -1.3672516 -0.9730337 -0.8409707 1.1096383 -0.3139305 -0.22085945 0.7725792

linears.4.bias f4 [4]
00000000: cfe2 86bc d17d c43e ba00 72bd 771e 443f
-0.016465573 0.3837724 -0.059082724 0.76608986
