Iterations/Test model/epoch_7546.pt (torch, 37739 bytes, 10 tensors)

linears.0.weight f4 [32, 2]
000000 4a 32 a5 3e 55 83 7b be b6 3c 8b 3e 38 46 11 bf
       0.3226493 -0.24561818 0.27194756 -0.5674777
000010 77 39 71 3e 26 4c 1d bf 7a 6c d2 bd 0e 90 3a bf
       0.23557077 -0.6144432 -0.102745965 -0.7287606
000020 59 aa 48 bd 75 a0 06 3f 16 78 46 3d 6a 3f 49 bf
       -0.04899058 0.5258859 0.048454367 -0.7861239
000030 e5 11 3d 3e 69 92 48 3f 7d 34 3b 3e 2f 60 da 3e
       0.18463857 0.78348404 0.18281741 0.42651507
000040 c1 2c b6 3e 7e 17 8c be ac f9 78 be 93 5f 6f be
       0.3558102 -0.27361673 -0.24313992 -0.23376302
000050 32 58 ea bd a1 11 24 bf c1 7b 90 be a6 77 01 3f
       -0.11442603 -0.640894 -0.28219417 0.50573194
000060 02 2c 01 be b4 04 a7 be 28 7f 29 3e 45 24 f8 be
       -0.12614444 -0.32620776 0.16552413 -0.4846517
000070 a2 45 fe bd ea 04 63 3f b5 ee 6d bd a2 0b dd be
       -0.12415625 0.88679373 -0.058088977 -0.43172938
000080 34 92 67 3e cf c2 3b 3f dc 39 9d 3e c3 0f 9b 3e
       0.22614366 0.7334413 0.30708206 0.30285463
000090 41 78 de bd 18 3b f8 3e 8f 9a 58 be 14 61 cf be
       -0.1086278 0.48482585 -0.2115271 -0.40503752
0000a0 40 bd f6 bd 45 27 b0 be c3 96 91 3e d8 18 7d 3e
       -0.12047815 -0.3440496 0.28435335 0.24716508
0000b0 db 4a 2c 3f 37 79 32 be e1 50 8e 3e 6c 84 ec be
       0.6730172 -0.17429052 0.2779608 -0.4619478
0000c0 c2 6c 0f bf b8 23 dc 3e 27 10 af 3e 50 c4 7d be
       -0.56025326 0.42996 0.3419201 -0.24781919
0000d0 ca 64 3d be 99 c3 9a be 35 e0 32 3d d4 26 04 3f
       -0.18495479 -0.30227354 0.04367085 0.51621747
0000e0 73 62 a3 3d 1f 00 fb be 9f 95 ed bc 36 64 19 3f
       0.07977762 -0.4902353 -0.029002009 0.59918535
0000f0 cd a1 26 3e 30 dd 07 bf b0 77 3f bd fd 4f 65 3f
       0.1627266 -0.5307188 -0.046745002 0.8957518

linears.0.bias f4 [32]
000000 cf 57 48 3c 35 d5 be 3c 1e 04 97 3c 8b 49 00 3c
       0.012227966 0.023295024 0.01843458 0.007830034
000010 43 28 0d 3c f2 ce e7 bb f9 b9 40 3b e2 6f 1a bd
       0.008615556 -0.0070742304 0.0029407723 -0.037704356
000020 15 00 27 bb bf 8d dd bc e7 79 59 ba 82 1f a5 bd
       -0.0025482227 -0.027045129 -0.0008296058 -0.0806265
000030 b2 52 2a 3d a4 a3 f0 bc 2b 91 41 3c da 32 35 bc
       0.04158277 -0.029374905 0.011814396 -0.011059487
000040 88 a8 31 bb aa 2c 1b 3b 15 b3 b7 3c e6 93 a6 bc
       -0.002710851 0.0023677745 0.02242426 -0.020334195
000050 8b ea 4d 3c f3 c5 9b bc 31 b2 e6 3d f1 2a 0e 3d
       0.012568126 -0.019015288 0.11264456 0.03470892
000060 db 5d 95 bd b6 3e 38 3d d7 8e 24 bc a6 89 14 3c
       -0.07293292 0.04498168 -0.010043821 0.009066021
000070 b8 37 d5 3c d4 93 1b 3c d6 2d 0b be 56 18 3a 3c
       0.026027545 0.009495694 -0.13591704 0.011358341

linears.1.weight f4 [64, 32]
000000 97 98 e6 3c 41 15 8b be df b2 51 be 9a 08 59 be
       0.028148932 -0.27164653 -0.2047839 -0.21194687
000010 c9 b6 6c 3e cf 25 72 bd 09 a9 6e bd 06 2f 8c 3e
       0.23116602 -0.05911809 -0.058266673 0.27379626
000020 8a c3 2d 3e fa b9 9d 3e 78 a5 69 3d 52 05 a8 3e
       0.16969123 0.3080595 0.05704257 0.3281656
000030 61 27 6f be b3 ee fc be 03 73 01 3d c8 ce 50 be
       -0.23354866 -0.49400863 0.031603824 -0.20391381
000040 1f 75 aa 3e f4 b4 ba 3c 6f d9 94 bb b9 92 03 3d
       0.3329248 0.022791363 -0.0045425217 0.032122348
000050 46 c7 c4 be cd b7 12 bd 42 ed cc bd d5 ec 3f 3e
       -0.38433284 -0.035819817 -0.10006191 0.18742688
000060 34 fa b4 3d b9 6b 29 3e 9a d7 92 be 4a 7b 4f bd
       0.08836785 0.16544999 -0.28680116 -0.050654687
000070 b5 95 d2 3d 36 aa 35 3e 9e 2c b2 bd 81 d9 2d 3e
       0.102824606 0.17740712 -0.08699916 0.16977502
000080 7a 7e 07 3d 6f 98 b6 3d c3 ec d1 bd fb 50 08 3e
       0.0330796 0.08915793 -0.10250237 0.13312142
000090 8a 77 d8 bd 72 21 1a be e6 d5 68 3e 11 b4 a3 3e
       -0.10569675 -0.15051821 0.22737846 0.31973317
0000a0 90 16 ca 3e a2 08 61 3e 8b 1f 0c be ae f2 6f bd
       0.3947034 0.2197595 -0.13683908 -0.058581047
0000b0 86 8f 8b bd d8 e6 0c 3e 90 09 0a 3e 18 a7 97 bd
       -0.06814484 0.13759935 0.1348021 -0.074049175
0000c0 71 04 70 3e 92 39 32 be 84 20 63 be e9 bb 8d bd
       0.23439194 -0.17404774 -0.22180372 -0.06920607
0000d0 db ee e6 bc 97 6c ab 3e 5c 5d a8 bd ff 60 09 be
       -0.028190067 0.33481285 -0.08220932 -0.13415907
0000e0 ff e5 9e 3d b0 63 f4 bc fc 0c 92 3d 0d 66 37 bd
       0.07758712 -0.029832691 0.07131383 -0.044775058
0000f0 f0 ff bb bc 12 07 14 bc e2 94 a2 3e 4a 7d 82 3e
       -0.022949189 -0.009034889 0.31754214 0.25486213
000100 e1 7f a6 bd 51 05 db 3d a0 b1 3b 3e 45 23 a7 3b
       -0.0812986 0.106943734 0.18329477 0.00510064
000110 df 67 2f 3d dc e7 d5 bc 71 ce 2b bd 01 bc 50 be
       0.04282367 -0.026111536 -0.041944925 -0.20384218
000120 fa 68 c6 bd 50 16 97 be 12 77 46 be 86 91 83 bc
       -0.096879914 -0.2950921 -0.19381359 -0.016060602
000130 62 8a 9d 3e b3 0c b6 bb cb 38 d4 bb ec 2f 7a be
       0.3076964 -0.005555713 -0.006476497 -0.24432343
000140 53 cd 7c bd 01 97 82 3e 34 d0 d9 bd 72 11 95 bd
       -0.06171925 0.25505832 -0.10635415 -0.07278718
000150 2b 69 1b be bc fd 58 be f7 88 10 3e 09 02 9a bd
       -0.15176837 -0.21190542 0.14114748 -0.075199194
000160 7f 43 33 bd ae 50 cd 3c 71 b8 6a 3d 22 98 ea bd
       -0.04376554 0.025062885 0.057304803 -0.11454798
000170 c9 1d 97 bd 2a 61 81 3e df ab 03 be 7d 83 80 be
       -0.07378728 0.25269443 -0.12858532 -0.25100318
000180 0b 81 b6 39 f1 dc 4e 3e 65 60 14 3e 80 53 85 bd
       0.0003480989 0.2020147 0.14489897 -0.06510067
000190 aa 19 93 be 19 d2 18 be bf ed b3 bc ab 26 ae bd
       -0.28730518 -0.14923896 -0.021963952 -0.08503469
0001a0 d1 bb 8c 3e 71 ae 5b be 81 47 98 3d f0 24 5c bd
       0.27487043 -0.21453263 0.07435513 -0.053746164
0001b0 ff 58 e0 3c fb 22 42 3e 3f cd a7 3d 20 23 c8 be
       0.027386187 0.18958656 0.081934445 -0.39089298
0001c0 13 33 73 bd df 3a 97 bd 08 92 8d 3c b8 19 a8 bd
       -0.05937488 -0.07384276 0.017281547 -0.082080305
0001d0 a8 4c a0 bd f3 fc 14 3e 64 88 98 3e a8 31 c9 3d
       -0.07827121 0.14549617 0.29791558 0.09823924
0001e0 02 a3 46 be 01 f3 97 3e 3c ae bc bd ba bc c6 bd
       -0.1939812 0.29677585 -0.0921292 -0.097039655
0001f0 ab 42 7a 3d f1 10 c9 bd e0 c9 75 be 5e bc 6b bd
       0.061098736 -0.098176844 -0.2400279 -0.057552688
000200 1e 1d f6 3c 4d a7 08 3d 09 08 9e bd 12 ca 9d bd
       0.030043181 0.033362675 -0.07716376 -0.077045575
000210 99 e7 83 3d 9f c6 13 be b8 a1 19 3e 4e 98 3b 3d
       0.06440658 -0.14431237 0.15003097 0.045799546
000220 3d 98 f7 bc f3 fb 49 be fc e2 b9 be 40 7d 2a be
       -0.03022396 -0.19725017 -0.36305988 -0.16649342
000230 48 a4 22 be f6 42 4e be a1 9e d6 3e e8 89 bb ba
       -0.15882981 -0.20142731 0.419179 -0.0014308067
000240 61 11 0e 3e de 01 80 3e 05 4a 20 bd 13 43 95 3e
       0.13873817 0.25001425 -0.03913309 0.29152736
000250 b3 ca 1e be 49 f2 0a 3d df 73 79 be b4 a4 bc 3c
       -0.15507011 0.033922467 -0.24360608 0.023027755
000260 8b bb 04 bd 17 55 f6 3c 4e a2 29 be 84 0a 40 3e
       -0.032405417 0.03006987 -0.1656582 0.18754011
000270 cd 20 e2 3c 72 f3 88 3d 6b 42 57 bd 17 01 77 3e
       0.027603531 0.066870585 -0.052553575 0.2412151
000280 09 05 b9 3c e1 ce 56 be dc 6d 84 be 94 c7 47 be
       0.022585409 -0.20977356 -0.25865066 -0.19509727
000290 b7 a6 f7 3e 0f 08 b1 be c4 ec 09 bd e6 dc 58 bd
       0.4836938 -0.3457646 -0.033673063 -0.05294504
0002a0 4e 06 1b bc d3 94 a4 bd a2 70 42 bd 85 18 30 3e
       -0.009461952 -0.080361985 -0.047470696 0.17196853
0002b0 f0 cb 0d be f7 3b 4e 3e 35 15 86 3e 6e 78 d5 bc
       -0.13847327 0.20140062 0.26188055 -0.026058402
0002c0 61 b4 bd be 02 d3 da 3c 07 83 19 3e 2a be 94 3e
       -0.3705168 0.026711944 0.14991389 0.29051334
0002d0 aa f4 11 3d fa a0 81 be f6 fa 4c be d5 1b 20 be
       0.03563372 -0.25318128 -0.20017609 -0.15635617
0002e0 31 e7 88 3e 9c 0b 0d 3b f8 d6 b6 3e 59 a8 5f 3d
       0.26738885 0.0021521812 0.35710883 0.05460391
0002f0 30 d0 1c be da ad 94 3e a3 a4 9f be e0 af 23 3e
       -0.15313792 0.29038888 -0.31180295 0.1598506
000300 6f 98 2b be fc 25 0e 3e 40 b4 86 3e 68 b8 40 3e
       -0.16757368 0.13881677 0.26309395 0.18820345
000310 91 67 67 be 47 69 38 3e b7 74 54 bd 88 9e 81 be
       -0.22598101 0.1800891 -0.05186912 -0.25316262
000320 17 d2 b7 3e e2 d6 b5 be db e9 24 3e 8d 07 bf 3c
       0.35902473 -0.35515505 0.16104834 0.02331903
000330 b1 5a 06 be 63 33 15 be 04 41 8e bd b5 9d 7c be
       -0.13120534 -0.14570384 -0.069459945 -0.24669535
000340 32 13 b9 3d ca 52 10 be 3f aa a0 bd ee de fc 3d
       0.09036864 -0.14094082 -0.07844972 0.12347208
000350 26 d3 29 3e eb 6b 2b be 3e ea 6e 3e 4d 5b 07 bd
       0.16584453 -0.16740386 0.23331544 -0.033046056
000360 53 6a 70 bd 93 af 5e bd f9 73 1f 3e 05 c6 ed bd
       -0.05869515 -0.05436666 0.15571584 -0.11610035
000370 9f 7a bb bd 8b fa 00 bf 25 61 40 bd 80 c3 26 be
       -0.091542475 -0.503823 -0.046967644 -0.16285515
000380 47 bc 94 3d 94 0e 15 be 12 32 05 3e 75 bc 3b bc
       0.072624736 -0.14556342 0.13007382 -0.011458506
000390 1d 02 6a 3e 73 68 81 be ad a1 1f 3e 1f f3 5d 3e
       0.22852369 -0.25275 0.15589018 0.21674775
0003a0 85 dc 59 be 9f 03 b8 3e 96 c8 cb 3d 71 a8 4a bd
       -0.21275528 0.35940263 0.09950368 -0.049477044
0003b0 71 d8 55 be f8 63 db 3d 0a 4f 23 3e 3e 6e bb bb
       -0.20883347 0.10712427 0.1594812 -0.005719929
0003c0 cf c2 a6 3d 2c d1 a0 bd 82 02 78 3e c0 a9 0b be
       0.081426255 -0.07852396 0.24219707 -0.13638973
0003d0 1f 60 c3 bd cc 67 07 be 74 8a 88 3e 77 17 89 bd
       -0.09539818 -0.13223189 0.2666813 -0.06693929
0003e0 8e 31 b2 bc 23 c4 5b 3d f2 57 55 be 0c b3 84 bd
       -0.021752145 0.053653847 -0.2083433 -0.06479463
0003f0 71 90 8e 3c 3e 9f b1 3e 23 8a b7 be 90 3e c9 3e
       0.01740286 0.34691805 -0.35847577 0.39305544

linears.1.bias f4 [64]
000000 d7 a4 b3 bc 38 15 e9 bc 0b e4 89 3d b4 c1 7c 3d
       -0.021929188 -0.0284525 0.06732949 0.061708167
000010 f3 48 67 3c 65 1b 57 3b bb 12 95 b9 1f 22 9d 3d
       0.014116514 0.0032822725 -0.0002843345 0.07672524
000020 98 ab 96 ba 9a 5e c7 3c 4d bf b6 bc bf 20 36 3d
       -0.0011495231 0.024337102 -0.022308016 0.044464823
000030 2d 99 4e bc 72 e7 c0 bc fa cd b0 bc e1 5b 95 3c
       -0.012609762 -0.023547862 -0.021582592 0.018232288
000040 d2 b2 6e bb e8 b6 ca ba f6 8c 11 bc 0d 37 17 3d
       -0.0036422503 -0.0015465887 -0.008883705 0.036917735
000050 2c 89 3d bc e9 c1 e0 3b 14 0a 2c 3c 11 4f cf 3a
       -0.011568349 0.0068590534 0.01050045 0.001581641
000060 e7 a7 65 bc aa 85 82 bb 5e 20 66 bc 52 c9 41 3c
       -0.014017082 -0.003983219 -0.014045803 0.011827784
000070 57 a0 92 3d f8 bf 50 bc f0 a9 cb bc 72 32 c3 bc
       0.07159489 -0.012741081 -0.024861306 -0.023827765
000080 26 29 ae bc bd 12 b3 3d 0d ca 02 bc 29 4c df b9
       -0.021259855 0.087438084 -0.007982743 -0.00042590618
000090 22 b9 e8 3c a6 42 9b bc f6 ce fa 3b 6d 27 a1 3c
       0.02840859 -0.018952679 0.007654066 0.01967212
0000a0 c0 bf 56 3c cf 0d 39 bc 8d 52 f6 bc ba 42 c7 bb
       0.01310724 -0.011294796 -0.03006866 -0.0060809525
0000b0 3f 04 23 3e 8a 6b c4 bb c9 b5 90 3c fa f2 50 3c
       0.15919589 -0.005994265 0.017664807 0.012753243
0000c0 4a 43 0c bd e8 b6 57 3d 16 07 01 be 7b 42 40 bc
       -0.03424386 0.052664667 -0.1260036 -0.0117346
0000d0 95 3a 03 ba 44 c1 11 3d 25 93 86 3c 51 6f 94 3c
       -0.0005005983 0.035584703 0.016427586 0.018119486
0000e0 27 ea da bc 30 a3 03 bc 45 17 f2 bb 38 ce ab 3c
       -0.02672298 -0.008034512 -0.007388028 0.020972356
0000f0 02 83 8c bb b0 23 0b bc 1c 28 c3 bb 97 4f a7 bc
       -0.0042880783 -0.008492395 -0.005955709 -0.020423694

linears.2.weight f4 [64, 64]
000000 68 a0 23 be 0c 68 d4 3c c6 cf 28 bd 74 21 eb 3d
       -0.15979159 0.02592852 -0.041213773 0.1148099
000010 50 8a 1b be 73 59 26 3d 6e d1 83 3d 9a 47 a7 3d
       -0.15189481 0.04061265 0.0643643 0.08167954
000020 13 c0 0b bb b1 7b 2c 3d fd da 51 bc b7 88 14 3e
       -0.0021324202 0.04211015 -0.0128085585 0.14505278
000030 57 8a fd 3c 4f 09 1f 3e 6f 47 5e bd 70 13 b6 3d
       0.030949755 0.15530895 -0.054267343 0.08890426
000040 39 cd a6 3c 81 8b 82 3c 25 d9 a8 3e db 84 48 3d
       0.02036153 0.015935661 0.32978168 0.048954826
000050 b6 cf 7e 3e f1 95 c8 bc 04 39 11 3d 30 20 d2 bd
       0.24883923 -0.02448556 0.035454765 -0.102600455
000060 88 64 0f 3e 2d 83 21 3e 7c fc 90 bd dd 00 d7 bd
       0.14003193 0.15772696 -0.070794076 -0.104982115
000070 72 0e 5f bd 31 21 45 be 0e cc 6e 3c 1e e7 ee 3c
       -0.054457135 -0.19250943 0.014575018 0.02916294
000080 57 f7 6a 3e ef ed b7 3d 5c 5d 6a 3e 6f 81 fc bd
       0.22945915 0.08980929 0.22887176 -0.12329375
000090 85 dc 1f bd 49 d3 e2 3d 52 a6 4d bd e2 31 0b be
       -0.039028663 0.11075456 -0.050207444 -0.13593248
0000a0 fa ff 92 3c fa 76 57 3e 90 41 c2 bc 90 dd 66 bb
       0.017944325 0.2104148 -0.023712903 -0.0035227276
0000b0 d1 63 86 3c c8 11 96 bc 75 08 ac 3d 4b 4e c1 bd
       0.016405018 -0.018319026 0.084000506 -0.09438761
0000c0 ee 1c 92 be 32 d9 81 be 8b 4c 45 be d7 6b 6a bd
       -0.28537697 -0.2536102 -0.1926748 -0.05723175
0000d0 55 4c 84 be 85 c4 33 be a4 93 7f be ce 47 01 3e
       -0.25839487 -0.17555435 -0.24958664 0.12625048
0000e0 fc 3d 6d bd 1a 7c 85 3d 21 1f 5c 3d f1 b0 68 3e
       -0.05792044 0.06517811 0.053740624 0.22723748
0000f0 e9 6f 39 bd 0d 26 28 3e 82 46 3a be ae 36 0a be
       -0.04527274 0.16420765 -0.18190959 -0.13497421
000100 4a 06 72 be a3 ee 2b bd 9a d0 a1 3d 1c 5e aa bd
       -0.23635212 -0.04197563 0.07901116 -0.08318731
000110 cc 46 ad b9 4b 99 94 bd 37 3d 2b bd 41 57 99 3e
       -0.0003304988 -0.07255801 -0.041806426 0.29949382
000120 85 2c 34 3d bf e5 43 be 43 ab f2 bd 3d 61 1e 3d
       0.04398777 -0.1913061 -0.11849072 0.038666952
000130 a4 3e 0e be 18 bd 4c be 42 33 8c 3c 25 78 eb 3c
       -0.13891083 -0.19994009 0.017114285 0.028743813
000140 af c5 44 3e e2 27 5d bd dc dc 39 be 99 84 90 3e
       0.19216035 -0.053993113 -0.18150657 0.28226164
000150 72 53 17 be 82 17 c0 3d b1 c0 89 3d 02 b4 0e 3e
       -0.14777926 0.09379484 0.06726206 0.13935855
000160 94 d4 14 be 06 98 e1 bd da b2 8a 3d 67 47 72 be
       -0.14534217 -0.11015324 0.067723945 -0.2366005
000170 d0 4d 52 bd 15 80 55 3e 4d d7 97 bd 62 9b d1 3d
       -0.05134374 0.2084964 -0.07414112 0.10234715
000180 1c cf 76 be 28 71 0e be 71 e1 66 be f4 5f 39 3d
       -0.24102443 -0.13910353 -0.22546937 0.045257524
000190 5a 32 a4 be 24 a2 41 be dc 72 11 3c 6d 4b 29 3e
       -0.32069665 -0.18909508 0.008877482 0.16532679
0001a0 c8 db 05 be 95 7d 45 3d b4 b9 e6 3d 49 bb 87 3d
       -0.13072121 0.048215467 0.11265889 0.06627519
0001b0 49 a0 e5 bb 04 bb 0f 3e 71 33 3f 3a 3d d9 ad 3d
       -0.007007633 0.14036185 0.0007293737 0.084887005
0001c0 a5 83 33 3e fd e3 b3 3d 38 89 be bd 8c e7 ef bd
       0.17530687 0.0878372 -0.09303516 -0.11714086
0001d0 c0 b5 19 3d cc b0 2c bd 53 87 e3 bc 14 04 5a 3e
       0.037526846 -0.042160794 -0.027774489 0.21290618
0001e0 92 33 2d 3e f4 f0 ee 3d 94 8a 6c 3b e4 ae 23 3d
       0.16914204 0.11667052 0.0036093341 0.03996171
0001f0 d8 26 95 bc d6 34 b0 bd 0a da 55 be c6 ce 13 bb
       -0.018206999 -0.08603828 -0.20883957 -0.0022553666
000200 7e 7c ec bd f6 dd 65 be d6 c9 72 be 43 33 74 3d
       -0.115471825 -0.22447953 -0.23709807 0.0596192
000210 c5 49 53 be cc 54 22 3e ab 0f 36 3b 3c 5d 9d bc
       -0.2063361 0.1585266 0.0027780335 -0.019209497
000220 9d 96 b1 3d 6d bf b7 bd 05 dc 5b be 4d 5b 3c be
       0.08671305 -0.089720584 -0.2147065 -0.18394203
000230 d7 73 46 bd 0d 9a ec bd 92 0e a2 3e c3 34 c3 bd
       -0.048450317 -0.1155282 0.3165174 -0.09531548
000240 e5 0a b8 be 99 ed 55 bd 4b 5a 7e 3d 57 1c b5 3d
       -0.35945812 -0.052228544 0.06209783 0.08843296
000250 11 48 5e be 31 05 aa 3d 5a 15 65 bd 82 8d 11 3e
       -0.21707179 0.083017714 -0.055928566 0.14214137
000260 51 58 b4 3d aa 07 81 bc ae 82 0c 3e f0 90 32 3e
       0.088059075 -0.015750725 0.13721725 0.17438102
000270 32 1e 04 3e f8 55 25 3e 4d d9 ee bd 9d 88 2b 3e
       0.12902144 0.16146076 -0.116625406 0.16751333
000280 27 fa f0 bd 2b 6b 31 3e ba 66 86 3d 9c e1 12 be
       -0.11766463 0.17326038 0.06562562 -0.14343876
000290 6f 8f 09 be a2 44 63 3d 6b ed 95 bd c2 b2 92 3d
       -0.13433622 0.055485375 -0.073206745 0.071630016
0002a0 8e 77 83 bc d6 cc e0 bd 40 09 f3 3d e6 d1 98 bc
       -0.016048219 -0.10976569 0.11866999 -0.018654775
0002b0 b0 4c 98 3d 65 f1 b4 3d 24 db 46 3d 4f be ac bd
       0.07436502 0.08835105 0.048548833 -0.08434736
0002c0 f6 57 23 bc 51 a9 1f 3e 95 38 fc bd 03 0e dd 3d
       -0.009969702 0.15591933 -0.1231548 0.10793688
0002d0 b7 b2 05 be c9 59 09 3e c0 c4 f9 bd f8 80 40 3d
       -0.13056456 0.13413157 -0.1219573 0.046997994
0002e0 0d e3 34 bd 19 c6 71 3c a2 d6 81 be 4f 82 be bd
       -0.044161845 0.014756703 -0.25359064 -0.09302198
0002f0 c5 31 fe 3d df f1 91 bd 32 ec 60 3d 91 94 ec bd
       0.124118365 -0.071262114 0.054912753 -0.11551774
000300 9e b9 9f bd 66 4b 42 3e bd 9b 5d 3e 27 6d aa be
       -0.077990755 0.18974075 0.2164144 -0.33286402
000310 60 19 ef bd a3 37 3d be 2a 7f 18 be 48 b7 48 be
       -0.11674762 -0.18478255 -0.14892259 -0.19601166
000320 54 d6 22 be 2c f4 3c 3d 53 5d c0 3b 8f f9 0b bc
       -0.15902072 0.046131298 0.0058705 -0.008543386
000330 90 46 78 3c 06 dc 69 3e 9a 01 9f bd 42 0b 7c bd
       0.015153542 0.22837839 -0.07763977 -0.061534174
000340 8c 92 fc 3e ef 57 96 3d b0 0b b4 3e 20 c0 74 3d
       0.49330556 0.07340991 0.35165167 0.059753537
000350 20 af 86 3c 83 2d 14 be 83 2a 34 be 89 44 3c bd
       0.016440928 -0.14470486 -0.17594342 -0.045963798
000360 8c 74 9f 3d 50 e4 84 bb c4 21 2e 3d 41 bb 36 be
       0.077859014 -0.0040555373 0.04251267 -0.17844869
000370 7a d2 e1 3d 3a 61 af bd e8 8c 59 3e 01 9c 87 3e
       0.11026473 -0.08563466 0.21245158 0.2648621
000380 9d 73 ab 3d dd 51 09 be da 10 96 3d 9c 6c 01 bd
       0.08371661 -0.13410135 0.07327433 -0.03159772
000390 9a 66 76 bd 84 7b 31 be e0 ff 4d 3c 5c 55 41 be
       -0.060156442 -0.17332274 0.012573212 -0.18880218
0003a0 95 6f ea 3d 0f d8 9d 3d de 82 ee 3d e3 af d8 bd
       0.11447064 0.077072255 0.11646055 -0.10580423
0003b0 32 3c f8 bd 66 3b 4a 3d f6 3a 96 bd 1b d8 c2 bd
       -0.12120856 0.049373053 -0.07335465 -0.09513875
0003c0 09 72 b0 bd c0 b3 9a bd 66 8a 1e be 4f 0b 26 3d
       -0.086155005 -0.07553816 -0.15482482 0.04053813
0003d0 78 8a b4 bb c9 3b 32 be 35 c5 c7 3c 87 8c ba bd
       -0.005509671 -0.17405619 0.024386028 -0.09108835
0003e0 d9 a0 f8 3d a7 60 4c be 3a 16 52 3e 1c 1e 5c 3d
       0.12140054 -0.19958745 0.20516291 0.053739652
0003f0 dd ae 42 3e 6b d5 97 3e 40 45 1d bd b2 1f f8 3d
       0.19012018 0.29655012 -0.03839612 0.121154204

linears.2.bias f4 [64]
000000 b9 95 af 3c ae 26 25 3c b1 88 96 3c 30 af 3c bd
       0.021433698 0.010080023 0.018375726 -0.04606551
000010 67 51 bb 3d 5c 04 33 bd 37 08 b8 bd 36 af 82 ba
       0.09146386 -0.04370533 -0.08985942 -0.000997043
000020 93 49 ba bc ce 66 9c 3c 52 84 38 3b 9a fa 6f bc
       -0.022740161 0.01909199 0.002815504 -0.01464715
000030 64 d0 d9 bc d5 a4 06 3d 0a b7 b5 3d e3 4e db 3c
       -0.026588626 0.03287204 0.088728026 0.026771015
000040 26 a2 d0 bc ad 4c ea bc fd 40 54 bd 33 e8 3b 3b
       -0.025467943 -0.028601015 -0.05181979 0.0028672337
000050 1d 86 05 3d b5 1e 92 bc c9 6c 15 bd c9 38 05 3c
       0.032598604 -0.017836908 -0.0364807 0.008131214
000060 5c 7f 2f 3c 21 6f 1d 3d 08 6d 96 bc a4 1c 10 3c
       0.010711517 0.03843606 -0.018362537 0.008795891
000070 4d 7b 14 3b c3 cd 39 3d 87 c4 88 3c dc a7 63 ba
       0.00226565 0.045362245 0.016695274 -0.0008684376
000080 f3 31 97 bc ab a0 18 bd 99 a9 47 3c f1 4b 1d bc
       -0.018456435 -0.0372626 0.012186431 -0.009600625
000090 5f 12 97 bb 29 92 fb bb 10 52 fe 3a 34 63 af bc
       -0.0046103443 -0.0076773358 0.0019403119 -0.021409608
0000a0 f3 3f c0 bc c1 12 ce bb a3 6c 5f 3c 9f de 73 3d
       -0.023467993 -0.0062888567 0.013636741 0.05953848
0000b0 48 8f ba bd b3 be b7 bc 34 09 b3 3c e1 78 36 bc
       -0.0910936 -0.0224298 0.021854974 -0.011137218
0000c0 0b ac 4b 3c a9 77 39 3d fc 79 ae bc 95 f1 88 3d
       0.012431155 0.045280132 -0.021298401 0.06686703
0000d0 c3 59 ab bc 99 44 a0 3c b5 1e 9b 3d 7b ca 6c 3d
       -0.020916825 0.01956396 0.07574216 0.057810288
0000e0 f0 b7 73 3d f7 47 65 3c 7c 40 f0 bc 86 77 58 bc
       0.05950159 0.013994209 -0.029327624 -0.01321209
0000f0 c0 98 33 3d 36 68 00 3d 2a c0 02 3d e5 4c 17 3c
       0.043846846 0.031349383 0.031921543 0.009234642

linears.3.weight f4 [32, 64]
000000 1d c8 d2 be 66 c1 9e bd 37 9f 1d be 94 40 7e 3e
       -0.411683 -0.077517316 -0.15392767 0.24829322
000010 87 20 8e 3d 6b f6 04 3e 49 7b 7d 3e 49 b8 61 3d
       0.06939798 0.12984626 0.24754061 0.05510739
000020 74 c1 ae 3e a9 8d 88 bd f4 b6 f9 3c 4b de ba 3d
       0.34131968 -0.066676445 0.030482747 0.0912443
000030 2e 48 ef 3d 7b 96 98 be d2 5c 92 be c6 0d cc 3b
       0.11683689 -0.29802307 -0.2858644 0.006227228
000040 d8 34 97 3d b7 20 46 3e ea 6a 03 be d8 98 5c bc
       0.07383126 0.19348417 -0.12833753 -0.013464175
000050 7b d5 b6 3c 98 ec 0d 3e cf 29 8a 3e a3 58 3e 3d
       0.022318592 0.13859785 0.26985022 0.04647125
000060 65 a9 23 be 3b 9f b0 3d 41 e8 1b be 61 1a 81 be
       -0.15982588 0.08624121 -0.15225317 -0.25215438
000070 07 36 1a bd 39 24 02 3e a7 d3 22 3d b0 32 00 3e
       -0.03764918 0.1270913 0.03975263 0.12519336
000080 54 6b a8 bd 97 d4 0e 3d 60 d0 24 3e b3 d1 d2 3d
       -0.08223596 0.03487071 0.16095114 0.10293903
000090 f0 03 e7 bc 99 3d 9a 3d 40 de 3e 3e 00 0f d8 bd
       -0.02820012 0.0753128 0.18639469 -0.10549736
0000a0 93 b8 0b 3e d6 bd 4a bd 31 3b 55 bd 5f bc 52 3e
       0.13644628 -0.049497448 -0.052058402 0.2057967
0000b0 40 f2 f4 bb 8f df d8 bd 9b f1 89 be a7 26 55 be
       -0.0074751675 -0.105895154 -0.26942143 -0.20815526
0000c0 77 3c 04 3e 84 97 00 3e 0a 43 d7 3d 5c f2 43 3e
       0.1291369 0.12557799 0.105108336 0.19135422
0000d0 60 08 b9 3d dc aa 7c 3e 3f 2b b7 be e0 38 ef 3d
       0.090348005 0.24674553 -0.35775182 0.1168077
0000e0 d4 79 9f bd dd 77 01 bc 9e 6f 82 3e 82 40 45 3e
       -0.07786909 -0.007902113 0.25475782 0.19262889
0000f0 98 a1 13 be bb 61 43 3d 01 83 9b 3d 10 37 2f be
       -0.14417112 0.047700625 0.075933464 -0.17110848
000100 50 d1 c5 3e 5e 05 25 3e 37 da 1c 3e 56 0f 5d 3d
       0.38636255 0.16115329 0.15317617 0.053969704
000110 67 68 b8 3e 03 55 d6 be c3 15 77 be 8b e2 f3 3d
       0.36017153 -0.41861734 -0.24129395 0.11908444
000120 37 c3 e9 3d 2e 23 52 3c 4a ef 14 3e 81 c0 0c 3f
       0.114141874 0.01282577 0.14544407 0.5498124
000130 cc 8f 23 be fa 0b 5f be 0a 8a 6e 3e 7c d9 02 3d
       -0.15972823 -0.21781912 0.23294845 0.03194569
000140 4a e6 14 3e d6 32 82 3c b5 87 1f 3d f8 5f 96 3e
       0.14540973 0.015893381 0.03894778 0.29370093
000150 56 0c 8f 3e f5 ac 59 3e c4 76 c0 3e 3c 5d 8f be
       0.279391 0.21257384 0.3759061 -0.2800082
000160 dc dd e3 bd c0 3b a2 3d 7d 8c e7 3d ea 88 ec be
       -0.11126301 0.07921553 0.11306093 -0.46198207
000170 2a cb 1a bd 09 c9 75 bd c6 5a 80 be 4b d8 a2 be
       -0.03779141 -0.060006175 -0.25069255 -0.31805643
000180 ec eb 69 3e d5 6e db bd 0f 23 d3 3d 85 4a 30 be
       0.22843903 -0.10714499 0.10309421 -0.17215927
000190 34 35 00 3f b1 0f 0b 3f 9f 2a 1d bd a1 ea 8c 3e
       0.5008118 0.5432082 -0.038370725 0.27522758
0001a0 34 dd d0 3d ef c8 b0 be df a2 9e be 7c 5a 5e be
       0.10198441 -0.345283 -0.30983636 -0.21714205
0001b0 fb bd e3 3d 22 77 ab 3e 65 45 27 3d 6a bd 92 3e
       0.1112022 0.3348933 0.040837664 0.28660136
0001c0 f5 11 40 bd dd cd 85 bd 78 88 9f 3e 50 8c 90 be
       -0.046892125 -0.06533406 0.31158805 -0.2823205
0001d0 d3 6a 9d 3d da a1 cc 3d 4f ee 10 3e 01 25 61 bd
       0.07686391 0.09991808 0.14153408 -0.05496693
0001e0 29 71 c7 3d e6 ce b4 bd 9c f8 14 bf 53 9b 77 3e
       0.097383805 -0.08828525 -0.5819185 0.24180345
0001f0 0f a3 0f be 0e 62 a7 be 80 89 c3 3e 49 de b5 3e
       -0.14027046 -0.32691997 0.38190842 0.35521153
000200 fa 6a 67 3e f6 bf 66 be 7f 74 37 3e 47 93 79 3d
       0.22599402 -0.22534165 0.17915533 0.06093147
000210 e8 d4 66 3d c0 72 9f 3e 7f 50 a1 bd 50 15 f2 bd
       0.056355387 0.31142235 -0.078766815 -0.11820471
000220 87 4f 70 be 49 bc cd bd b6 93 91 be 0e b8 94 bb
       -0.23467837 -0.10045678 -0.28433007 -0.0045385426
000230 1d 58 89 bc 37 e2 2d be 84 55 88 bd 5b 1a 55 be
       -0.016765648 -0.16980825 -0.06656936 -0.20810835
000240 b1 00 32 3e bc 13 17 3e 8c af 64 3e e1 6d a4 3c
       0.17383076 0.14753622 0.22332591 0.020071926
000250 ad ab d1 bd dd 20 1b 3e e3 06 95 3d a9 b2 24 3e
       -0.10237823 0.15149255 0.07276704 0.16083778
000260 47 fa db bd fd 4f 11 be f6 73 1c 3d 66 0a 58 bc
       -0.10741096 -0.1419067 0.038196526 -0.013186073
000270 ad ed 0d be be 64 40 be 0c 8f 93 3d 39 a8 cc 3c
       -0.13860197 -0.1878843 0.072050184 0.024982559
000280 a3 d0 55 3e a2 b2 18 bd 10 13 b3 3e fd 48 31 3e
       0.2088037 -0.037279733 0.3497548 0.17312999
000290 50 cb 3b 3c eb b6 15 be 95 79 14 3d 11 d9 48 3e
       0.011462048 -0.14620559 0.036248762 0.19614054
0002a0 38 ef 97 be 31 5f 5d be dc 71 1b 3e f2 bc cf be
       -0.29674697 -0.21618344 0.15180153 -0.4057384
0002b0 41 47 62 bd 32 64 69 3e 8d 5c c8 be 12 b8 2b be
       -0.055243734 0.22792128 -0.3913311 -0.16769436
0002c0 e3 43 81 3e a2 48 f1 3d ca 54 1c 3d f0 19 1f bd
       0.25247106 0.11781432 0.0381668 -0.038843095
0002d0 a4 35 5b 3e db 99 2c 3d e5 79 a9 be 54 6d e6 3c
       0.21407181 0.042138916 -0.3310081 0.028128304
0002e0 4d ff b5 3c bd e4 1e be 3d 96 cf 3c e5 cf 12 3e
       0.022216463 -0.15516944 0.025340194 0.14337118
0002f0 0a 06 2b be 77 0f ab 3e 98 ea bf bd 0c af 32 3e
       -0.16701522 0.33410236 -0.09370917 0.17449588
000300 f0 fc 8b be 16 e2 64 3e 08 e7 ed 3d bd 79 9b bd
       -0.27341413 0.2235187 0.11616331 -0.07591579
000310 4a ea a2 3d 0a da 62 be fe 9d 81 3e fb d4 d1 3d
       0.07954843 -0.22153488 0.2531585 0.10245701
000320 6d 20 2d 3d c7 fa cc be 55 e3 b6 bd 08 74 fa bd
       0.04226725 -0.40035078 -0.08930079 -0.122291625
000330 c0 89 8a 3c d2 47 f6 3d 7c 93 10 3c a4 82 3f be
       0.016911387 0.120254174 0.0088242255 -0.18702179
000340 db 9c 0f 3e 69 8e ea bd 58 c9 44 3e db 35 7b 3e
       0.1402468 -0.11452944 0.19217432 0.24532263
000350 34 f3 1f be 9e c8 a8 bd e6 20 a5 3e 0e 8b 9d bd
       -0.15620118 -0.0824139 0.32251662 -0.07692538
000360 e6 1a 2e be 69 8c 8b bd 23 6a 0a 3e d2 7b 01 3e
       -0.17002448 -0.068138905 0.1351705 0.1264489
000370 4e 10 37 3c ed fc f9 bd 41 83 1f be de a6 be 3d
       0.011173321 -0.12206445 -0.15577413 0.09309171
000380 ac 0d 75 3d 82 15 87 3e c3 e3 8d 3d d5 d3 a3 be
       0.05982749 0.26383597 0.06928208 -0.31997553
000390 a6 74 f2 3b fb 75 3f be 56 55 cd 3d 66 d3 17 bc
       0.0073991595 -0.1869735 0.10026042 -0.00926671
0003a0 1b 3a c5 3d 80 ef 18 be ea 63 a6 bd d9 66 e4 bd
       0.09630223 -0.14935112 -0.08124526 -0.11152429
0003b0 06 7b 83 be 24 3f a3 3e 15 bd 41 be 38 1d f6 3d
       -0.25679797 0.3188411 -0.18919785 0.12017292
0003c0 8d 8f d5 bd d2 5b 5d be 6e 8b 30 3e 1f ca 12 be
       -0.10427771 -0.21617058 0.17240688 -0.14334916
0003d0 22 f2 6a 3e a3 27 c8 bd 43 3e 51 be 40 16 15 be
       0.22943929 -0.09773185 -0.20433907 -0.14559269
0003e0 81 9d 57 3e cd 36 12 3e d4 53 bc 3e 43 ff 9e bd
       0.21056177 0.14278717 0.36782706 -0.07763531
0003f0 9a b4 23 3c c2 9c 2b 3d b8 a8 2a bd 96 95 4b 3d
       0.009991789 0.041897543 -0.04166481 0.049703203

linears.3.bias f4 [32]
000000 e4 24 1d bd f8 dd 65 3d 40 cc 82 bc 92 75 22 bd
       -0.03836526 0.05611989 -0.015966535 -0.039662905
000010 1a b8 34 bd bc 81 d8 bd eb 55 47 3d 4d db 58 3d
       -0.044120885 -0.1057162 0.048665922 0.052943517
000020 62 16 5a 3a a7 d6 b5 3c 1d 14 7c bd a2 e0 5a bd
       0.00083193753 0.02219708 -0.06154262 -0.053436883
000030 2e eb ec bd 48 72 98 3a 93 15 49 bc 14 cf c1 3c
       -0.115682945 0.0011630738 -0.01227321 0.023658313
000040 3d e3 c9 38 cf 2e b9 bc f4 9a 79 3d b2 f0 29 bb
       9.626753e-05 -0.022605328 0.06093879 -0.002593082
000050 47 bc dc bc f1 42 05 bd cc 57 41 bd 3f 97 57 3d
       -0.026945246 -0.032534543 -0.04720287 0.052634474
000060 3e f8 a2 3b 87 b1 90 bd 6b e6 7b bd 79 31 80 bd
       0.0049734404 -0.07065111 -0.06149904 -0.06259436
000070 9c 63 82 bd 32 8b 0a bd f9 62 42 bc 45 27 86 3b
       -0.06366655 -0.033824153 -0.011864417 0.0040940368

linears.4.weight f4 [4, 32]
000000 90 53 60 3e c8 00 22 be 9d 6e 07 be 26 78 10 3e
       0.21906877 -0.1582061 -0.1322579 0.14108333
000010 bd 22 41 bd fc f0 8f bb 3a 0d d7 bb 8e 1e 24 3e
       -0.04715227 -0.0043927412 -0.006562856 0.1602728
000020 b6 c2 c0 be 1f 30 e7 3e 11 30 6c 3c f5 fa a0 3d
       -0.37648553 0.451539 0.014415757 0.07860366
000030 80 d8 82 3b b8 c0 85 3e 1a 13 5c bf 16 01 4a 3e
       0.003993094 0.26123595 -0.85966647 0.19726977
000040 10 1f c9 3e f4 d3 cb 3e 90 a4 32 3d d8 23 51 3e
       0.3928151 0.39810145 0.04361397 0.2042383
000050 31 a9 e7 bd 7d 85 95 bd 5a 2c 70 3e aa fc ef bd
       -0.113115676 -0.073008515 0.23454419 -0.11718114
000060 a9 9e ea be 82 84 87 bd a4 f9 b7 3c f1 2b 33 3e
       -0.45824173 -0.06617071 0.022457905 0.17497231
000070 0e 34 25 3e 22 0c a2 3e 64 fc 24 bf 4c c0 2b 3d
       0.16133139 0.31649882 -0.6444762 0.041931435
000080 c4 5b 44 be a1 84 87 3e a2 85 63 bf 6c 5b ef be
       -0.19175631 0.26468375 -0.8887578 -0.46749437
000090 09 d4 44 bf ed af 67 bf 7c 69 f8 3e e7 b4 42 3f
       -0.7688604 -0.90502816 0.48517978 0.76057285
0000a0 77 68 a0 3e 9e 0e 18 3e af 13 03 bf f5 d7 a7 be
       0.313297 0.14849326 -0.5120191 -0.3278195
0000b0 ee bf 26 bf f5 4f 91 3e 5a 53 2d bf 68 24 66 3f
       -0.6513661 0.28381315 -0.6770531 0.898993
0000c0 e1 ec c7 3e ee ca 72 be 78 a6 71 3f 07 a0 93 3e
       0.39047912 -0.23710224 0.94394636 0.2883303
0000d0 14 8e 46 bf 3d 0e 2e bf 1d 55 4b bf 5b ad 0b 3f
       -0.77560544 -0.67990476 -0.7942675 0.54561394
0000e0 9f 4d 3b bd 0e a0 37 bf f7 07 d9 be 04 03 65 bf
       -0.045728322 -0.717286 -0.4238889 -0.89457726
0000f0 0a 37 18 3f e6 46 11 be 21 d0 f3 be 31 f1 8c be
       0.5945898 -0.14187202 -0.47619727 -0.27527764
000100 7f 7e 18 3f 9d 0b cb 3e 44 27 c1 be 58 87 2e bf
       0.5956802 0.39657298 -0.3772527 -0.6817527
000110 54 0c 0f 3d b3 01 48 3e b1 6d 23 3f 4a fb 6b be
       0.034923866 0.19531898 0.6383925 -0.23045078
000120 80 39 d9 bd fa 8a 81 3e c9 4a cf be 54 e0 c8 be
       -0.106066704 0.25301343 -0.40486744 -0.3923365
000130 ca f5 28 3d c4 48 a0 3e 1b ac 8d 3e 84 e0 8d bc
       0.041250028 0.31305516 0.2767037 -0.017318971
000140 69 2e 5c bc 41 c4 18 3f 69 f8 89 be 6d 5e c2 3c
       -0.013438799 0.5967446 -0.26947334 0.023726666
000150 b9 6b 67 3e ca 2b 07 bf 13 61 05 bf d9 e0 20 3d
       0.22599687 -0.5280119 -0.5210125 0.03927693
000160 a1 e5 2c 3f f2 1a ee be b4 87 37 be bc 37 d0 be
       0.67537886 -0.46504933 -0.1792286 -0.40667522
000170 6b a5 fb bd 37 59 b5 3e 41 ae 60 be 4a d3 81 3e
       -0.1228741 0.35419628 -0.21941473 0.25356513
000180 06 a2 1d bf 32 71 4b 3f d6 15 5c bf 6b 84 01 bf
       -0.61575353 0.794696 -0.8597082 -0.5059268
000190 fc 8e 29 bf ca e1 60 bf 46 5a 98 3f 32 e4 27 3f
       -0.662338 -0.87844527 1.1902549 0.65582573
0001a0 78 9d 5e 3f d9 cc 3e 3f 1a c0 95 bf 02 76 55 bf
       0.8695903 0.7453132 -1.169925 -0.8338319
0001b0 3c 2d 29 bf a7 fc 3e 3e 49 47 1e bf 3c e5 8f 3f
       -0.6608465 0.18651067 -0.6182752 1.1241832
0001c0 14 f9 a7 3e b1 57 87 be 2d ce 34 3f ae cf 00 bf
       0.3280722 -0.2643409 0.706271 -0.50316894
0001d0 b0 db 80 bf b9 6d 87 bf 2a 04 51 bf 11 a4 28 3e
       -1.0067043 -1.058036 -0.8164698 0.16468836
0001e0 91 9c 76 bf 18 b5 ae bf c4 55 78 bf 5d 20 56 bf
       -0.9633265 -1.3649015 -0.9700587 -0.8364313
0001f0 a5 3d 8d 3f a2 dc 9e be a2 94 5d be ae c0 44 3f
       1.1034437 -0.31027704 -0.2163873 0.76856506

linears.4.bias f4 [4]
000000 93 75 86 bc 72 13 cb 3e 03 9a 69 bd 4c 19 43 3f
       -0.016413486 0.39663273 -0.057031643 0.76210475
