Iterations/Test model/epoch_7938.pt (torch, 37739 bytes, 10 tensors)

linears.0.weight f4 [32, 2]
0.32277322 -0.251305 0.27189893 -0.57481027 0.23597714 -0.6228452 -0.102664046 -0.737098
-0.0499038 0.53363585 0.04927353 -0.7949662 0.18515138 0.7918384 0.18378022 0.43603367
0.35557818 -0.2786003 -0.24528193 -0.24407944 -0.11434504 -0.649132 -0.29068333 0.5127254
-0.12800424 -0.3367287 0.16588226 -0.49184448 -0.12452377 0.8946604 -0.058081783 -0.44011807
0.22679655 0.74137723 0.30925006 0.31290933 -0.109134555 0.49217385 -0.21453913 -0.41489008
-0.12112917 -0.35363537 0.28575027 0.25679326 0.6762427 -0.18008047 0.2804478 -0.46998265
-0.5615615 0.43568787 0.34474996 -0.25254112 -0.18556823 -0.310614 0.043343976 0.5241358
0.08071672 -0.49881452 -0.029518701 0.60733634 0.16350895 -0.53379285 -0.04728075 0.90384346
00000000: 8842 a53e 0dab 80be 5636 8b3e c426 13bf
00000010: fea3 713e c872 1fbf 8741 d2bd 74b2 3cbf
00000020: ed67 4cbd 5c9c 083f 0ad3 493d e882 4bbf
00000030: 5398 3d3e ecb5 4a3f e230 3c3e ce3f df3e
00000040: 580e b63e b3a4 8ebe 302b 7bbe f6ef 79be
00000050: bb2d eabd 842d 26bf 72d4 94be f941 033f
00000060: 8b13 03be b467 acbe 0add 293e 0ad3 fbbe
00000070: 5106 ffbd 7708 653f 2ae7 6dbd 2857 e1be
00000080: 5b3d 683e e6ca 3d3f 0656 9e3e a735 a03e
00000090: f081 dfbd 36fe fb3e 25b0 5bbe 796c d4be
000000a0: 9212 f8bd b20f b5be dc4d 923e 687a 833e
000000b0: 3e1e 2d3f 0467 38be db96 8f3e 91a1 f0be
000000c0: 7fc2 0fbf 7b12 df3e 1183 b03e 124d 81be
000000d0: 9905 3ebe cc08 9fbe 7489 313d c42d 063f
000000e0: cf4e a53d 9e64 ffbe 34d1 f1bc 657a 1b3f
000000f0: e46e 273e a6a6 08bf 76a9 41bd 4962 673f

linears.0.bias f4 [32]
0.012368323 0.023217948 0.018420592 0.007727203 0.008611841 -0.007112908 0.0030407615 -0.037572205
-0.0023262845 -0.02752704 -0.00089449127 -0.080739476 0.041414507 -0.029431324 0.011835909 -0.011199475
-0.0026225836 0.0026888573 0.022436624 -0.020585472 0.012355615 -0.018819965 0.11284323 0.034815356
-0.07324658 0.045392256 -0.01023088 0.009109188 0.02605676 0.009517676 -0.1353653 0.011409677
00000000: 82a4 4a3c 9133 be3c c8e6 963c 7a34 fd3b
00000010: ae18 0d3c 6613 e9bb 8347 473b 50e5 19bd
00000020: 9474 18bb 6380 e1bc 4b7c 6aba bd5a a5bd
00000030: 42a2 293d f619 f1bc 67eb 413c 017e 37bc
00000040: a7df 2bbb 8a37 303b 03cd b73c dda2 a8bc
00000050: 356f 4a3c 542c 9abc 5a1a e73d 8c9a 0e3d
00000060: 4e02 96bd 3bed 393d 6c9f 27bc b43e 153c
00000070: fd74 d53c 07f0 1b3c 349d 0abe a7ef 3a3c

linears.1.weight f4 [64, 32]
0.027842674 -0.27229166 -0.2056658 -0.21394737 0.2338509 -0.06310949 -0.056833472 0.27394447
0.16932757 0.3078132 0.055235706 0.32830265 -0.23358746 -0.49499285 0.034269437 -0.20517945
0.33406192 0.023162525 -0.0033242768 0.03159341 -0.3848121 -0.035702128 -0.099881984 0.18703245
0.088294506 0.16537613 -0.28718993 -0.048808027 0.10212838 0.18018566 -0.08737665 0.17305857
0.033612803 0.08908099 -0.10275669 0.12990575 -0.10395325 -0.15366668 0.22987707 0.3206718
0.39542946 0.21904638 -0.13976212 -0.05850824 -0.06881441 0.13749409 0.13637504 -0.07552781
0.23672976 -0.1725836 -0.22142754 -0.07033674 -0.029781394 0.3360939 -0.08188701 -0.13414307
0.07726603 -0.029563133 0.07012965 -0.042778626 -0.02355998 -0.006946201 0.3175955 0.2574044
-0.080933854 0.1072222 0.18347679 0.005288946 0.04335639 -0.026546197 -0.041887563 -0.20418924
-0.09650149 -0.2954059 -0.19374877 -0.016760893 0.3083812 -0.0058876066 -0.0062045744 -0.24443293
-0.061625455 0.2553771 -0.10590636 -0.07305973 -0.1515196 -0.21179165 0.14289783 -0.07480289
-0.045052733 0.02566638 0.057213847 -0.11442473 -0.0735566 0.25341216 -0.12992455 -0.2504325
0.006904721 0.20608237 0.14928098 -0.068278424 -0.28926888 -0.14674169 -0.015234459 -0.083827324
0.28472638 -0.21774286 0.06791176 -0.05543878 0.026796822 0.19127634 0.078369245 -0.3926873
-0.05111825 -0.06469882 0.015822794 -0.085641384 -0.081061244 0.15005334 0.30031207 0.10136103
-0.19689697 0.2997341 -0.097117305 -0.095573455 0.06273792 -0.09929365 -0.24001002 -0.059105705
0.030038346 0.03301202 -0.07767267 -0.07864499 0.06648491 -0.14740258 0.15109985 0.046186842
-0.030176526 -0.197518 -0.36434376 -0.16634388 -0.15909544 -0.20199461 0.42085493 -0.0024663438
0.13964805 0.25047815 -0.03832742 0.29101512 -0.1556676 0.034288477 -0.24333102 0.022793617
-0.03260922 0.030098028 -0.16604011 0.18906893 0.026923787 0.06924939 -0.052735787 0.24395902
0.013409884 -0.21774359 -0.26672626 -0.19358486 0.48797116 -0.3502445 -0.039069146 -0.054223605
-0.018634496 -0.07332322 -0.043500096 0.17714423 -0.13843946 0.19815494 0.26737982 -0.022764064
-0.37652797 0.017688401 0.15287535 0.29791418 0.038933642 -0.25924364 -0.20659448 -0.16377343
0.27465302 -0.0050129434 0.36474755 0.052749485 -0.15831774 0.29334703 -0.31095934 0.16327752
-0.16664627 0.1399406 0.2644442 0.18957429 -0.22857144 0.18387444 -0.052552328 -0.25313026
0.360031 -0.3554433 0.16210516 0.022862224 -0.13122879 -0.14462611 -0.0722088 -0.2459321
0.08996515 -0.14058179 -0.07969512 0.123368874 0.16589251 -0.1670085 0.2335762 -0.032196373
-0.059106685 -0.053818468 0.1554708 -0.1174246 -0.09060984 -0.50635535 -0.046693504 -0.16588974
0.07306601 -0.14570676 0.12969153 -0.014092853 0.23169407 -0.2569735 0.15786529 0.21777947
-0.21223082 0.35853872 0.09726229 -0.049510147 -0.2095998 0.10647753 0.16167197 -0.007823954
0.08317817 -0.07736565 0.24332477 -0.13772923 -0.09676458 -0.13122392 0.26744995 -0.066910796
-0.022442406 0.054101534 -0.20937805 -0.061963554 0.016441233 0.35082275 -0.35878867 0.3971566
00000000: 5216 e43c d069 8bbe 0e9a 52be 0515 5bbe
00000010: 9c76 6f3e 8c3f 81bd 37ca 68bd 7342 8c3e
00000020: 3564 2d3e b199 9d3e d63e 623d 4917 a83e
00000030: 8d31 6fbe b46f fdbe 1c5e 0c3d 901a 52be
00000040: 2a0a ab3e 56bf bd3c 1cdc 59bb 1768 013d
00000050: 1706 c5be 653c 12bd ed8e ccbd 6f85 3f3e
00000060: c0d3 b43d 5c58 293e 8f0a 93be edea 47bd
00000070: af28 d13d 9782 383e 87f2 b2bd 4436 313e
00000080: 94ad 093d 1870 b63d 1972 d2bd 0306 053e
00000090: 71e5 d4bd cc5a 1dbe e564 6b3e 182f a43e
000000a0: bb75 ca3e b24d 603e cd1d 0fbe 56a6 6fbd
000000b0: 92ee 8cbd 40cb 0c3e e6a5 0b3e 53ae 9abd
000000c0: 4969 723e c1b9 30be e7bd 62be b50c 90bd
000000d0: 1cf8 f3bc 8014 ac3e 60b4 a7bd cd5c 09be
000000e0: a73d 9e3d 622e f2bc 22a0 8f3d a438 2fbd
000000f0: dc00 c1bc f59c e3bb e19b a23e 82ca 833e
00000100: a6c0 a5bd 5097 db3d 57e1 3b3e e54e ad3b
00000110: 7896 313d 6977 d9bc 4b92 2bbd fc16 51be
00000120: 93a2 c5bd 713f 97be 1466 46be 244e 89bc
00000130: 24e4 9d3e d3ec c0bb be4f cbbb a04c 7abe
00000140: f96a 7cbd cac0 823e 6fe5 d8bd 57a0 95bd
00000150: f427 1bbe e9df 58be cf53 123e 4232 99bd
00000160: 3789 38bd 4d42 d23c 1159 6a3d 8357 eabd
00000170: d8a4 96bd 3dbf 813e f10a 05be b038 80be
00000180: ff40 e23b 4207 533e 1ddd 183e 8fd5 8bbd
00000190: 0d1b 94be 7443 16be f499 79bc a9ad abbd
000001a0: a8c7 913e fcf7 5ebe 5215 8b3d c613 63bd
000001b0: 0285 db3c f2dd 433e 0e80 a03d 4f0e c9be
000001c0: 5f61 51bd d180 84bd ce9e 813c c064 afbd
000001d0: 7003 a6bd 95a7 193e 81c2 993e 5f96 cf3d
000001e0: 5c9f 49be bf76 993e 70e5 c6bd 04bc c3bd
000001f0: bd7c 803d 785a cbbd 30c5 75be d318 72bd
00000200: fa12 f63c 9d37 073d d912 9fbd a010 a1bd
00000210: 3e29 883d b4f0 16be ebb9 1a3e 6a2e 3d3d
00000220: c334 f7bc 2942 4abe 448b babe 0d56 2abe
00000230: eae9 22be add7 4ebe 4c7a d73e 62a2 21bb
00000240: e6ff 0e3e ac3e 803e 36fd 1cbd efff 943e
00000250: 5467 1fbe 1372 0c3d c42b 79be aeb9 ba3c
00000260: 3f91 05bd 2490 f63c 6b06 2abe 499b 413e
00000270: 468f dc3c a0d2 8d3d 7b01 58bd 65d0 793e
00000280: 21b5 5b3c 2df8 5ebe 5890 88be 1c3b 46be
00000290: 5bd7 f93e 3f53 b3be f806 20bd 9219 5ebd
000002a0: 5fa7 98bc 7c2a 96bd 282d 32bd 4c65 353e
000002b0: 13c3 0dbe 21e9 4a3e 02e6 883e b47b babc
000002c0: 46c8 c0be 44e7 903c 5b8b 1c3e 3588 983e
000002d0: e278 1f3d 95bb 84be 818d 53be 39b4 27be
000002e0: 529f 8c3e 9e43 a4bb 31c0 ba3e d80f 583d
000002f0: 0c1e 22be 9531 963e 1036 9fbe 3932 273e
00000300: 52a5 2abe 974c 0f3e 3b65 873e c31f 423e
00000310: a20e 6abe 9549 3c3e 1c41 57bd 4a9a 81be
00000320: fc55 b83e aafc b5be e5fe 253e 8f49 bb3c
00000330: d760 06be de18 14be 35e2 93bd a0d5 7bbe
00000340: a63f b83d acf4 0fbe 3237 a3bd d2a8 fc3d
00000350: badf 293e 4704 2bbe 992e 6f3e 58e0 03bd
00000360: da19 72bd c170 5cbd bd33 1f3e 4f7c f0bd
00000370: a791 b9bd 81a0 01bf b041 3fbd 00df 29be
00000380: a2a3 953d 2734 15be dbcd 043e b6e5 66bc
00000390: 3641 6d3e 0892 83be 70a7 213e 9501 5f3e
000003a0: 0953 59be 6392 b73e 7431 c73d 27cb 4abd
000003b0: 54a1 56be e410 da3d 568d 253e 0b30 00bc
000003c0: 5159 aa3d e271 9ebd 212a 793e e408 0dbe
000003d0: 822c c6bd 905f 06be 33ef 883e 8708 89bd
000003e0: 23d9 b7bc 9299 5d3d 3367 56be 7fcd 7dbd
000003f0: c4af 863c 0a9f b33e 26b3 b7be 1c58 cb3e

linears.1.bias f4 [64]
-0.021756114 -0.028567981 0.06844732 0.06213665 0.014133299 0.0012001662 -0.00030177896 0.07682015
-0.00094445294 0.02794746 -0.02210045 0.04460998 -0.012871651 -0.023705486 -0.021402469 0.018180737
-0.0037603518 -0.0016154979 -0.008794246 0.036955677 -0.011583173 0.0067127477 0.010622575 0.0016301399
-0.014158513 -0.0038383824 -0.013726854 0.011908817 0.07130849 -0.012914298 -0.025084754 -0.028422669
-0.02129013 0.09034545 -0.008433409 -0.00046784375 0.028868822 -0.018650709 0.007142556 0.019514414
0.013101226 -0.011422064 -0.030006973 -0.006110892 0.158419 -0.005919758 0.017542137 0.012808963
-0.0343577 0.053610295 -0.1274439 -0.011926538 -0.00045425454 0.03558337 0.016504945 0.01788101
-0.02668472 -0.008293548 -0.007567947 0.021246875 -0.004039261 -0.0085287085 -0.005100971 -0.02027369
00000000: e139 b2bc 6607 eabc 1c2e 8c3d 0083 7e3d
00000010: 5a8f 673c e54e 9d3a 1638 9eb9 e253 9d3d
00000020: 2a95 77ba 12f2 e43c 010c b5bc f4b8 363d
00000030: 9ee3 52bc 0232 c2bc 3b54 afbc c5ef 943c
00000040: 3c70 76bb 1dbf d3ba be15 10bc d65e 173d
00000050: 59c7 3dbc 9cf6 db3b 4f0a 2e3c 6baa d53a
00000060: 1cf9 67bc 5f8d 7bbb 99e6 60bc 331d 433c
00000070: 300a 923d 7e96 53bc 8b7e cdbc a8d6 e8bc
00000080: a468 aebc 0907 b93d 482c 0abc ed48 f5b9
00000090: 4f7e ec3c 5fc9 98bc 1a0c ea3b b1dc 9f3c
000000a0: 86a6 563c 9c23 3bbc 2fd1 f5bc e13d c8bb
000000b0: 9738 223e 88fa c1bb 87b4 8f3c afdc 513c
000000c0: a9ba 0cbd 7896 5b3d a780 02be 8767 43bc
000000d0: 0329 eeb9 debf 113d 6135 873c 327b 923c
000000e0: ea99 dabc a9e1 07bc 8afc f7bb ed0d ae3c
000000f0: c75b 84bb ffbb 0bbc 0c26 a7bb 0215 a6bc

linears.2.weight f4 [64, 64]
-0.16052039 0.026269838 -0.041151945 0.11510065 -0.15239562 0.039480463 0.065325506 0.081306465
-0.0018075246 0.042076018 -0.0119078085 0.14547464 0.03244205 0.15620093 -0.055707823 0.08902406
0.029407678 0.016550763 0.3321084 0.049558967 0.25132018 -0.025389193 0.03461467 -0.10409161
0.14128311 0.15751058 -0.070162475 -0.10740809 -0.05413109 -0.19529854 0.016519947 0.028749323
0.23265803 0.09061879 0.2309361 -0.12393105 -0.038279183 0.11086665 -0.04917333 -0.13662076
0.016139174 0.21120307 -0.023176555 -0.0045698164 0.016371176 -0.01790159 0.08320552 -0.09546803
-0.2857594 -0.25326553 -0.1924567 -0.05736802 -0.257552 -0.17566203 -0.25163454 0.12485451
-0.057391427 0.06567453 0.057292286 0.22788154 -0.04502029 0.16571628 -0.18146384 -0.13390343
-0.2356641 -0.041154493 0.07639641 -0.087988324 -0.0029571927 -0.069945134 -0.043089367 0.29284272
0.043147717 -0.19480464 -0.11644651 0.0353998 -0.139727 -0.19414572 0.01365235 0.030578382
0.19922386 -0.050681885 -0.17958851 0.28102255 -0.14643763 0.0964872 0.06467353 0.13879779
-0.14311364 -0.112787664 0.066281155 -0.24066179 -0.05713924 0.20875321 -0.074826606 0.105707735
-0.24052435 -0.14716734 -0.22592221 0.046409845 -0.32257324 -0.19109172 0.0074702986 0.16136436
-0.13121209 0.053208258 0.117123716 0.066325665 -0.0075747794 0.14552645 0.0018849603 0.07721836
0.17872311 0.085533164 -0.08741723 -0.11443084 0.03594048 -0.046528287 -0.031731308 0.21149239
0.17455521 0.1183552 0.010211069 0.037638918 -0.020251857 -0.07725127 -0.21181339 -0.0008209776
-0.11646478 -0.22584724 -0.23548596 0.06067502 -0.20361404 0.16012342 0.0035123553 -0.01756436
0.08780291 -0.09214687 -0.2163687 -0.18302809 -0.049152415 -0.11695442 0.3160717 -0.09365635
-0.36170563 -0.054641545 0.059791125 0.08961704 -0.2169954 0.082301676 -0.05404073 0.14425796
0.085092485 -0.014147871 0.13689041 0.17529565 0.13054389 0.16239828 -0.11726767 0.16617396
-0.11965636 0.17269923 0.06507985 -0.14425758 -0.13232864 0.05455805 -0.074152306 0.07335408
-0.014428228 -0.112064615 0.11653375 -0.019240793 0.07617229 0.08600229 0.04782372 -0.08234296
-0.011191449 0.1569475 -0.12482437 0.10650811 -0.12979406 0.13590711 -0.12126454 0.04856076
-0.045937277 0.015326858 -0.25704923 -0.09186657 0.12386768 -0.073521264 0.054581307 -0.11712983
-0.07868984 0.18884768 0.21671498 -0.33269477 -0.11712991 -0.18433292 -0.14877163 -0.19567713
-0.15885596 0.04546109 0.0054808077 -0.008324887 0.014945019 0.22824693 -0.0796415 -0.060626313
0.49697906 0.074019246 0.35162133 0.060311697 0.017447 -0.14452961 -0.17547448 -0.045766886
0.07849891 -0.004522561 0.041765366 -0.17990182 0.11032368 -0.08546935 0.21240626 0.2648706
0.08336948 -0.1332919 0.0730661 -0.032471076 -0.06063572 -0.17426993 0.01209228 -0.18829896
0.11461733 0.07741801 0.11589945 -0.106381595 -0.11996899 0.049555186 -0.073316604 -0.09531408
-0.08626129 -0.07589277 -0.15536971 0.04093011 -0.0053146156 -0.17398477 0.02317986 -0.09084023
0.12095618 -0.19802645 0.20871279 0.053713307 0.18947974 0.2974807 -0.038845766 0.1208205
00000000: 755f 24be d833 d73c f18e 28bd e4b9 eb3d
00000010: 990d 1cbe 44b6 213d 61c9 853d 0184 a63d
00000020: 76ea ecba e757 2c3d f818 43bc 4ef7 143e
00000030: f4e1 043d 23f3 1f3e e32d 64bd 3f52 b63d
00000040: 5fe8 f03c 7795 873c 1d0a aa3e 58fe 4a3d
00000050: 0aad 803e fffc cfbc 1dc8 0d3d fb2d d5bd
00000060: 85ac 103e 744a 213e 58b1 8fbd c6f8 dbbd
00000070: 90b8 5dbd 57fc 47be d754 873c b383 eb3c
00000080: e83d 6e3e 5896 b93d 837a 6c3e 90cf fdbd
00000090: a2ca 1cbd 0e0e e33d f969 49bd 50e6 0bbe
000000a0: 4d36 843c 9e45 583e c2dc bdbc 66be 95bb
000000b0: d81c 863c 5ba6 92bc a867 aa3d be84 c3bd
000000c0: 0e4f 92be 05ac 81be 5f13 45be bbfa 6abd
000000d0: dbdd 83be bfe0 33be 3ed6 80be b9b3 ff3d
000000e0: 4613 6bbd 5e80 863d 51ab 6a3d c759 693e
000000f0: 3267 38bd 87b1 293e a8d1 39be fb1d 09be
00000100: ee51 71be 9d91 28bd b975 9c3d 3933 b4bd
00000110: 76cd 41bb 653f 8fbd 7a7e 30bd 7bef 953e
00000120: a9bb 303d de7a 47be 827b eebd 61ff 103d
00000130: 9814 0fbe 23ce 46be 1bae 5f3c 847f fa3c
00000140: 5701 4c3e cf97 4fbd 0de6 37be 30e2 8f3e
00000150: bff3 15be 159b c53d 8e73 843d 0221 0e3e
00000160: 628c 12be 38fd e6bd 6abe 873d 0b70 76be
00000170: d60a 6abd 67c3 553e b13e 99bd 4c7d d83d
00000180: 044c 76be 09b3 16be 2758 67be 4018 3e3d
00000190: 5228 a5be 8cad 43be 68c9 f43b b33c 253e
000001a0: 765c 06be e7f0 593d 8fde ef3d c0d5 873d
000001b0: db35 f8bb e304 153e c610 f73a a924 9e3d
000001c0: 3103 373e 032c af3d ce07 b3bd b75a eabd
000001d0: 5336 133d 7294 3ebd b0f8 01bd 7691 583e
000001e0: 9abe 323e 3664 f23d 544c 273c 442b 1a3d
000001f0: 39e7 a5bc ea35 9ebd 9ce5 58be e036 57ba
00000200: 1685 eebd 8044 67be 3b23 71be 5f86 783d
00000210: 3380 50be 65f7 233e 8b2f 663b 22e3 8fbc
00000220: 03d2 b33d 80b7 bcbd c28f 5dbe b76b 3bbe
00000230: 0b54 49bd cd85 efbd 26d4 a13e e7ce bfbd
00000240: 7b31 b9be d0cf 5fbd 8ae7 743d 2389 b73d
00000250: 0b34 5ebe c88d a83d d059 5dbd 5cb8 133e
00000260: f844 ae3d 79cc 67bc 002d 0c3e b480 333e
00000270: 4cad 053e bc4b 263e 082a f0bd 8229 2a3e
00000280: 650e f5bd 11d8 303e 9648 853d 42b8 13be
00000290: 2981 07be 4378 5f3d 2add 97bd aa3a 963d
000002a0: 6064 6cbc 2282 e5bd 3fa9 ee3d de9e 9dbc
000002b0: 3800 9c3d f821 b03d cee2 433d 6da3 a8bd
000002c0: 575c 37bc d8b6 203e eba3 ffbd ed20 da3d
000002d0: bce8 04be 3c2b 0b3e 8b59 f8bd a6e7 463d
000002e0: ba28 3cbd 801d 7b3c f59b 83be 8a24 bcbd
000002f0: 57ae fd3d 5192 96bd a690 5f3d c4e1 efbd
00000300: 2428 a1bd 4961 413e 88ea 5d3e f856 aabe
00000310: cee1 efbd c5c1 3cbe 9757 18be 965f 48be
00000320: 23ab 22be 6835 3a3d 5998 b33b 1b65 08bc
00000330: f4db 743c 90b9 693e 151b a3bd 4c53 78bd
00000340: 0a74 fe3e 6797 973d b607 b43e 6609 773d
00000350: 03ed 8e3c 92ff 13be 95af 33be 0f76 3bbd
00000360: 09c4 a03d fe31 94bb 2912 2b3d 2f38 38be
00000370: 62f1 e13d 8e0a afbd 0781 593e 1f9d 873e
00000380: 9ebd aa3d ac7d 08be aea3 953d 6400 05bd
00000390: 295d 78bd d173 32be b31e 463c 71d1 40be
000003a0: 7ebc ea3d 558d 9e3d b15c ed3d 98de d9bd
000003b0: 4db2 f5bd 61fa 4a3d 0427 96bd 0734 c3bd
000003c0: c2a9 b0bd ab6d 9bbd 3d19 1fbe 55a6 273d
000003d0: 3a26 aebb 1029 32be b1e3 bd3c 710a babd
000003e0: e0b7 f73d 72c7 4abe ceb8 553e 7c02 5c3d
000003f0: fa06 423e 644f 983e bd1c 1fbd bd70 f73d

linears.2.bias f4 [64]
0.021380419 0.0074292086 0.02001846 -0.045475498 0.091342136 -0.044044897 -0.088176385 -0.000675383
-0.02298675 0.02045575 0.002370189 -0.014945767 -0.026709331 0.032650054 0.08895216 0.025671422
-0.025698131 -0.028486744 -0.04984687 0.0025214818 0.03260335 -0.017496275 -0.035791017 0.008387038
0.010563531 0.03874512 -0.018389821 0.008898792 0.0019915048 0.04578238 0.016578123 -0.00085021026
-0.018484557 -0.037623066 0.011446277 -0.008729246 -0.0050382623 -0.0076935887 0.0019512543 -0.021985104
-0.02337894 -0.0057343133 0.01435802 0.05841249 -0.09323035 -0.022623751 0.021486843 -0.011910345
0.012620276 0.046003804 -0.021500278 0.06769124 -0.021473767 0.01949935 0.07566797 0.05814154
0.0592427 0.013277104 -0.02936118 -0.013134914 0.04312133 0.032309923 0.029896425 0.008748933
00000000: fd25 af3c b870 f33b c1fd a33c 8444 3abd
00000010: 9611 bb3d 6c68 34bd d295 b4bd 300c 31ba
00000020: b54e bcbc d192 a73c 2c55 1b3b 17df 74bc
00000030: 87cd dabc 10bc 053d 8d2c b63d e04c d23c
00000040: e384 d2bc 085d e9bc 3b2c 4cbd 723f 253b
00000050: 178b 053d 5954 8fbc 9a99 12bd c969 093c
00000060: a912 2d3c 34b3 1e3d 40a6 96bc 3dcc 113c
00000070: e883 023b 4e86 3b3d d8ce 873c a5e0 5eba
00000080: ed6c 97bc a51a 1abd 2a89 3b3c 1d05 0fbc
00000090: 0218 a5bb 801a fcbb 3bc1 ff3a 1b1a b4bc
000000a0: 3185 bfbc e8e6 bbbb e73d 6b3c ef41 6f3d
000000b0: 8eef bebd 7255 b9bc 2d05 b03c 9c23 43bc
000000c0: 46c5 4e3c 7c6e 3c3d 5a21 b0bc b4a1 8a3d
000000d0: c1e9 afbc 1abd 9f3c cff7 9a3d d325 6e3d
000000e0: 79a8 723d 3688 593c db86 f0bc d333 57bc
000000f0: fe9f 303d 6957 043d 59e9 f43c af57 0f3c

linears.3.weight f4 [32, 64]
-0.41176146 -0.07891169 -0.15413101 0.24873145 0.06895196 0.13045932 0.24774866 0.05241462
0.3413877 -0.06817756 0.03017687 0.0925187 0.11745458 -0.29841578 -0.28663522 0.004588374
0.07729951 0.19402005 -0.1276785 -0.013402684 0.021352837 0.13895175 0.26997802 0.046954304
-0.16075626 0.08378676 -0.15180527 -0.2528811 -0.037699986 0.12411255 0.038874727 0.1248364
-0.081943415 0.035656527 0.16363564 0.10447717 -0.027091745 0.07457835 0.18693325 -0.1016438
0.13668762 -0.049315117 -0.054064505 0.20408177 -0.0072511113 -0.10418278 -0.27099207 -0.20704578
0.1291934 0.12544745 0.1051367 0.19105172 0.093147 0.2475602 -0.3581328 0.11635861
-0.08046167 -0.009734942 0.25588974 0.19829999 -0.1446668 0.047739003 0.07474738 -0.17147258
0.3886428 0.15683842 0.14796248 0.057149094 0.35831365 -0.41689432 -0.24018401 0.11665836
0.11221982 0.003014115 0.1410077 0.56867146 -0.15602164 -0.22124459 0.23018955 0.032461815
0.1585268 0.021645688 0.04099838 0.29641742 0.27426314 0.21616629 0.379161 -0.2884407
-0.12022563 0.07509883 0.11618595 -0.4691947 -0.041513503 -0.06677135 -0.25506845 -0.3246982
0.23260969 -0.10241066 0.11408529 -0.16441494 0.5138183 0.54774475 -0.044007782 0.2869777
0.10367973 -0.34532592 -0.32316044 -0.22130163 0.1143933 0.34266892 0.03326216 0.3040041
-0.060675856 -0.06498405 0.32051516 -0.2802553 0.09116369 0.10619706 0.13924728 -0.06141602
0.08556256 -0.09446621 -0.57921755 0.25473082 -0.14361604 -0.32398006 0.37745702 0.3565017
0.22918689 -0.226602 0.17811184 0.06066384 0.057429392 0.31298837 -0.08024557 -0.118191876
-0.23750511 -0.104143836 -0.2891938 0.008420853 -0.016812842 -0.16952157 -0.06605759 -0.20808162
0.18636738 0.14855677 0.22228537 0.019523287 -0.10325034 0.15135257 0.07244742 0.15612072
-0.11470309 -0.1433855 0.03777574 -0.014763332 -0.13827297 -0.19180664 0.07183456 0.023630988
0.2091534 -0.03653611 0.3593459 0.17842224 0.016596168 -0.14559665 0.034974515 0.20477754
-0.29791912 -0.21833232 0.14440101 -0.4063792 -0.055772968 0.23027721 -0.39378127 -0.15906562
0.24855126 0.119536705 0.04150704 -0.03516637 0.22459581 0.04809083 -0.33016506 0.026727999
0.014148456 -0.15750083 0.024886036 0.15608893 -0.16679211 0.33792493 -0.094509445 0.17704816
-0.2742209 0.2273133 0.11733565 -0.07609057 0.07958458 -0.22695874 0.2526095 0.11020957
0.044269845 -0.40141904 -0.08662347 -0.117499344 0.017314505 0.11994875 0.009696964 -0.18101464
0.13553001 -0.11364297 0.19241507 0.24631098 -0.15620092 -0.08154972 0.3245471 -0.08108955
-0.1656433 -0.0607617 0.1351752 0.12383831 0.009586048 -0.115177184 -0.15669456 0.090879686
0.059749607 0.26358786 0.06342793 -0.3253106 0.009932444 -0.18372205 0.09390507 -0.016369293
0.09749802 -0.15006445 -0.07891725 -0.1083306 -0.25581253 0.31961063 -0.18734175 0.12734884
-0.11062342 -0.21829957 0.1719552 -0.14579166 0.22933556 -0.10105392 -0.20453857 -0.14695558
0.21343961 0.14530632 0.36581364 -0.08855293 0.010524374 0.038469687 -0.040684875 0.05053235
00000000: 66d2 d2be 749c a1bd 85d4 1dbe 75b3 7e3e
00000010: af36 8d3d 2197 053e d3b1 7d3e b6b0 563d
00000020: 5eca ae3e ada0 8bbd 7c35 f73c 727a bd3d
00000030: 078c f03d f4c9 98be dac1 92be 125a 963b
00000040: 354f 9e3d 31ad 463e 27be 02be ee96 5bbc
00000050: 25ec ae3c 5e49 0e3e 8f3a 8a3e 2853 403d
00000060: 4a9d 24be 6598 ab3d d772 1bbe a279 81be
00000070: 4d6b 1abd b82e fe3d 1b3b 1f3d 3aaa ff3d
00000080: f3d1 a7bd 940c 123d 1a90 273e 20f8 d53d
00000090: 82ef ddbc 89bc 983d 6e6b 3f3e a02a d0bd
000000a0: d7f7 0b3e a6fe 49bd be72 5dbd d0fa 503e
000000b0: bb9a edbb c85d d5bd 79bf 8abe cf03 54be
000000c0: 464b 043e 4c75 003e e951 d73d 10a3 433e
000000d0: dbc3 be3d 6c80 7d3e 2f5d b7be 6c4d ee3d
000000e0: 17c9 a4bd 4e7f 1fbc fb03 833e 270f 4b3e
000000f0: 8923 14be f989 433d 2815 993d 8296 2fbe
00000100: 30fc c63e 409a 203e 7a83 173e 2b15 6a3d
00000110: e374 b73e 2c73 d5be ccf2 75be 94ea ee3d
00000120: 81d3 e53d 7588 453b 5364 103e 7494 113f
00000130: 23c4 1fbe f18d 62be cfb6 6b3e aef6 043d
00000140: d954 223e 4c52 b13c ebed 273d 06c4 973e
00000150: 386c 8c3e b25a 5d3e 6421 c23e 80ae 93be
00000160: db38 f6bd 6acd 993d e6f2 ed3d 4a3a f0be
00000170: 100a 2abd 6bbf 88bd 5598 82be d83e a6be
00000180: 3c31 6e3e aebc d1bd 8ca5 e93d 645c 28be
00000190: 9989 033f 0039 0c3f 8141 34bd beee 923e
000001a0: 0a56 d43d 8fce b0be 4975 a5be e59c 62be
000001b0: 0947 ea3d 4d72 af3e e73d 083d 6da6 9b3e
000001c0: 3f87 78bd 5c16 85bd 901a a43e 9f7d 8fbe
000001d0: 07b4 ba3d d87d d93d d796 0e3e 5d8f 7bbd
000001e0: 6c3b af3d 8077 c1bd 9a47 14bf 146c 823e
000001f0: 1510 13be b7e0 a5be 0c42 c13e 6487 b63e
00000200: f8af 6a3e 5b0a 68be f362 363e a67a 783d
00000210: 153b 6b3d 0340 a03e ca57 a4bd 950e f2bd
00000220: 8a34 73be 5d49 d5bd 3611 94be 9ef7 093c
00000230: 16bb 89bc 1097 2dbe 3449 87bd 5913 55be
00000240: 17d7 3e3e 441f 183e c79e 633e 4def 9f3c
00000250: ea74 d3bd 2bfc 1a3e 505f 943d 1cde 1f3e
00000260: 74e9 eabd a6d3 12be bcba 1a3d e7e1 71bc
00000270: 6e97 0dbe f668 44be ff1d 933d c695 c13c
00000280: 4f2c 563e e3a6 15bd 30fc b73e 52b4 363e
00000290: b0f4 873c 4a17 15be 7041 0f3d 34b1 513e
000002a0: db88 98be 8292 5fbe dcdd 133e ef10 d0be
000002b0: 3272 64bd cacd 6b3e b39d c9be 19e2 22be
000002c0: 3984 7e3e a9cf f43d 4903 2a3d 9d0a 10bd
000002d0: 72fc 653e e4fa 443d 650b a9be adf4 da3c
000002e0: edce 673c e647 21be cddd cb3c c7d5 1f3e
000002f0: 8dcb 2abe 7f04 ad3e 2b8e c1bd 1d4c 353e
00000300: af66 8cbe d1c4 683e ac4d f03d 5fd5 9bbd
00000310: 3efd a23d df67 68be 0856 813e 8eb5 e13d
00000320: 4c54 353d cc86 cdbe a567 b1bd 7fa3 f0bd
00000330: 26d7 8d3c b1a7 f53d 04e0 1e3c e75b 39be
00000340: 61c8 0a3e a5bd e8bd 7508 453e f238 7c3e
00000350: 22f3 1fbe 8a03 a7bd 0a2b a63e 4712 a6bd
00000360: 669e 29be 43e1 78bd 5e6b 0a3e f19e fd3d
00000370: cd0e 1d3c 04e2 ebbd 8a74 20be 211f ba3d
00000380: 01bc 743d fdf4 863e 81e6 813d 1c8f a6be
00000390: b1bb 223c a221 3cbe 4d51 c03d e518 86bc
000003a0: 0bad c73d 7faa 19be 5e9f a1bd 6fdc ddbd
000003b0: dcf9 82be 01a4 a33e 84d6 3fbe bc67 023e
000003c0: 888e e2bd ec89 5fbe 0615 303e 694a 15be
000003d0: f1d6 6a3e 5cf5 cebd 8f72 51be 867b 16be
000003e0: ea8f 5a3e 2ecb 143e ed4b bb3e 3d5b b5bd
000003f0: 6d6e 2c3c 6492 1d3d 2fa5 26bd 02fb 4e3d

linears.3.bias f4 [32]
-0.038745653 0.054793976 -0.014590245 -0.03961685 -0.043296292 -0.094329424 0.048455402 0.05278458
0.0014325205 0.022247244 -0.05876308 -0.05361626 -0.10995774 0.00057909905 -0.012619971 0.02341305
-0.0007310128 -0.022774579 0.058436032 -0.00332821 -0.025207015 -0.031636585 -0.047209967 0.053236295
0.0055388208 -0.06827744 -0.058275264 -0.06236808 -0.06375515 -0.034098998 -0.011911605 0.0048339753
00000000: c3b3 1ebd a66f 603d ec0b 6fbc 4745 22bd
00000010: 7457 31bd c92f c1bd 2c79 463d a534 583d
00000020: 69c3 bb3a da3f b63c 8eb1 70bd b99c 5bbd
00000030: 8631 e1bd aece 173a ffc3 4ebc bacc bf3c
00000040: 70a1 3fba c191 babc 9f5a 6f3d 191e 5abb
00000050: f17e cebc 5d95 01bd 3d5f 41bd 4d0e 5a3d
00000060: ff7e b53b 0bd5 8bbd 0bb2 6ebd ac75 7fbd
00000070: 0f92 82bd 64ab 0bbd e428 43bc 5366 9e3b

linears.4.weight f4 [4, 32]
0.21852404 -0.16522487 -0.13906719 0.14123781 -0.046753515 -0.0031622725 -0.005915213 0.15961026
-0.3768506 0.4515327 0.015033017 0.07811279 0.004572193 0.25987557 -0.86092424 0.19666654
0.38879704 0.39805192 0.04364129 0.20436253 -0.11657057 -0.07315372 0.23368384 -0.11701564
-0.45952466 -0.06558426 0.023072451 0.17488827 0.1591829 0.31648204 -0.64523476 0.042151723
-0.17359364 0.25071982 -0.89575875 -0.45317584 -0.7740962 -0.9180177 0.49141985 0.7574562
0.31725386 0.13425398 -0.5093406 -0.31469885 -0.6431264 0.2965407 -0.662428 0.8961928
0.40101823 -0.2192068 0.9407406 0.3014728 -0.7777737 -0.6753501 -0.79027915 0.53828514
-0.056013484 -0.715796 -0.41228858 -0.8809116 0.60614914 -0.12384765 -0.4654976 -0.29126877
0.5915084 0.38040262 -0.3830095 -0.6961052 0.04905056 0.19309825 0.6564058 -0.26153606
-0.10823673 0.25269336 -0.41570076 -0.40137163 0.020900076 0.30518278 0.28435323 -0.046645667
-0.020757046 0.5753565 -0.27699792 0.017457575 0.21855034 -0.52585644 -0.5358256 0.049931563
0.6797769 -0.47620672 -0.19448626 -0.416333 -0.12743697 0.33844775 -0.22374178 0.26427254
-0.6208086 0.8054919 -0.86879337 -0.5079846 -0.6680589 -0.8805042 1.1993545 0.6592273
0.8793072 0.7502121 -1.1719449 -0.8381883 -0.66398615 0.17991401 -0.6237367 1.1278516
0.3272422 -0.26888165 0.7110351 -0.50927126 -1.0146214 -1.064553 -0.82364625 0.16531245
-0.9740175 -1.3675711 -0.9735647 -0.8423577 1.1117151 -0.31487483 -0.22214551 0.77359354
00000000: c4c4 5f3e b530 29be a167 0ebe a5a0 103e
00000010: 9d80 3fbd 213e 4fbb 67d4 c1bb df70 233e
00000020: 90f2 c0be 4b2f e73e 0b4d 763c 99f9 9f3d
00000030: 56d2 953b 690e 853e 8865 5cbf f462 493e
00000040: 6810 c73e 76cd cb3e 36c1 323d 6944 513e
00000050: 8dbc eebd 9ed1 95bd d14a 6f3e e5a5 efbd
00000060: d146 ebbe 0a51 86bd 7002 bd3c e915 333e
00000070: d800 233e ef09 a23e 1b2e 25bf 49a7 2c3d
00000080: 88c2 31be 595e 803e 7250 65bf aa06 e8be
00000090: 2b2b 46bf 3503 6bbf 629b fb3e a6e8 413f
000000a0: 196f a23e e079 093e 2564 02bf 3520 a1be
000000b0: efa3 24bf 2fd4 973e e294 29bf e46c 653f
000000c0: 4352 cd3e bf77 60be 60d4 703f a55a 9a3e
000000d0: 2d1c 47bf bfe3 2cbf bc4f 4abf 0ecd 093f
000000e0: 656e 65bd 683e 37bf 7d17 d3be 6c83 61bf
000000f0: 972c 1b3f d6a3 fdbd b455 eebe 2e21 95be
00000100: 186d 173f 22c4 c23e d219 c4be f333 32bf
00000110: 3de9 483d 8cbb 453e 360a 283f 0ee8 85be
00000120: 38ab ddbd 0661 813e bbd6 d4be 9580 cdbe
00000130: a336 ab3c eb40 9c3e bf96 913e 870f 3fbd
00000140: ae0a aabc 904a 133f acd2 8dbe 3003 8f3c
00000150: a9cb 5f3e 879e 06bf de2b 09bf 0a85 4c3d
00000160: dc05 2e3f 5ed1 f3be 6827 47be 9929 d5be
00000170: d67e 02be 0649 ad3e 911c 65be bb4e 873e
00000180: 50ed 1ebf b834 4e3f 3e69 5ebf 470b 02bf
00000190: e805 2bbf b968 61bf 7384 993f 1fc3 283f
000001a0: 471a 613f e60d 403f 4a02 96bf 8293 56bf
000001b0: fffa 29bf 613b 383e 35ad 1fbf 715d 903f
000001c0: 4a8c a73e dbaa 89be 6506 363f 9a5f 02bf
000001d0: 1ddf 81bf 4643 88bf 7bda 52bf ab47 293e
000001e0: 3659 79bf 920c afbf 893b 79bf c1a4 57bf
000001f0: ae4c 8e3f 4637 a1be 1d7a 63be 3a0a 463f

linears.4.bias f4 [4]
-0.016462348 0.37936178 -0.058753543 0.76710343
00000000: 0cdc 86bc b53b c23e 8ea7 70bd e460 443f
