Iterations/Test model/epoch_2009.pt (torch, 37739 bytes, 10 tensors)

linears.0.weight f4 [32, 2]
0.32106978 -0.06384716 0.27783188 -0.28863367 0.24158794 -0.3291104 -0.09989178 -0.47345984
-0.04429156 0.26805788 0.046793297 -0.47612417 0.17700894 0.527917 0.16632518 0.19586863
0.36258513 -0.045386646 -0.2278946 -0.12493759 -0.1125686 -0.39417663 -0.22883542 0.19506699
-0.10745103 -0.13460915 0.16512676 -0.20776683 -0.123758055 0.6397897 -0.056784492 -0.19730838
0.21890275 0.5007802 0.28697264 0.0758575 -0.10838145 0.19427077 -0.1660121 -0.16887954
-0.11255692 -0.12805784 0.27362633 0.04415718 0.6404635 0.021514874 0.25927654 -0.21404558
-0.55288446 0.20260425 0.32294858 -0.11120773 -0.1786036 -0.09383231 0.043863066 0.27153066
0.07810572 -0.17502065 -0.028247757 0.32415974 0.15547705 -0.19326657 -0.045664012 0.6274889
00000000: 4263 a43e 4dc2 82bd fb3f 8e3e cbc7 93be
00000010: d462 773e 2981 a8be 1094 ccbd 5469 f2be
00000020: 116b 35bd e23e 893e 54aa 3f3d 8cc6 f3be
00000030: d541 353e 9225 073f 2651 2a3e c991 483e
00000040: c2a4 b93e 59e7 39bd 345d 69be 47df ffbd
00000050: 5e8a e6bd 85d1 c9be d553 6abe a4bf 473e
00000060: 490f dcbd fbd6 09be fd16 293e d4c0 54be
00000070: dd74 fdbd 42c9 233f db96 68bd 350b 4abe
00000080: 0b28 603e 2233 003f 14ee 923e 2d5b 9b3d
00000090: 18f7 ddbd ebee 463e 13ff 29be c2ee 2cbe
000000a0: 3e84 e6bd 9821 03be c018 8c3e 29de 343d
000000b0: 6af5 233f f63f b03c e5bf 843e c42e 5bbe
000000c0: d689 0dbf 7d77 4f3e 8459 a53e e1c0 e3bd
000000d0: dde3 36be 272b c0bd c2a9 333d 1106 8b3e
000000e0: e4f5 9f3d 9d38 33be d767 e7bc 44f8 a53e
000000f0: 6035 1f3e ace7 45be 300a 3bbd 1da3 203f

linears.0.bias f4 [32]
0.0021309492 0.015954917 0.008887172 0.0075928774 0.011330965 -0.0074092895 0.001140525 -0.0355548
-0.01857732 -0.013061828 0.00037248057 -0.03882752 0.04178577 -0.028654717 0.011899304 -0.009361598
-0.0054002423 -0.0003369099 0.02045568 0.013273472 0.011725942 -0.02021754 0.088250086 0.004652752
-0.055154637 0.013754905 -0.008176693 0.009331639 0.020929618 0.007401286 -0.15044867 0.009995276
00000000: 65a7 0b3b e3b3 823c 809b 113c accd f83b
00000010: 83a5 393c a0c9 f2bb ab7d 953a e9a1 11bd
00000020: 772f 98bc 4701 56bc 7f49 c339 9b09 1fbd
00000030: 8e27 2b3d 4cbd eabc 4cf5 423c 6361 19bc
00000040: 84f4 b0bb 48a3 b0b9 ac92 a73c fa78 593c
00000050: 2a1e 403c 419f a5bc 76bc b43d 1d76 983b
00000060: d4e9 61bd 415c 613c 89f7 05bc bbe3 183c
00000070: 9774 ab3c 7d86 f23b 370f 1abe 3ac3 233c

linears.1.weight f4 [64, 32]
0.02813669 -0.26366687 -0.19368684 -0.17176044 0.175088 0.021239158 -0.08374846 0.2607216
0.1688375 0.3141043 0.08724176 0.32282823 -0.2223803 -0.48062003 -0.009007765 -0.17633273
0.31176734 0.0146626495 -0.025036434 0.04432527 -0.36980915 -0.042749878 -0.10595184 0.1931353
0.091127604 0.16523491 -0.27852732 -0.09266578 0.122733556 0.09501379 -0.077855706 0.079881206
0.025682252 0.08513303 -0.104977556 0.15691194 -0.1258866 -0.11905885 0.20851865 0.31243744
0.38760838 0.23074333 -0.115985356 -0.05121081 -0.06432667 0.14071918 0.12122672 -0.054862536
0.21779104 -0.18545078 -0.22818999 -0.054249562 -0.01670615 0.3257758 -0.09361073 -0.14029168
0.087470315 -0.038533527 0.0826826 -0.069275014 -0.023473961 -0.039520018 0.3214329 0.2208958
-0.06947918 0.11387976 0.18996473 -0.0305621 0.041329145 -0.040991608 -0.016876902 -0.1708218
-0.082823955 -0.30848685 -0.22172204 -0.016646756 0.2638848 0.012192515 -0.009680098 -0.266382
-0.03777098 0.2718105 -0.122313425 -0.094363116 -0.17927317 -0.19182305 0.14362822 -0.067132056
-0.04793265 0.033607453 0.040784083 -0.08654344 -0.08015059 0.27101946 -0.06348269 -0.23090328
-0.07362226 0.117670774 0.056153655 -0.09031683 -0.20517041 -0.25873995 -0.03864886 -0.10169011
0.2036684 -0.15102 0.078242406 0.03131455 0.035034724 0.13872525 0.1835775 -0.35637844
-0.08113023 -0.13239326 0.07296579 -0.030319171 -0.060329054 0.10170562 0.21425304 0.016715692
-0.11074113 0.22115666 -0.03881578 -0.11511177 -0.03259839 -0.01809904 -0.22562282 0.03602623
0.03214622 0.040014938 -0.06863884 -0.057162616 0.026590943 -0.092490315 0.13825046 0.04112873
-0.028595181 -0.1960382 -0.3487489 -0.17201951 -0.15493509 -0.19071662 0.39338326 0.013104461
0.12946853 0.24772257 -0.05436266 0.29578722 -0.14986186 0.03250858 -0.24539046 0.028710099
-0.032503117 0.032031287 -0.16339527 0.16364878 0.04221859 0.009905381 -0.042504575 0.18148047
0.089814745 -0.11569053 -0.15746684 -0.09179624 0.29991093 -0.14186159 -0.08553985 -0.073061004
0.054956973 -0.11704762 0.024120435 0.07316586 -0.11047638 0.28773257 0.108403064 0.048418272
-0.40257037 0.060517937 0.041517816 0.28157258 0.053509124 -0.22364318 -0.11761186 -0.06628546
0.17935236 0.07566768 0.3359604 -0.07031542 -0.0154622095 0.07651479 -0.25934047 -0.041779585
-0.17396608 0.12405724 0.24511637 0.14948526 -0.16102505 0.08937251 -0.029685289 -0.24319574
0.35340068 -0.35564816 0.13351375 0.035752524 -0.14030203 -0.16453137 -0.020953033 -0.2719866
0.10765261 -0.13856357 -0.05213823 0.11677318 0.15522525 -0.16580015 0.23154315 -0.04576065
-0.05373043 -0.060822513 0.15246132 -0.07441371 -0.11891578 -0.4100519 -0.059593257 -0.06128506
0.06349575 -0.14339717 0.13624232 0.049919292 0.15379539 -0.14737211 0.11314665 0.1878859
-0.22307062 0.37654576 0.14794995 -0.051318932 -0.17943119 0.116950415 0.11379481 0.043949127
0.044591613 -0.09813272 0.22139546 -0.110819116 -0.066813156 -0.15051211 0.25049722 -0.06708581
-0.010248037 0.045340884 -0.18837774 -0.1367185 0.041085094 0.22072966 -0.33449113 0.26630768
00000000: ea7e e63c 58ff 86be d855 46be f8e1 2fbe
00000010: 454a 333e befd ad3c 5084 abbd 4d7d 853e
00000020: bde3 2c3e 47d2 a03e cfab b23d be49 a53e
00000030: a9b7 63be d413 f6be 4e95 13bc 9190 34be
00000040: f89f 9f3e 9c3b 703c 3519 cdbc 6a8e 353d
00000050: a057 bdbe 7f1a 2fbd 47fd d8bd 43c5 453e
00000060: 1ca1 ba3d 5733 293e 229b 8ebe 8ec7 bdbd
00000070: bb5b fb3d 9796 c23d d072 9fbd c298 a33d
00000080: 9663 d23c 3a5a ae3d 79fe d6bd 86ad 203e
00000090: 6be8 00be 20d5 f3bd ea85 553e cdf7 9f3e
000000a0: 9b74 c63e fb47 6c3e bb89 edbd 6dc2 51bd
000000b0: b3bd 83bd b018 103e b745 f83d 8ab7 60bd
000000c0: 9d04 5f3e cfe6 3dbe a3aa 69be ca34 5ebd
000000d0: 56db 88bc 16cc a63e fbb6 bfbd 9fa8 0fbe
000000e0: a323 b33d 55d5 1dbd 7f55 a93d 0fe0 8dbd
000000f0: 774c c0bc bedf 21bd da92 a43e 8232 623e
00000100: 1a4b 8ebd cb39 e93d 1d86 423e 5e5d fabc
00000110: c048 293d d1e6 27bd 6e41 8abc e9eb 2ebe
00000120: 9b9f a9bd fdf1 9dbe 1a0b 63be c75e 88bc
00000130: e91b 873e 1dc3 473c 4699 1ebc 3963 88be
00000140: beb5 1abd bf2a 8b3e 767f fabd 7341 c1bd
00000150: 6393 37be 436d 44be 4713 133e 887c 89bd
00000160: 0755 44bd f8a7 093d 360d 273d b03d b1bd
00000170: fe25 a4bd 10c3 8a3e 3603 82bd e971 6cbe
00000180: 44c7 96bd 60fd f03d 6001 663d 08f8 b8bd
00000190: 3118 52be 9079 84be 444e 1ebd e842 d0bd
000001a0: 738e 503e fda4 1abe 8e3d a03d b043 003d
000001b0: 9280 0f3d fe0d 0e3e bdfb 3b3e 3c77 b6be
000001c0: 9b27 a6bd 1992 07be 176f 953d e95f f8bc
000001d0: 991b 77bd 094b d03d 2665 5b3e 59ef 883c
000001e0: 3fcc e2bd e476 623e 4cfd 1ebd b8bf ebbd
000001f0: e485 05bd 7044 94bc ab09 67be 3d90 133d
00000200: c1ab 033d b4e6 233d 8592 8cbd 5923 6abd
00000210: 40d5 d93c 906b bdbd 8791 0d3e 9976 283d
00000220: 7140 eabc 3dbe 48be 378f b2be e225 30be
00000230: 4ea7 1ebe 384b 43be 8869 c93e 18b4 563c
00000240: 6693 043e fcaa 7d3e 61ab 5ebd 6c71 973e
00000250: 6375 19be b727 053d a347 7bbe 7131 eb3c
00000260: fd21 05bd 3d33 033d 1751 27be 8c93 273e
00000270: 66ed 2c3d 2e4a 223c 4719 2ebd 04d6 393e
00000280: cbf0 b73d 28ef ecbd fd3e 21be abff bbbd
00000290: ed8d 993e 2a44 11be 842f afbd 02a1 95bd
000002a0: 901a 613d aab6 efbd 3898 c53c fbd7 953d
000002b0: 7141 e2bd af51 933e 6d02 de3d 3d52 463d
000002c0: b41d cebe a8e1 773d 960e 2a3d 482a 903e
000002d0: 622c 5b3d b802 65be 7dde f0bd acc0 87bd
000002e0: 25a8 373e a8f7 9a3d 0003 ac3e 8801 90bd
000002f0: 3555 7dbc c9b3 9c3d 46c8 84be 1221 2bbd
00000300: 2a24 32be b911 fe3d c9ff 7a3e aa12 193e
00000310: c0e3 24be ef08 b73d 902e f3bc 4e08 79be
00000320: eff0 b43e 8417 b6be d4b7 083e 3d71 123d
00000330: 56ab 0fbe e97a 28be b2a5 abbc d441 8bbe
00000340: f978 dc3d 9ce3 0dbe e68e 55bd c726 ef3d
00000350: 5ef3 1e3e 84c7 29be a619 6d3e 856f 3bbd
00000360: 7014 5cbd 0721 79bd d21e 1c3e 3766 98bd
00000370: 1e8a f3bd 53f2 d1be 0f18 74bd 0b06 7bbd
00000380: 0f0a 823d b5d6 12be 1b83 0b3e 2c78 4c3d
00000390: 8a7c 1d3e b7e8 16be 6eb9 e73d 2965 403e
000003a0: a06c 64be 9bca c03e 3180 173e cd33 52bd
000003b0: cfbc 37be b383 ef3d 410d e93d 0004 343d
000003c0: b2a5 363d cff9 c8bd 7eb5 623e 22f5 e2bd
000003d0: 56d5 88bd d91f 1abe 2c41 803e 4964 89bd
000003e0: 62e7 27bc 5db7 393d 18e6 40be efff 0bbe
000003f0: d848 283d f506 623e 6c42 abbe 7b59 883e

linears.1.bias f4 [64]
-0.02256069 -0.03369984 0.023411762 0.020547448 0.012520003 0.030933257 -0.0019137416 0.06862784
-0.0021470243 0.016155032 -0.018294465 0.026579874 -0.032924782 -0.021858893 -0.017273836 0.02716302
-0.0023146302 0.00072871253 -0.015502056 0.02092831 -0.01013585 0.013692815 0.016988741 0.0016482472
-0.012736265 -0.0045650867 -0.017825387 0.009227666 0.057793472 -0.00093096175 -0.029120615 0.0047039036
-0.027771968 -0.023197707 -0.08322383 0.0023165767 0.018667134 -0.016707046 -0.01666988 0.016501926
0.014238942 -0.008694826 -0.020670667 -0.012350222 0.13618988 -0.00016264344 0.0101808375 0.011443903
-0.022262648 0.048843578 -0.09554399 -0.0067925476 -0.004531448 0.023650985 0.01254491 0.01304795
-0.028105393 -0.0061778016 -0.009213412 -0.01839302 -0.0036372254 -0.003832764 -0.048947353 -0.020105598
00000000: 32d1 b8bc d808 0abd 06ca bf3c 1f53 a83c
00000010: b320 4d3c be67 fd3c 83d6 faba c18c 8c3d
00000020: 17b5 0cbb 8f57 843c 46de 95bc 09be d93c
00000030: 23dc 06bd 6c11 b3bc dc81 8dbc fb84 de3c
00000040: 0db1 17bb 1207 3f3a 56fc 7dbc d971 ab3c
00000050: d610 26bc d457 603c f92b 8b3c 000a d83a
00000060: c4ab 50bc b996 95bb 8c06 92bc a32f 173c
00000070: d9b8 6c3d c90b 74ba 5b8e eebc 3423 9a3b
00000080: 0a82 e3bc 1e09 bebc 4171 aabd b5d1 173b
00000090: d1eb 983c 37dd 88bc 468f 88bc 0c2f 873c
000000a0: 744a 693c be74 0ebc 8855 a9bc 9658 4abc
000000b0: 5c75 0b3e 448b 2ab9 87cd 263c 357f 3b3c
000000c0: 2860 b6bc 3410 483d 91ac c3bd 0594 debb
000000d0: 8a7c 94bb b6bf c13c 2b89 4d3c 12c7 553c
000000e0: 483d e6bc 286f cabb daf3 16bc f5ac 96bc
000000f0: 845e 6ebb 1c2f 7bbb 057d 48bd 7fb4 a4bc

linears.2.weight f4 [64, 64]
-0.1490864 0.023720447 -0.05079156 0.10277584 -0.16321792 0.054029744 0.05178476 0.06666079
-0.01057069 0.034863234 -0.01974782 0.13430707 0.018993827 0.15305369 -0.0524597 0.09632902
0.010204858 0.026412893 0.31775764 0.038545262 0.22598715 -0.011715217 0.03751089 -0.09129829
0.14946817 0.14856541 -0.08413608 -0.105809204 -0.070870005 -0.17275801 0.00045890448 0.041503415
0.20628998 0.07714999 0.21644145 -0.122158326 -0.055304494 0.10040776 -0.061856747 -0.13799292
0.029971328 0.22061676 -0.013156918 0.008450676 0.017154643 -0.003353016 0.09549666 -0.10376023
-0.27308246 -0.26446858 -0.17724523 -0.04603299 -0.26979935 -0.18559809 -0.25292835 0.13835165
-0.046693027 0.06077153 0.086953014 0.21475515 -0.055041358 0.17095506 -0.19244616 -0.14451063
-0.27726233 -0.04273501 0.108775176 -0.038409755 0.0058243433 -0.103403464 -0.0108328 0.323951
0.06633698 -0.16710655 -0.10857879 0.07337377 -0.11734605 -0.19936119 -0.039657358 0.015355157
0.23655374 -0.06205273 -0.14887843 0.32274118 -0.10759283 0.054424405 0.05633484 0.12232991
-0.14184807 -0.096843235 0.08181632 -0.26827577 0.0067030434 0.18195653 -0.048560765 0.068183966
-0.20302151 -0.086535946 -0.20439333 -0.0287887 -0.30143568 -0.17972833 0.028595718 0.15788984
-0.1445472 0.037076384 0.11449736 0.026113862 -0.012192388 0.12567389 -0.02125216 0.067224674
0.1362707 0.10936297 -0.12921515 -0.13776708 0.07261324 -0.012514541 -0.02714654 0.19669297
0.16275834 0.16132464 0.019583166 0.0702833 -0.0014558583 -0.07493636 -0.18194976 0.010318279
-0.20082831 -0.2605509 -0.22959872 0.062146813 -0.30271974 0.16687137 0.05352639 -0.034815382
0.09308761 -0.12172364 -0.19530247 -0.17333838 -0.028760793 -0.08402199 0.08682719 -0.039918825
-0.08327359 0.053548798 0.15884237 0.15619344 -0.068869635 0.053338304 -0.08386706 0.1085066
0.22281449 -0.08128232 0.080282316 -0.009163125 0.14304328 0.11330131 -0.05819283 0.16291131
-0.056780893 0.16140749 0.08257867 -0.28486115 -0.18721496 -0.03566585 -0.0820879 0.047802694
-0.04689988 -0.02928643 0.16520914 -0.11645531 0.10092249 0.17498483 0.03619929 -0.17591038
-0.028208522 0.1436188 -0.12300385 0.14219254 -0.072800614 0.115112655 -0.2821119 0.011212498
-0.015260634 0.12751551 -0.0042399145 -0.0820805 0.0843993 0.08142026 0.029346472 -0.09486141
-0.06699995 0.17044663 0.221186 -0.32842106 -0.10493431 -0.17789349 -0.1565231 -0.11568835
-0.15604092 0.048802495 -0.018646257 -0.010391102 0.0055905655 0.1606987 0.014978656 -0.06252054
0.31947693 0.06120135 0.30388266 0.052014895 -0.0149438465 -0.13964435 -0.13769886 -0.02979593
0.065992005 0.0023118935 0.03828917 -0.14825524 0.11698937 -0.06740994 0.19886601 0.26527748
0.042755645 -0.13701886 0.05611149 -0.0041884133 -0.06312475 -0.17579189 0.005692649 -0.13446316
0.128674 0.050164826 0.044427965 -0.0924094 -0.1132165 0.02541761 -0.071278416 0.0150367785
-0.086622275 -0.0751808 -0.21427895 0.03697358 -0.014772998 -0.15822507 0.041280255 -0.0670448
0.046398073 -0.20676427 0.084288165 0.04879507 0.18989152 0.22251222 -0.040199026 0.097801514
00000000: 1baa 18be 6251 c23c d00a 50bd 247c d23d
00000010: 9922 27be 4b4e 5d3d 421c 543d 7485 883d
00000020: b030 2dbc c0cc 0e3d 2ec6 a1bc cb87 093e
00000030: f198 9b3c 1bba 1c3e fbdf 56bd 2648 c53d
00000040: 4732 273c da5f d83c 21b1 a23e a3e1 1d3d
00000050: 2d69 673e 2ef1 3fbc 05a5 193d 99fa babd
00000060: 2f0e 193e 8821 183e 8a4f acbd 7fb2 d8bd
00000070: 4b24 91bd 7ae7 30be 1e99 f039 7cff 293d
00000080: ae3d 533e d000 9e3d d4a2 5d3e 252e fabd
00000090: f786 62bd 95a2 cd3d 805d 7dbd 044e 0dbe
000000a0: 6e86 f53c 5ce9 613e 1d90 57bc b474 0a3c
000000b0: e587 8c3c 46be 5bbb c193 c33d 3e80 d4bd
000000c0: 77d1 8bbe 6d68 87be c67f 35be 178d 3cbd
000000d0: 2423 8abe 6d0d 3ebe d37f 81be 0eac 0d3e
000000e0: 3041 3fbd 91eb 783d 6c14 b23d c6e8 5b3e
000000f0: 0c73 61bd d80e 2f3e 9b10 45be 98fa 13be
00000100: 54f5 8dbe e80a 2fbd 85c5 de3d 8c53 1dbd
00000110: 22da be3b 32c5 d3bd 0e7c 31bc e8dc a53e
00000120: afdb 873d fb1d 2bbe 8f5e debd fd44 963d
00000130: 2053 f0bd 5725 4cbe c16f 22bd 3294 7b3c
00000140: 253b 723e 012b 7ebd 9673 18be 553e a53e
00000150: a159 dcbd 20ec 5e3d 5cbf 663d 1b88 fa3d
00000160: 9f40 11be bf55 c6bd 518f a73d 715b 89be
00000170: 34a5 db3b d052 3a3e a7e7 46bd 09a4 8b3d
00000180: dfe4 4fbe c239 b1bd 7c4c 51be 48d6 ebbc
00000190: c755 9abe b40a 38be 9141 ea3c e0ad 213e
000001a0: 2e04 14be 68dd 173d 987d ea3d bdec d53c
000001b0: 95c2 47bc a8b0 003e 0319 aebc 17ad 893d
000001c0: 8c8a 0b3e b1f9 df3d fa50 04be d012 0dbe
000001d0: 40b6 943d ca09 4dbc 6c62 debc e269 493e
000001e0: 1faa 263e 4932 253e e06c a03c b1f0 8f3d
000001f0: 80d2 beba 3c78 99bd 0a51 3abe 000e 293c
00000200: f0a5 4dbe ed66 85be ed1b 6bbe a88d 7e3d
00000210: 15fe 9abe 54e0 2a3e 7d3e 5b3d 939a 0ebd
00000220: b8a4 be3d 3e4a f9bd 5ffd 47be 9e7f 31be
00000230: c19b ebbc b913 acbd 74d2 b13d ec81 23bd
00000240: 588b aabd fc55 5b3d 93a7 223e 2cf1 1f3e
00000250: 860b 8dbd 4479 5a3d 7ec2 abbd b538 de3d
00000260: 7b29 643e 5877 a6bd 0e6b a43d ef20 16bc
00000270: f079 123e 840a e83d 9b5b 6ebd 39d2 263e
00000280: 1593 68bd 0148 253e 011f a93d 52d9 91be
00000290: 47b5 3fbe 5b16 12bd b31d a8bd c2cc 433d
000002a0: 171a 40bd 18ea efbc 962c 293e 1f80 eebd
000002b0: 73b0 ce3d 392f 333e b545 143d da21 34be
000002c0: 8f15 e7bc cf10 133e 71e9 fbbd ec9a 113e
000002d0: 7d18 95bd 2fc0 eb3d f970 90be a0b4 373c
000002e0: bd07 7abc 6d93 023e fbee 8abb d219 a8bd
000002f0: 8ad9 ac3d aabf a63d 0368 f03c b346 c2bd
00000300: 4537 89bd 9089 2e3e 957e 623e ce26 a8be
00000310: cde7 d6bd b629 36be 9747 20be 03ee ecbd
00000320: 31c9 1fbe 20e5 473d 09c0 98bc 713f 2abc
00000330: 1031 b73b 338e 243e 0969 753c c50a 80bd
00000340: 7b92 a33e 44ae 7a3d 8296 9b3e 920d 553d
00000350: 09d7 74bc eefe 0ebe ee00 0dbe 9816 f4bc
00000360: d126 873d 2383 173b 1bd5 1c3d 39d0 17be
00000370: 1f98 ef3d 390e 8abd 88a3 4b3e 73d2 873e
00000380: 8b20 2f3d ac4e 0cbe 29d5 653d f53e 89bb
00000390: 8d47 81bd ca02 34be 6789 ba3b b6b0 09be
000003a0: 1ec3 033e a279 4d3d 19fa 353d 2441 bdbd
000003b0: 0dde e7bd 9738 d03c 6bfa 91bd d25c 763c
000003c0: 0567 b1bd 64f8 99bd f16b 5bbe 9c71 173d
000003d0: 720a 72bc c105 22be 7c15 293d c94e 89bd
000003e0: e80b 3e3d 03ba 53be 469f ac3d 57dd 473d
000003f0: ec72 423e 3eda 633e bca7 24bd 294c c83d

linears.2.bias f4 [64]
0.010689234 0.033087485 0.032871835 -0.023470154 0.07714274 -0.07868978 -0.057254184 0.005821012
-0.0077848663 0.022049675 0.0076719276 -0.009431711 -0.030706385 0.011059275 0.077675514 0.0029056445
-0.04426885 -0.008797499 -0.008876176 -0.0022787424 0.035678882 -0.0044003245 -0.010840389 0.0019868796
0.012881714 0.030216435 0.00019312765 0.0034805085 -0.00072450866 0.10358963 -0.00024525315 0.0052958857
-0.02230819 -0.04693318 -0.024227299 0.0006675913 -0.0033912545 -0.0054220785 0.016315755 -0.0065858616
-0.006191236 0.007548094 0.020489505 0.029283252 -0.04113935 -0.0019842545 0.015017268 -0.012010449
0.011811824 0.043994155 -0.019174859 -0.008592642 -0.030736776 -0.0063842353 0.050503463 0.06342764
0.06174957 0.007674728 -0.02571502 -0.012511487 0.018949512 0.018637933 0.03892299 0.0031406558
00000000: e621 2f3c be86 073d 9ea4 063d 7b44 c0bc
00000010: 03fd 9d3d 1b28 a1bd 5d83 6abd 30be be3b
00000020: 3118 ffbb 85a1 b43c cb64 fb3b 7787 1abc
00000030: f58b fbbc f631 353c 5714 9f3d a06c 3e3b
00000040: 4153 35bd 6323 10bc 616d 11bc f456 15bb
00000050: 0524 123d 9930 90bb e39b 31bc 4f36 023b
00000060: d30d 533c 7588 f73c 4f82 4a39 3e19 643b
00000070: f4ec 3dba cd26 d43d 5295 80b9 1c89 ad3b
00000080: aabf b6bc 023d 40bd 5478 c6bc 4b01 2f3a
00000090: cf3f 5ebb b1ab b1bb 9ea8 853c 36ce d7bb
000000a0: dadf cabb 0056 f73b 9bd9 a73c 6ee3 ef3c
000000b0: bc81 28bd 440a 02bb fd0a 763c 79c7 44bc
000000c0: 6186 413c 3733 343d 9814 9dbc 27c8 0cbc
000000d0: b1cb fbbc d932 d1bb b8dc 4e3d 5ae6 813d
000000e0: 1eed 7c3d 497c fb3b 4ea8 d2bc fbfc 4cbc
000000f0: 023c 9b3c 94ae 983c b76d 1f3d 76d3 4d3b

linears.3.weight f4 [32, 64]
-0.44786263 -0.056010544 -0.14336331 0.18003878 0.09212625 0.12547012 0.22289109 0.038064167
0.34320143 0.01141059 0.040588316 -0.030334137 0.039416388 -0.21571669 -0.26720074 -0.010119041
0.00467603 0.095470734 -0.18294013 -0.038290773 0.10775452 0.09024076 0.18283452 0.091387406
-0.116149105 0.07607692 -0.19652332 -0.2031643 -0.0005633976 0.12526399 0.1297049 0.18984409
-0.14498085 -0.03453091 0.12001136 0.0984236 -0.11748988 0.02613642 0.22195202 -0.14045003
0.11806466 -0.05696358 -0.0010837592 0.22486624 -0.049155746 -0.21471372 -0.17018971 -0.37216446
0.19928433 0.13146435 0.00084624597 0.19918096 -0.0408836 0.2312418 -0.31272247 0.19201358
-0.02659183 0.028972419 0.24596763 0.10331696 -0.08693043 0.05604087 0.12818068 -0.19027898
0.22509848 0.1784641 0.10462829 -0.07116327 0.31817243 -0.35713395 -0.25715327 0.041487798
0.11298149 0.20193236 0.20154049 0.2986775 -0.27894244 -0.06995947 0.19133563 -0.042847063
-0.06751009 -0.15628918 -0.06323496 0.18982975 0.4148722 0.059027433 0.20511115 -0.12276106
0.12708057 0.042291816 0.00018866986 -0.2824137 0.11694139 -0.052654017 -0.086536884 -0.1312241
0.1012801 -0.21629748 0.0018943691 -0.23054908 0.2621797 0.37700692 0.08625822 0.051486574
0.034044772 -0.26871136 -0.09090232 -0.15641388 0.034342892 0.10295215 0.21663798 0.009330356
0.16196 0.010103338 0.11683313 -0.27369913 -0.17125928 0.009734693 0.15683109 0.09164667
0.30156124 0.02034313 -0.52320015 -0.06072989 -0.033438005 -0.32498685 0.45899424 0.2370399
0.21803871 -0.15331583 0.20903331 0.052322842 0.07968627 0.20389299 -0.09579692 -0.015627645
-0.15522528 -0.11447167 -0.1767068 0.09272309 -0.0436144 -0.152725 -0.015891925 -0.1011469
0.085304014 0.13718808 0.1958245 0.083135836 -0.06090356 0.1872701 0.09271709 0.096162125
-0.00061155 -0.01934629 0.062480565 -0.08154371 -0.19150212 -0.05659849 0.06739672 -0.043762546
0.20546518 -0.0637859 0.2751082 0.050743405 0.10640506 -0.020578712 -0.045769848 0.07761877
-0.23998001 -0.2624004 0.20422128 -0.3068754 -0.04193657 0.2448723 -0.31381693 -0.082278736
0.15179461 0.048972476 0.031733062 -0.16067317 0.20097555 -0.08247755 -0.32322678 0.032062553
0.09132104 -0.089391224 -0.037239548 -0.020485641 -0.14358108 0.2131053 -0.054382026 0.21960187
-0.31478304 0.20655105 0.095038496 -0.121140584 0.08518998 -0.19714393 0.24251764 0.066077165
0.03416867 -0.36861897 -0.09627964 -0.17079684 -0.050284665 0.19354166 0.0022499168 -0.21647099
0.14120662 -0.18880811 0.14488643 0.22128388 -0.09268422 -0.12541579 0.21365231 -0.025611017
-0.17728572 -0.10004512 0.12136136 0.17330787 0.05393669 -0.14057754 -0.0739785 0.15707734
0.02423086 0.23004848 0.08068802 -0.30009225 -0.056584463 -0.22712837 0.14498349 0.0062686442
0.07210351 -0.12461154 -0.083527595 -0.12256869 -0.2700551 0.23436557 -0.10685191 -0.0318563
-0.037783936 -0.19299768 0.10693571 -0.121333376 0.12971026 -0.08555934 -0.1916868 -0.099967405
0.20487148 0.14127558 0.38464943 -0.07215631 0.038040843 0.064131536 -0.017422419 0.024489561
00000000: 404e e5be 506b 65bd d5cd 12be 165c 383e
00000010: b0ac bc3d 3d7b 003e 903d 643e 2ce9 1b3d
00000020: 19b8 af3e 7cf3 3a3c ef3f 263d 4c7f f8bc
00000030: 1473 213d d6e4 5cbe 89ce 88be 56ca 25bc
00000040: 6239 993b 2986 c33d a854 3bbe c9d6 1cbd
00000050: 67ae dc3d 26d0 b83d f938 3b3e 5229 bb3d
00000060: 95df edbd 37ce 9b3d 693d 49be 4d0a 50be
00000070: f9b0 13ba 3445 003e 5cd1 043e 7d66 423e
00000080: dc75 14be 4970 0dbd 84c8 f53d 5092 c93d
00000090: 899e f0bd 0c1c d63c 6447 633e 22d2 0fbe
000000a0: e2cb f13d a552 69bd ed0c 8eba 5643 663e
000000b0: 8957 49bd eadd 5bbe 3646 2ebe 578c bebe
000000c0: 3111 4c3e 979e 063e 9bd6 5d3a 18f6 4b3e
000000d0: 9075 27bd a7ca 6c3e 291d a0be 359f 443e
000000e0: 1cd7 d9bc 9157 ed3c f0de 7b3e d897 d33d
000000f0: 9508 b2bd 1c8b 653d cc41 033e 7ed8 42be
00000100: 3780 663e 4bbf 363e 5b47 d63d 0cbe 91bd
00000110: 7fe7 a23e 43da b6be 98a9 83be 1cef 293d
00000120: d762 e73d 5bc7 4e3e a160 4e3e 42ec 983e
00000130: 8bd1 8ebe e946 8fbd 7ded 433e 6780 2fbd
00000140: bb42 8abd 450a 20be 5581 81bd bb62 423e
00000150: 216a d43e c0c6 713d a808 523e 276a fbbd
00000160: 6921 023e 2f3a 2d3d aed5 4539 8798 90be
00000170: f87e ef3d bdab 57bd 403a b1bd 9c5f 06be
00000180: f16b cf3d 167d 5dbe 7b4c f83a 0f15 6cbe
00000190: 6b3c 863e 0d07 c13e 26a8 b03d 96e3 523d
000001a0: 8872 0b3d 8994 89be ff2a babd f62a 20be
000001b0: 22ab 0c3d 94d8 d23d 59d6 5d3e 59de 183c
000001c0: d8d8 253e 7988 253c 3546 ef3d 4b22 8cbe
000001d0: 985e 2fbe 437e 1f3c 5498 203e 40b1 bb3d
000001e0: 3c66 9a3e a3a6 a63c 72f0 05bf e8bf 78bd
000001f0: 4af6 08bd ad64 a6be 4b01 eb3e 96ba 723e
00000200: 8a45 5f3e d3fe 1cbe d40c 563e 7a50 563d
00000210: 8e32 a33d 53c9 503e 2d31 c4bd 8c05 80bc
00000220: 60f3 1ebe 1f70 eabd a1f2 34be 9ae5 bd3d
00000230: 03a5 32bd f163 1cbe c82f 82bc 1b26 cfbd
00000240: dfb3 ae3d 087b 0c3e 3886 483e 1f43 aa3d
00000250: 0376 79bd bcc3 3f3e 75e2 bd3d a6f0 c43d
00000260: 6d50 20ba 1c7c 9ebc 9feb 7f3d 6300 a7bd
00000270: 2219 44be d1d3 67bd 4b07 8a3d 5b40 33bd
00000280: 7765 523e 2fa2 82bd fbda 8c3e 51d8 4f3d
00000290: e5ea d93d b094 a8bc 2a79 3bbd 97f6 9e3d
000002a0: 52bd 75be 5859 86be 621f 513e c61e 9dbe
000002b0: aec5 2bbd cebf 7a3e 9dac a0be c181 a8bd
000002c0: 0c70 1b3e 5d97 483d 87fa 013d 8287 24be
000002d0: 89cc 4d3e fde9 a8bd fb7d a5be 0654 033d
000002e0: 8706 bb3d bf12 b7bd 7f88 18bd 81d1 a7bc
000002f0: eb06 13be 4738 5a3e b0bf 5ebd 50df 603e
00000300: 3e2b a1be 1e82 533e 8ba3 c23d 8e18 f8bd
00000310: 1678 ae3d 19e0 49be 8b56 783e 7753 873d
00000320: 73f4 0b3d a0bb bcbe 432e c5bd 5ee5 2ebe
00000330: 4bf7 4dbd c92f 463e 5773 133b 92aa 5dbe
00000340: 7898 103e ea56 41be 1c5d 143e 3e98 623e
00000350: 39d1 bdbd ff6c 00be acc7 5a3e 32ce d1bc
00000360: 638a 35be 75e4 ccbd 4e8c f83d 9e77 313e
00000370: b8ec 5c3d 8ff3 0fbe 0a82 97bd e2d8 203e
00000380: cc7f c63c d491 6b3e c33f a53d b1a5 99be
00000390: 1cc5 67bd 5794 68be 8d76 143e 3369 cd3b
000003a0: 01ab 933d 5634 ffbd 8410 abbd 4b05 fbbd
000003b0: a944 8abe 87fd 6f3e 2dd5 dabd c07b 02bd
000003c0: 54c3 1abd 2fa1 45be 1c01 db3d a27d f8bd
000003d0: c4d2 043e bc39 afbd 8b49 44be b6bb ccbd
000003e0: d4c9 513e 8caa 103e c5f0 c43e b0c6 93bd
000003f0: b7d0 1b3d 6557 833d 76b9 8ebc 559e c83c

linears.3.bias f4 [32]
-0.016114825 0.07114782 -0.022251097 -0.018345373 -0.016609503 -0.03632969 0.04910375 0.026015287
0.018462338 0.009729659 -0.01017328 -0.013806603 -0.035323057 0.005019165 -0.017763745 0.027412571
0.0029928917 0.0002866704 0.023377866 0.0005632468 -0.013596107 -0.010502057 -0.03052598 0.023239832
0.006596998 -0.030096432 -0.013523888 -0.039218407 -0.024984768 -0.01714489 -0.019535653 -0.002332783
00000000: 3d03 84bc f3b5 913d ef47 b6bc 0949 96bc
00000010: a710 88bc 71ce 14bd 0421 493d 031e d53c
00000020: 543e 973c 2669 1f3c d4ad 26bc 1735 62bc
00000030: e9ae 10bd cf77 a43b 4685 91bc 5490 e03c
00000040: 6424 443b 404c 9639 f082 bf3c daa6 133a
00000050: 35c2 5ebc d210 2cbc 9f11 fabc 7661 be3c
00000060: a12b d83b cb8c f6bc 4c93 5dbc 7ba3 20bd
00000070: dbac ccbc 7173 8cbc 3c09 a0bc 9be1 18bb

linears.4.weight f4 [4, 32]
0.21795075 -0.12280269 -0.11797392 0.09458063 -0.13268238 -0.065931305 -0.009663565 0.16640952
-0.39368862 0.47525385 -0.084477805 -0.017982539 -0.058789276 0.20323212 -0.814694 0.18498816
0.33494 0.39748287 0.09146466 0.12486731 -0.19241746 -0.12539148 0.24615532 -0.048880626
-0.438961 -0.094075166 -0.047013346 0.15663718 0.07131574 0.29962307 -0.6113121 0.15116462
0.030998228 0.052102532 -0.60655564 -0.29428127 -0.5088483 -0.6492053 0.18702656 0.697049
0.0300345 0.12574182 -0.34322816 -0.2549802 -0.546332 0.13567142 -0.68146473 0.72641987
0.24577099 -0.046464663 0.81044674 0.3068907 -0.5506039 -0.5024147 -0.5183237 0.37118044
0.22793597 -0.623167 -0.24711825 -0.7088134 0.26866898 -0.0069780583 -0.49771416 -0.2830016
0.34166375 0.53508145 -0.06479432 -0.33431223 0.061484605 0.33802402 0.21775787 -0.34675148
-0.09186885 0.5355762 0.044782925 -0.025890429 0.19364166 0.7031862 0.2868901 -0.045705758
0.13744117 0.43873084 -0.09154046 0.22054651 0.36801556 -0.19722885 -0.19981891 -0.36286604
0.33408785 -0.31887132 -0.043246124 -0.3878811 -0.08570031 0.20813626 -0.1595769 -0.12668073
-0.106595255 0.3453544 -0.36497682 0.0039995895 -0.14909407 -0.3690838 0.69459456 0.1652867
0.41083556 0.25780034 -0.6625637 -0.33301497 -0.15984415 0.52009594 -0.14679867 0.6623804
0.6393974 0.2619794 0.21927288 0.021927768 -0.5104094 -0.57136613 -0.3449001 -0.3375257
-0.45264232 -0.88289344 -0.48035774 -0.36947376 0.62504864 0.16744144 0.25023678 0.30471838
00000000: 7b2e 5f3e fa7f fbbd 509c f1bd 7db3 c13d
00000010: e4dd 07be fe06 87bd ee53 1ebc 4267 2a3e
00000020: 8e91 c9be 7954 f33e b302 adbd 1e50 93bc
00000030: 06cd 70bd 151c 503e c98f 50bf 896d 3d3e
00000040: 417d ab3e e082 cb3e d351 bb3d 6fba ff3d
00000050: 1509 45be a066 00be 2410 7c3e 0d37 48bd
00000060: 7fbf e0be 7baa c0bd 1191 40bd 7f65 203e
00000070: fd0d 923d 3268 993e f37e 1cbf e6ca 1a3e
00000080: ffef fd3c 7769 553d 3b47 1bbf 09ac 96be
00000090: e243 02bf 5232 26bf e483 3f3e ce71 323f
000000a0: e90a f63c 77c2 003e 9abb afbe c48c 82be
000000b0: 6adc 0bbf 73ed 0a3e 7974 2ebf a7f6 393f
000000c0: 64ab 7b3e bb51 3ebd 7079 4f3f c720 9d3e
000000d0: 61f4 0cbf 409e 00bf ddb0 04bf 5d0b be3e
000000e0: 0c68 693e df87 1fbf 910c 7dbe cc74 35bf
000000f0: fb8e 893e 32a8 e4bb 64d4 febe 96e5 90be
00000100: 8dee ae3e 19fb 083f e2b2 84bd f92a abbe
00000110: 48d7 7b3d 7c11 ad3e ebfb 5e3e 6989 b1be
00000120: bc25 bcbd 861b 093f 4d6e 373d 2a18 d4bc
00000130: 004a 463e 0304 343f 42e3 923e f635 3bbd
00000140: 61bd 0c3e 54a1 e03e 9179 bbbd f2d6 613e
00000150: 896c bc3e 5cf6 49be 549d 4cbe 94c9 b9be
00000160: 900d ab3e 1a43 a3be d922 31bd 5a98 c6be
00000170: a583 afbd ac21 553e 2068 23be 98b8 01be
00000180: 9d4e dabd 4bd2 b03e 3ede babe fd0e 833b
00000190: 1eac 18be 8df8 bcbe f3d0 313f eb40 293e
000001a0: 0a59 d23e 68fe 833e c69d 29bf f080 aabe
000001b0: 2fae 23be 0225 053f 6452 16be c391 293f
000001c0: 8caf 233f 2a22 863e 1289 603e dda1 b33c
000001d0: 31aa 02bf 0d45 12bf bf96 b0be 2bd0 acbe
000001e0: bcc0 e7be 4e05 62bf 73f1 f5be aa2b bdbe
000001f0: 3003 203f c575 2b3e 091f 803e 0c04 9c3e

linears.4.bias f4 [4]
0.0002944883 0.25474134 0.07380996 0.3156423
00000000: 8d65 9a39 756d 823e ad29 973d de9b a13e
