Iterations/Test model/epoch_6517.pt (torch, 37739 bytes, 10 tensors)

linears.0.weight f4 [32, 2]
00000000: 58b5 a53e 52b2 64be bbea 8b3e 11ff 09bf
00000010: 0396 723e 2b23 15bf 617e d2bd 1248 32bf
00000020: 1be8 41bd 94ff fd3e 788b 403d 00ae 40bf
00000030: 1d4c 3b3e 365e 403f 1b74 393e efd5 c63e
00000040: 0d95 b83e 1961 81be e4c6 74be a64f 47be
00000050: aa1d eabd 33f8 1bbf 3cd9 87be 8d01 f43e
00000060: 4b75 f8bd 3f85 91be fa22 293e 6dcb e9be
00000070: 9553 fdbd 1b54 5b3f 4265 6ebd 2a94 ccbe
00000080: 6eba 653e b9d0 333f 70d9 9a3e da57 873e
00000090: c8a5 ddbd bfb2 e93e 4cf2 51be d8ee bbbe
000000a0: d68e f4bd 2f7b 9cbe aeff 8f3e 3d55 563e
000000b0: ad57 2b3f 2008 1bbe 3d01 8d3e b2a3 ddbe
000000c0: 2e65 0fbf 6bb5 d03e 783e ad3e 66b3 69be
000000d0: 985c 3bbe 350a 8abe a803 353d 539b f83e
000000e0: 76ae a13d 0a26 eabe 9340 e7bc 8149 113f
000000f0: 0de5 253e 9154 04bf 0f8f 3bbd b354 5d3f
0.32364917 -0.22333649 0.27327523 -0.53904825 0.23690037 -0.5825679 -0.10278011 -0.6964122
-0.047340494 0.49609053 0.047008008 -0.752655 0.18290754 0.75143754 0.18110697 0.38835093
0.36051217 -0.25269392 -0.23903996 -0.19463977 -0.11431439 -0.60925597 -0.26532924 0.47657433
-0.12131747 -0.2842197 0.16517249 -0.45663014 -0.12369458 0.8567521 -0.058202036 -0.3995679
0.22434399 0.7024036 0.30244017 0.26434213 -0.10822636 0.45644185 -0.20502585 -0.3670566
-0.11941306 -0.30562732 0.28124756 0.20930953 0.6693066 -0.15139818 0.27540007 -0.43288952
-0.5601376 0.4076341 0.33836722 -0.22822341 -0.1829704 -0.26960912 0.04419294 0.48556003
0.07894604 -0.45732147 -0.028229034 0.56752783 0.16200657 -0.5169154 -0.04579073 0.86457366

linears.0.bias f4 [32]
00000000: 1a86 373c 50f4 ba3c dc4f 913c 6417 fc3b
00000010: 5b46 153c edce f0bb 27ca 493b 1f41 1abd
00000020: 6da2 7abb 648a d2bc 0a56 7fba 3947 a1bd
00000030: 2666 2a3d 3503 f3bc caa6 463c 789c 34bc
00000040: 9815 30bb e7d9 fc3a a187 b93c 35f1 a0bc
00000050: 0482 4f3c 7e80 9dbc d889 e33d a4c9 093d
00000060: e6cb 91bd ca5e 2e3d d5d1 21bc 472a 183c
00000070: eabb d03c 0263 1f3c 9e19 0dbe b74d 3d3c
0.011201406 0.022821575 0.017738275 0.007693218 0.009111012 -0.007348886 0.0030790658 -0.03765976
-0.0038243786 -0.025700755 -0.0009740299 -0.07874913 0.041601323 -0.029664615 0.012124727 -0.011023633
-0.002686834 0.0019291014 0.02264768 -0.019646266 0.0126652755 -0.019226309 0.11110276 0.033639565
-0.07118969 0.042570867 -0.009876688 0.009287423 0.02548023 0.009728195 -0.13779303 0.011554173

linears.1.weight f4 [64, 32]
00000000: 4f66 ed3c 4db9 89be 7f20 4ebe 3d9a 4fbe
00000010: 4886 603e 42bf 2cbd 1f71 83bd e4ff 8a3e
00000020: 9f7a 2e3e b840 9e3e 7eb4 833d f549 a73e
00000030: b963 6dbe aa20 fbbe 3b98 b03c 2bc3 4abe
00000040: 6df4 a73e 59e4 ab3c 1f6c 1abc a7dc 0d3d
00000050: f60e c3be efa5 18bd 2d64 cdbd e1f5 413e
00000060: f38f b43d d009 2a3e bbe5 91be 27ed 72bd
00000070: 1b6f db3d 4a9d 273e 260d b0bd 06e1 1d3e
00000080: f371 033d 1d0e b83d 3017 cfbd c087 123e
00000090: 09fb e9bd 6825 0cbe 7b91 613e 7e4a a23e
000000a0: 9580 c93e 0275 633e 7593 03be 7755 70bd
000000b0: 78d8 87bd c6ae 0e3e 27c5 023e 956c 8bbd
000000c0: f6a5 693e 67c2 35be c616 66be 03b7 85bd
000000d0: 4148 c2bc 1dec a93e 28ef aabd e831 09be
000000e0: 2b02 a13d 928f fbbc 2ee1 983d 20a0 58bd
000000f0: f942 a8bc 7ac3 9fbc 1df8 a23e 895e 783e
00000100: 730c 9bbd a0ac e43d 3e9f 403e da37 bbbb
00000110: c7e6 183d 84a4 c5bc 3300 09bd 0d26 45be
00000120: 9a4d babd 7530 9abe 30d9 4fbe 77c1 9cbc
00000130: 013a 963e 5083 1f3b 35de 41bc ee19 81be
00000140: 3efc 5abd a322 863e aeeb e9bd c2fa a5bd
00000150: 2aa9 25be 53eb 50be 1c95 123e d418 90bd
00000160: 8a24 3fbd 46cb f23c 6cd8 4d3d f5d3 d8bd
00000170: 0e4d 93bd 5f76 803e e945 e5bd 454f 81be
00000180: 79ea 67bc 40b7 423e 8f24 073e 4e5d 88bd
00000190: d06d 8fbe b29a 23be 9944 ebbc f7ad adbd
000001a0: 0afc 833e 5eb3 53be d69c a13d c83f 43bd
000001b0: 9cd9 d53c 778a 3e3e dec4 be3d 5ee5 c6be
000001c0: daeb 8abd aa28 b4bd 9813 aa3c d060 98bd
000001d0: ea52 9cbd e014 0e3e 6504 953e 2380 b53d
000001e0: dd2c 3ebe fd8c 933e ee52 a9bd 4bc2 c7bd
000001f0: 719d 5c3d 7418 bdbd ae65 74be 7355 4cbd
00000200: 4523 f73c 0866 0e3d ef0a 9abd aaf3 91bd
00000210: 4a92 633d 9429 07be 2ed8 153e 6f80 343d
00000220: 15e1 f7bc ed0d 49be 269f b7be 2f68 2bbe
00000230: 113e 21be 21d0 4bbe bc6a d33e a20a 383b
00000240: 07e6 0a3e 7e8d 7e3e 40a4 2ebd 9e3c 963e
00000250: 3692 1cbe 612d 063d de5f 7abe 124e c53c
00000260: b391 02bd 95aa f63c 9c51 28be 0a8e 393e
00000270: 368c fc3c 5c2b 633d 892c 53bd b656 6a3e
00000280: c55e 1b3d 73c0 44be c969 76be a3ac 3ebe
00000290: 2c6f f03e 4c2f a9be 7a6f 0cbd c502 71bd
000002a0: 816b 883b 7a42 bdbd bad9 32bd f2b2 1e3e
000002b0: 7818 05be effa 543e 2754 7d3e 451e cbbc
000002c0: 7750 bdbe be4f 153d bfab 113e 8eac 8f3e
000002d0: 5bfe 1e3d 0c4d 7ebe fb8a 3cbe 879a 0dbe
000002e0: 971e 803e 955a 983c e667 b23e 20ac 483d
000002f0: cc01 09be b60b 8e3e 4d60 a2be 58fa 153e
00000300: 8e96 2dbe a39a 0a3e fd8c 843e 3aec 383e
00000310: 2601 5cbe a671 283e 9757 42bd 07c7 80be
00000320: 81dd b63e ebd2 b5be 8e09 1f3e 1ba3 cf3c
00000330: 5abc 07be baf9 18be 1a9c 74bd 77be 80be
00000340: fb1a c03d 2edb 0fbe b1ca 96bd 2363 fa3d
00000350: 997a 273e 0514 2bbe 52fd 6d3e 93ec 12bd
00000360: aed7 6abd bf23 65bd 5dc2 1e3e c3ae debd
00000370: 4bcc c4bd 3c8b fbbe bafb 43bd db30 18be
00000380: a3ca 903d 1db7 14be 6f66 063e 04dd c3b9
00000390: 6784 5c3e 907a 71be 4744 173e 1033 583e
000003a0: 4018 5cbe 21f2 b93e 9bb1 de3d e70a 4bbd
000003b0: a37c 50be 0da5 df3d 4b14 1b3e 612e 7c3b
000003c0: 71f9 973d a93b aabd 229a 733e 1a8e 05be
000003d0: 86cc b6bd 60c1 0bbe ce14 873e 52a6 89bd
000003e0: 0c98 9ebc 1f01 543d 29c5 50be a9c3 9ebd
000003f0: 50cc b33c 543d a83e 31db b6be fd10 c03e
0.028979449 -0.26899186 -0.20129584 -0.20273681 0.21926224 -0.042174585 -0.064180605 0.27148354
0.17038964 0.3090875 0.064309105 0.32673612 -0.23182572 -0.49048358 0.021556964 -0.19801013
0.3280367 0.020982908 -0.009425192 0.03463426 -0.38097352 -0.03726762 -0.10028873 0.18941452
0.08816519 0.16605306 -0.28495583 -0.059308197 0.10714551 0.16368595 -0.08596258 0.15417871
0.032091092 0.08987067 -0.101118445 0.14309597 -0.11424834 -0.13686144 0.22028153 0.31697458
0.39355913 0.22212604 -0.12849219 -0.058675256 -0.06633085 0.13933858 0.1277052 -0.0680782
0.22817215 -0.1774994 -0.22469625 -0.06529047 -0.023716094 0.33187953 -0.08346397 -0.13397944
0.07861742 -0.030708108 0.074648246 -0.052887082 -0.020539748 -0.01950239 0.3182992 0.24254812
-0.07570734 0.11165738 0.18810746 -0.005713445 0.03732946 -0.024126299 -0.033447456 -0.19252796
-0.090968326 -0.30115095 -0.20297694 -0.01913522 0.29341128 0.0024339743 -0.011832763 -0.25215095
-0.053463213 0.261983 -0.114219055 -0.08104469 -0.16177812 -0.20402269 0.14314693 -0.070359856
-0.046665706 0.029637944 0.050255224 -0.105873026 -0.071924314 0.2509031 -0.11194975 -0.2525579
-0.014155024 0.19015217 0.1319754 -0.066584215 -0.28013468 -0.1597698 -0.028719233 -0.08480447
0.25778228 -0.20673892 0.07891242 -0.04766825 0.02610474 0.18607508 0.09314893 -0.38846868
-0.06783266 -0.087968186 0.020761296 -0.074403405 -0.07633002 0.1387515 0.29104915 0.08862331
-0.18571801 0.28818503 -0.08267771 -0.09753855 0.053861085 -0.0923318 -0.23866913 -0.04988618
0.030168185 0.034765273 -0.07521617 -0.07126553 0.055559434 -0.13199455 0.14633247 0.044067796
-0.030258695 -0.19634219 -0.35863608 -0.16738962 -0.15746333 -0.19903614 0.4129237 0.002808251
0.13564311 0.24858662 -0.04263711 0.29343122 -0.1529015 0.03275812 -0.24450633 0.024085078
-0.03187723 0.030110637 -0.16437382 0.1812059 0.030828577 0.055461273 -0.051556144 0.2288464
0.037932176 -0.19214039 -0.24063791 -0.18620543 0.46959817 -0.33043897 -0.034286 -0.05884053
0.004163206 -0.09241195 -0.04366467 0.1549795 -0.12997615 0.20798849 0.24739133 -0.024794707
-0.36975452 0.036453 0.14225672 0.28061336 0.03881679 -0.24834079 -0.18412392 -0.13828479
0.25023338 0.01859788 0.34844893 0.048992276 -0.13379592 0.2774331 -0.31714097 0.1464628
-0.16951963 0.13535552 0.25888816 0.18058863 -0.21484813 0.16449603 -0.047446813 -0.25151846
0.3571587 -0.3551248 0.15530989 0.02534633 -0.13255444 -0.14939013 -0.059719183 -0.25145313
0.09380146 -0.14048454 -0.07362879 0.1222594 0.16355361 -0.16706856 0.23241165 -0.035870146
-0.057334594 -0.055942293 0.15503831 -0.10873177 -0.09609278 -0.49129665 -0.047847487 -0.14862387
0.070699 -0.14522977 0.13125013 -0.00037357968 0.21534882 -0.2358191 0.1477214 0.21113229
-0.21493626 0.36317542 0.10873719 -0.049570944 -0.20360045 0.10920153 0.1514446 0.0038479792
0.07420624 -0.083121605 0.23789266 -0.13042489 -0.089257285 -0.13647985 0.2638306 -0.06721176
-0.019359611 0.05175888 -0.2038771 -0.07752163 0.02194801 0.3285929 -0.35714105 0.3751296

linears.1.bias f4 [64]
00000000: d132 b3bc 087e ebbc b3d2 703d b954 713d
00000010: 36b5 663c 2fb9 563c e7ca 15ba 7321 9d3d
00000020: 4f28 33bb cab0 a23c 53b1 babc 1d5f 303d
00000030: 1a6c 66bc 4106 bfbc fa20 b0bc 5e01 933c
00000040: 2e40 69bb 9400 ddba e059 20bc 37c3 143d
00000050: af88 40bc 8c1f 003c 1173 313c 9c61 ed3a
00000060: c91f 65bc fb8f 8cbb a68d 6ebc ed9d 423c
00000070: 69f2 933d 050b 40bc 3dc0 cdbc 3cc8 86bc
00000080: 81fd b0bc d701 933d 7bde 2ebc db62 59b8
00000090: f02f de3c 46cf 9dbc e945 d03b 72b8 a43c
000000a0: 82df 5b3c 32d3 38bc ffd3 f6bc 302c c4bb
000000b0: 9e3c 233e c1fa c3bb 2511 953c 7b98 503c
000000c0: 048a 0abd 7474 503d fe32 f9bd 09e9 36bc
000000d0: 3299 8eba 65a6 0e3d d151 863c b437 9d3c
000000e0: 05ae ddbc 143b 00bc 4c69 f9bb ddb7 953c
000000f0: 6b9a 81bb 806d 0abc 5e73 2ebc 0d4e abbc
-0.021874817 -0.02874662 0.05879469 0.05891869 0.01408129 0.013105675 -0.0005714134 0.076723956
-0.0027337258 0.01985969 -0.022789633 0.043059457 -0.014063859 -0.023318412 -0.0215001 0.017944988
-0.0035591233 -0.0016861134 -0.009787053 0.036318984 -0.011751338 0.007820021 0.010830657 0.0018110755
-0.013984629 -0.0042896247 -0.014560139 0.011878473 0.072239704 -0.011721377 -0.02511608 -0.016452901
-0.021605255 0.07178085 -0.010673161 -5.1828898e-05 0.027122468 -0.019263875 0.00635599 0.020107482
0.013419988 -0.011280822 -0.030130384 -0.005986713 0.15941092 -0.00598082 0.018196652 0.012731667
-0.03382303 0.05089231 -0.12167929 -0.011163958 -0.0010879396 0.034826655 0.016396435 0.0191916
-0.027060518 -0.007826585 -0.0076114293 0.01827615 -0.0039551756 -0.008448958 -0.010647623 -0.020911241

linears.2.weight f4 [64, 64]
00000000: 755c 20be badb c73c edbc 2dbd a01b e63d
00000010: daca 1bbe cc6d 3c3d 3863 763d f705 a93d
00000020: eca0 60bb c8b1 213d 01fd 83bc c0b2 113e
00000030: ea24 d33c 72d1 1b3e e3e9 48bd a27e b93d
00000040: 97c5 a3b9 be1d 853c 7ae1 a43e 00f9 3c3d
00000050: 56e4 753e d445 a3bc c37a 1d3d f0c5 c7bd
00000060: 423f 0e3e dc4e 203e 6257 98bd 599d cabd
00000070: d977 69bd 2c5f 3cbe e4c0 043c f91a 033d
00000080: c476 5f3e 6dc8 ac3d f6b6 633e 55d4 f6bd
00000090: f39c 30bd 62aa de3d d09c 5fbd 0eb1 08be
000000a0: f0de c13c 223e 563e c1d8 cfbc 6b2f fa39
000000b0: 0c83 8b3c eac9 95bc b8f1 b23d 9fa1 babd
000000c0: fdbe 90be f536 83be 019f 45be 89af 61bd
000000d0: 7b4c 86be 9471 34be c492 7cbe 896d 063e
000000e0: afb1 73bd fcf3 823d bee0 443d 92ed 643e
000000f0: 384e 44bd 6e36 243e 5dfb 3dbe f357 0ebe
00000100: 46c9 76be 9ebd 3ebd 5cf6 b03d c85b 92bd
00000110: 2696 9c3b 2ab8 9ebd bbeb 1abd 6f75 a33e
00000120: e952 3e3d 5983 3cbe ad91 fdbd 4be3 403d
00000130: 4237 0cbe 7e27 5bbe e3bc 993c a2f9 d73c
00000140: f865 393e 6200 76bd 47b8 3dbe f546 933e
00000150: f118 17be f6f7 b23d d221 983d d5f0 0f3e
00000160: 333e 18be 0d71 d7bd 4e3d 8e3d 3c24 6dbe
00000170: 482e 12bd a2a3 543e a9ae 93bd 4a10 c23d
00000180: e080 77be 4984 f1bd c6a3 65be 8f5f 1d3d
00000190: ed79 a2be bf80 3fbe 3c2d 3b3c e59d 343e
000001a0: 68f8 04be 3258 193d b078 cb3d 7aa2 823d
000001b0: 004b 6dbb 4191 033e f3fa 17bb 8c2d d33d
000001c0: 744f 2a3e 0147 bd3d 8bde e3bd 6a18 fbbd
000001d0: df65 2d3d aa7b febc 3855 b5bc 8575 5d3e
000001e0: 85ff 1c3e ec24 f43d 86b3 01bc 6b28 3b3d
000001f0: df4a 71bc 4299 d5bd 9999 4fbe 297a c2bb
00000200: a488 f5bd e5ac 67be e1e9 73be 9d72 763d
00000210: a5cb 60be bed8 1b3e 3a76 e63b 93a9 acbc
00000220: 534a b43d b8ba abbd c400 5abe 20d6 3abe
00000230: a70c 37bd 3a93 ebbd bf1c 9d3e efc2 bebd
00000240: 6818 b0be 90c4 20bd d73c 8f3d 451a bb3d
00000250: 9930 55be ad28 a33d 2c53 71bd bc84 0c3e
00000260: 9231 da3d 8c1a c1bc 9b68 043e c995 233e
00000270: cd38 023e c8f4 213e 421f e0bd 591f 2c3e
00000280: 3a4e e8bd fa7f 383e 2537 8a3d 213a 19be
00000290: 10f9 14be 8556 453d f8f0 94bd 71a7 8e3d
000002a0: 6158 9dbc fd60 cebd b777 fc3d e65a cebc
000002b0: 9826 973d 04ce c73d 548b 403d 2dac b8bd
000002c0: 5e72 26bc e898 1d3e dd7b f9bd 1f10 e63d
000002d0: 1f89 01be d4f2 053e 28b2 09be 4e85 383d
000002e0: 4c3b 2abd 32ce b83c e55b 6ebe abce bdbd
000002f0: 730e f83d f90f 7bbd 51b8 6a3d 10c7 e9bd
00000300: 218d 9fbd 72a8 3f3e 322f 5d3e d372 abbe
00000310: 8bdc f1bd fb12 3bbe 4d9a 19be 2357 47be
00000320: ffe8 22be cea5 383d 5259 863b e586 28bc
00000330: 17ad 603c 77b1 663e 162e a5bd 0c94 78bd
00000340: b91a fe3e 81a8 993d 41c4 b23e e63f 733d
00000350: 1f5f 803c 394a 12be cfd8 31be 9b9d 36bd
00000360: 8277 a23d 1ae9 abbb 1f0b 273d 6e44 39be
00000370: 7571 dd3d 4867 abbd 0b21 583e 5465 883e
00000380: 1e3a a33d b008 0ebe 2a6b 923d 260c 04bd
00000390: c3d5 7dbd c2e0 33be 98da 353c 9496 3ebe
000003a0: d656 ed3d 17de 9f3d 1d5a ea3d cc95 d8bd
000003b0: 08e1 f6bd 55aa 503d b832 94bd 3114 c0bd
000003c0: 826a adbd f309 9dbd acf2 1fbe 23da 2a3d
000003d0: 108c dcbb 6ef6 32be 885c b83c 20d4 b6bd
000003e0: 41a7 f43d 31f2 47be 596d 5a3e 0d03 563d
000003f0: f474 413e c15c 983e c3bd 23bd 0f22 f43d
-0.1566027 0.024396766 -0.0424165 0.11235738 -0.152141 0.046003148 0.060153216 0.08253091
-0.0034275604 0.039476186 -0.016111853 0.14228344 0.025774438 0.15216616 -0.049051177 0.090573564
-0.00031237 0.016249534 0.32203275 0.046135902 0.24012884 -0.019930758 0.038447153 -0.097545505
0.13891318 0.15655082 -0.07438542 -0.09893293 -0.05699906 -0.1839568 0.008102629 0.032008145
0.21822649 0.08436666 0.22237763 -0.12052218 -0.04311843 0.10872342 -0.054592907 -0.13348791
0.023665875 0.2092214 -0.025371911 0.00047719045 0.017030261 -0.018284757 0.087375104 -0.09112858
-0.28270712 -0.25627866 -0.19298936 -0.055099044 -0.26230225 -0.17621452 -0.24665362 0.13127722
-0.059495624 0.063941926 0.048065893 0.22356251 -0.047926158 0.16036388 -0.18552919 -0.13900737
-0.24100217 -0.04656755 0.08640739 -0.07146412 0.0047786413 -0.0774997 -0.037822466 0.31925532
0.046465788 -0.1840948 -0.12381301 0.047091763 -0.13692954 -0.21401784 0.018766826 0.026364151
0.18105304 -0.06005896 -0.18527327 0.28765073 -0.14755608 0.08738701 0.07428326 0.14056714
-0.14867477 -0.105196096 0.06945287 -0.23158354 -0.03568867 0.20765546 -0.07211048 0.09475763
-0.24170256 -0.117928095 -0.22425756 0.03842121 -0.31733647 -0.18701456 0.011424359 0.17638357
-0.12985384 0.037437625 0.09935129 0.06378646 -0.0036208034 0.12848379 -0.002319035 0.10311422
0.16631871 0.092420585 -0.11126431 -0.12260516 0.04233348 -0.031064827 -0.022135362 0.21626861
0.15331848 0.11921105 -0.007916337 0.045692842 -0.014727323 -0.10429622 -0.20273437 -0.005934973
-0.11988953 -0.22624548 -0.23819686 0.060167897 -0.21952684 0.152194 0.0070331367 -0.021076953
0.08803239 -0.08385223 -0.21289355 -0.18245745 -0.0446898 -0.115026906 0.30685994 -0.093145244
-0.3439362 -0.039249957 0.06994026 0.0913587 -0.2081932 0.07966743 -0.05891721 0.13722509
0.10653986 -0.023572229 0.12930529 0.15975107 0.1271698 0.15816033 -0.10943462 0.16808833
-0.113430455 0.18017569 0.06748799 -0.1496358 -0.14548135 0.048178215 -0.07272524 0.06965531
-0.019207181 -0.10077093 0.12327521 -0.025189828 0.07380408 0.09756091 0.047007874 -0.09017215
-0.010159103 0.1539036 -0.12181828 0.112335436 -0.12649964 0.13080913 -0.13446867 0.045049004
-0.041560456 0.02255926 -0.23277242 -0.092679344 0.12112131 -0.06129453 0.057304684 -0.11414921
-0.0779059 0.187166 0.21600035 -0.3348604 -0.11809643 -0.18268959 -0.15000267 -0.19466834
-0.15909193 0.04508 0.0041000033 -0.010286068 0.013713143 0.22528635 -0.08065431 -0.060688064
0.49629763 0.07502843 0.34915355 0.05938711 0.015670357 -0.14286126 -0.17367862 -0.044583898
0.079329506 -0.0052462937 0.04078209 -0.1809251 0.10812656 -0.08369309 0.21106355 0.26639807
0.07970069 -0.13870502 0.07149346 -0.03223815 -0.061971437 -0.17566207 0.01109948 -0.18612128
0.11588828 0.07806032 0.11442969 -0.105754465 -0.1205464 0.05094369 -0.07236236 -0.09378851
-0.084675804 -0.07667913 -0.15619916 0.041711938 -0.006730564 -0.17476818 0.02250506 -0.089271784
0.11945964 -0.19525982 0.21330775 0.052249003 0.1889227 0.29758266 -0.039975893 0.11920559

linears.2.bias f4 [64]
00000000: c448 ac3c 80a8 993c ff1e 8e3c 91bd 39bd
00000010: 8ebe bc3d 9f73 30bd b25d b5bd 12b3 19ba
00000020: 26f9 a8bc 884a 983c d96f 913b 3989 61bc
00000030: 8d8a ddbc 0989 023d 30bb b63d 0b1c d93c
00000040: f4bd d8bc c1f0 e9bc 9c21 57bd 6b22 9c3b
00000050: 4f55 093d ba73 90bc 684c 13bd 9549 ec3b
00000060: 62cf 413c 86f3 153d f735 8ebc eca0 fc3b
00000070: 7974 263b aa81 413d aeb1 7e3c d340 71ba
00000080: 071a 9abc 8a41 20bd 1c9f 153c 6358 29bc
00000090: b026 81bb 1807 e6bb 179b ff3a b433 adbc
000000a0: d0dc acbc 867e e4bb 17d2 4a3c a962 7a3d
000000b0: 4780 a7bd 6164 adbc 5b9b b63c 628a 27bc
000000c0: b584 443c 002a 333d 570f aabc f005 833d
000000d0: 9613 abbc 29fc 983c a513 9c3d 77a3 6d3d
000000e0: 6208 813d 6a5b 713c 34c3 f6bc 6270 61bc
000000f0: 618b 323d 7497 ec3c 6696 293d 47c8 203c
0.021030791 0.018757105 0.017348764 -0.0453468 0.09216033 -0.043079015 -0.088557616 -0.00058631704
-0.020626616 0.018590227 0.004438382 -0.013765627 -0.027043605 0.03186897 0.08922422 0.02650263
-0.026457764 -0.028557183 -0.052522287 0.004764845 0.033528622 -0.017633308 -0.03596154 0.00721092
0.011829229 0.036609195 -0.017359717 0.007709613 0.0025399013 0.047242798 0.015545292 -0.000920308
-0.018811239 -0.039125003 0.009132173 -0.010336014 -0.0039413795 -0.0070198886 0.0019501176 -0.021142818
-0.021101385 -0.0069730906 0.012379191 0.061129246 -0.08178764 -0.021166028 0.022290876 -0.010225864
0.01199453 0.043741226 -0.020759268 0.06397617 -0.020883363 0.018674927 0.076209344 0.05801722
0.06300427 0.0147312675 -0.030122377 -0.013759704 0.043589953 0.028880812 0.041403197 0.009813375

linears.3.weight f4 [32, 64]
00000000: 848f d2be 62f9 97bd 8251 1dbe 0955 7c3e
00000010: e67b 923d d930 023e 5a65 7c3e 09b2 743d
00000020: 0755 ae3e 8370 7cbd 2d4c fe3c 940d b73d
00000030: c036 ea3d ec99 97be d8cd 90be 46a5 1d3c
00000040: 60e9 853d 58e7 433e fc2a 07be 5e2e 65bc
00000050: 1ae3 d53c f71c 0c3e 1719 8a3e ffad 403d
00000060: 10e1 20be 5435 bb3d 3448 1ebe 3500 7ebe
00000070: 5d30 13bd d0d3 073e 3350 353d 77e6 023e
00000080: dd97 aabd 7468 043d 14a0 1e3e c29c cb3d
00000090: 68e6 05bd 4315 9f3d ebc3 3f3e d9e8 e9bd
000000a0: 62ee 093e 7e5e 4cbd b759 3cbd 2d13 583e
000000b0: 5104 0bbc dd5b e7bd 5f88 86be c16d 59be
000000c0: baf7 063e c666 013e e208 d73d 84a5 453e
000000d0: bd18 a93d 949e 7a3e 642d b6be cea3 f23d
000000e0: ec8c 90bd 7c66 07bb 70b1 803e 8e5b 363e
000000f0: 555f 11be 865e 463d 7df4 a43d e36e 2ebe
00000100: 6879 c23e 88cf 3e3e be17 2f3e c3b9 323d
00000110: 765d bc3e f507 e9be f109 7fbe f5a0 2d3e
00000120: 9afb 023e effa 1f3d baf2 303e f615 053f
00000130: 7b73 2ebe 194c 55be caef 7c3e b1df 8d3d
00000140: 3b66 b83d c582 bb3a 18a0 f83c d9d2 953e
00000150: 9e5e 973e f584 523e 6969 bf3e d570 90be
00000160: 3fb3 7dbd a8af 093e 97f4 d33d e0ed e8be
00000170: aaf3 03bd 96ac 51bb 3736 75be ad51 9fbe
00000180: 55c4 5d3e 98e9 fabd 8d27 503d 6267 67be
00000190: 1f84 f63e fb64 0d3f 1995 91bd 9e9a 4d3e
000001a0: c13b d13d b5d3 b3be 328a 84be 37f3 3fbe
000001b0: bf90 d53d e91c a03e 709c 943d ed69 853e
000001c0: ba71 37bd 1aad 9abd 5e58 943e f19e 9abe
000001d0: bb7c 1e3d 844d 783d 39e2 173e 647e 26bd
000001e0: 088c 153e e540 6bbd 9ba7 19bf 5084 2d3e
000001f0: 6957 02be 1b87 b5be 85d8 cc3e e4b6 b73e
00000200: 9ded 5d3e 4269 59be f726 393e 76f2 863d
00000210: d05b 523d f8e5 943e 5091 9bbd 7a08 c5bd
00000220: b558 5fbe fa0a d8bd a939 85be fa73 663b
00000230: 8458 2ebc d1e0 35be 8778 87bd 2623 3ebe
00000240: b771 163e 3787 1f3e dc0b 6b3e 41ef ff3c
00000250: ba0b d9bd 8184 243e e1f0 aa3d c6c3 193e
00000260: 5af4 9ebd 7f43 eebd 162d 353d 6cc8 dabc
00000270: 8a64 1bbe e604 20be 73de 813d 29bf 363c
00000280: 4409 5b3e f50f 0bbd 5a16 a43e f911 143e
00000290: 5443 bb3c 7587 02be 6332 8c3c 6d7e 263e
000002a0: 358e 91be a07d 5bbe 7981 293e e60e c8be
000002b0: d55f 3ebd 1b79 6f3e 48c8 c5be c105 1ebe
000002c0: c480 6f3e 257b d63d ad3e 323d ef6e 7dbd
000002d0: c7e2 583e 22be 643c 690c adbe 317f a33c
000002e0: 113f 1c3d 0920 12be 56a9 973c 2b91 c93d
000002f0: f557 2ebe 9ed3 9d3e ae50 bdbd 8e46 333e
00000300: 7caa 8abe c328 5c3e 8eeb e43d b80f 99bd
00000310: 8ebf a33d 1ea9 54be cd6a 823e 391a b43d
00000320: 2211 183d 641c ccbe 8924 c4bd fde9 01be
00000330: 5483 813c 61d5 f83d 4846 d33b 57c0 4cbe
00000340: e91d 1b3e 71b7 efbd db31 433e f485 783e
00000350: 0b25 20be 279e adbd ee50 a23e 35e0 87bd
00000360: ce9b 3abe 7482 aabd de53 0b3e 1549 093e
00000370: 3c7b 843c 0831 0bbe 9f5b 1cbe 0c19 cc3d
00000380: da57 7a3d 6dc0 873e c63b a43d 1dbe 9dbe
00000390: 9518 883a d964 46be b1d8 e73d b097 ac3b
000003a0: ee9f bc3d c373 17be 3e17 b4bd 0f7f f5bd
000003b0: af9d 84be eadd a13e 806d 46be d37f d13d
000003c0: 1b75 b7bd 7fb2 57be 0992 333e c1bf 0cbe
000003d0: 0e93 6b3e 8731 b7bd 5a24 50be 1c49 12be
000003e0: 1815 503e bf34 0b3e 26ff be3e 7b71 5dbd
000003f0: 561b 043c e92d 4f3d 452e 34bd 6c57 423d
-0.4112512 -0.07420613 -0.15363124 0.24641813 0.07152538 0.12713946 0.24648038 0.0597401
0.34049246 -0.061630737 0.031042183 0.08938137 0.11436224 -0.2960962 -0.28282046 0.009621924
0.065386534 0.1913122 -0.13199991 -0.013988106 0.026109267 0.13682924 0.26972267 0.047040936
-0.15710855 0.09141031 -0.15457231 -0.24804766 -0.035934795 0.13264394 0.044265937 0.12783228
-0.08329747 0.032326177 0.15490752 0.099420086 -0.032690436 0.07767727 0.1872708 -0.11421365
0.13469842 -0.049894802 -0.045983996 0.21101065 -0.008484916 -0.112968184 -0.26275918 -0.21233274
0.13180438 0.12636861 0.10499741 0.1930142 0.082566716 0.24474555 -0.35581505 0.118476495
-0.07058129 -0.002066045 0.25135374 0.17808363 -0.14196523 0.04842999 0.08054445 -0.17034487
0.3798325 0.18633854 0.170989 0.043634187 0.36790055 -0.45513883 -0.24906136 0.16955931
0.12791291 0.03905767 0.17280093 0.51986635 -0.1703624 -0.2082981 0.24700847 0.069274314
0.09003874 0.001430594 0.030349776 0.29262426 0.29564375 0.20558532 0.3738511 -0.28211084
-0.06193852 0.13445914 0.10349386 -0.45493984 -0.032214798 -0.0031993738 -0.23946463 -0.31117
0.21656926 -0.12251586 0.05081897 -0.22598031 0.48147675 0.5523221 -0.07108516 0.20078513
0.10216475 -0.35122457 -0.25886685 -0.18745123 0.10427999 0.31272057 0.072564006 0.26057377
-0.044786192 -0.07552548 0.2897367 -0.30199388 0.03869317 0.0606208 0.14832391 -0.04064788
0.14604199 -0.057434935 -0.6002137 0.16945004 -0.12728657 -0.3545464 0.4000894 0.35881722
0.21672674 -0.21231559 0.1808127 0.065892145 0.05135709 0.29081702 -0.075960755 -0.096207574
-0.21811183 -0.105489686 -0.26020554 0.0035164342 -0.010641221 -0.17761542 -0.06614786 -0.18568096
0.14691816 0.15578924 0.22953743 0.031242015 -0.1059794 0.16066171 0.08346725 0.15016088
-0.0776145 -0.116339676 0.04423245 -0.026706897 -0.15175071 -0.15626869 0.06341257 0.011153975
0.21390253 -0.033950765 0.32048303 0.14459981 0.022859253 -0.12746985 0.01711387 0.16259165
-0.28428808 -0.21434641 0.16553296 -0.39073867 -0.04647811 0.23386042 -0.38629365 -0.15431882
0.23388964 0.10472707 0.043516804 -0.061873373 0.21180259 0.013961347 -0.3379853 0.01995811
0.038146082 -0.14270033 0.018513363 0.09842142 -0.1702574 0.30825514 -0.09243904 0.17507383
-0.27083194 0.21499924 0.11177741 -0.07473701 0.079955205 -0.20767638 0.25472108 0.08794064
0.037125714 -0.3986541 -0.09577281 -0.12686916 0.015809692 0.12150074 0.006447587 -0.19995247
0.15148129 -0.117049105 0.19061987 0.24269849 -0.15639131 -0.08477431 0.3170237 -0.06634561
-0.18223497 -0.08325663 0.13606212 0.13406785 0.016172044 -0.13592923 -0.15269326 0.09965715
0.061118938 0.26513997 0.080192134 -0.30809107 0.0010383303 -0.19374408 0.113206275 0.005267106
0.09210192 -0.14790253 -0.087934956 -0.11987125 -0.25901553 0.3161462 -0.19377708 0.10229459
-0.08957883 -0.21064185 0.17536177 -0.13745023 0.23005316 -0.089449935 -0.20326367 -0.14285702
0.20320547 0.1359434 0.37304038 -0.0540633 0.008063158 0.050580893 -0.04398944 0.047446653

linears.3.bias f4 [32]
00000000: e0e6 14bd 4c7d 7b3d e632 b5bc 6f90 1ebd
00000010: 7fcf 2abd e0bc e9bd 95cc 6e3d f099 533d
00000020: 7204 7f3a a3d5 b33c 27e4 6cbd 3636 53bd
00000030: fbf6 e1bd d507 a93a f567 46bc 6a52 d03c
00000040: a82e 3739 578d adbc 0f1d 813d 7a39 f7ba
00000050: 411c f4bc 7f29 00bd 5643 39bd 1f3b 483d
00000060: d18f 933b dbf4 90bd d080 71bd c422 82bd
00000070: de09 83bd 5673 05bd 4c62 49bc 9bf2 d93a
-0.036352992 0.06139879 -0.022118997 -0.03871196 -0.04170179 -0.11412978 0.058300573 0.051660478
0.00097281404 0.021952456 -0.05783477 -0.05156537 -0.11033436 0.0012896011 -0.012109746 0.025429923
0.00017469621 -0.02118556 0.063043706 -0.0018861734 -0.029798629 -0.031289574 -0.045230232 0.048884507
0.0045032282 -0.070779525 -0.058960736 -0.06354287 -0.063983664 -0.032580696 -0.012291502 0.0016628088

linears.4.weight f4 [4, 32]
00000000: 4521 613e 6c42 26be dde5 e4bd 4f04 0f3e
00000010: a4a0 36bd 79de e9bb b76f 8fbc e0c2 233e
00000020: a5e0 c0be 2e6d e73e 627a 523c ce89 9b3d
00000030: 2596 233b 36eb 823e f497 59bf ff4e 4a3e
00000040: 0c57 c63e 7c30 cb3e 7080 303d 953c 493e
00000050: faa3 d7bd 38a7 91bd f801 743e d367 efbd
00000060: 8072 e9be b340 89bd 3c55 aa3c 4024 333e
00000070: a536 283e 63ae a13e d1b0 22bf a276 333d
00000080: 2f46 74be 4660 843e 731c 5ebf 3d6d 03bf
00000090: 549c 3bbf 6e59 60bf bcba ed3e 8d31 463f
000000a0: f5c7 963e 9e69 4f3e d318 05bf e983 c3be
000000b0: f244 2cbf 179d 6b3e 08ba 3abf 790c 643f
000000c0: 36cd ac3e e042 90be 2297 753f d784 6c3e
000000d0: 151a 44bf 5130 27bf 29da 4abf a640 143f
000000e0: 147c 97bc 5e2c 3abf 7847 e1be a9d4 6bbf
000000f0: 344f 113f 181a 50be 5e47 07bf 1779 5cbe
00000100: a1e3 173f ed2d e73e 081e 9fbe 601e 23bf
00000110: a7f1 0cbd 17aa 673e 09dd 113f 727e 79be
00000120: 691f fbbd 1a9a 943e d5bd bbbe 6f34 abbe
00000130: 1bb8 d13d d150 bc3e 9652 5b3e 40a9 433c
00000140: 5718 423d ccfa 263f 4219 5cbe 592d a53d
00000150: cdfe 9b3e 9466 0cbf c8b9 fbbe f6f3 07bc
00000160: 944a 313f 8698 c7be 408c 23be 1f55 dfbe
00000170: b13a bcbd 452f b93e 9725 80be 2c2b 4b3e
00000180: c7a7 14bf 3192 413f 225b 52bf 8ad5 f1be
00000190: c014 20bf 4500 58bf 5d8d 933f e833 1f3f
000001a0: 7c15 553f 648d 353f c405 91bf 94b7 4cbf
000001b0: e002 20bf 2b35 663e ac04 15bf 7295 8b3f
000001c0: 36fe ae3e dda1 6abe 31f6 2b3f 9708 eebe
000001d0: 0622 78bf df0e 82bf 7ebf 47bf c64a 083e
000001e0: 5024 6dbf a16b aabf 6b0f 6fbf 591f 4dbf
000001f0: 7e68 883f 1083 8dbe 1a59 39be 2ccf 3a3f
0.21985348 -0.16236275 -0.111766554 0.13966487 -0.044586793 -0.0071371165 -0.017509324 0.15992308
-0.3767139 0.45200485 0.012846561 0.075946435 0.002496132 0.25570077 -0.8499749 0.19756697
0.38738286 0.39685428 0.043091238 0.19652016 -0.10529323 -0.071119726 0.23828876 -0.11689725
-0.4559517 -0.067017935 0.020792596 0.17494297 0.16427095 0.3157836 -0.6355105 0.04381431
-0.23854898 0.258547 -0.8676216 -0.5133856 -0.7328541 -0.8763646 0.4643153 0.7741936
0.2944943 0.20255134 -0.51991004 -0.38186577 -0.672927 0.23009144 -0.7294011 0.8908153
0.33750314 -0.28176022 0.95933735 0.2309755 -0.766023 -0.653081 -0.79239136 0.57911146
-0.018491782 -0.7272395 -0.4399984 -0.9212137 0.5676148 -0.20322454 -0.5284327 -0.21530567
0.5933171 0.45152226 -0.310776 -0.63718224 -0.034410145 0.22623478 0.569779 -0.24364641
-0.122618504 0.2902382 -0.36668268 -0.3343844 0.102401935 0.36780408 0.21418223 0.011942208
0.047386494 0.65226436 -0.2149401 0.0806529 0.30467835 -0.5484402 -0.49165177 -0.008297911
0.6925442 -0.38983554 -0.1597147 -0.4361963 -0.09190882 0.36168876 -0.2502868 0.19840688
-0.5806851 0.75613695 -0.8217031 -0.4723323 -0.6253166 -0.8437541 1.1527516 0.6218858
0.8323591 0.7091887 -1.1329885 -0.7996762 -0.62504387 0.2248122 -0.58210254 1.0904982
0.34178323 -0.22913308 0.67172533 -0.4649093 -0.96926916 -1.0160788 -0.7802657 0.13309774
-0.92633533 -1.3314096 -0.933829 -0.8012596 1.0656888 -0.27639055 -0.18100396 0.7297237

linears.4.bias f4 [4]
00000000: 04c5 7dbc 2f6f d63e 09e3 93bc f5c4 393f
-0.015488867 0.418817 -0.018052595 0.7256616
