Iterations/Test model/epoch_1666.pt (torch, 37739 bytes, 10 tensors)

linears.0.weight f4 [32, 2]
0	0x3ea3873f	0.31939122
1	0xbd82decf	-0.063901536
2	0x3e8dbbb2	0.27682263
3	0xbe90b871	-0.28265718
4	0x3e76fb61	0.24119331
5	0xbea91b66	-0.33028716
6	0xbdcc6027	-0.09979277
7	0xbeebefb4	-0.46081316
8	0xbd3330dc	-0.043747768
9	0x3e850512	0.2598043
10	0x3d407f88	0.046996623
11	0xbeebcc56	-0.46054333
12	0x3e3554f0	0.17708182
13	0x3f0405d6	0.51571405
14	0x3e2984ba	0.16554537
15	0x3e39e0e8	0.18152201
16	0x3eb77289	0.3582957
17	0xbd45bd1f	-0.048276063
18	0xbe673610	-0.22579217
19	0xbdeb59a5	-0.11491708
20	0xbde66f8b	-0.11251744
21	0xbec4d890	-0.38446474
22	0xbe66ed7f	-0.22551535
23	0x3e47cbf0	0.1951139
24	0xbdda61b7	-0.10663169
25	0xbdf7af80	-0.12094021
26	0x3e29dfe1	0.1658931
27	0xbe42dbeb	-0.19029205
28	0xbdfdae4f	-0.12386762
29	0x3f212c80	0.62958527
30	0xbd682574	-0.056676343
31	0xbe3eb39a	-0.186232
32	0x3e5fd4a3	0.21858458
33	0x3efb1872	0.49042088
34	0x3e92198e	0.28535122
35	0x3d7d35e1	0.06181896
36	0xbddd6197	-0.108096294
37	0x3e39a1ee	0.18128178
38	0xbe2653fb	-0.16242974
39	0xbe1823da	-0.14857426
40	0xbde4086c	-0.11134419
41	0xbde0269b	-0.109448634
42	0x3e8b6c5d	0.27231112
43	0x3d02c774	0.031928495
44	0x3f203fa5	0.62597114
45	0x3c0b40a8	0.008499302
46	0x3e831af2	0.25606495
47	0xbe63340b	-0.22187822
48	0xbf0ab533	-0.5418274
49	0x3e56fe9a	0.2099556
50	0x3ea34d64	0.31894982
51	0xbde93a82	-0.113881126
52	0xbe364f63	-0.17803721
53	0xbdad8be2	-0.08473946
54	0x3d3472a5	0.044054646
55	0x3e85775a	0.2606762
56	0x3d9d6bfd	0.07686613
57	0xbe30a1a5	-0.17249162
58	0xbce678af	-0.028133718
59	0x3e9fe692	0.312306
60	0x3e194944	0.14969355
61	0xbe564d4f	-0.20927928
62	0xbd3b9dd1	-0.045804802
63	0x3f1d5556	0.6145834

linears.0.bias f4 [32]
0	0x3b9b945a	0.0047479095
1	0x3c8fc666	0.017550658
2	0x3c15218d	0.009102237
3	0x3befd902	0.0073195705
4	0x3c05bdcc	0.008162927
5	0xbb85c41c	-0.004082216
6	0xb9223cfc	-0.00015472242
7	0xbceff6c9	-0.029292481
8	0xbc0b44e7	-0.008500314
9	0xbc5902ea	-0.013245324
10	0x3a606aa3	0.0008560812
11	0xbd04b2c0	-0.03239703
12	0x3d0a9431	0.033832733
13	0xbcbccf4f	-0.023048071
14	0x3c12c7c2	0.008958759
15	0xbbf896c8	-0.007586334
16	0xbbad2923	-0.005284445
17	0x3b1936c0	0.002337858
18	0x3c775d84	0.015097979
19	0x3c3c53f5	0.011494626
20	0x3c01fe06	0.007934099
21	0xbc8a2caf	-0.01686701
22	0x3da5e8f4	0.08101073
23	0x3bd2b011	0.00642968
24	0xbd618048	-0.05505398
25	0x3c649d96	0.013953587
26	0xbc031de6	-0.008002734
27	0x3be2f9a6	0.006926733
28	0x3ca080c3	0.019592648
29	0x3ba9c05e	0.0051804027
30	0xbdfb9615	-0.12284485
31	0x3bf871ed	0.0075819404

linears.1.weight f4 [64, 32]
0	0x3ce1aabf	0.027547238
1	0xbe872df3	-0.26402244
2	0xbe46afa5	-0.1940294
3	0xbe2de42d	-0.16981573
4	0x3e32a6a2	0.17446378
5	0x3cbc30f3	0.02297256
6	0xbdae3301	-0.08505822
7	0x3e84cc30	0.25937033
8	0x3e2c29ae	0.16812775
9	0x3ea129a0	0.3147707
10	0x3db5b8e8	0.08873159
11	0x3ea569fe	0.32307428
12	0xbe620034	-0.2207039
13	0xbef66a7f	-0.48128125
14	0xbc1b4834	-0.009477664
15	0xbe3353e0	-0.17512465
16	0x3e9f0336	0.31057137
17	0x3c64ae0b	0.013957511
18	0xbcc8ea62	-0.024525825
19	0x3d39fd97	0.045407858
20	0xbebcc9a7	-0.368726
21	0xbd32ad52	-0.043622322
22	0xbdd72943	-0.10505917
23	0x3e4547c8	0.19265664
24	0x3dba21e2	0.09088494
25	0x3e28b36d	0.16474696
26	0xbe8e3ec1	-0.27782252
27	0xbdc15651	-0.09440292
28	0x3dfbaf46	0.1228929
29	0x3dbe34c6	0.092874095
30	0xbda4c3a0	-0.08045125
31	0x3d9df9eb	0.07713684
32	0x3cc12379	0.023576485
33	0x3dab5e98	0.08367652
34	0xbdda1aa0	-0.106496096
35	0x3e24c800	0.16091919
36	0xbdfe1806	-0.12406926
37	0xbdf34845	-0.11879019
38	0x3e52867e	0.20559117
39	0x3e9de92d	0.30841962
40	0x3ec5237d	0.38503638
41	0x3e6e34bc	0.23262304
42	0xbde73289	-0.11288936
43	0xbd4e4888	-0.05036214
44	0xbd7196b0	-0.058981597
45	0x3e0d2a9c	0.13785785
46	0x3dfa7ffb	0.122314416
47	0xbd58bb5b	-0.05291305
48	0x3e5bf80b	0.2148134
49	0xbe403d6b	-0.18773429
50	0xbe66d685	-0.2254277
51	0xbd519070	-0.051163137
52	0xbc600cf7	-0.013674966
53	0x3ea556fd	0.3229293
54	0xbdc0f762	-0.094221845
55	0xbe11867d	-0.1421146
56	0x3db58b35	0.08864442
57	0xbd254d2c	-0.0403568
58	0x3dad4634	0.08460656
59	0xbd92d9ac	-0.07170424
60	0xbcbe8533	-0.023256874
61	0xbd21fe43	-0.039549123
62	0x3e9ee27d	0.31032172
63	0x3e61275d	0.21987672
64	0xbd90ed0b	-0.07076462
65	0x3de6078c	0.11231908
66	0x3e40fc1f	0.18846177
67	0xbcfc5b87	-0.030805362
68	0x3d2f8317	0.042849626
69	0xbd317920	-0.043328404
70	0xbc8cb6f9	-0.017177092
71	0xbe2f1f1e	-0.17101714
72	0xbdac22d8	-0.084050834
73	0xbe9d64ed	-0.30741063
74	0xbe62d975	-0.22153266
75	0xbc7526e7	-0.014962888
76	0x3e86efd9	0.26354864
77	0x3c3a69d7	0.011377773
78	0xbc028fa3	-0.007968816
79	0xbe881430	-0.26577902
80	0xbd1c57a7	-0.03816953
81	0x3e8a9abe	0.27071184
82	0xbdf8c0ce	-0.121461496
83	0xbdc01c48	-0.09380394
84	0xbe3714e9	-0.1787907
85	0xbe455eb6	-0.1927441
86	0x3e116348	0.14198029
87	0xbd8c56b1	-0.068524726
88	0xbd3cb5d3	-0.04607184
89	0x3d03d75b	0.0321878
90	0x3d2b152d	0.04176824
91	0xbdb1adcc	-0.08675727
92	0xbda8050f	-0.0820409
93	0x3e8c060c	0.27348363
94	0xbd7b5ac2	-0.06136585
95	0xbe699cca	-0.22813717
96	0xbdab7f53	-0.083738945
97	0x3ddce45a	0.10785742
98	0x3d40417b	0.046937447
99	0xbda4172f	-0.080122344
100	0xbe4e2d11	-0.20134379
101	0xbe85eb95	-0.26156297
102	0xbd4af8d2	-0.0495537
103	0xbde067e2	-0.10957314
104	0x3e467c79	0.1938342
105	0xbe0f7871	-0.14010789
106	0x3db609aa	0.08888562
107	0x3d2e9602	0.042623527
108	0x3d273764	0.04082431
109	0x3e06f32f	0.13178705
110	0x3e4183e0	0.18897963
111	0xbeb08617	-0.34477302
112	0xbdbbc037	-0.091675214
113	0xbe1241f4	-0.14282972
114	0x3da32c45	0.07967428
115	0xbcaa8c50	-0.02081886
116	0xbd51e7ed	-0.051246572
117	0x3dbcd0f9	0.09219546
118	0x3e4c1c97	0.19932781
119	0x3be72040	0.007053405
120	0xbdc7fbea	-0.09764846
121	0x3e57acf7	0.21062075
122	0xbce92252	-0.028458748
123	0xbe021311	-0.12702586
124	0xbd30568d	-0.04305129
125	0xbc87020f	-0.016480474
126	0xbe628451	-0.22120787
127	0x3d1813d3	0.03712828
128	0x3d03942d	0.032123733
129	0x3d23c75d	0.03998505
130	0xbd8c8c91	-0.068627484
131	0xbd678a7e	-0.05652856
132	0x3cd085b1	0.025454374
133	0xbdba57a4	-0.090987474
134	0x3e0d2d98	0.13786924
135	0x3d2839f5	0.041070897
136	0xbcea2e30	-0.028586477
137	0xbe48973a	-0.19588938
138	0xbeb24c9f	-0.34824082
139	0xbe300580	-0.17189598
140	0xbe1ec68b	-0.15505426
141	0xbe4313ca	-0.19050518
142	0x3ec90c9e	0.3926744
143	0x3c613a55	0.013746818
144	0x3e04506b	0.12921302
145	0x3e7d9abc	0.24766058
146	0xbd6007d5	-0.05469497
147	0x3e97826d	0.29591694
148	0xbe195174	-0.14972478
149	0x3d05034b	0.032473844
150	0xbe7a1bba	-0.2442464
151	0x3ceb0c3d	0.02869236
152	0xbd075552	-0.033040352
153	0x3d0319ef	0.032007154
154	0xbe2725ec	-0.1632306
155	0x3e268e59	0.16265239
156	0x3d2ca5cf	0.042150315
157	0x3c01e1c4	0.007927362
158	0xbd2792b0	-0.040911376
159	0x3e378f9c	0.17925876
160	0x3dd859b1	0.10563982
161	0xbdd1d724	-0.10246113
162	0xbe13631b	-0.14393274
163	0xbddb7f0e	-0.10717593
164	0x3e906976	0.2820546
165	0xbe050657	-0.129907
166	0xbd91a706	-0.07111935
167	0xbd536fef	-0.05162042
168	0x3d9569c9	0.072955675
169	0xbe05bda3	-0.13060622
170	0x3c272f21	0.0102041075
171	0x3d813190	0.063082814
172	0xbe0c2eb5	-0.13689692
173	0x3e9d2c51	0.30697873
174	0x3dc147c8	0.09437519
175	0x3d2334db	0.03984533
176	0xbec5f6d2	-0.3866487
177	0x3d9cdbb4	0.076590925
178	0x3cb515cb	0.022105118
179	0x3e86fc4f	0.2636437
180	0x3d12d880	0.035851
181	0xbe5236cc	-0.20528716
182	0xbdcb97c4	-0.09941056
183	0xbd536ef4	-0.051619485
184	0x3e2654b5	0.1624325
185	0x3db97052	0.090546265
186	0x3ea52b11	0.3225942
187	0xbd82a999	-0.063800044
188	0xbc258456	-0.010102352
189	0x3d814949	0.06312806
190	0xbe5de9e1	-0.21671249
191	0xbd56ac9c	-0.052410707
192	0xbe3328e2	-0.17496064
193	0x3dfc7d7e	0.12328623
194	0x3e7a3b76	0.24436745
195	0x3e1a4c56	0.15068182
196	0xbe23add7	-0.15984283
197	0x3db552fe	0.0885372
198	0xbcfc6847	-0.030811442
199	0xbe7a5af9	-0.24448766
200	0x3eb460a5	0.35229984
201	0xbeb59d37	-0.35471508
202	0x3e09c9d1	0.13455893
203	0x3d1523f7	0.036411252
204	0xbe0e00dd	-0.13867517
205	0xbe29965e	-0.16561267
206	0xbca4c2f7	-0.020112498
207	0xbe8ae383	-0.27126703
208	0x3dda0cbb	0.106469594
209	0xbe0ef41d	-0.1396031
210	0xbd50f338	-0.0510132
211	0x3df16d29	0.11788399
212	0x3e200fc7	0.15631019
213	0xbe2ae43e	-0.1668863
214	0x3e6a8fa9	0.22906365
215	0xbd3ee5e7	-0.04660597
216	0xbd553677	-0.052053895
217	0xbd7d04aa	-0.061772026
218	0x3e1d0615	0.15334351
219	0xbd99de0c	-0.07513055
220	0xbdf452ee	-0.1192988
221	0xbed169a7	-0.4090092
222	0xbd80e8fc	-0.06294438
223	0xbd774b31	-0.060374442
224	0x3d824af5	0.06361953
225	0xbe12f030	-0.14349437
226	0x3e0bcf4c	0.13653296
227	0x3d53a891	0.05167443
228	0x3e1738fe	0.14767835
229	0xbe0ff5d3	-0.14058618
230	0x3de4abd4	0.11165586
231	0x3e4203cb	0.1894676
232	0xbe63bb60	-0.22239447
233	0x3ec1379b	0.37737736
234	0x3e194f33	0.14971618
235	0xbd4d4e86	-0.050123714
236	0xbe3b6300	-0.18299484
237	0x3df4568f	0.11930572
238	0x3de18dbb	0.11013361
239	0x3d40ea47	0.047098424
240	0x3d334bf5	0.04377361
241	0xbdc914d8	-0.09818429
242	0x3e5fdfa7	0.2186266
243	0xbde3adac	-0.1111711
244	0xbd898cfe	-0.06716345
245	0xbe195b6f	-0.14976285
246	0x3e805fe1	0.2507315
247	0xbd88ec14	-0.06685653
248	0xbc28ce39	-0.010303074
249	0x3d392305	0.045199413
250	0xbe40282e	-0.18765327
251	0xbe10cb00	-0.14139938
252	0x3d2237a8	0.03960386
253	0x3e589a16	0.21152529
254	0xbea305d1	-0.31840375
255	0x3e8343aa	0.2563756

linears.1.bias f4 [64]
0	0xbcac2295	-0.021012584
1	0xbcdb0d68	-0.026739791
2	0x3ca70192	0.020386491
3	0x3c62e1f9	0.013847821
4	0x3c35ae3d	0.011088905
5	0x3c46670c	0.012109529
6	0x386564e9	5.4691835e-05
7	0x3d5b4821	0.053535584
8	0xbb44663f	-0.002996817
9	0x3c70c72d	0.014695925
10	0xbc582fc9	-0.013194987
11	0x3cd58b04	0.026067264
12	0xbcd337e8	-0.025783494
13	0xbc9346bb	-0.017978063
14	0xbc892485	-0.016741047
15	0x3cc005fd	0.023440355
16	0x391f8911	0.00015214483
17	0x3aa7075f	0.0012743286
18	0xbc426d3a	-0.011866862
19	0x3c9b09ef	0.018925635
20	0xbc18943b	-0.009312685
21	0x3c33213c	0.010933217
22	0x3c33150b	0.01093031
23	0x3a0674dd	0.00051291083
24	0xbc377515	-0.011197348
25	0xbb7dae8a	-0.003870877
26	0xbc4ec1f9	-0.012619489
27	0x3c061280	0.008183122
28	0x3d3eab6f	0.04655021
29	0xba55e019	-0.00081586983
30	0xbcc6dbe6	-0.024274778
31	0xba156474	-0.00056988676
32	0xbcb209e8	-0.02173324
33	0xbc99f621	-0.018794121
34	0xbd8e1864	-0.06938246
35	0x3b31c7f2	0.0027127233
36	0x3c9b68b8	0.018970832
37	0xbc394cbf	-0.011309802
38	0xbc5706b9	-0.013124161
39	0x3c404bce	0.011736823
40	0x3c4c6ebd	0.012477574
41	0xbbc7971a	-0.0060910108
42	0xbc8b53be	-0.017007705
43	0xbc48b646	-0.012250489
44	0x3de78587	0.11304765
45	0x3a92ea45	0.0011208734
46	0x3bcd27b6	0.0062608374
47	0x3c16cce9	0.009204128
48	0xbc95cdfd	-0.0182867
49	0x3d25ed6f	0.040509637
50	0xbd980531	-0.07422865
51	0xbbcf0a95	-0.0063184
52	0xbb378f20	-0.0028008893
53	0x3c9a994a	0.018871922
54	0x3c3cb12c	0.01151685
55	0x3c0ace9e	0.008472113
56	0xbcafb9ae	-0.021450844
57	0xbbce93cb	-0.0063042394
58	0xbbeb08f3	-0.0071726977
59	0xbc728289	-0.01480163
60	0xbb48ab1e	-0.0030619572
61	0xbb1d2fe5	-0.0023984846
62	0xbd1ebc79	-0.03875396
63	0xbc7451b1	-0.014912055

linears.2.weight f4 [64, 64]
0	0xbe180777	-0.14846598
1	0x3cee515e	0.029091533
2	0xbd530eac	-0.051527664
3	0x3dd08132	0.10180892
4	0xbe279b1b	-0.16367762
5	0x3d5577ba	0.052116133
6	0x3d54c836	0.05194875
7	0x3d50c8b6	0.050972663
8	0xbc323b8f	-0.010878458
9	0x3d137785	0.036002655
10	0xbc818aa3	-0.015813177
11	0x3e08c7a3	0.13357405
12	0x3cabc7c1	0.020969274
13	0x3e27894c	0.16360968
14	0xbd5e82b3	-0.054323863
15	0x3dc12c8c	0.09432325
16	0x3c91cf69	0.017799096
17	0x3cd9f78f	0.026607303
18	0x3ea5dc56	0.32394665
19	0x3d1dd009	0.038528476
20	0x3e67cd67	0.22636949
21	0xbc480d0e	-0.012210144
22	0x3d0385ed	0.032110143
23	0xbdbfa956	-0.0935847
24	0x3e187f02	0.148922
25	0x3e17f5a5	0.148398
26	0xbda8395e	-0.08214067
27	0xbdd7b8e3	-0.10533311
28	0xbd955ac0	-0.072927
29	0xbe33e72a	-0.17568651
30	0x3b0322ff	0.0020009873
31	0x3d2aa7e2	0.04166401
32	0x3e58c7fb	0.21170036
33	0x3da084b6	0.078378126
34	0x3e61e6ce	0.22060701
35	0xbdfae64c	-0.12250957
36	0xbd5cb1e7	-0.0538806
37	0x3dd110ad	0.10208259
38	0xbd75c03f	-0.059997793
39	0xbe16c884	-0.14724928
40	0x3ce5047b	0.027956238
41	0x3e6391f9	0.22223653
42	0xbbe16909	-0.0068789762
43	0x3c2019b3	0.009771752
44	0x3c4550c0	0.012043178
45	0xba82d975	-0.000998302
46	0x3dc3db95	0.09563366
47	0xbdeec97b	-0.11659523
48	0xbe8b4de3	-0.2720786
49	0xbe871c37	-0.26388714
50	0xbe28125d	-0.16413255
51	0xbd3d0d51	-0.046155278
52	0xbe89d371	-0.2691913
53	0xbe3fd09b	-0.1873192
54	0xbe8173e4	-0.2528373
55	0x3e099ad2	0.13437966
56	0xbd0c96c9	-0.034323487
57	0x3d5cf12a	0.05394093
58	0x3db9d89a	0.090745166
59	0x3e5d4f28	0.21612227
60	0xbd5d5924	-0.05404009
61	0x3e34a868	0.17642367
62	0xbe43b874	-0.19113332
63	0xbe104bb2	-0.14091375
64	0xbe8a6967	-0.2703354
65	0xbce23983	-0.027615314
66	0x3dd9e99f	0.10640263
67	0xbd24b0b5	-0.040207583
68	0x3bc9ab18	0.006154429
69	0xbddfbf59	-0.109251685
70	0xbc4597ef	-0.01206015
71	0x3e9d0098	0.30664515
72	0x3d8492dd	0.064733244
73	0xbe250be1	-0.16117813
74	0xbdd52e8a	-0.10409267
75	0x3d98bcda	0.074578956
76	0xbde95802	-0.11393739
77	0xbe44ac3a	-0.19206324
78	0xbcd2d51b	-0.025736382
79	0x3c03a3de	0.008034674
80	0x3e6a39d8	0.22873628
81	0xbd86e2a3	-0.06586196
82	0xbe12ecd6	-0.14348158
83	0x3ea2047f	0.31644055
84	0xbdea6da7	-0.11446696
85	0x3d548640	0.051885843
86	0x3d4175f3	0.047231626
87	0x3df30b56	0.118673965
88	0xbe13d996	-0.14438471
89	0xbdbe72f2	-0.09299268
90	0x3db2d353	0.08731713
91	0xbe8228f9	-0.25421885
92	0xbb1f0469	-0.0024264103
93	0x3e36a8b7	0.17837797
94	0xbd3fc151	-0.04681522
95	0x3d8c76b1	0.06858576
96	0xbe484b9b	-0.19560091
97	0xbd9fbb33	-0.07799377
98	0xbe49652f	-0.19667505
99	0xbcadb424	-0.021204062
100	0xbe9898c0	-0.2980404
101	0xbe2cda6c	-0.16880196
102	0x3d06dd4d	0.032925893
103	0x3e143aa6	0.14475498
104	0xbe15c2bc	-0.14625067
105	0x3d1adf9c	0.037810907
106	0x3dfec8fb	0.12440678
107	0x3d17feb2	0.03710813
108	0xbcba1d7a	-0.022719134
109	0x3e00f246	0.1259242
110	0xbca4214f	-0.020035414
111	0x3d717605	0.058950443
112	0x3e0cd4ad	0.13753004
113	0x3de2b618	0.11069888
114	0xbde2781e	-0.11058067
115	0xbe0f8eaa	-0.14019266
116	0x3d921780	0.071333885
117	0xbc8e4267	-0.017365647
118	0xbc66d7e4	-0.014089558
119	0x3e45f53a	0.19331828
120	0x3e35b919	0.1774639
121	0x3e191d90	0.14952683
122	0x3c854bfd	0.016271586
123	0x3d992364	0.07477453
124	0x3b3ea1a7	0.0029088052
125	0xbda79b5c	-0.08183929
126	0xbe33ffb3	-0.1757801
127	0x3c70e69d	0.01470342
128	0xbe4bb648	-0.19893754
129	0xbe7bd8ff	-0.24594496
130	0xbe6c0a46	-0.23050794
131	0x3d7a84bf	0.061161753
132	0xbe9ba63e	-0.3040027
133	0x3e234dca	0.15947643
134	0x3d6304f4	0.055424646
135	0xbd75c058	-0.059997886
136	0x3dbe1617	0.09281557
137	0xbdee0b73	-0.116232775
138	0xbe3ecf6c	-0.18633813
139	0xbe303d21	-0.17210819
140	0xbcbb32d5	-0.022851387
141	0xbd86b4eb	-0.06577476
142	0x3db59083	0.08865454
143	0xbd3f2caf	-0.046673473
144	0xbd9737d6	-0.07383697
145	0x3d59139f	0.052997228
146	0x3e34ffc6	0.17675695
147	0x3e1f292a	0.15543047
148	0xbd8c78e5	-0.06858996
149	0x3d4823cd	0.048862267
150	0xbdcf0692	-0.10108675
151	0x3dd078b6	0.10179274
152	0x3e6390bf	0.22223185
153	0xbda313ed	-0.07962785
154	0x3db08197	0.08618467
155	0xbbc785cf	-0.0060889493
156	0x3e0db766	0.13839492
157	0x3dd7f859	0.105454154
158	0xbd58f4ad	-0.052967716
159	0x3e25d64a	0.16195026
160	0xbd2e0bd1	-0.042491738
161	0x3e2d5fd3	0.16931085
162	0x3dbf75a9	0.09348614
163	0xbe91fec8	-0.28514695
164	0xbe3b81c1	-0.18311216
165	0xbce57fd7	-0.02801506
166	0xbd9c2749	-0.076246805
167	0x3cd1591c	0.025555186
168	0xbd535462	-0.051594146
169	0xbcd2c5ee	-0.025729146
170	0x3e3fedee	0.18743107
171	0xbde51d28	-0.11187202
172	0x3db081d8	0.08618516
173	0x3e38764b	0.18013875
174	0x3d11d420	0.03560269
175	0xbe4b5346	-0.19855985
176	0xbce4aed7	-0.027915401
177	0x3e158ea9	0.14605202
178	0xbdc671b6	-0.096896574
179	0x3e0fa462	0.14027551
180	0xbd8fa536	-0.07013933
181	0x3de39087	0.11111551
182	0xbe8e5351	-0.2779794
183	0x3b212a35	0.0024591808
184	0x3c27024e	0.010193421
185	0x3de796d3	0.11308064
186	0x3b013b21	0.0019719081
187	0xbd9c0fb3	-0.07620182
188	0x3db5d137	0.08877795
189	0x3db7042a	0.08936341
190	0x3d11daaa	0.035608925
191	0xbdb0c271	-0.08630837
192	0xbd8b3cce	-0.06798707
193	0x3e2bea15	0.16788514
194	0x3e62c591	0.22145678
195	0xbea8275f	-0.32842538
196	0xbdd46536	-0.10370867
197	0xbe34d270	-0.176584
198	0xbe20be36	-0.1569756
199	0xbddce4a6	-0.10785799
200	0xbe1f4c4c	-0.15556449
201	0x3d4111b3	0.04713602
202	0xbc9e5b60	-0.01933068
203	0xbc4054e4	-0.0117389895
204	0x3b958501	0.0045629744
205	0x3e23ef6f	0.16009305
206	0x3c3478da	0.011015141
207	0xbd7b1784	-0.061301723
208	0x3ea4c04b	0.32177958
209	0x3d79bb21	0.060969476
210	0x3e99d470	0.3004489
211	0x3d59615c	0.053071365
212	0xbc684450	-0.014176443
213	0xbe0d2d0d	-0.13786717
214	0xbe092b1f	-0.13395356
215	0xbcea7603	-0.028620725
216	0x3d844da5	0.06460122
217	0x3ad1b4b8	0.0015999293
218	0x3d1ad327	0.037799027
219	0xbe18e79e	-0.14932105
220	0x3df28942	0.11842586
221	0xbd883eec	-0.066526264
222	0x3e4a6dd2	0.19768456
223	0x3e87f2ca	0.2655242
224	0x3d253633	0.04033489
225	0xbe0efbd8	-0.13963258
226	0x3d5f5118	0.054520696
227	0xbb809e3c	-0.003925113
228	0xbd812bae	-0.06307159
229	0xbe35ee96	-0.17766795
230	0x3b9aec59	0.004727882
231	0xbe04bd49	-0.12962832
232	0x3e041f8e	0.12902662
233	0x3d48588f	0.04891258
234	0x3d0a6214	0.03378494
235	0xbdc0ecf7	-0.094201975
236	0xbde41d31	-0.1113838
237	0x3cc575f3	0.024104094
238	0xbd9205dc	-0.07130024
239	0x3cb8c60c	0.022555374
240	0xbdb0100f	-0.08596813
241	0xbd9a67a6	-0.075393006
242	0xbe635188	-0.2219907
243	0x3d194714	0.0374213
244	0xbc7b233f	-0.015328228
245	0xbe20c111	-0.15698649
246	0x3d20c4e4	0.03925027
247	0xbd8864e4	-0.06659868
248	0x3d1c22de	0.03811919
249	0xbe51594b	-0.20444219
250	0x3da80379	0.08203787
251	0x3d424d24	0.04743685
252	0x3e41580e	0.18881246
253	0x3e641ce1	0.22276641
254	0xbd2c7281	-0.042101387
255	0x3dc6a87a	0.09700103

linears.2.bias f4 [64]
0	0x3bb81ee0	0.005618915
1	0x3cc95abb	0.024579396
2	0x3caa0023	0.020752018
3	0xbc985c73	-0.01859877
4	0x3d7fcbd2	0.062450238
5	0xbd8cf1f2	-0.06882085
6	0xbd3cbe95	-0.04608019
7	0x3b12d22e	0.002240311
8	0xbbb077a0	-0.005385354
9	0x3c8bd21c	0.017067961
10	0x3b0dd897	0.002164399
11	0xbc0a8a6c	-0.008455854
12	0xbccc65cf	-0.02495089
13	0x3be49458	0.0069756918
14	0x3d70db8a	0.05880312
15	0x3bbc526c	0.00574713
16	0xbd1349e5	-0.035959143
17	0xbb7eb5bc	-0.0038865646
18	0xbbf7ae2c	-0.0075586047
19	0xba1e8fe6	-0.0006048664
20	0x3ce760fb	0.028244486
21	0xbb95b011	-0.004568108
22	0xbc141db4	-0.009040285
23	0x3af2be16	0.0018519785
24	0x3c2d9b17	0.010596058
25	0x3cb65031	0.022255035
26	0xbab65348	-0.0013910318
27	0x3b4f6400	0.0031645298
28	0x3a267d0a	0.000635103
29	0x3dbf0d51	0.09328712
30	0x3a5340d2	0.000805867
31	0x3bd4e093	0.006496498
32	0xbc94806f	-0.018127648
33	0xbd167102	-0.036728866
34	0xbc8b6ca1	-0.017019572
35	0x3b0ab2a0	0.0021163598
36	0xbb81d6e9	-0.003962387
37	0xbbbc44de	-0.0057455143
38	0x3c8829a0	0.01662141
39	0xbafe1176	-0.0019383866
40	0xbba03ccd	-0.0048900605
41	0x3c09acbb	0.008402999
42	0x3c8980da	0.016785074
43	0x3ccb8e6a	0.024848182
44	0xbcc36731	-0.023852916
45	0xbaa22ea6	-0.0012373521
46	0x3c531f87	0.012885935
47	0xbc31581e	-0.010824231
48	0x3c388f60	0.011264652
49	0x3d0fde0b	0.035123866
50	0xbc7fa68a	-0.015603671
51	0xbbc91d2e	-0.0061375117
52	0xbcd7e3a4	-0.026353665
53	0xba9e70d5	-0.001208807
54	0x3d0e2b95	0.03470953
55	0x3d48ebda	0.04905305
56	0x3d533ea2	0.051573403
57	0x3bb62d0a	0.0055595683
58	0xbc9098f8	-0.017651066
59	0xbc2e2c99	-0.01063075
60	0x3c7d38eb	0.015455465
61	0x3c86eac9	0.016469376
62	0x3d0ac647	0.0338805
63	0x3a150d9c	0.0005685927

linears.3.weight f4 [32, 64]
0	0xbee79176	-0.45228165
1	0xbd185a3b	-0.037195425
2	0xbe0e7f0b	-0.1391565
3	0x3e1867b9	0.14883317
4	0x3dd5c45d	0.10437844
5	0x3debbc64	0.11510542
6	0x3e55f0be	0.20892617
7	0x3d24ceaf	0.04023617
8	0x3eaffa2f	0.34370562
9	0x3ca376c8	0.0199541
10	0x3d2b18af	0.041771587
11	0xbd1122fd	-0.035433758
12	0x3b68844b	0.0035479243
13	0xbe4202aa	-0.18946329
14	0xbe845295	-0.25844255
15	0xbc14b88a	-0.009077201
16	0xbc3aa1e3	-0.011391136
17	0x3d958943	0.07301571
18	0xbe470dbb	-0.19438832
19	0xbd31a134	-0.043366626
20	0x3e139d13	0.14415388
21	0x3da398ae	0.07988106
22	0x3e1b9cc6	0.15196523
23	0x3db5d061	0.08877636
24	0xbddce158	-0.107851684
25	0x3da503c8	0.08057362
26	0xbe4f104e	-0.20221063
27	0xbe4d9218	-0.20075262
28	0x3b5e5163	0.0033923022
29	0x3e11e382	0.14246944
30	0x3e0fc6d3	0.14040689
31	0x3e4d03db	0.20021002
32	0xbe2bcef6	-0.16778168
33	0xbd862a4e	-0.06551038
34	0x3ddfdf83	0.10931303
35	0x3dc48087	0.09594827
36	0xbdf8564f	-0.12125837
37	0x3cc10dae	0.023566093
38	0x3e66663f	0.22499941
39	0xbe174058	-0.14770639
40	0x3def9269	0.116978474
41	0xbda20af8	-0.079122484
42	0x3bee7632	0.0072772736
43	0x3e71077a	0.23538008
44	0xbd7105f8	-0.058843583
45	0xbe6a2c84	-0.22868544
46	0xbe118665	-0.14211424
47	0xbec4e9fb	-0.38459763
48	0x3e4cf2c6	0.20014486
49	0x3e0ac7c6	0.1355277
50	0xbd0e214a	-0.034699716
51	0x3e479e7e	0.19494054
52	0xbd8c791c	-0.06859037
53	0x3e67537f	0.22590445
54	0xbe986b68	-0.29769444
55	0x3e585fc1	0.21130277
56	0xbc85ec0d	-0.01634791
57	0x3d1ed06d	0.03877299
58	0x3e73f5db	0.23824255
59	0x3daf0be8	0.08547193
60	0xbd8ca2cb	-0.06866988
61	0x3d5e3787	0.054252174
62	0x3e151349	0.14558138
63	0xbe3b956d	-0.1831872
64	0x3e453351	0.19257857
65	0x3e22a9ab	0.15885036
66	0x3d9a89cc	0.07545814
67	0xbda01d3f	-0.07818078
68	0x3e97e994	0.29670393
69	0xbea54ce1	-0.32285216
70	0xbe7d44de	-0.24733302
71	0x3c40d32b	0.011769096
72	0x3ddc34a8	0.10752231
73	0x3e529daf	0.20567964
74	0x3e4abec6	0.19799337
75	0x3e891661	0.26774886
76	0xbe917985	-0.28413025
77	0xbd11be9e	-0.035582177
78	0x3e2a43b8	0.16627395
79	0xbd9a6c74	-0.07540217
80	0xbd82d181	-0.06387616
81	0xbe34eb86	-0.1766797
82	0xbd991600	-0.07474899
83	0x3e2f3d4a	0.17113224
84	0x3ed6d763	0.41961202
85	0x3cbb2367	0.02284403
86	0x3e26763d	0.16256042
87	0xbdc810f8	-0.097688615
88	0x3e05669e	0.13027427
89	0x3c57ad39	0.013163858
90	0xbbaec91a	-0.005334032
91	0xbe8053c3	-0.25063905
92	0x3e14e237	0.14539419
93	0xbd9bf819	-0.0761568
94	0xbd8f90d6	-0.07010047
95	0xbdbdaf3d	-0.0926194
96	0x3dbfe60e	0.09370051
97	0xbe5bdf25	-0.21471842
98	0x3c813d2d	0.015776241
99	0xbe6075c8	-0.2191993
100	0x3e613640	0.21993351
101	0x3ea6b174	0.3255726
102	0x3deeede6	0.11666469
103	0x3d66b324	0.056323186
104	0x3cabf09c	0.020988755
105	0xbe7b223e	-0.24524781
106	0xbdb8f0cb	-0.090303026
107	0xbe2cda34	-0.16880113
108	0x3d3b3654	0.04570611
109	0x3d87b748	0.06626755
110	0x3e658908	0.22415555
111	0xbcecb4f7	-0.028894885
112	0x3e4a7b8e	0.19773695
113	0x3d062d01	0.032757763
114	0x3db887f6	0.090103075
115	0xbe81c2cc	-0.2534393
116	0xbe53f042	-0.2069712
117	0x3cfc65d3	0.030810272
118	0x3e0cc63f	0.137475
119	0x3dc7c300	0.0975399
120	0x3e98cff1	0.29846147
121	0x3c8c16b3	0.017100668
122	0xbefe003f	-0.49609563
123	0xbd95f57a	-0.073222116
124	0xbd08750b	-0.033314746
125	0xbe9ca87e	-0.305973
126	0x3ee7fb40	0.45308876
127	0x3e53a384	0.20667845
128	0x3e57d2ea	0.21076551
129	0xbe196a03	-0.14981847
130	0x3e54a3ba	0.20765582
131	0x3d21b559	0.039479587
132	0x3da5bad6	0.08092277
133	0x3e4e64bf	0.20155619
134	0xbdd0319b	-0.101657115
135	0xbc805cbe	-0.015669223
136	0xbe1e21f6	-0.15442643
137	0xbde2687d	-0.11055086
138	0xbe34920b	-0.17633836
139	0x3db96dad	0.09054122
140	0xbd8341ff	-0.06409072
141	0xbe0b56d1	-0.13607337
142	0xbc784ebb	-0.01515549
143	0xbdcdd14b	-0.10049685
144	0x3d9c0a7b	0.076191865
145	0x3e046d6e	0.12932369
146	0x3e3fc665	0.18728025
147	0x3da70323	0.08154895
148	0xbd1c49c0	-0.03815627
149	0x3e3a37ee	0.18185398
150	0x3da4429a	0.08020516
151	0x3dc929eb	0.09822448
152	0x3b629e47	0.0034579204
153	0xbc93bb47	-0.018033637
154	0x3d8064ee	0.06269251
155	0xbda0757f	-0.078349106
156	0xbe409976	-0.1880854
157	0xbd631a77	-0.05544516
158	0x3d9badb4	0.076014906
159	0xbd0d7cf9	-0.03454301
160	0x3e499ac8	0.1968795
161	0xbda3010f	-0.07959186
162	0x3e8baa25	0.27278247
163	0x3d4a11de	0.049333446
164	0x3dcc8c94	0.09987751
165	0xbcb8c9a4	-0.022557087
166	0xbd30d8ac	-0.043175384
167	0x3d9879a4	0.07445076
168	0xbe76c102	-0.24097064
169	0xbe87018c	-0.26368368
170	0x3e54c4c3	0.20778184
171	0xbe9af9ec	-0.302688
172	0xbd353d29	-0.04424778
173	0x3e710573	0.23537235
174	0xbe982e4c	-0.29722822
175	0xbdbf32ce	-0.09335862
176	0x3e1eec64	0.15519863
177	0x3d3ac392	0.045596667
178	0x3c6574b3	0.014004874
179	0xbe280d30	-0.1641128
180	0x3e3b5443	0.18293862
181	0xbdab16cb	-0.08353957
182	0xbea3c069	-0.31982735
183	0x3d2b2edb	0.04179273
184	0x3dc3178c	0.095259756
185	0xbdaef266	-0.085423276
186	0xbd1a818c	-0.0377212
187	0xbd010cea	-0.031506456
188	0xbe0bd022	-0.13653615
189	0x3e570489	0.20997824
190	0xbd3da973	-0.046304177
191	0x3e5ee9ff	0.2176895
192	0xbea3bbe4	-0.31979287
193	0x3e5fbd06	0.2184945
194	0x3dc88147	0.09790283
195	0xbe14f646	-0.14547071
196	0x3dc0403e	0.09387253
197	0xbe5173bb	-0.20454304
198	0x3e6f6f05	0.23382194
199	0x3d89dfab	0.067321144
200	0x3d154987	0.036447074
201	0xbeb8d7c3	-0.36102113
202	0xbdbf74f5	-0.0934848
203	0xbe37cad2	-0.17948464
204	0xbda58941	-0.0808282
205	0x3e5b3de4	0.21410328
206	0x3c0bf2ef	0.008541807
207	0xbe5ae2e1	-0.2137561
208	0x3e040793	0.12893514
209	0xbe5779a4	-0.21042496
210	0x3e0c7f67	0.13720475
211	0x3e5fa410	0.21839929
212	0xbd7fd27e	-0.0624566
213	0xbe081370	-0.13288665
214	0x3e3b74dc	0.18306297
215	0xbcde780f	-0.027156858
216	0xbe2d7ff3	-0.1694334
217	0xbdc551d4	-0.09634748
218	0x3debb00b	0.11508187
219	0x3e3343ca	0.17506328
220	0x3d681c39	0.05666754
221	0xbe01eac0	-0.12687206
222	0xbd7c9591	-0.061666075
223	0x3e27ef47	0.16399871
224	0x3bb76fc6	0.005598041
225	0x3e54d89a	0.20785752
226	0x3d93f2c9	0.07224042
227	0xbe9b3cd3	-0.30319843
228	0xbd77fcdc	-0.06054388
229	0xbe6b8fec	-0.2300412
230	0x3e167192	0.14691761
231	0xba5eb4da	-0.0008495577
232	0x3d9457f2	0.07243337
233	0xbe0c4062	-0.13696435
234	0xbd9aa06a	-0.07550128
235	0xbdea3f36	-0.11437838
236	0xbe8e5c9d	-0.27805033
237	0x3e62815f	0.22119664
238	0xbda78eeb	-0.08181556
239	0xbd3a8456	-0.04553636
240	0xbd156b78	-0.036479443
241	0xbe42dbae	-0.19029114
242	0x3d9f5a31	0.077808745
243	0xbe004e1d	-0.12529798
244	0x3dd99c78	0.10625547
245	0xbdb93880	-0.0904398
246	0xbe3ae174	-0.18250066
247	0xbdacc950	-0.08436835
248	0x3e5b0787	0.2138959
249	0x3e1990e8	0.14996684
250	0x3ec22de3	0.37925634
251	0xbdb35028	-0.08755523
252	0x3d56c116	0.052430235
253	0x3d7d0cbb	0.06177972
254	0xbb6f6741	-0.003653005
255	0x3cebf0b8	0.028801307

linears.3.bias f4 [32]
0	0xbbd3c78b	-0.0064629964
1	0x3d89393c	0.0670037
2	0xbc8b4eee	-0.01700541
3	0xbc5210ab	-0.012821357
4	0xbc7a7418	-0.015286468
5	0xbced55cf	-0.02897158
6	0x3d24ed6d	0.04026549
7	0x3ca2f2d6	0.019891184
8	0x3c4871f1	0.012234197
9	0x3c09aa5f	0.008402436
10	0xbc2bb48d	-0.010480058
11	0xbc33d5fc	-0.010976311
12	0xbce93c7b	-0.028471222
13	0x3bea951a	0.0071588876
14	0xbc5fb73e	-0.013654528
15	0x3cbc31d2	0.022972975
16	0x3bb68cda	0.00557099
17	0x3bb44cef	0.0055023353
18	0x3c9a252e	0.018816557
19	0x3b347cbc	0.0027540168
20	0xbc4201ab	-0.011841218
21	0xbc3c9337	-0.011509708
22	0xbcb13036	-0.021629434
23	0x3c4544f2	0.012040364
24	0x3b89563a	0.004191187
25	0xbcd447bd	-0.025913114
26	0xbc4422ae	-0.011971159
27	0xbce4aabe	-0.027913447
28	0xbcb2fadd	-0.021848137
29	0xbbed3e66	-0.0072401045
30	0xbc8130a6	-0.015770268
31	0xba7197f8	-0.00092160655

linears.4.weight f4 [4, 32]
0	0x3e5fc9a3	0.21854262
1	0xbdde99fb	-0.10869213
2	0xbdfd07d3	-0.12355008
3	0x3dbad8c0	0.09123373
4	0xbe1227d2	-0.14273003
5	0xbda4b027	-0.08041411
6	0x39f074b2	0.00045863312
7	0x3e35bd7d	0.17748065
8	0xbec0aecb	-0.37633356
9	0x3ef63621	0.48088172
10	0xbdd8c79a	-0.10584946
11	0xbd0bd7e6	-0.034141444
12	0xbd9c0c2f	-0.07619511
13	0x3e544863	0.20730738
14	0xbf511220	-0.8166828
15	0x3e3db3d5	0.18525632
16	0x3eae7cbd	0.34079543
17	0x3ecbcdae	0.3980536
18	0x3ddd5245	0.10806707
19	0x3e00e268	0.12586367
20	0xbe5b5f55	-0.21423085
21	0xbe0da1ad	-0.13831206
22	0x3e6ebfbd	0.2331533
23	0xbd2e9019	-0.04261789
24	0xbee1b623	-0.44084272
25	0xbdded91b	-0.10881253
26	0xbd968a2d	-0.07350574
27	0x3e0fe4e3	0.14052157
28	0x3d826a5e	0.06367944
29	0x3e94ca9c	0.2906083
30	0xbf1d1866	-0.61365354
31	0x3e2bdb18	0.16782796
32	0x3d0621cf	0.032747086
33	0xbbfdeb78	-0.0077490173
34	0xbf108522	-0.56453145
35	0xbe84758f	-0.2587094
36	0xbef4f83e	-0.47845644
37	0xbf1c64e2	-0.61091435
38	0x3e0a502e	0.13507149
39	0x3f27f230	0.65603924
40	0xbd1c9ce5	-0.038235564
41	0x3dacb8e8	0.084337056
42	0xbe9dff26	-0.30858725
43	0xbe5b3ba9	-0.21409477
44	0xbf01f1ee	-0.5075978
45	0x3dd3858e	0.10328208
46	0xbf23b575	-0.63948756
47	0x3f2f813a	0.6855656
48	0x3e5bb2d2	0.21454933
49	0xbd6a1c43	-0.05715586
50	0x3f439f9d	0.76415426
51	0x3e8de797	0.27715752
52	0xbf03b59e	-0.51449
53	0xbef1417f	-0.47120282
54	0xbee866ae	-0.45390838
55	0x3ea1cee7	0.31603166
56	0x3e83d940	0.25751686
57	0xbf141e3a	-0.5785862
58	0xbe524a57	-0.20536171
59	0xbf2773c9	-0.6541105
60	0x3e649771	0.22323395
61	0x3d877ea2	0.0661595
62	0xbeea02b4	-0.45705187
63	0xbea47dc2	-0.32127196
64	0x3e99ac9d	0.30014506
65	0x3f00798b	0.5018546
66	0xbd542c47	-0.05180004
67	0xbeb7c1e8	-0.35890126
68	0x3d8a0548	0.067392886
69	0x3eb4227c	0.3518256
70	0x3e716a93	0.23575811
71	0xbec74a61	-0.38923934
72	0xbde6e2f5	-0.11273757
73	0x3f0c2060	0.547369
74	0x3ca38513	0.019960916
75	0xbc220011	-0.009887711
76	0x3e6e81ae	0.23291656
77	0x3f38ceec	0.7219074
78	0x3e9526f4	0.2913128
79	0xbd3b81d4	-0.04577811
80	0x3e0e824c	0.13916892
81	0x3ec4a9bf	0.38410756
82	0xbd93f4cb	-0.07224425
83	0x3e5a978a	0.2134687
84	0x3ecdb41c	0.40176475
85	0xbe369284	-0.17829329
86	0xbe40fa1d	-0.1884541
87	0xbec1c218	-0.37843394
88	0x3eb3204a	0.34985572
89	0xbea2a059	-0.3176296
90	0xbd93c1c8	-0.07214695
91	0xbec54eab	-0.3853658
92	0xbde7403e	-0.1129155
93	0x3e2ab6af	0.16671251
94	0xbe0c5155	-0.137029
95	0xbde6dcf7	-0.112726144
96	0xbd4eff78	-0.050536603
97	0x3e8aa544	0.27079213
98	0xbe976e89	-0.2957652
99	0x3dad2b8e	0.08455573
100	0xbdc43720	-0.09580827
101	0xbe9cdf40	-0.30639076
102	0x3f1f0550	0.6211748
103	0x3dcf5ae4	0.10124758
104	0x3eab456d	0.33451405
105	0x3e441b29	0.19150986
106	0xbf1bcac1	-0.6085625
107	0xbe892c9e	-0.26791853
108	0xbdc99e5d	-0.098446585
109	0x3eeba40b	0.46023592
110	0xbda54ce2	-0.08071305
111	0x3f190e52	0.59787476
112	0x3f179b4f	0.5922136
113	0x3e944104	0.28955853
114	0x3e1cf8b0	0.15329242
115	0xbc27dca3	-0.010245475
116	0xbee821c3	-0.45338258
117	0xbf06934d	-0.52568513
118	0xbe895fe1	-0.26830962
119	0xbee2d739	-0.44304827
120	0xbec0e8db	-0.37677655
121	0xbf50f6e1	-0.8162671
122	0xbed55559	-0.41666678
123	0xbe98c8b9	-0.2984064
124	0x3f09bf01	0.53807074
125	0x3e817cc2	0.25290495
126	0x3ea16d42	0.3152867
127	0x3e7b2227	0.24524747

linears.4.bias f4 [4]
0	0x3b6c3a49	0.0036045483
1	0x3e6989ad	0.22806425
2	0x3db29695	0.087201275
3	0x3e89b7f1	0.2689815
