Iterations/Test model/epoch_9996.pt (torch, 37739 bytes, 10 tensors)

linears.0.weight f4 [32, 2]
0.3248826 -0.27898875 0.27321368 -0.60917443 0.23885605 -0.6645936 -0.10290424 -0.7754042
-0.052268654 0.57013 0.05113992 -0.8363489 0.18638381 0.83106285 0.1874149 0.47618616
0.36108863 -0.3052462 -0.25239575 -0.28971368 -0.11428947 -0.6868682 -0.3127505 0.5479514
-0.13496813 -0.3804668 0.16743657 -0.5262123 -0.12562163 0.93166137 -0.058723155 -0.47901595
0.22837567 0.7774282 0.31635022 0.3575681 -0.11069853 0.5273375 -0.22256342 -0.4592948
-0.123326056 -0.39571443 0.2895643 0.29884166 0.6861695 -0.20528154 0.2894504 -0.50781864
-0.56621486 0.46198717 0.35615152 -0.2775241 -0.18692024 -0.3492265 0.042633966 0.5606336
0.08276427 -0.53832114 -0.030579433 0.6445961 0.16666 -0.55183506 -0.048526615 0.94110113
00000000: 0357 a63e 9dd7 8ebe aae2 8b3e dbf2 1bbf
00000010: ae96 743e ce22 2abf 75bf d2bd e480 46bf
00000020: a817 56bd 0af4 113f 1878 513d f61a 56bf
00000030: 66db 3e3e 89c0 543f b1e9 3f3e acce f33e
00000040: 9ce0 b83e 3b49 9cbe 043a 81be 5a55 94be
00000050: 9910 eabd 98d6 2fbf d520 a0be 8b46 0c3f
00000060: 1635 0abe 8bcc c2be 7e74 2b3e d9b5 06bf
00000070: f5a2 00be 5c81 6e3f b187 70bd 9441 f5be
00000080: 50db 693e 8905 473f a8f8 a13e 2a13 b73e
00000090: e9b5 e2bd 97ff 063f aae7 63be b028 ebbe
000000a0: 5f92 fcbd 159b cabe c641 943e c601 993e
000000b0: cea8 2f3f 5335 52be d832 943e 6700 02bf
000000c0: 75f3 10bf 9589 ec3e 7e59 b63e a417 8ebe
000000d0: 0568 3fbe d1cd b2be f4a0 2e3d af85 0f3f
000000e0: 5080 a93d 6acf 09bf b881 fabc 4004 253f
000000f0: eba8 2a3e 1045 0dbf d8c3 46bd 01ec 703f

linears.0.bias f4 [32]
0.012966098 0.02315032 0.018460192 0.0074744034 0.008481998 -0.0070287543 0.0032300223 -0.03709221
-0.0013016426 -0.028853755 -0.0010239296 -0.080716215 0.040890444 -0.029461512 0.011749385 -0.0114765875
-0.0024059361 0.003513735 0.022143666 -0.021248197 0.01152792 -0.01815043 0.11319743 0.0354194
-0.074258275 0.046460606 -0.010766841 0.009108908 0.026220713 0.009452505 -0.13209896 0.011402293
00000000: c26f 543c bda5 bd3c d439 973c d7eb f43b
00000010: 14f8 0a3c 7751 e6bb c8ae 533b 00ee 17bd
00000020: e19b aaba b65e ecbc 6035 86ba 8b4e a5bd
00000030: bd7c 273d 4559 f1bc 7e80 403c 4c08 3cbc
00000040: e9ac 1dbb b146 663b a266 b53c b310 aebc
00000050: 9adf 3c3c 36b0 94bc 0ed4 e73d ef13 113d
00000060: b914 98bd 7a4d 3e3d 6767 30bc 873d 153c
00000070: d2cc d63c aede 1a3c f344 07be afd0 3a3c

linears.1.weight f4 [64, 32]
0.0269172 -0.2741214 -0.20825857 -0.22242837 0.24189235 -0.07600151 -0.0498994 0.2746022
0.16773781 0.3066814 0.046036415 0.32852998 -0.23387188 -0.49773645 0.043167766 -0.20937766
0.34021893 0.025291571 7.283826e-05 0.029534826 -0.3871584 -0.03485223 -0.09926825 0.18608616
0.08806862 0.16531205 -0.28925186 -0.042814363 0.10038238 0.18824624 -0.08841496 0.1827515
0.03492086 0.088674664 -0.1036895 0.11921185 -0.0988119 -0.16315964 0.23947069 0.32295272
0.3973808 0.2170329 -0.15174168 -0.058395486 -0.07040293 0.13692632 0.14161181 -0.0798081
0.24627346 -0.16732766 -0.22016239 -0.07351545 -0.034536973 0.33989123 -0.0811423 -0.13417633
0.07663255 -0.028954241 0.06624569 -0.03698915 -0.025021961 -0.001128442 0.3175508 0.26449573
-0.07449081 0.11343486 0.1896271 -0.00066418515 0.037724502 -0.021829784 -0.03551498 -0.19867834
-0.09014787 -0.30225 -0.19991295 -0.024262322 0.303425 -0.0008434932 -0.011568825 -0.25082576
-0.055336796 0.26209176 -0.110738754 -0.08111343 -0.15764108 -0.20558265 0.15176122 -0.06784384
-0.05289199 0.03271833 0.050814588 -0.10830447 -0.06745851 0.2504176 -0.12937471 -0.25401768
0.02336618 0.21514848 0.15911223 -0.079360366 -0.2944326 -0.14065668 0.0071985596 -0.07968847
0.31987822 -0.22489075 0.043305226 -0.05869975 0.02421954 0.19615526 0.06917699 -0.3967963
-0.017934874 -0.03547765 0.011590827 -0.093883745 -0.089714795 0.16344081 0.30527234 0.10802794
-0.20311116 0.30603483 -0.10957256 -0.091979474 0.06557912 -0.10212336 -0.23909858 -0.0628641
0.029802158 0.031674188 -0.07953421 -0.08619666 0.0729284 -0.1580011 0.15634345 0.04775796
-0.030313328 -0.19850256 -0.37099943 -0.16581337 -0.16022596 -0.2035101 0.42694867 -0.006073644
0.14429723 0.25255668 -0.036131598 0.28912777 -0.15872005 0.036028583 -0.24292107 0.02194124
-0.03272883 0.0299706 -0.16792467 0.19429336 0.024962522 0.07617015 -0.053053524 0.25224966
-0.01645047 -0.24248874 -0.293012 -0.19846186 0.50329655 -0.37089404 -0.050649665 -0.05353231
-0.05155072 -0.055438116 -0.039155327 0.19142993 -0.14148033 0.19131373 0.2877731 -0.016683424
-0.39024928 -0.011000352 0.1596817 0.31576753 0.04226955 -0.27254796 -0.22331275 -0.18479213
0.29416698 -0.024331303 0.38551113 0.051519822 -0.17405678 0.30512768 -0.30729467 0.17786112
-0.16356277 0.1433132 0.2685569 0.19565126 -0.23574372 0.19537118 -0.056123644 -0.25359228
0.36410886 -0.3561252 0.16771542 0.021521246 -0.13081352 -0.14206515 -0.080737755 -0.24362749
0.08719543 -0.13969767 -0.08271441 0.12330087 0.1670026 -0.1663355 0.23429778 -0.029796425
-0.060327373 -0.052248534 0.15514001 -0.12137361 -0.08799798 -0.5131173 -0.04628561 -0.17421505
0.07198989 -0.14898266 0.125424 -0.026478987 0.245165 -0.27676383 0.16577375 0.22147444
-0.21295379 0.35732314 0.08733263 -0.047676828 -0.21256386 0.10338198 0.17348833 -0.014396564
0.09011602 -0.074436955 0.2479224 -0.14061923 -0.102458976 -0.12823589 0.2676578 -0.06934695
-0.022057148 0.053175934 -0.21200933 -0.052221738 0.011475451 0.36521605 -0.35898075 0.41363984
00000000: 7681 dc3c a459 8cbe bc41 55be 43c4 63be
00000010: a1b2 773e aea6 9bbd 5063 4cbd a998 8c3e
00000020: 76c3 2b3e 5805 9d3e ae90 3c3d 1535 a83e
00000030: 1c7c 6fbe 50d7 febe afd0 303d 1967 56be
00000040: 2d31 ae3e 4530 cf3c bec0 9838 05f3 f13c
00000050: a039 c6be 36c1 0ebd 274d cbbd 5f8d 3e3e
00000060: 525d b43d 9047 293e d218 94be 1d5e 2fbd
00000070: 4795 cd3d 9fc3 403e e712 b5bd 3623 3b3e
00000080: 2d09 0f3d 109b b53d 295b d4bd 5825 f43d
00000090: e55d cabd 5213 27be ce37 753e 0f5a a53e
000000a0: 7f75 cb3e df3d 5e3e 2c62 1bbe 1b30 6fbd
000000b0: 692f 90bd 6a36 0c3e b002 113e 6e72 a3bd
000000c0: 1c2f 7c3e f157 2bbe 4072 61be 458f 96bd
000000d0: a476 0dbd 3906 ae3e ef2d a6bd 8565 09be
000000e0: 87f1 9c3d 7231 edbc d2ab 873d ef81 17bd
000000f0: dbfa ccbc 3be8 93ba 0596 a23e fc6b 873e
00000100: a38e 98bd 8950 e83d 9b2d 423e b61c 2eba
00000110: 0285 1a3d 60d4 b2bc 2878 11bd 5672 4bbe
00000120: 729f b8bd 83c0 9abe fbb5 4cbe c7c1 c6bc
00000130: 865a 9b3e df1d 5dba 2b8b 3dbc 3c6c 80be
00000140: d6a8 62bd e430 863e 00cb e2bd cc1e a6bd
00000150: aa6c 21be 4284 52be 4b67 1b3e b6f1 8abd
00000160: 45a5 58bd a803 063d f522 503d bcce ddbd
00000170: b027 8abd bc36 803e ce7a 04be 9b0e 82be
00000180: 6e6a bf3c e24f 5c3e 51ee 223e b087 a2bd
00000190: dfbf 96be 4e08 10be e5e1 eb3b b533 a3bd
000001a0: 14c7 a33e c349 66be d260 313d 266f 70bd
000001b0: 0f68 c63c eddc 483e aaac 8d3d e228 cbbe
000001c0: 28ec 92bc 0351 11bd 74e7 3d3c 1f46 c0bd
000001d0: 64bc b7bd 075d 273e a84c 9c3e c13d dd3d
000001e0: 5ffc 4fbe 99b0 9c3e 9467 e0bd bc5f bcbd
000001f0: 584e 863d 0d26 d1bd 42d6 74be e5be 80bd
00000200: a823 f43c cbbc 013d d5e2 a2bd e087 b0bd
00000210: 7c5b 953d 0acb 21be 7f18 203e da9d 433d
00000220: a853 f8bc 4144 4bbe a3f3 bdbe fbca 29be
00000230: 4612 24be f464 50be 0499 da3e 6b05 c7bb
00000240: a7c2 133e 1c4f 813e bafe 13bd 8e08 943e
00000250: 8287 22be b592 133d 4dc0 78be 1ebe b33c
00000260: aa0e 06bd e784 f53c 72f4 2bbe d7f4 463e
00000270: 347e cc3c 18ff 9b3d a74e 59bd de26 813e
00000280: 23c3 86bc f84e 78be ab05 96be 9639 4bbe
00000290: 0bd8 003f d3e5 bdbe 0676 4fbd b244 5bbd
000002a0: d926 53bd 1413 63bd 5661 20bd 3506 443e
000002b0: 38e0 10be bfe7 433e ff56 933e adab 88bc
000002c0: c1ce c7be d23a 34bc 9983 233e 48ac a13e
000002d0: d622 2d3d 688b 8bbe 19ac 64be 263a 3dbe
000002e0: 0e9d 963e 7152 c7bc b761 c53e 7306 533d
000002f0: f13b 32be b239 9c3e ba55 9dbe 3a21 363e
00000300: 007d 27be b2c0 123e 4a80 893e ce58 483e
00000310: cd66 71be 620f 483e e8e1 65bd d9d6 81be
00000320: 7a6c ba3e 0b56 b6be 97bd 2b3e 534d b03c
00000330: fbf3 05be 8779 11be d659 a5bd 7c79 79be
00000340: 8593 b23d e80c 0fbe 2c66 a9bd 2b85 fc3d
00000350: bb02 2b3e da53 2abe c2eb 6f3e a217 f4bc
00000360: d619 77bd 8f02 56bd 06dd 1e3e ba92 f8bd
00000370: 4938 b4bd a85b 03bf fb95 3dbd 6e65 32be
00000380: 6f6f 933d e98e 18be 266f 003e 76ea d8bc
00000390: 890c 7b3e fdb3 8dbe 98c0 293e 32ca 623e
000003a0: 8f10 5abe 0ff3 b63e 73db b23d c748 43bd
000003b0: 57aa 59be eeb9 d33d eda6 313e 91df 6bbc
000003c0: bf8e b83d 6772 98bd 5fdf 7d3e 7dfe 0fbe
000003d0: 03d6 d1bd 4550 03be 710a 893e c605 8ebd
000003e0: 31b1 b4bc 02cf 593d f918 59be 76e6 55bd
000003f0: 8803 3c3c 99fd ba3e 53cc b7be 9ac8 d33e

linears.1.bias f4 [64]
-0.02121768 -0.028688213 0.07188367 0.062270854 0.014060336 -0.005503009 -9.0610934e-05 0.0760218
0.0005554106 0.035885796 -0.02102326 0.044966273 -0.013561911 -0.023995157 -0.02097092 0.017661752
-0.0038387522 -0.0019569022 -0.00849687 0.03694435 -0.011682503 0.0058844592 0.010219835 0.0017047874
-0.014557971 -0.0032256108 -0.013097007 0.012107788 0.07115167 -0.013247549 -0.02558614 -0.05967092
-0.021183811 0.099079415 -0.008939237 -0.0005815452 0.029886352 -0.017566314 0.0068399305 0.018736608
0.013545341 -0.011709625 -0.029576488 -0.0063241837 0.15454617 -0.005598917 0.01710228 0.01288851
-0.0347601 0.054391567 -0.11991405 -0.012742902 -0.0003396056 0.034970883 0.01663732 0.017038656
-0.025997475 -0.008940033 -0.007933047 0.021846093 -0.002961366 -0.008483792 -0.0029319667 -0.019398648
00000000: b3d0 adbc 8b03 ebbc bf37 933d b90f 7f3d
00000010: 535d 663c 9652 b4bb 6006 beb8 51b1 9b3d
00000020: f998 113a fcfc 123d f938 acbc 8e2e 383d
00000030: c732 5ebc 7e91 c4bc 35cb abbc 61af 903c
00000040: 9393 7bbb 5f3f 00bb 7536 0bbc f552 173d
00000050: f867 3fbc 6cd2 c03b 1871 273c 2c73 df3a
00000060: 8e84 6ebc c564 53bb d494 56bc be5f 463c
00000070: f7b7 913d 3f0c 59bc 069a d1bc 7f69 74bd
00000080: ac89 adbc 26ea ca3d e175 12bc d672 18ba
00000090: 39d4 f43c 3be7 8fbc 7f21 e03b 847d 993c
000000a0: 47ed 5d3c bad9 3fbc 644a f2bc 193b cfbb
000000b0: 5a41 1e3e 1f77 b7bb 151a 8c3c 542a 533c
000000c0: 9b60 0ebd b1c9 5e3d 7f95 f5bd 9bc7 50bc
000000d0: 180d b2b9 a13d 0f3d fd4a 883c a794 8b3c
000000e0: a8f8 d4bc 3779 12bc 9cf9 01bc 94f6 b23c
000000f0: 7a13 42bb 9aff 0abc 3d26 40bb eae9 9ebc

linears.2.weight f4 [64, 64]
-0.16249184 0.026463447 -0.041431896 0.11481717 -0.15681526 0.039831996 0.067276895 0.080116935
-0.00090365007 0.03769787 -0.009822453 0.14557976 0.035933267 0.15817502 -0.060728025 0.09325757
0.06680306 0.022048185 0.3382847 0.050987594 0.25836638 -0.026616447 0.032660916 -0.10782164
0.15351738 0.15414108 -0.072168 -0.11790591 -0.054278165 -0.2026548 0.021523647 0.028858287
0.23977667 0.09060734 0.23646206 -0.12592378 -0.039989755 0.10830219 -0.048697777 -0.13823305
0.011390524 0.2148014 -0.021626314 -0.0075985794 0.01693598 -0.015154194 0.08178458 -0.0986689
-0.285859 -0.25403866 -0.19174047 -0.055939287 -0.25587443 -0.1767059 -0.2659418 0.12166132
-0.055943273 0.0683866 0.07362391 0.22837242 -0.047855478 0.17113544 -0.18302892 -0.13166694
-0.23298152 -0.04190671 0.06571496 -0.10638788 -0.015102788 -0.057104766 -0.04934859 0.27153867
0.038726415 -0.20841907 -0.110997 0.02305089 -0.14455433 -0.17582259 6.56054e-05 0.040122274
0.22600335 -0.035635713 -0.17547792 0.275651 -0.1414926 0.10922283 0.057051502 0.1379186
-0.13192686 -0.124565065 0.056766354 -0.25615805 -0.079369515 0.21278852 -0.079188496 0.12181756
-0.2434065 -0.17285632 -0.2300748 0.05176087 -0.33334294 -0.20229614 -0.0005482239 0.14961277
-0.13117231 0.07279685 0.13215086 0.06754339 -0.005866759 0.16582286 0.0077063697 0.051811542
0.1925214 0.07429842 -0.06945459 -0.10190097 0.028655887 -0.063807964 -0.04928434 0.20884264
0.1915365 0.12901184 0.03772739 0.027058704 -0.030475896 -0.045723386 -0.22461703 0.0022962105
-0.11843966 -0.23098008 -0.2306112 0.06453725 -0.19470547 0.16225436 0.0047702137 -0.011531433
0.09097722 -0.092300236 -0.22361842 -0.17974722 -0.056293998 -0.12417835 0.31719 -0.09253113
-0.38224238 -0.06405043 0.047293644 0.092361994 -0.2222802 0.08030041 -0.046597835 0.15444371
0.07127828 -0.0072464608 0.13480784 0.18203847 0.1347787 0.18001999 -0.1236715 0.16169673
-0.13450088 0.17435536 0.05385719 -0.14653966 -0.1275952 0.051852755 -0.07891677 0.080177024
-0.0030462698 -0.12054719 0.10957258 -0.019879298 0.081283815 0.07872125 0.04646181 -0.07379699
-0.014902566 0.1610612 -0.13033979 0.10127291 -0.12801023 0.14155792 -0.11094844 0.057194166
-0.052485723 0.016767807 -0.27282652 -0.08883562 0.12666625 -0.08380793 0.05660045 -0.1248261
-0.08867119 0.17869607 0.22253351 -0.328347 -0.12069615 -0.18251394 -0.14376634 -0.18981917
-0.15415645 0.040901832 0.0003373145 -0.004084573 0.014434035 0.22317755 -0.09974759 -0.052886948
0.53833926 0.07973316 0.35117537 0.06902961 0.030734137 -0.14763248 -0.16943996 -0.043586604
0.086534746 -0.007905137 0.03438778 -0.19988665 0.114858076 -0.08535653 0.2141685 0.26054844
0.08032569 -0.128496 0.07245514 -0.044242624 -0.064408645 -0.18552704 0.00863067 -0.18174146
0.116115145 0.07878705 0.10954052 -0.11640459 -0.109262705 0.049807735 -0.07546733 -0.09373237
-0.09073019 -0.07662391 -0.1625872 0.042132594 0.00018874396 -0.17018773 0.008961815 -0.087332875
0.114745386 -0.18157743 0.24265379 0.056559138 0.18465321 0.3031469 -0.041063204 0.11597013
00000000: 4364 26be dfc9 d83c 7eb4 29bd 4425 eb3d
00000010: 2e94 20be e026 233d 78c8 893d 5914 a43d
00000020: eee2 6cba 1569 1a3d 5bee 20bc dc12 153e
00000030: c32e 133d a2f8 213e f3bd 78bd d3fd be3d
00000040: 0bd0 883d 659e b43c a733 ad3e 5ed8 503d
00000050: 9948 843e bc0a dabc 74c7 053d 98d1 dcbd
00000060: a933 1d3e 29d7 1d3e d1cc 93bd a778 f1bd
00000070: c852 5ebd bd84 4fbe 5c52 b03c 3768 ec3c
00000080: 0488 753e 5790 b93d 1c23 723e 2af2 00be
00000090: 4ccc 23bd 8acd dd3d 5277 47bd f78c 0dbe
000000a0: 529f 3a3c e6f4 5b3e ab29 b1bc 81fd f8bb
000000b0: 53bd 8a3c 4c49 78bc ad7e a73d ec12 cabd
000000c0: 1c5c 92be 5b11 82be 9d57 44be 9820 65bd
000000d0: f901 83be 64f2 34be 8629 88be 9229 f93d
000000e0: c624 65bd 460e 8c3d 22c8 963d 76da 693e
000000f0: 1b04 44bd 213e 2f3e ef6b 3bbe b3d3 06be
00000100: b592 6ebe 5fa6 2bbd 9195 863d e4e1 d9bd
00000110: af71 77bc b0e6 69bd bf21 4abd 1e07 8b3e
00000120: 979f 1e3d cf6b 55be 6552 e3bd 38d5 bc3c
00000130: 0d06 14be d60a 34be a295 8938 4157 243d
00000140: 6c6d 673e c1f6 11bd 7cb0 33be 2122 8d3e
00000150: 70e3 10be 38b0 df3d d6ae 693d 893a 0d3e
00000160: d617 07be f81b ffbd d683 683d 2627 83be
00000170: 7c8c a2bd 3ce5 593e 942d a2bd 7c7b f93d
00000180: 8e3f 79be 3f01 31be ba98 6bbe 3503 543d
00000190: edab aabe b826 4fbe afb6 0fba 1734 193e
000001a0: 0952 06be 8416 953d 8e52 073e 3054 8a3d
000001b0: f13d c0bb 78cd 293e b785 fc3b 5738 543d
000001c0: 5424 453e c529 983d 353e 8ebd 75b1 d0bd
000001d0: c0bf ea3c c0ad 82bd 60de 49bd d8da 553e
000001e0: 2522 443e ae1b 043e 0988 1a3d 37aa dd3c
000001f0: 96a8 f9bc 7248 3bbd 0202 66be 057c 163b
00000200: 7e90 f2bd 0b86 6cbe 5825 6cbe 1b2c 843d
00000210: df60 47be 0226 263e 744f 9c3b 56ee 3cbc
00000220: 4452 ba3d e807 bdbd 3afc 64be a80f 38be
00000230: 8994 66bd 3851 febd ba66 a23e f680 bdbd
00000240: 46b5 c3be df2c 83bd fbb6 413d 4928 bd3d
00000250: 6c9d 63be 8b74 a43d 5fdd 3ebd 7e26 1e3e
00000260: 59fa 913d b873 edbb 110b 0a3e 4b68 3a3e
00000270: 6d03 0a3e 2957 383e 7c47 fdbd d493 253e
00000280: 99ba 09be 368a 323e 5b99 5c3d 7e0e 16be
00000290: 51a8 02be 8e63 543d 1e9f a1bd da33 a43d
000002a0: eda3 47bb 72e1 f6bd 9767 e03d e9d9 a2bc
000002b0: 2178 a63d 9b38 a13d bd4e 3e3d e022 97bd
000002c0: e429 74bc 3aed 243e cb77 05be 2c68 cf3d
000002d0: 1d15 03be 8ff4 103e f038 e3bd 6e44 6a3d
000002e0: 45fb 56bd a45c 893c ebaf 8bbe 73ef b5bd
000002f0: ccb4 013e 7ea3 abbd e0d5 673d d4a4 ffbd
00000300: 3e99 b5bd 1afc 363e d3df 633e 191d a8be
00000310: 8b2f f7bd efe4 3abe 7c37 13be f55f 42be
00000320: 30db 1dbe ae88 273d 96d9 b039 e2d7 85bb
00000330: bb7c 6c3c a888 643e 7748 ccbd fc9f 58bd
00000340: 9ad0 093f 244b a33d 42cd b33e 655f 8d3d
00000350: 28c6 fb3c f82c 17be ab81 2dbe de87 32bd
00000360: 2139 b13d 8c84 01bc 33da 0c3d 16af 4cbe
00000370: b63a eb3d 68cf aebd fd4e 5b3e 9b66 853e
00000380: cc81 a43d 7594 03be 5c63 943d c137 35bd
00000390: aee8 83bd cdfa 3dbe a767 0d3c 6f1a 3abe
000003a0: c7cd ed3d 1b5b a13d c856 e03d 8865 eebd
000003b0: 20c5 dfbd 3203 4c3d 9e8e 9abd c2f6 bfbd
000003c0: c0d0 b9bd ffec 9cbd 427d 26be 3a93 2c3d
000003d0: 92e9 4539 b145 2ebe 94d4 123c 94db b2bd
000003e0: a1ff ea3d 6fef 39be 3c7a 783e 8eaa 673d
000003f0: bb15 3d3e 1236 9b3e e431 28bd bf81 ed3d

linears.2.bias f4 [64]
0.021041684 -0.0018950521 0.025050681 -0.03766046 0.092411 -0.04352296 -0.08106471 -0.0007328842
-0.022943912 0.026549751 0.0019414749 -0.015481813 -0.02679259 0.031006936 0.08939326 0.020613296
-0.025674218 -0.027045295 -0.0430633 0.0026139189 0.033070747 -0.01647957 -0.031722292 0.009081384
0.009982209 0.037832357 -0.01955064 0.009152069 0.0014315844 0.044972703 0.016004717 -0.0005210496
-0.01779595 -0.03771935 0.009636987 -0.0054414123 -0.006586414 -0.007866953 0.002353683 -0.02198718
-0.022034347 -0.003471554 0.015823094 0.05613169 -0.078870036 -0.020211505 0.020910256 -0.01405451
0.013652929 0.047387008 -0.02213209 0.06957844 -0.023425985 0.021275846 0.07473162 0.057866093
0.05819843 0.011003685 -0.028539982 -0.012708446 0.040432017 0.034132265 0.02443762 0.0073624505
00000000: 9c5f ac3c 6663 f8ba 1637 cd3c db41 1abd
00000010: fa41 bd3d 2245 32bd 4105 a6bd 071f 40ba
00000020: dff4 bbbc dd7e d93c 1679 fe3a 6ea7 7dbc
00000030: 227c dbbc 4202 fe3c d013 b73d 37dd a83c
00000040: bd52 d2bc 188e ddbc 2563 30bd 484e 2b3b
00000050: 3175 073d 2a00 87bc 3cef 01bd 16ca 143c
00000060: 6b8c 233c 1af6 1a3d aa28 a0bc 8ff2 153c
00000070: 00a4 bb3a 4c35 383d 531c 833c 0c97 08ba
00000080: d0c8 91bc 9b7f 1abd 74e4 1d3c e04d b2bb
00000090: d8d2 d7bb 64e4 00bc 4040 1a3b 751e b4bc
000000a0: 6081 b4bc 0383 63bb 6f9f 813c 58ea 653d
000000b0: 9d86 a1bd 9992 a5bc fc4b ab3c e344 66bc
000000c0: 89b0 5f3c e118 423d 5b4e b5bc 247f 8e3d
000000d0: dae7 bfbc af4a ae3c e40c 993d ff04 6d3d
000000e0: 7a61 6e3d cd48 343c aecc e9bc 1637 50bc
000000f0: 0b9c 253d 46ce 0b3d 6731 c83c b640 f13b

linears.3.weight f4 [32, 64]
-0.41084182 -0.08867091 -0.15347068 0.24786656 0.069434285 0.13264512 0.24778016 0.03604882
0.33901882 -0.068627395 0.025947254 0.08242007 0.11700413 -0.29743397 -0.28750637 -0.005183274
0.085986964 0.19295916 -0.12819773 -0.0155028505 0.021384822 0.13756146 0.26869315 0.056434903
-0.1652368 0.07055212 -0.15299064 -0.24988379 -0.034313437 0.10921724 0.039557084 0.12801053
-0.08325204 0.035929713 0.17989333 0.11343433 -0.030472238 0.06962379 0.19648379 -0.08110736
0.1349075 -0.048853856 -0.055172548 0.19844349 -0.0087649245 -0.10370716 -0.27226183 -0.20950301
0.13645864 0.1271376 0.102247685 0.19248417 0.094646096 0.25368792 -0.3571465 0.11772154
-0.086453244 -0.015265831 0.2591464 0.21766897 -0.14411263 0.05019058 0.07341287 -0.17280196
0.3918236 0.14915416 0.1419543 0.060256623 0.3566348 -0.4160202 -0.2392175 0.10640747
0.10956608 -0.0068090125 0.13889998 0.5929092 -0.1524117 -0.22467956 0.22732158 0.034010842
0.17243567 0.027210673 0.042604137 0.29922312 0.2692126 0.21978506 0.38222417 -0.29598907
-0.12940232 0.06694096 0.1193384 -0.4764654 -0.04417994 -0.06039905 -0.25916785 -0.33156523
0.23678409 -0.097985804 0.1215502 -0.15720828 0.52844125 0.55285275 -0.04727398 0.2995114
0.10524653 -0.34578508 -0.33851916 -0.22535983 0.11711664 0.35024852 0.024665449 0.3223083
-0.07344895 -0.06355537 0.33084345 -0.28295457 0.10845017 0.10935561 0.13705143 -0.067961425
0.073363386 -0.10066653 -0.57593757 0.2729655 -0.14683561 -0.32566965 0.37271336 0.35821867
0.23742652 -0.2252415 0.17223112 0.063337974 0.05808122 0.30992496 -0.08410045 -0.09531395
-0.24152975 -0.122496285 -0.29867497 0.07885284 -0.012905678 -0.17303063 -0.065591514 -0.19136678
0.24361575 0.15762219 0.22242442 0.022990584 -0.110312805 0.15589765 0.07676901 0.11920928
-0.1336092 -0.13114293 0.039852034 -0.030433623 -0.1439224 -0.18972002 0.06623339 0.010040954
0.21462697 -0.029781936 0.38870037 0.18840945 0.04375436 -0.13413972 0.010523697 0.23774129
-0.2960956 -0.22509246 0.11725261 -0.40402898 -0.05273773 0.24432345 -0.40549085 -0.11457694
0.21988699 0.120133504 0.05910722 -0.031297106 0.26978666 0.061472915 -0.33099878 0.016036531
-0.024056459 -0.16539001 0.021725178 0.20386828 -0.16900305 0.34153342 -0.1000019 0.18662065
-0.27753496 0.25051022 0.12394437 -0.07834495 0.081551075 -0.24477415 0.2499841 0.1449301
0.051164858 -0.3998532 -0.07673148 -0.12715213 0.016393324 0.12132138 0.0147109805 -0.16249281
0.10412563 -0.1140619 0.19175822 0.24763004 -0.15327816 -0.081058 0.32878152 -0.09421886
-0.14837393 -0.028554026 0.13345662 0.12023143 0.006067444 -0.07534966 -0.15692016 0.0876456
0.05763482 0.2603822 0.03364197 -0.34771866 0.009594169 -0.1762735 0.07011124 -0.05619365
0.09908709 -0.15248314 -0.06473518 -0.09362081 -0.25376633 0.31828985 -0.17563477 0.13639863
-0.12403536 -0.2246704 0.1661237 -0.1539383 0.21657926 -0.11394104 -0.20346212 -0.14832939
0.23365512 0.15900093 0.3570952 -0.14244962 0.013974582 0.026736386 -0.033516217 0.052988485
00000000: dc59 d2be 1899 b5bd 6b27 1dbe bbd0 7d3e
00000010: 9033 8e3d 1fd4 073e 15ba 7d3e eda7 133d
00000020: e093 ad3e 858c 8cbd 568f d43c dbcb a83d
00000030: dc9f ef3d 4449 98be 0934 93be 74d8 a9bb
00000040: ef19 b03d 1697 453e 4446 03be abff 7dbc
00000050: 392f af3c e9dc 0c3e 2692 893e 4928 673d
00000060: d633 29be a17d 903d 94a9 1cbe 89e1 7fbe
00000070: 3f8c 0cbd 4aad df3d 9c06 223d 3115 033e
00000080: 0c80 aabd 092b 133d f535 383e 4250 e83d
00000090: eaa0 f9bc eb96 8e3d 0c33 493e 9e1b a6bd
000000a0: 3125 0a3e fb1a 48bd 9cfc 61bd c534 4b3e
000000b0: c29a 0fbc 6b64 d4bd e765 8bbe f587 56be
000000c0: d0bb 0b3e 5c30 023e 3c67 d13d 921a 453e
000000d0: d0d5 c13d 62e3 813e e8db b6be fe17 f13d
000000e0: 660e b1bd 891d 7abc d6ae 843e 9de4 5e3e
000000f0: 4392 13be a394 4d3d 7d59 963d fff2 30be
00000100: 1a9d c83e debb 183e 785c 113e a6cf 763d
00000110: d698 b63e 9a00 d5be 6ff5 74be 29ec d93d
00000120: 2e64 e03d 231e dfbb cc3b 0e3e e6c8 173f
00000130: d011 1cbe 6612 66be fdc6 683e f44e 0b3d
00000140: fa92 303e ebe8 de3c ad81 2e3d c633 993e
00000150: 3cd6 893e 560f 613e e3b2 c33e e18b 97be
00000160: 0b82 04be 5818 893d b167 f43d 46f3 f3be
00000170: 06f6 34bd ff64 77bd a6b1 84be ebc2 a9be
00000180: 8777 723e c8ac c8bd 50ef f83d 35fb 20be
00000190: ed47 073f c287 0d3f 5ca2 41bd 8f59 993e
000001a0: 7e8b d73d be0a b1be 6252 adbe bac4 66be
000001b0: d9da ef3d c653 b33e 320f ca3c 9805 a53e
000001c0: 676c 96bd 5129 82bd 5064 a93e 6cdf 90be
000001d0: 1f1b de3d d6f5 df3d 3657 0c3e 5c2f 8bbd
000001e0: 8b3f 963d 412a cebd a570 13bf 22c2 8b3e
000001f0: 135c 16be 2cbe a6be 49d4 be3e 7068 b73e
00000200: f01f 733e b5a5 66be 5b5d 303e 57b7 813d
00000210: 93e6 6d3d 7cae 9e3e db3c acbd f633 c3bd
00000220: 9353 77be 55df fabd edeb 98be 997d a13d
00000230: 5672 53bc f12e 31be d854 86bd a7f5 43be
00000240: 6876 793e b667 213e 3ac3 633e c056 bc3c
00000250: aeeb e1bd a2a3 1f3e 1239 9d3d ff23 f43d
00000260: dad0 08be 554a 06be e33b 233d ef4f f9bc
00000270: 6560 13be f745 42be 5fa5 873d d082 243c
00000280: 2cc7 5b3e 3ff9 f3bc bc03 c73e 68ee 403e
00000290: c637 333d ec5b 09be 966b 2c3c 7472 733e
000002a0: d899 97be a37e 66be 2322 f03d e3dc cebe
000002b0: 8503 58bd ed2f 7a3e 7f9c cfbe 51a7 eabd
000002c0: 0e2a 613e 8e08 f63d 6a1a 723d 6531 00bd
000002d0: 7a21 8a3e 06cb 7b3d ac78 a9be 0b5f 833c
000002e0: 0d12 c5bc 005c 29be 00f9 b13c d9c2 503e
000002f0: 230f 2dbe 78dd ae3e cccd ccbd 7c19 3f3e
00000300: 1019 8ebe e042 803e 8cd6 fd3d 5173 a0bd
00000310: 4004 a73d 13a6 7abe d5fb 7f3e 8e68 143e
00000320: 3e92 513d 8fb9 ccbe 6525 9dbd 2b34 02be
00000330: 4b4b 863c 5877 f83d 5306 713c 8464 26be
00000340: d13f d53d 4999 e9bd 445c 443e bb92 7d3e
00000350: f3f4 1cbe bd01 a6bd 0d56 a83e d1f5 c0bd
00000360: 56ef 17be 22ea e9bc daa8 083e e53b f63d
00000370: 69d1 c63b ec50 9abd aeaf 20be 897f b33d
00000380: 7d12 6c3d d150 853e 2acc 093d 2e08 b2be
00000390: dd30 1d3c 0a81 34be 7b96 8f3d 502b 66bd
000003a0: 2cee ca3d 8a24 1cbe e193 84bd 44bc bfbd
000003b0: a9ed 81be e3f6 a23e 9ad9 33be 15ac 0b3e
000003c0: 4006 febd ff0f 66be 551c 2a3e 00a2 1dbe
000003d0: f4c6 5d3e ec59 e9bd 6058 50be a9e3 17be
000003e0: 4a43 6f3e 24d1 223e 2fd5 b63e 50de 11be
000003f0: a5f5 643c 4406 db3c 4d48 09bd 740a 593d

linears.3.bias f4 [32]
-0.03805269 0.053597286 -0.012781828 -0.03814021 -0.035603657 -0.03044058 0.06760957 0.050888594
0.00070086255 0.02342478 -0.034625582 -0.053081684 -0.061206795 -0.0013449739 -0.014237543 0.02242923
-0.0030088543 -0.022012502 0.04633405 -0.005056619 -0.017948806 -0.02614536 -0.045825858 0.052603997
0.008528289 -0.055654697 -0.038843036 -0.061025914 -0.064551674 -0.033447716 -0.012734145 0.009701653
00000000: 23dd 1bbd d488 5b3d df6a 51bc e938 1cbd
00000010: 24d5 11bd 865e f9bc e376 8a3d 8f70 503d
00000020: 17ba 373a 53e5 bf3c 8ed3 0dbd 2e6c 59bd
00000030: fab3 7abd d649 b0ba 9544 69bc 81bd b73c
00000040: 3330 45bb 9053 b4bc c6c8 3d3d ffb1 a5bb
00000050: 6009 93bc cb2e d6bc e5b3 3bbd 4a77 573d
00000060: 3dba 0b3c 2ef6 63bd e019 1fbd 4ff6 79bd
00000070: ab33 84bd 7900 09bd e0a2 50bc aff3 1e3c

linears.4.weight f4 [4, 32]
0.21680833 -0.1793209 -0.15452608 0.14114515 -0.042601757 0.0002600107 0.0042637554 0.15663324
-0.3678878 0.45190528 0.016337909 0.07650212 0.006378798 0.25531518 -0.8635375 0.19480042
0.38581142 0.39723638 0.041261274 0.20513166 -0.12659721 -0.07165293 0.23154917 -0.11695791
-0.46326014 -0.06381203 0.024855183 0.17511672 0.15134296 0.31609538 -0.6455864 0.043582674
-0.09514751 0.1643765 -0.9116047 -0.39618987 -0.76006037 -1.0085574 0.5045109 0.76953214
0.30823192 0.07711788 -0.55114657 -0.26312092 -0.66132665 0.34301987 -0.6038997 0.8648273
0.42610466 -0.14592291 0.91326296 0.34871405 -0.7616543 -0.5959259 -0.7497897 0.54376686
-0.101581834 -0.7397787 -0.3684738 -0.8076188 0.66147643 -0.052258853 -0.43683147 -0.35776055
0.55852056 0.32517684 -0.33589688 -0.7590797 0.08116415 0.26031476 0.71878624 -0.37152377
-0.21137387 0.2905898 -0.4450939 -0.3799163 0.05210849 0.32742834 0.20183805 -0.13472445
0.014615963 0.4876926 -0.23953466 0.04970819 0.28059852 -0.53414786 -0.60457754 0.060377374
0.7597012 -0.41507792 -0.13371679 -0.4983854 -0.11670145 0.26307076 -0.30318657 0.27566725
-0.6315529 0.87193644 -0.9145931 -0.46603847 -0.69817024 -0.83730716 1.247344 0.63836944
0.928912 0.75030077 -1.1240146 -0.83492297 -0.6303063 0.18909161 -0.62632746 1.1120038
0.3695172 -0.26164517 0.72686267 -0.5107004 -1.0584487 -1.0916483 -0.85628474 0.11135486
-1.0422944 -1.3369025 -0.9467826 -0.8617383 1.150579 -0.3145616 -0.23305848 0.7745092
00000000: 0103 5e3e e69f 37be 163c 1ebe 5b88 103e
00000010: 2e7f 2ebd 0c52 8839 f9b6 8b3b 7764 203e
00000020: ca5b bcbe 2160 e73e 14d7 853c 25ad 9c3d
00000030: 3c05 d13b acb8 823e cb10 5dbf c379 473e
00000040: 1389 c53e 9162 cb3e 9501 293d 090e 523e
00000050: b3a2 01be c5be 92bd 3a1b 6d3e a187 efbd
00000060: 6f30 edbe e2af 82bd 199d cb3c cc51 333e
00000070: a6f9 1a3e 41d7 a13e 2645 25bf bf83 323d
00000080: b3dc c2bd 5052 283e ed5e 69bf 66d9 cabe
00000090: 5193 42bf 6918 81bf a027 013f 0f00 453f
000000a0: 93d0 9d3e fbef 9d3d f117 0dbf c9b7 86be
000000b0: b44c 29bf 4da0 af3e 2c99 1abf 5265 5d3f
000000c0: 642a da3e d16c 15be 9acb 693f a68a b23e
000000d0: c7fb 42bf 9a8e 18bf 38f2 3fbf 4e34 0b3f
000000e0: 230a d0bd 2362 3dbf 99a8 bcbe 1bc0 4ebf
000000f0: 8556 293f 610d 56bd 60a8 dfbe 642c b7be
00000100: 34fb 0e3f 947d a63e adfa abbe 0c53 42bf
00000110: 6439 a63d fa47 853e 6002 383f 5d38 bebe
00000120: 6472 58be 30c8 943e 59e3 e3be 6484 c2be
00000130: b66f 553d b0a4 a73e a2ae 4e3e 35f5 09be
00000140: cb77 6f3c d8b2 f93e 9348 75be d19a 4b3d
00000150: 9caa 8f3e eabd 08bf 98c5 1abf 444e 773d
00000160: c77b 423f 1885 d4be 0eed 08be 5f2c ffbe
00000170: 2b01 efbd 36b1 863e 453b 9bbe 4224 8d3e
00000180: 73ad 21bf 3a37 5f3f c622 6abf 989c eebe
00000190: 49bb 32bf c359 56bf f8a8 9f3f 2e6c 233f
000001a0: 2dcd 6d3f b613 403f b6df 8fbf 83bd 55bf
000001b0: c15b 21bf 3ba1 413e ff56 20bf 2456 8e3f
000001c0: 5c31 bd3e 5bf6 85be ac13 3a3f 43bd 02bf
000001d0: 3f7b 87bf 22bb 8bbf 7a35 5bbf 040e e43d
000001e0: e769 85bf 9f1f abbf 5860 72bf e29a 5cbf
000001f0: 2c46 933f 380e a1be e2a6 6ebe 3c46 463f

linears.4.bias f4 [4]
-0.015858874 0.29860276 -0.006718036 0.7653476
00000000: 78ea 81bc 76e2 983e f822 dcbb d2ed 433f
