Iterations/Test model/epoch_4949.pt (torch, 37739 bytes, 10 tensors)

linears.0.weight f4 [32, 2]
0	0x3ea66c9f	0.32504746
1	0xbe121eb0	-0.14269519
2	0x3e8ead47	0.27866575
3	0xbedda6be	-0.43291277
4	0x3e78fe51	0.24315764
5	0xbeef1a19	-0.46699598
6	0xbdcdd8c4	-0.100511104
7	0xbf175520	-0.59114265
8	0xbd3eb418	-0.04655847
9	0x3ec9f178	0.3944204
10	0x3d3ee8bd	0.046608675
11	0xbf2358ec	-0.6380756
12	0x3e36c1f3	0.17847423
13	0x3f262607	0.64901775
14	0x3e2f24a8	0.17103827
15	0x3e8e0439	0.27737597
16	0x3ebbcded	0.36680546
17	0xbe26cbc2	-0.16288665
18	0xbe71c92c	-0.23611897
19	0xbe060da3	-0.1309114
20	0xbde77a86	-0.11302666
21	0xbf01d68d	-0.50718004
22	0xbe845ff7	-0.25854465
23	0x3eb80709	0.35942867
24	0xbddf0aa6	-0.10890703
25	0xbe2ecad0	-0.17069554
26	0x3e2769db	0.16348974
27	0xbeb52c14	-0.3538519
28	0xbdfd5f79	-0.123717256
29	0x3f421261	0.75809294
30	0xbd6c36a1	-0.057669286
31	0xbe990619	-0.29887465
32	0x3e623e5c	0.220941
33	0x3f1a5eb4	0.60300756
34	0x3e96dec8	0.29466844
35	0x3e1ed589	0.15511145
36	0xbddd20fc	-0.10797307
37	0x3eb4d26e	0.35316795
38	0xbe3ca1b2	-0.18421057
39	0xbe87bc7c	-0.2651099
40	0xbded5aaa	-0.115895584
41	0xbe4b2098	-0.19836652
42	0x3e8e1b55	0.27755228
43	0x3dd9f516	0.106424496
44	0x3f2e65b0	0.6812391
45	0xbd84c16b	-0.06482204
46	0x3e8cf173	0.2752796
47	0xbea8b2d2	-0.3294893
48	0xbf13ce09	-0.5773626
49	0x3ea2df3c	0.3181094
50	0x3ead59b2	0.33857495
51	0xbe257e14	-0.16161376
52	0xbe38eaa6	-0.18058261
53	0xbe31d134	-0.17364961
54	0x3d33dd32	0.04391212
55	0x3ec59c80	0.38595963
56	0x3da97757	0.082747154
57	0xbeaeff6d	-0.3417925
58	0xbcead4a8	-0.028665856
59	0x3eeb6b45	0.45980278
60	0x3e21feb4	0.15819818
61	0xbedc4695	-0.430226
62	0xbd3b09e7	-0.04566374
63	0x3f42542b	0.7590968

linears.0.bias f4 [32]
0	0x3c24c3be	0.010056434
1	0x3c9d9b37	0.019239051
2	0x3c79911a	0.015232349
3	0x3baf66c2	0.005352826
4	0x3c41931d	0.01181486
5	0xbc3272d5	-0.010891636
6	0x3bb0e601	0.0053985124
7	0xbd0e7eba	-0.034788825
8	0xbc1d604f	-0.009605481
9	0xbce69057	-0.028144998
10	0xbb3d6d67	-0.002890432
11	0xbd9dc015	-0.07702652
12	0x3d24509c	0.040115938
13	0xbd0b5e7b	-0.03402565
14	0x3c6dad77	0.014506689
15	0xbc641d16	-0.01392295
16	0xba8513a6	-0.001015295
17	0x3bb8a21a	0.0056345584
18	0x3cd41d4e	0.02589288
19	0xbcae90bc	-0.02130925
20	0x3c21149b	0.009831573
21	0xbc8f24c4	-0.017473586
22	0x3de1b642	0.11021091
23	0x3d0019e4	0.03127469
24	0xbd900564	-0.07032278
25	0x3d24576e	0.040122442
26	0xbc455584	-0.012044314
27	0x3c497777	0.012296549
28	0x3cc71e30	0.024306387
29	0x3c44495a	0.011980379
30	0xbe1bf454	-0.15229923
31	0x3c6d4769	0.014482358

linears.1.weight f4 [64, 32]
0	0x3cea83d8	0.028627321
1	0xbe87b1ee	-0.26502937
2	0xbe487214	-0.19574767
3	0xbe3a284e	-0.18179438
4	0x3e434fbc	0.19073385
5	0xbaf32fb5	-0.0018553647
6	0xbd9e4fae	-0.077300414
7	0x3e86e655	0.26347604
8	0x3e2d9a47	0.16953383
9	0x3e9fd84c	0.3121971
10	0x3da3737b	0.079810105
11	0x3ea59bbf	0.32345387
12	0xbe661b1d	-0.2247128
13	0xbef7d487	-0.48404333
14	0x3ae78c76	0.0017665762
15	0xbe3c502a	-0.18389955
16	0x3ea24935	0.31696478
17	0x3c862b6e	0.01637813
18	0xbca1ade2	-0.019736234
19	0x3d28ad37	0.041180816
20	0xbebed347	-0.37270567
21	0xbd29c70c	-0.04144959
22	0xbdd7f883	-0.10545447
23	0x3e44fa01	0.19235994
24	0x3db9dfdc	0.09075901
25	0x3e29bcc8	0.1657592
26	0xbe8f8f28	-0.28038907
27	0xbda4f165	-0.08053855
28	0x3df2945c	0.118447036
29	0x3dfba375	0.12287036
30	0xbdaa8ff6	-0.083282396
31	0x3de15f12	0.11004461
32	0x3ce660c4	0.028122313
33	0x3db26a15	0.0871164
34	0xbdd353bc	-0.103187054
35	0x3e1cc728	0.15310347
36	0xbdfd7551	-0.12375892
37	0xbdfc1385	-0.123084106
38	0x3e58fabe	0.211894
39	0x3ea0f5e1	0.3143759
40	0x3ec7b647	0.39006254
41	0x3e695c59	0.22789134
42	0xbdf48f5b	-0.119414054
43	0xbd5dec66	-0.054180525
44	0xbd87447c	-0.06604859
45	0x3e10b15f	0.14130162
46	0x3dfa5076	0.12222378
47	0xbd704a64	-0.058664694
48	0x3e62353a	0.22090617
49	0xbe3b45cc	-0.18288344
50	0xbe69c92e	-0.2283065
51	0xbd6bd69f	-0.057577725
52	0xbc9a6728	-0.018848017
53	0x3ea7ec65	0.32797542
54	0xbdb90640	-0.09034395
55	0xbe0d261a	-0.13784066
56	0x3dacec75	0.08443538
57	0xbd12355f	-0.03569543
58	0x3da472d0	0.08029711
59	0xbd8403e0	-0.064460516
60	0xbcb422d1	-0.021989258
61	0xbd0ab399	-0.033862684
62	0x3ea523db	0.32253918
63	0x3e688fd2	0.22711113
64	0xbd8b504b	-0.06802424
65	0x3defe5a4	0.11713722
66	0x3e45ca30	0.1931541
67	0xbcc97d6e	-0.024595942
68	0x3d28497e	0.041085713
69	0xbd11127a	-0.03541801
70	0xbc9c8a8e	-0.019109037
71	0xbe35c2fd	-0.17750163
72	0xbda9a45a	-0.08283301
73	0xbe9ed1de	-0.3101949
74	0xbe5ff0e0	-0.2186923
75	0xbcc18bca	-0.023626227
76	0x3e8d2c3c	0.2757281
77	0x3c1bdc98	0.009513043
78	0xbc47771c	-0.012174394
79	0xbe88b686	-0.26701754
80	0xbd24304f	-0.040085133
81	0x3e8b4746	0.27202815
82	0xbdf51f81	-0.119688995
83	0xbdbf8f3e	-0.09353493
84	0xbe33b299	-0.17548598
85	0xbe46022f	-0.1933677
86	0x3e1916de	0.1495013
87	0xbd837ac9	-0.06419904
88	0xbd587390	-0.052844584
89	0x3d16172c	0.036643192
90	0x3d243713	0.040091585
91	0xbdb2875a	-0.087172225
92	0xbd933bd6	-0.07189147
93	0x3e888618	0.26664805
94	0xbdc6a219	-0.096988864
95	0xbe7331fa	-0.23749533
96	0xbc80ced6	-0.015723627
97	0x3e37ce80	0.17949867
98	0x3df1c93e	0.11805962
99	0xbdefd7fa	-0.11711116
100	0xbe7e6481	-0.24843027
101	0xbe55f9ec	-0.20896119
102	0x3b778b3a	0.0037772194
103	0xbd8d1772	-0.068892375
104	0x3e83fbdb	0.25778088
105	0xbe57e9ff	-0.21085356
106	0x3d23b898	0.039970964
107	0xbd26801d	-0.040649522
108	0x3c708877	0.014680973
109	0x3e3859ac	0.18002957
110	0x3e04293b	0.12906353
111	0xbed1003d	-0.40820494
112	0xbd1c8b01	-0.038218502
113	0xbd9f88aa	-0.077897385
114	0x3cff31a9	0.03115161
115	0xbdaf2b0c	-0.085531324
116	0xbdcbfe43	-0.09960606
117	0x3e19e593	0.15028982
118	0x3e9519cb	0.2912124
119	0x3da51251	0.08060134
120	0xbe3bf78e	-0.18356153
121	0x3e922a34	0.28547823
122	0xbdbe1a14	-0.09282318
123	0xbd8e33f6	-0.069435045
124	0x3d16f304	0.03685285
125	0xbd6045b5	-0.054753978
126	0xbe730a1f	-0.2373433
127	0xbba64fc9	-0.005075429
128	0x3d01641b	0.03158961
129	0x3d1dcd99	0.03852615
130	0xbd90808a	-0.07055767
131	0xbd7c8431	-0.061649505
132	0x3d16d55e	0.036824577
133	0xbdda5020	-0.10659814
134	0x3e103e1e	0.14086196
135	0x3d298de6	0.04139509
136	0xbcee4fcd	-0.029090786
137	0xbe48efdb	-0.19622748
138	0xbeb42c7c	-0.3519019
139	0xbe2f159f	-0.17098092
140	0xbe1e737b	-0.1547374
141	0xbe465f5c	-0.19372314
142	0x3ecd0338	0.40041518
143	0x3c1ce73f	0.009576618
144	0x3e067f53	0.13134508
145	0x3e7db433	0.24775772
146	0xbd4db902	-0.050225265
147	0x3e9724d0	0.29520273
148	0xbe19ea06	-0.15030679
149	0x3d040cb2	0.03223867
150	0xbe7c4f2f	-0.24639581
151	0x3ce0a4da	0.027422357
152	0xbd020cb3	-0.031750392
153	0x3d011a43	0.031519186
154	0xbe2776b6	-0.16353878
155	0x3e2df9f5	0.16989882
156	0x3d206d2b	0.03916661
157	0x3cdf015a	0.027222324
158	0xbd475523	-0.048665177
159	0x3e4c96ba	0.19979373
160	0x3d3a4be5	0.045482535
161	0xbe300667	-0.17189942
162	0xbe5d9024	-0.21637017
163	0xbe036872	-0.12832811
164	0x3ecda55b	0.4016522
165	0xbe84c0d6	-0.25928372
166	0xbd9ed622	-0.07755686
167	0xbda5dd9b	-0.080989085
168	0x3c4caab3	0.01249187
169	0xbdaace03	-0.08340075
170	0x3bdb2c85	0.0066886568
171	0x3e0cba6b	0.13742988
172	0xbde08ef6	-0.10964768
173	0x3e730a38	0.23734367
174	0x3e4823c0	0.19544888
175	0x3d083e8a	0.033262767
176	0xbecf1c8c	-0.40451467
177	0x3ce02608	0.027361885
178	0x3dcf9b24	0.101370126
179	0x3e9bf1c0	0.30457878
180	0x3d8462a9	0.064641304
181	0xbe827f86	-0.25487918
182	0xbe39acdc	-0.18132347
183	0xbdf87b79	-0.121329255
184	0x3e76a023	0.24084525
185	0x3cd3326f	0.025780885
186	0x3eba3a02	0.3637238
187	0xbcbb1d55	-0.022841135
188	0xbdbda286	-0.092595145
189	0x3e4d3920	0.20041323
190	0xbe911ac4	-0.28340733
191	0x3d9b8dfd	0.075954415
192	0xbe2f83da	-0.17140141
193	0x3e03fb5b	0.12888853
194	0x3e80657c	0.25077426
195	0x3e236676	0.15957054
196	0xbe3b3486	-0.18281755
197	0x3df67662	0.120342985
198	0xbd0f75d3	-0.035024475
199	0xbe7a3a30	-0.2443626
200	0x3eb625a3	0.3557559
201	0xbeb67b63	-0.35641012
202	0x3e0f93d5	0.14021237
203	0x3cffa083	0.031204468
204	0xbe0ec00c	-0.13940448
205	0xbe21ac94	-0.1578849
206	0xbd16b796	-0.036796175
207	0xbe87d723	-0.26531324
208	0x3dd4d09b	0.10391351
209	0xbe0d03a4	-0.1377092
210	0xbd7a2e76	-0.061079465
211	0x3df08427	0.11743956
212	0x3e202b85	0.15641601
213	0xbe289148	-0.1646167
214	0x3e70c1ee	0.23511478
215	0xbd299cd2	-0.04140932
216	0xbd6a8a72	-0.057260938
217	0xbd6d9665	-0.058004756
218	0x3e1bac99	0.1520256
219	0xbdb1d4f7	-0.08683198
220	0xbde1ff89	-0.110350676
221	0xbee485d1	-0.44633344
222	0xbd4fee0d	-0.050764132
223	0xbdcdbbf2	-0.10045613
224	0x3d89d768	0.067305386
225	0xbe1238de	-0.14279506
226	0x3e0aaf71	0.13543488
227	0x3cdf9cb0	0.027296394
228	0x3e3ca479	0.18422116
229	0xbe44250b	-0.19154756
230	0x3e046129	0.12927689
231	0x3e4765bf	0.19472407
232	0xbe60d50d	-0.21956272
233	0x3ebd0aaf	0.36922213
234	0x3e04f3ba	0.129836
235	0xbd5f01ae	-0.05444496
236	0xbe3c2907	-0.18375026
237	0x3de4c34c	0.111700624
238	0x3e07dc46	0.13267621
239	0x3cc36a58	0.02385442
240	0x3d6ce791	0.057838026
241	0xbdbc2149	-0.09186036
242	0x3e6bfea7	0.23046361
243	0xbdf5093b	-0.11964651
244	0xbd99b158	-0.07504529
245	0xbe152287	-0.14563952
246	0x3e831bd0	0.25607157
247	0xbd86541f	-0.065590136
248	0xbc702a73	-0.014658558
249	0x3d4ab6a7	0.049490597
250	0xbe485b8c	-0.19566172
251	0xbddaf5d8	-0.10691422
252	0x3d19d48a	0.03755621
253	0x3e8d7504	0.27628338
254	0xbeba47cf	-0.3638291
255	0x3ea60a77	0.3242986

linears.1.bias f4 [64]
0	0xbca97d79	-0.020689713
1	0xbd079724	-0.033103123
2	0x3d53d1e2	0.05171383
3	0x3d605cac	0.05477588
4	0x3c7a6047	0.015281743
5	0x3bd3c6da	0.006462914
6	0xbb3e808e	-0.0029068324
7	0x3db9ffe4	0.090820104
8	0x3b49a987	0.0030771212
9	0x3d171359	0.036883686
10	0xbcb84fa1	-0.022498908
11	0x3d21319e	0.03935396
12	0xbca967cb	-0.020679375
13	0xbcd8f89b	-0.026485732
14	0xbc8a83ec	-0.016908608
15	0x3c8369c5	0.016041646
16	0xbbf03ad7	-0.007331233
17	0xbb1c76ce	-0.0023874524
18	0xbc6cd511	-0.014455096
19	0x3d0e22a3	0.034701
20	0xbc607807	-0.013700492
21	0x3c119ed5	0.008887966
22	0x3c8755c4	0.016520388
23	0x3b1b97d3	0.0023741617
24	0xbc80f3ea	-0.015741307
25	0xbb60bb55	-0.0034291346
26	0xbc52960e	-0.012853159
27	0x3c621dae	0.0138010215
28	0x3d992d6f	0.07479369
29	0xbc1ced65	-0.009578084
30	0xbcfe4ae6	-0.031041574
31	0xbc8ba360	-0.017045677
32	0xbce47a1e	-0.027890261
33	0x3d92bd13	0.07164969
34	0xbd4f5f1e	-0.05062782
35	0x39ffab28	0.00048764911
36	0x3cf310d4	0.02967111
37	0xbc903fad	-0.017608488
38	0x39bf6e13	0.0003651237
39	0x3cb42316	0.021989387
40	0x3c921f57	0.01783721
41	0xbc7b3953	-0.015333491
42	0xbcf947ce	-0.030429747
43	0xbbec0db6	-0.007203783
44	0x3e1d579b	0.1536545
45	0xbbb47ed3	-0.0055082827
46	0x3c8bd66d	0.01707002
47	0x3c761463	0.015019509
48	0xbd064a5c	-0.03278576
49	0x3d866c5a	0.06563635
50	0xbe08e0b9	-0.13366975
51	0xbc692bb9	-0.014231616
52	0xba9278f0	-0.0011174958
53	0x3d15221c	0.036409482
54	0x3c96c957	0.018406553
55	0x3ca225ea	0.01979347
56	0xbd08e97b	-0.03342579
57	0xbc251c55	-0.010077556
58	0xbc40af4b	-0.011760543
59	0x3c1eab6e	0.009684427
60	0xba074de2	-0.0005161447
61	0xbc22ad13	-0.009928959
62	0xbc91442d	-0.017732704
63	0xbcbaebec	-0.022817574

linears.2.weight f4 [64, 64]
0	0xbe17e676	-0.14834008
1	0x3caab107	0.020836366
2	0xbd4455fa	-0.047933556
3	0x3dd9c361	0.10632969
4	0xbe2087f9	-0.1567687
5	0x3d5d70e5	0.054062743
6	0x3d542e59	0.051802013
7	0x3da9dd8e	0.08294211
8	0xbc03609b	-0.008018638
9	0x3d11d004	0.03559877
10	0xbcbfaddd	-0.023398334
11	0x3e0c2a70	0.13688064
12	0x3c933a49	0.017972128
13	0x3e150565	0.14552839
14	0xbd0ab1ab	-0.033860844
15	0x3dc405b8	0.09571403
16	0xbccf565d	-0.025309736
17	0x3ca6e6e9	0.020373778
18	0x3e9ec899	0.3101242
19	0x3d1bcff3	0.038040113
20	0x3e65db4f	0.22446941
21	0xbc38538e	-0.01125039
22	0x3d31f7b9	0.043449137
23	0xbdb75418	-0.089515865
24	0x3e127476	0.14302239
25	0x3e1c0aee	0.15238544
26	0xbda8de61	-0.082455404
27	0xbdbff614	-0.093731076
28	0xbd85a650	-0.06525862
29	0xbe2fb2e7	-0.1715809
30	0xba805c39	-0.000979311
31	0x3d20fe47	0.039304998
32	0x3e4ede7f	0.20202063
33	0x3da48eab	0.08035024
34	0x3e5a8942	0.21341422
35	0xbde67906	-0.11253552
36	0xbd564948	-0.05231598
37	0x3dd3c8d2	0.10341038
38	0xbd7dd94d	-0.061974812
39	0xbe03f43b	-0.12886135
40	0x3d025914	0.031823233
41	0x3e58d424	0.21174675
42	0xbcd62b03	-0.026143556
43	0x3c197b92	0.00936784
44	0x3ca9a81c	0.020710044
45	0xbc6b3f09	-0.0143582905
46	0x3dc078b7	0.093980245
47	0xbdb205eb	-0.08692535
48	0xbe8d2ee1	-0.27574828
49	0xbe868b13	-0.2627798
50	0xbe44729a	-0.19184342
51	0xbd48ea79	-0.049051736
52	0xbe8a8754	-0.27056372
53	0xbe38f41b	-0.18061869
54	0xbe7c3688	-0.24630177
55	0x3e10c660	0.14138174
56	0xbd7a8213	-0.061159205
57	0x3d7d6c35	0.061870772
58	0x3d41da93	0.04732759
59	0x3e5ca2f9	0.21546544
60	0xbd5be0c0	-0.053681135
61	0x3e1f83c9	0.15577616
62	0xbe442d91	-0.19158007
63	0xbe16a3e2	-0.14710954
64	0xbe8a505d	-0.27014437
65	0xbd40e4da	-0.04709325
66	0x3dcfd1c1	0.10147429
67	0xbd594130	-0.053040683
68	0x3b9f92ea	0.0048698084
69	0xbdbda26c	-0.09259495
70	0xbc988047	-0.018615855
71	0x3ea723f8	0.3264463
72	0x3d6ed228	0.05830589
73	0xbe352459	-0.17689647
74	0xbde4fe86	-0.11181359
75	0x3d7d3eaa	0.06182734
76	0xbdfd2354	-0.12360254
77	0xbe4c1ee1	-0.19933654
78	0xbd0d92fc	-0.034564003
79	0x3cb18880	0.021671534
80	0x3e6d06ff	0.231472
81	0xbd7288a8	-0.059212357
82	0xbe236fcb	-0.15960614
83	0x3ea14d73	0.31504402
84	0xbdeadce0	-0.1146791
85	0x3d8877f6	0.06663506
86	0x3d81ea92	0.06343569
87	0x3e02af1a	0.12762108
88	0xbe1305af	-0.14357637
89	0xbdd14bff	-0.10219573
90	0x3d9d15a7	0.076701455
91	0xbe88bef2	-0.2670818
92	0xbb7596a3	-0.003747382
93	0x3e41b714	0.18917495
94	0xbd6464c1	-0.05576015
95	0x3d9fb809	0.07798774
96	0xbe5b59dc	-0.21420997
97	0xbdd994e2	-0.106241
98	0xbe572d27	-0.21013318
99	0xbc28d227	-0.0103040105
100	0xbe9d5513	-0.3072897
101	0xbe3f4545	-0.18678768
102	0x3cb7ad6b	0.02242156
103	0x3e2970e7	0.16546975
104	0xbe11c3ad	-0.142348
105	0x3d249104	0.04017736
106	0x3dd5e378	0.10443777
107	0x3d0a6481	0.033787254
108	0xbc1e2955	-0.009653409
109	0x3e046465	0.12928922
110	0xbc7fa861	-0.0156041095
111	0x3d9e57b4	0.07731572
112	0x3e1642d4	0.1467393
113	0x3dd3d5aa	0.103434876
114	0xbe031f01	-0.12804796
115	0xbe066ef3	-0.13128261
116	0x3d824c00	0.06362152
117	0xbc9539bd	-0.018216008
118	0xbd0b8708	-0.034064323
119	0x3e4dcd0a	0.20097747
120	0x3e1fe037	0.15612875
121	0x3e1e5dfa	0.15465537
122	0x3c90b8e9	0.017666297
123	0x3d7aae0d	0.061201144
124	0xbbfaf319	-0.007658374
125	0xbd948747	-0.072523646
126	0xbe44f58d	-0.19234295
127	0x3bd14fa6	0.0063876687
128	0xbe2034a2	-0.15645078
129	0xbe776d14	-0.24162704
130	0xbe6f9c0b	-0.2339937
131	0x3d77bdaa	0.060483612
132	0xbe85063e	-0.25981325
133	0x3e208219	0.15674628
134	0x3d05bad8	0.03264889
135	0xbcc0f660	-0.02355498
136	0x3dbee289	0.09320552
137	0xbddde235	-0.10834161
138	0xbe51f2f1	-0.20502831
139	0xbe36f5d4	-0.17867213
140	0xbd0a852e	-0.033818416
141	0xbdd63dae	-0.10460983
142	0x3e68b298	0.22724378
143	0xbd79a5f6	-0.06094929
144	0xbe807208	-0.25087
145	0x3bfba9a5	0.0076801353
146	0x3dda5ae2	0.10661866
147	0x3df5740c	0.11985025
148	0xbe119f70	-0.14220977
149	0x3d886a9c	0.06660959
150	0xbd882ca0	-0.066491365
151	0x3df7ca68	0.12099153
152	0x3e2b8ddd	0.16753335
153	0xbd6151eb	-0.055009764
154	0x3dcec150	0.10095465
155	0x3dab4f31	0.08364714
156	0x3e0783a4	0.1323381
157	0x3e04c38d	0.12965222
158	0xbda2735f	-0.079321615
159	0x3e28d657	0.16488014
160	0xbdae39d1	-0.08507121
161	0x3e2c107f	0.16803168
162	0x3da1e0e1	0.0790422
163	0xbe438160	-0.19092321
164	0xbe2c1f87	-0.16808902
165	0x3b63756f	0.0034707447
166	0xbd9e68bb	-0.077348195
167	0x3d83fc53	0.064446114
168	0xbd10b34f	-0.035327252
169	0xbd908b35	-0.07057802
170	0x3e05e5e1	0.13075973
171	0xbd871978	-0.06596655
172	0x3db56adf	0.08858275
173	0x3e015fd5	0.12634213
174	0x3d229a8e	0.039698176
175	0xbdf0ae97	-0.1175205
176	0xbc8cdb00	-0.017194271
177	0x3e17495e	0.14774081
178	0xbe00278e	-0.12515089
179	0x3e02fc39	0.12791528
180	0xbdcf8a5a	-0.1013381
181	0x3e001611	0.12508418
182	0xbe562802	-0.209137
183	0x3ce285e8	0.027651742
184	0xbd141aee	-0.036158495
185	0x3d837025	0.06417874
186	0xbe15d541	-0.14632131
187	0xbdb0e2d2	-0.086370125
188	0x3dc9d17d	0.0985441
189	0xbc282fd7	-0.010265312
190	0x3d2d6599	0.04233322
191	0xbdd75b2f	-0.10515439
192	0xbd93cc6e	-0.07216726
193	0x3e395658	0.18099344
194	0x3e5efc4b	0.2177593
195	0xbea9da11	-0.33174184
196	0xbdea5a99	-0.114430614
197	0xbe396649	-0.18105425
198	0xbe1cd080	-0.15313911
199	0xbe319b0e	-0.17344305
200	0xbe22679a	-0.15859833
201	0x3d4985f7	0.049200024
202	0xbbb9e94f	-0.0056735645
203	0xbc1cfe68	-0.00958214
204	0x3c2a1080	0.0103799105
205	0x3e4bfb7c	0.19920152
206	0xbd34022e	-0.04394739
207	0xbd807a01	-0.062732704
208	0x3edff3d7	0.43740723
209	0x3d8ff99f	0.07030033
210	0x3eaa0194	0.3320433
211	0x3d623868	0.055229574
212	0x3b038679	0.0020069166
213	0xbe111045	-0.14166363
214	0xbe24ba8b	-0.16086785
215	0xbd1e5e62	-0.03866423
216	0x3d9ab435	0.07553903
217	0xbaff816e	-0.0019493529
218	0x3d2206d6	0.0395573
219	0xbe2a4f1e	-0.16631743
220	0x3de06f31	0.10958708
221	0xbd9ce145	-0.07660154
222	0x3e535409	0.20637526
223	0x3e884055	0.2661158
224	0x3d831a32	0.06401481
225	0xbe08bf3e	-0.13354203
226	0x3d85f5dc	0.065410346
227	0xbcb31baa	-0.021863777
228	0xbd811355	-0.063025154
229	0xbe33348c	-0.17500514
230	0x3c1400c1	0.009033383
231	0xbe2c099e	-0.16800544
232	0x3df96630	0.12177694
233	0x3d8ab94e	0.06773625
234	0x3dc3f3a7	0.09567957
235	0xbdcaeb82	-0.09908201
236	0xbdf1ea01	-0.11812211
237	0x3d2cb445	0.042164106
238	0xbd91a99a	-0.07112427
239	0xbd7ae22a	-0.061250843
240	0xbdaeef03	-0.085416816
241	0xbd9c0598	-0.076182544
242	0xbe301f7e	-0.17199513
243	0x3d22a763	0.039710414
244	0xbc2534b8	-0.01008337
245	0xbe2d6fc3	-0.16937165
246	0x3d01a221	0.03164876
247	0xbda2e18a	-0.079531744
248	0x3dc9d1c2	0.09854461
249	0xbe4e653b	-0.20155804
250	0x3e2d8f73	0.16949253
251	0x3d51c7ba	0.051215865
252	0x3e4291ef	0.19000982
253	0x3e89a31b	0.26882252
254	0xbd1dbb82	-0.0385089
255	0x3de16eec	0.11007485

linears.2.bias f4 [64]
0	0x3c90313b	0.0176016
1	0x3d051f1c	0.03250037
2	0x3cd136c7	0.025538815
3	0xbd233a26	-0.039850377
4	0x3dbf1b14	0.093313366
5	0xbd4d42de	-0.050112598
6	0xbdb2314b	-0.08700808
7	0x3c148c72	0.009066688
8	0xbc91c533	-0.017794227
9	0x3ccee048	0.02525343
10	0x3b50e9cb	0.0031877633
11	0xbc83668e	-0.016040113
12	0xbd0d3b1d	-0.034480203
13	0x3d067408	0.0328255
14	0x3dbf5b05	0.093435325
15	0x3c699e80	0.014258981
16	0xbd1aa9ac	-0.037759468
17	0xbcf29fb5	-0.02961717
18	0xbd0851a9	-0.033281002
19	0xbae2f016	-0.0017313983
20	0x3d295f3c	0.04135059
21	0xbc44890d	-0.011995566
22	0xbce53287	-0.027978195
23	0x3bce5c68	0.006297637
24	0x3c6d6996	0.014490506
25	0x3cc06053	0.023483431
26	0xbbbd4f02	-0.0057772407
27	0x3beee3e9	0.0072903526
28	0x3a1fb18e	0.00060918264
29	0x3d6891a3	0.056779515
30	0x3c325959	0.01088556
31	0x3b070e0f	0.0020607745
32	0xbcba8f99	-0.02277355
33	0xbd730178	-0.059327573
34	0xbbd3f623	-0.006468551
35	0xbb032dda	-0.0020016343
36	0xbbb6e2eb	-0.00558125
37	0xbc13745f	-0.008999913
38	0x3b820ddd	0.003968938
39	0xbc5e2cc2	-0.013560476
40	0xbc7e94ff	-0.015538453
41	0xbb4d3b91	-0.0031316022
42	0x3c83e5f5	0.016100863
43	0x3d07bceb	0.03313915
44	0xbd9c2963	-0.076250814
45	0xbc4a88c2	-0.012361707
46	0x3ca8f60e	0.02062514
47	0xbc6c16e3	-0.0144097535
48	0x3c48a55a	0.012246454
49	0x3d547102	0.051865585
50	0xbccb797b	-0.0248382
51	0x3d73a538	0.059483737
52	0xbcfdc553	-0.03097788
53	0x3c88061f	0.016604481
54	0x3da2231f	0.07916855
55	0x3d8bd935	0.06828538
56	0x3d86fd84	0.06591323
57	0x3c5c48a5	0.013445054
58	0xbd049be8	-0.032375246
59	0xbc853153	-0.016258871
60	0x3d006f1b	0.03135596
61	0x3d05674e	0.032569222
62	0x3d580325	0.052737374
63	0x3bfb017d	0.0076600895

linears.3.weight f4 [32, 64]
0	0xbed94743	-0.4243718
1	0xbda42ea0	-0.080167055
2	0xbe1d7fb0	-0.1538074
3	0x3e73e307	0.23817073
4	0x3d9429ca	0.07234533
5	0x3e0f1537	0.13972937
6	0x3e7c9954	0.24667865
7	0x3d24e4ac	0.04025714
8	0x3eac5d0f	0.33664748
9	0xbd191d6f	-0.037381586
10	0x3cf3ba52	0.02975193
11	0x3d1bad5a	0.038007118
12	0x3dd58d10	0.10427296
13	0xbe914af8	-0.2837751
14	0xbe91cd3c	-0.28476894
15	0xbbd9127a	-0.006624517
16	0x3d4470d4	0.047959164
17	0x3e30c40e	0.17262289
18	0xbe0f6736	-0.14004216
19	0xbcc94ecc	-0.024573706
20	0x3d1eb588	0.03874734
21	0x3dfd1c1d	0.12358878
22	0x3e842fcc	0.25817716
23	0x3d9aad4a	0.075525835
24	0xbe17e08c	-0.14831752
25	0x3d9553cc	0.072913736
26	0xbe2a4a64	-0.1662994
27	0xbe658681	-0.2241459
28	0xbc9b3d44	-0.018950112
29	0x3de85314	0.11343971
30	0x3d88c47c	0.066781014
31	0x3e1c54e9	0.15266766
32	0xbdbe1464	-0.09281233
33	0x3cbb8a19	0.022892999
34	0x3e1653d4	0.14680415
35	0x3ddc5062	0.10757519
36	0xbd90efda	-0.07076998
37	0x3d573de7	0.05254927
38	0x3e54ddcd	0.20787735
39	0xbdf0d34e	-0.11759053
40	0x3dff96a8	0.12479907
41	0xbd269829	-0.040672455
42	0xbcfd03ec	-0.03088566
43	0x3e505768	0.20345843
44	0xbc8e5645	-0.01737512
45	0xbe127281	-0.14301492
46	0xbe7c024f	-0.24610256
47	0xbe89d177	-0.26917621
48	0x3e2dca8c	0.16971797
49	0x3e06fdab	0.13182704
50	0x3dad9196	0.08475034
51	0x3e4e2f9a	0.20135346
52	0x3d5228e8	0.051308542
53	0x3e7d4866	0.24734649
54	0xbeb3786f	-0.3505282
55	0x3e08e7d2	0.13369682
56	0xbd67864b	-0.056524556
57	0x3b17c974	0.0023160847
58	0x3e83ef6d	0.25768605
59	0x3e240b5b	0.16019957
60	0xbe098cc6	-0.13432607
61	0x3d708609	0.058721576
62	0x3db4788d	0.08812056
63	0xbe3ef862	-0.18649438
64	0x3eb7cc5b	0.35898098
65	0x3e43d5a1	0.19124462
66	0x3e35948f	0.17732452
67	0x3d077e47	0.03307941
68	0x3ebd7220	0.37001133
69	0xbef0793d	-0.46967497
70	0xbe7e6000	-0.24841309
71	0x3e29b2d2	0.16572121
72	0x3e1106ee	0.141628
73	0x3d9cb41f	0.07651543
74	0x3e4c1436	0.19929585
75	0x3ef1124f	0.4708428
76	0xbe3b8699	-0.18313064
77	0xbe488525	-0.1958204
78	0x3e813cd4	0.2524172
79	0x3d94e768	0.072707
80	0x3d2fc46c	0.042911932
81	0xbcbc94b5	-0.023020128
82	0x3ca818f6	0.020519715
83	0x3e939b43	0.28829393
84	0x3ea0346d	0.31289998
85	0x3e44fbf9	0.19236745
86	0x3eb80189	0.3593867
87	0xbe7e7250	-0.24848294
88	0x388c51c8	6.690953e-05
89	0x3e1630fe	0.14667127
90	0x3dbb7bd2	0.09154476
91	0xbedb0578	-0.4277761
92	0xbc329b25	-0.010901247
93	0x3bf5daa4	0.0075028706
94	0xbe5d8c94	-0.21635658
95	0xbe94732d	-0.28994122
96	0x3e4fb958	0.20285547
97	0xbe0c5f03	-0.13708119
98	0x3cb26664	0.02177734
99	0xbe8584c4	-0.26077855
100	0x3ee3a7e8	0.4446404
101	0x3f09a949	0.53773934
102	0xbd55d981	-0.05220938
103	0x3e07adef	0.13249944
104	0x3dcda78f	0.10041725
105	0xbeb075f7	-0.34465
106	0xbe5426dc	-0.20717949
107	0xbe300c8e	-0.17192289
108	0x3db891ac	0.0901216
109	0x3e8d4eda	0.2759922
110	0x3dd10c18	0.10207385
111	0x3e55f68b	0.2089483
112	0xbba9e5f1	-0.005184882
113	0xbda77c4f	-0.08178007
114	0x3e87e9eb	0.26545653
115	0xbea52720	-0.32256413
116	0x3a080efb	0.00051902205
117	0x3c8ca638	0.017169103
118	0x3e1cd3b0	0.15315127
119	0xbc9c134a	-0.019052166
120	0x3e4c106a	0.19928136
121	0xbd100a06	-0.03516581
122	0xbf1a0dd7	-0.6017737
123	0x3dd0705f	0.10177683
124	0xbdebec6b	-0.115197025
125	0xbec06c06	-0.37582415
126	0x3ed3adcf	0.41343543
127	0x3eb05dcb	0.34446558
128	0x3e67c3ef	0.22633336
129	0xbe379f29	-0.17931809
130	0x3e43fe93	0.19140081
131	0x3da22d19	0.07918758
132	0x3d60b37e	0.054858677
133	0x3e78f75c	0.2431311
134	0xbda0eddf	-0.0785787
135	0xbd355753	-0.044272732
136	0xbe3e5edf	-0.18590878
137	0xbe0e387b	-0.13888733
138	0xbe60a518	-0.21937978
139	0x3db10dd6	0.08645217
140	0x3bdc10df	0.0067158784
141	0xbe4f2f08	-0.20232785
142	0xbd365801	-0.04451752
143	0xbe05eeb0	-0.13079333
144	0x3e064fdf	0.13116406
145	0x3e424b53	0.18974046
146	0x3e6df681	0.23238565
147	0x3d83231f	0.06403183
148	0xbdf3bbb1	-0.11901034
149	0x3e40711d	0.1879315
150	0x3df12410	0.117744565
151	0x3dcdc85b	0.100479804
152	0xbd2664d4	-0.0406235
153	0xbd63e7f6	-0.055641137
154	0x3d798ac4	0.060923353
155	0xbd92d50c	-0.07169542
156	0xbe407506	-0.18794641
157	0xbdc961be	-0.09833096
158	0x3d0e422b	0.03473107
159	0xbd223d18	-0.039609045
160	0x3e6b3565	0.22969587
161	0xbca839ee	-0.020535436
162	0x3e9a5611	0.30143788
163	0x3dbbc82d	0.0916904
164	0x3db88609	0.0900994
165	0xbd7d8ae8	-0.06190005
166	0xbcf9615f	-0.030441938
167	0x3dedccae	0.11611305
168	0xbe81e184	-0.25367367
169	0xbe6d7c7d	-0.2319202
170	0x3e36c31f	0.1784787
171	0xbeaf2aff	-0.3421249
172	0xbcdf9fbe	-0.02729785
173	0x3e8afccf	0.27146003
174	0xbec53ed6	-0.38524503
175	0xbd807e39	-0.06274075
176	0x3e2789f4	0.16361219
177	0x3d9fd868	0.07804948
178	0x3da1b242	0.07895328
179	0xbdd11f63	-0.10211065
180	0x3e82c575	0.25541273
181	0xbd198eca	-0.03748969
182	0xbeb16f6c	-0.3465532
183	0xbba935c9	-0.0051638824
184	0x3d5b4a8f	0.0535379
185	0xbdec281c	-0.11531088
186	0xbc3fa84c	-0.01169784
187	0x3d4077c0	0.046989202
188	0xbe31e9f0	-0.17374396
189	0x3e86fbfd	0.26364127
190	0xbdb7018a	-0.089358404
191	0x3e53445a	0.20631543
192	0xbe87aa69	-0.264972
193	0x3e54726f	0.20746778
194	0x3dd0c743	0.10194256
195	0xbd8d6884	-0.069047004
196	0x3da976b6	0.082745954
197	0xbe5333c9	-0.20625223
198	0x3e80a133	0.25122985
199	0x3dab9f52	0.08379997
200	0x3d028f32	0.031874843
201	0xbeceef59	-0.40416983
202	0xbdce3255	-0.10068194
203	0xbdbb5c0d	-0.09148417
204	0x3c6fc94e	0.014635397
205	0x3e0210e4	0.12701756
206	0x3ada55e3	0.0016657676
207	0xbe54daf7	-0.20786653
208	0x3e27e1f9	0.16394795
209	0xbdf14919	-0.117815204
210	0x3e3dbc92	0.18528965
211	0x3e767cd2	0.24071053
212	0xbe217faf	-0.15771364
213	0xbdaee74c	-0.0854021
214	0x3ea1d9b2	0.316114
215	0xbd5fe485	-0.054661293
216	0xbe48f950	-0.19626355
217	0xbdb78ce6	-0.08962421
218	0x3e166691	0.14687563
219	0x3e11df10	0.14245248
220	0x3ce4f1e3	0.027947372
221	0xbe129c78	-0.143175
222	0xbe19ca7f	-0.15018652
223	0x3de2d106	0.11075024
224	0x3d8b378b	0.06797703
225	0x3e88e8b8	0.2674005
226	0x3dba1167	0.090853505
227	0xbe9a2ce3	-0.3011237
228	0x3a048462	0.0005055127
229	0xbe4011e6	-0.18756828
230	0x3df59a0e	0.11992274
231	0x3c8a2bfd	0.016866678
232	0x3da9fe7c	0.08300492
233	0xbe1ddd06	-0.15416345
234	0xbdd349d8	-0.10316819
235	0xbe0446cd	-0.12917633
236	0xbe8305e5	-0.25590435
237	0x3ea374d1	0.3192506
238	0xbe463318	-0.19355428
239	0x3db15dd6	0.08660476
240	0xbda1eaba	-0.07906099
241	0xbe55d34b	-0.20881383
242	0x3e3b7fd7	0.18310486
243	0xbe09bbf0	-0.13450599
244	0x3e704c63	0.23466639
245	0xbda874a4	-0.082253724
246	0xbe4daf90	-0.20086503
247	0xbe1772ed	-0.14789934
248	0x3e4260e5	0.18982275
249	0x3e0005bd	0.12502189
250	0x3ec2550a	0.37955505
251	0xbd1be127	-0.03805652
252	0x3b474379	0.0030405207
253	0x3d6124b5	0.054966647
254	0xbd38be12	-0.04510314
255	0x3d39ee1f	0.045393106

linears.3.bias f4 [32]
0	0xbd066c94	-0.032818392
1	0x3d79a52f	0.060948547
2	0xbcf66dda	-0.030081678
3	0xbcf4136a	-0.029794414
4	0xbd0beb3f	-0.034159895
5	0xbda3ca8b	-0.079976164
6	0x3d95a900	0.07307625
7	0x3d3c6586	0.045995258
8	0x3c16cfb2	0.009204792
9	0x3c9f10e1	0.019417228
10	0xbcf3acf2	-0.029745553
11	0xbd23fbfc	-0.040035233
12	0xbd8ec529	-0.06971199
13	0x3a6559ee	0.00087490573
14	0xbcb38a24	-0.021916457
15	0x3d21cbfb	0.03950117
16	0xbaccc50a	-0.0015622687
17	0xbc731721	-0.014837057
18	0x3d4b0ecf	0.04957467
19	0xbad159ec	-0.0015972233
20	0xbcee4991	-0.029087814
21	0xbcb7a3ce	-0.022416975
22	0xbd350f53	-0.044204067
23	0x3d1d56be	0.038412802
24	0x3bc952a3	0.0061438843
25	0xbd520b55	-0.05128034
26	0xbd0214fc	-0.031758294
27	0xbd86fd84	-0.06591323
28	0xbda704ef	-0.08155238
29	0xbd0616a5	-0.03273644
30	0xbc63ce41	-0.013904155
31	0xbb09841a	-0.002098328

linears.4.weight f4 [4, 32]
0	0x3e5f9954	0.21835834
1	0xbe2568ea	-0.16153303
2	0xbdd8f6d7	-0.10593956
3	0x3e082cd0	0.13298345
4	0xbd4a4668	-0.04938355
5	0xbbd2715f	-0.0064222063
6	0xbcd74d0f	-0.026281862
7	0x3e1b5499	0.1516899
8	0xbecbb533	-0.39786682
9	0x3ee9ff56	0.45702618
10	0x3c048f3b	0.008090789
11	0x3d63ca60	0.05561292
12	0xbb033466	-0.0020020246
13	0x3e5d98a6	0.21640262
14	0xbf5398ae	-0.82654846
15	0x3e43dd30	0.19127345
16	0x3ead113f	0.3380222
17	0x3ec7f0ef	0.39051005
18	0x3d431771	0.047629777
19	0x3e2292fd	0.15876384
20	0xbde345c0	-0.11097288
21	0xbd9b5b87	-0.07585817
22	0x3e80cb98	0.2515533
23	0xbde12b23	-0.10994556
24	0xbee2fbd5	-0.44332758
25	0xbd8ee5f9	-0.069774576
26	0x3c726c30	0.014796302
27	0x3e318558	0.17336023
28	0x3e1dcfd7	0.15411316
29	0x3e9f9a47	0.31172392
30	0xbf1e23bb	-0.6177327
31	0x3d7adefc	0.06124781
32	0xbe472873	-0.19449024
33	0x3e42cb58	0.19022882
34	0xbf47b66a	-0.78012717
35	0xbf097509	-0.53694206
36	0xbf2ac31e	-0.66703975
37	0xbf571918	-0.84022665
38	0x3ebdc610	0.37065172
39	0x3f5948d7	0.8487677
40	0x3e518300	0.20460129
41	0x3e920506	0.28519458
42	0xbf06967d	-0.52573377
43	0xbeea2b68	-0.4573624
44	0xbf3857f2	-0.72009194
45	0x3dd9a6ac	0.10627493
46	0xbf51a7d6	-0.8189672
47	0x3f6074aa	0.87678015
48	0x3e656262	0.22400811
49	0xbe81e60f	-0.25370833
50	0x3f7d53c9	0.9895597
51	0x3df18f9a	0.11794968
52	0xbf36b1a9	-0.7136484
53	0xbf25f053	-0.6481983
54	0xbf344e20	-0.7043171
55	0x3f1c550d	0.6106728
56	0x3de7f5aa	0.113261536
57	0xbf48e6f7	-0.78477424
58	0xbedbf7e5	-0.42962566
59	0xbf60eaf0	-0.87858486
60	0x3ef1be59	0.47215536
61	0xbe5cefba	-0.21575823
62	0xbf20ec25	-0.6286033
63	0xbe1655d6	-0.14681181
64	0x3f0652a4	0.5246985
65	0x3f135ddd	0.575651
66	0xbe786f1a	-0.24261132
67	0xbf0851ee	-0.53250015
68	0xbda01918	-0.07817286
69	0x3ebe3c67	0.37155458
70	0x3eeb3d57	0.45945236
71	0xbe7729d1	-0.24137045
72	0xbd7f6553	-0.06235249
73	0x3ed4fa1a	0.41597062
74	0xbe871887	-0.263859
75	0xbe50e2f4	-0.20399076
76	0x3e599abd	0.21250434
77	0x3efb59e2	0.49092013
78	0x3e2525d0	0.16127706
79	0xbcf73aee	-0.030179467
80	0x3e5afa1c	0.21384472
81	0x3f23edf8	0.64034986
82	0xbdd08705	-0.10182003
83	0x3e66053a	0.22462931
84	0x3e981294	0.29701674
85	0xbef87092	-0.48523384
86	0xbecff3b1	-0.4061561
87	0xbdf5464d	-0.119762994
88	0x3f22c262	0.63577855
89	0xbecef18f	-0.4041867
90	0xbd4365c2	-0.047704466
91	0xbf05c6f1	-0.52256685
92	0xbd189cd2	-0.03725893
93	0x3e85a7fb	0.2610472
94	0xbeb20d8a	-0.34775954
95	0x3dc22f1f	0.09481644
96	0xbee53fe2	-0.447753
97	0x3f2052fb	0.6262662
98	0xbf2ed4fe	-0.6829375
99	0xbeb09d68	-0.3449509
100	0xbef43e4c	-0.4770378
101	0xbf362d98	-0.7116332
102	0x3f81f8bf	1.0154036
103	0x3efbd18c	0.4918331
104	0x3f32ba79	0.69815785
105	0x3f12fb42	0.5741464
106	0xbf7dfe3e	-0.9921607
107	0xbf2bde3d	-0.67135984
108	0xbefc86c7	-0.49321577
109	0x3eb8ab8a	0.36068374
110	0xbee80c12	-0.4532171
111	0x3f76cb42	0.96403897
112	0x3ee85d66	0.45383757
113	0xbdca369d	-0.09873698
114	0x3f0a68ce	0.5406617
115	0xbeaa7db9	-0.33299044
116	0xbf546ca5	-0.8297828
117	0xbf5e4032	-0.86816704
118	0xbf2463bd	-0.6421469
119	0x3c3a7902	0.01138139
120	0xbf45d50e	-0.7727822
121	0xbf99beec	-1.201139
122	0xbf4d53a7	-0.8020577
123	0xbf2ae49c	-0.6675508
124	0x3f6aaa08	0.916657
125	0xbe1501a7	-0.14551412
126	0xbd414b23	-0.047190797
127	0x3f172942	0.5904733

linears.4.bias f4 [4]
0	0xbc134798	-0.008989237
1	0x3ec5edf2	0.386581
2	0x3d0af6ca	0.033926763
3	0x3f1881d8	0.59573126
