Iterations/Test model/epoch_8036.pt (torch, 37739 bytes, 10 tensors)

linears.0.weight f4 [32, 2]
000000 20 48 a5 3e fc 5e 81 be 98 34 8b 3e 65 98 13 bf
       0.3228159 -0.2526778 0.27188563 -0.5765441
000010 01 be 71 3e d6 f6 1f bf 08 44 d2 bd df 31 3d bf
       0.23607637 -0.62486017 -0.10266882 -0.7390422
000020 14 2a 4d bd be 14 09 3f ef 75 4a 3d f3 0b 4c bf
       -0.050088957 0.53547275 0.049428876 -0.79705733
000030 03 b9 3d 3e 54 36 4b 3f b9 76 3c 3e 3b 59 e0 3e
       0.18527608 0.79379773 0.18404664 0.43818077
000040 da 14 b6 3e 9f 45 8f be da ae 7b be 54 5b 7c be
       0.35562783 -0.27982804 -0.2457842 -0.24644214
000050 c2 2c ea bd 84 ab 26 bf 58 c3 95 be 8c b0 03 3f
       -0.11434318 -0.6510546 -0.29250598 0.51441264
000060 3a 89 03 be 5b 9e ad be 2c f1 29 3e c3 b4 fc be
       -0.12845317 -0.33909878 0.16595906 -0.4935666
000070 f6 2a ff bd 4e 82 65 3f 0d fe 6d bd 9f 59 e2 be
       -0.12459366 0.89651954 -0.05810361 -0.44209
000080 52 66 68 3e b2 43 3e 3f e1 9a 9e 3e a6 63 a1 3e
       0.22695282 0.74322045 0.30977538 0.31521338
000090 98 ba df bd fe e4 fc 3e 95 69 5c be 9c 95 d5 be
       -0.10924262 0.49393457 -0.21524651 -0.41715705
0000a0 6e 70 f8 bd 87 2e b6 be ba 78 92 3e 7d 99 84 3e
       -0.12130819 -0.35582373 0.28607732 0.25898352
0000b0 f3 4b 2d 3f 6f c7 39 be 89 de 8f 3e 13 9e f1 be
       0.67694014 -0.18142484 0.28099468 -0.47190914
0000c0 5c d3 0f bf 09 c5 df 3e 0b db b0 3e 78 e5 81 be
       -0.56181884 0.43705013 0.34542117 -0.25370383
0000d0 78 29 3e be de 06 a0 be 1f 4e 31 3d c0 a7 06 3f
       -0.18570507 -0.3125524 0.043287393 0.52599716
0000e0 2c ae a5 3d 7e 36 00 bf 02 97 f2 bc b6 f7 1b 3f
       0.08089861 -0.5008315 -0.029613022 0.6092485
0000f0 db 9d 27 3e a7 dd 08 bf d5 13 42 bd f7 de 67 3f
       0.16368811 -0.53463215 -0.047382195 0.9057459

linears.0.bias f4 [32]
000000 14 17 4b 3c 33 14 be 3c 33 e0 96 3c da 8f fc 3b
       0.012395639 0.023202991 0.018417453 0.007707578
000010 c4 0b 0d 3c 3b 2d e9 bb 89 71 48 3b b6 cb 19 bd
       0.008608762 -0.0071159876 0.003058525 -0.03754779
000020 68 2f 15 bb ff 49 e2 bc 41 59 6d ba d1 5d a5 bd
       -0.0022763852 -0.027623175 -0.00090541324 -0.08074535
000030 dd 7f 29 3d f2 2d f1 bc d1 f0 41 3c 7d ea 37 bc
       0.041381706 -0.029440854 0.0118372 -0.01122534
000040 53 da 2a bb 24 43 34 3b 77 c4 b7 3c d4 02 a9 bc
       -0.0026070073 0.002750584 0.022432549 -0.020631231
000050 62 ac 49 3c e0 d8 99 bc 39 2c e7 3d 46 b4 0e 3d
       0.012309166 -0.018780172 0.11287732 0.03483989
000060 99 23 96 bd 56 3b 3a 3d 62 3b 28 bc 15 55 15 3c
       -0.073310085 0.045466743 -0.010268064 0.009114523
000070 03 85 d5 3c db f2 1b 3c b6 78 0a be 90 0a 3b 3c
       0.026064401 0.0095183505 -0.1352261 0.0114160925

linears.1.weight f4 [64, 32]
000000 ac a2 e3 3c b0 7a 8b be 7a c9 52 be 0a 90 5b be
       0.027787529 -0.2724204 -0.2058467 -0.21441665
000010 b6 0a 70 3e fa 02 83 bd fb 58 67 bd 6b 47 8c 3e
       0.23441586 -0.06397052 -0.056481343 0.27398238
000020 af 51 2d 3e fe 90 9d 3e cd 6d 60 3d 0d 1a a8 3e
       0.16925691 0.30774683 0.054792214 0.32832375
000030 d6 34 6f be 0d 8a fd be 88 bc 0e 3d eb 63 52 be
       -0.23359999 -0.49519387 0.034847766 -0.20545928
000040 a8 2f ab 3e 82 9c be 3c 81 7c 49 bb 47 e1 00 3d
       0.33434796 0.023267988 -0.0030744376 0.03146484
000050 f4 15 c5 be 55 11 12 bd 11 75 cc bd 5c 72 3f 3e
       -0.3849331 -0.03566106 -0.09983266 0.18695968
000060 1e c6 b4 3d fe 56 29 3e 5a 18 93 be a9 43 46 bd
       0.0882685 0.16537091 -0.28729516 -0.04840437
000070 8a e0 d0 3d 87 1a 39 3e 17 1b b3 bd 20 eb 31 3e
       0.101990774 0.18076526 -0.08745401 0.1737485
000080 d6 40 0a 3d d3 70 b6 3d 0a 84 d2 bd b6 4a 04 3e
       0.03375324 0.08908238 -0.10279091 0.12919125
000090 25 38 d4 bd d0 fd 1d be ca fc 6b 3e 1f 4a a4 3e
       -0.10362271 -0.15428853 0.2304565 0.320878
0000a0 3f 8f ca 3e 6d 23 60 3e 44 cf 0f be cb 9c 6f bd
       0.39562413 0.21888514 -0.1404391 -0.05849914
0000b0 cb 3b 8d bd 0b cb 0c 3e 83 f4 0b 3e 5e 4f 9b bd
       -0.0689617 0.1374933 0.13667493 -0.075834975
0000c0 7a fa 72 3e cd 5b 30 be 2c af 62 be 65 8f 90 bd
       0.23728362 -0.17222519 -0.22137135 -0.070586
0000d0 89 eb f6 bc af 3c ac 3e c9 8c a7 bd 63 58 09 be
       -0.030141609 0.33640048 -0.081811495 -0.13412623
0000e0 16 15 9e 3d 76 a2 f1 bc 30 0f 8f 3d 3f 89 2d bd
       0.077188656 -0.029496413 0.06985319 -0.042367216
0000f0 3a f6 c1 bc d5 7b d6 bb 6f 9e a2 3e c5 0a 84 3e
       -0.02367698 -0.0065455236 0.317615 0.25789467
000100 47 3c a5 bd de 09 dc 3d 6b 15 3c 3e 15 bb a7 3b
       -0.080681376 0.107440695 0.18367545 0.0051187375
000110 8a 33 31 3d 58 f1 d8 bc 9b ba 2a bd 14 ec 50 be
       0.043262042 -0.02648227 -0.041681867 -0.20402557
000120 76 19 c5 bd 85 5f 97 be 1e 95 46 be a0 d7 8b bc
       -0.09623997 -0.29565063 -0.19392821 -0.017070591
000130 00 d3 9d 3e 11 ad bc bb c2 35 cf bb fe 7e 7a be
       0.30825043 -0.005757936 -0.006323547 -0.24462506
000140 ae 89 7b bd 22 e3 82 3e 2b 1d d9 bd ef 33 96 bd
       -0.0614106 0.25563914 -0.106012665 -0.07334124
000150 27 53 1b be 80 a4 58 be ea e2 12 3e c4 ab 98 bd
       -0.15168439 -0.21156502 0.14344373 -0.07454637
000160 d8 58 3a bd 78 b3 d4 3c 8c 86 69 3d e0 f2 e9 bd
       -0.045494884 0.025964484 0.05701308 -0.11423278
000170 b8 4b 96 bd 7f be 81 3e 55 12 05 be 81 3c 80 be
       -0.07338661 0.2534065 -0.12995274 -0.2504616
000180 3a 48 08 3c 7b e6 53 3e ae ce 19 3e ac 48 8d bd
       0.008318001 0.2069339 0.15020248 -0.06898627
000190 77 55 94 be 6b ae 15 be e5 a0 60 bc a2 1d ab bd
       -0.28971455 -0.14617316 -0.013710235 -0.083552614
0001a0 f8 f3 92 3e e9 a5 5f be ab 09 88 3d 46 7b 64 bd
       0.28701758 -0.21840633 0.06642469 -0.055781625
0001b0 9d 55 da 3c f9 40 44 3e 9f e0 9e 3d d0 3d c9 be
       0.026652152 0.1916541 0.07757687 -0.39304972
0001c0 b8 74 49 bd a8 3c 80 bd 7c d9 7d 3c 38 e8 b0 bd
       -0.049183577 -0.06261569 0.015493747 -0.08638042
0001d0 26 46 a7 bd 73 af 1a 3e a5 02 9a 3e 88 e8 d0 3d
       -0.08167677 0.15105991 0.30080143 0.10200602
0001e0 d1 3c 4a be 70 c6 99 3e 29 12 c9 bd 13 22 c3 bd
       -0.19749762 0.30034208 -0.09817917 -0.095279835
0001f0 4e 29 81 3d e2 e2 cb bd 53 bf 75 be dd 8c 73 bd
       0.06306706 -0.09955384 -0.23998766 -0.05946051
000200 90 1c f6 3c d8 e9 06 3d fa 4b 9f bd 28 dc a1 bd
       0.030042917 0.032937855 -0.07778163 -0.079033196
000210 38 0f 89 3d 97 a1 17 be dc fe 1a 3e cc 94 3d 3d
       0.06692356 -0.14807735 0.15136284 0.046284482
000220 a6 0f f7 bc 59 53 4a be d9 b4 ba be d1 4d 2a be
       -0.030158829 -0.19758357 -0.364661 -0.16631247
000230 ff fb 22 be 72 f4 4e be 50 aa d7 3e 90 db 30 bb
       -0.15916441 -0.20210436 0.42122126 -0.0026986338
000240 5e 3b 0f 3e 37 4e 80 3e 52 55 1c bd ef ef 94 3e
       0.1398749 0.25059673 -0.038167305 0.29089305
000250 fe 8f 1f be 7c d8 0c 3d a6 1c 79 be 6c 55 ba 3c
       -0.15582272 0.034386143 -0.24327335 0.02274581
000260 b6 bd 05 bd 83 a0 f6 3c 59 20 2a be 52 f4 41 3e
       -0.032651626 0.030105835 -0.16613902 0.18940857
000270 4f 63 db 3c d6 d5 8e 3d 29 20 58 bd 19 68 7a 3e
       0.026780752 0.0697438 -0.052765045 0.24453773
000280 3c 0a 39 3c 3c cb 60 be 24 80 89 be 71 e8 45 be
       0.011293944 -0.21952528 -0.26855576 -0.1932695
000290 e2 5e fa 3e 89 e6 b3 be c0 26 25 bd b9 3e 5f bd
       0.48900515 -0.35136822 -0.040320158 -0.054503176
0002a0 5b 89 aa bc 8e 18 93 bd 4e 76 2e bd f4 7d 36 3e
       -0.02081745 -0.07182418 -0.042593293 0.17821485
0002b0 f1 bc 0d be e9 29 4a 3e 73 94 89 3e 64 0e b5 bc
       -0.13841607 0.1974255 0.2687107 -0.022101589
0002c0 62 81 c1 be a6 fa 7e 3c 30 3c 1d 3e 4a 56 99 3e
       -0.37794024 0.015562689 0.15354991 0.29948646
0002d0 f0 73 22 3d bb 70 85 be e9 ea 54 be 56 57 29 be
       0.039661348 -0.2606257 -0.20792736 -0.16537222
0002e0 1b 69 8d 3e 84 29 d6 bb 48 a1 bb 3e 29 a2 56 3d
       0.27619252 -0.0065357108 0.36646485 0.05240074
0002f0 ff 3c 23 be c7 91 96 3e af 22 9f be 54 12 28 3e
       -0.15941237 0.29408094 -0.3108115 0.16413242
000300 b2 72 2a be 2d 8a 0f 3e a2 8a 87 3e 65 77 42 3e
       -0.16645315 0.14017554 0.26472956 0.18990858
000310 57 9a 6a be 78 1c 3d 3e 32 fd 57 bd c8 9b 81 be
       -0.22910438 0.18467891 -0.0527317 -0.25314164
000320 bb 71 b8 3e a3 03 b6 be 99 45 26 3e 79 82 ba 3c
       0.3602427 -0.3554965 0.16237487 0.022767292
000330 24 5e 06 be 2b e2 13 be b6 14 95 bd 8a aa 7b be
       -0.1312185 -0.14441745 -0.07279341 -0.24576774
000340 00 01 b8 3d 13 e5 0f be e8 b6 a3 bd a2 a2 fc 3d
       0.08984566 -0.14052229 -0.07993871 0.12335707
000350 2d e9 29 3e c6 f3 2a be 8d 3a 6f 3e 37 2a 03 bd
       0.16592856 -0.16694555 0.23362179 -0.03202268
000360 a1 6b 72 bd cb fd 5b bd 84 29 1f 3e b5 10 f1 bd
       -0.059184674 -0.053708833 0.1554318 -0.11770765
000370 7c 2b b9 bd 51 c2 01 bf 10 12 3f bd ee 82 2a be
       -0.09041497 -0.5068713 -0.046648085 -0.16651508
000380 15 c3 95 3d 6c 48 15 be 22 ab 04 3e f2 1e 71 bc
       0.073125996 -0.14578408 0.12955907 -0.014716851
000390 5c 05 6e 3e 73 17 84 be 52 1d 22 3e d7 3d 5f 3e
       0.23244232 -0.2579914 0.15831497 0.21800934
0003a0 8a 3d 59 be 29 7d b7 3e bd 1f c6 3d 71 a9 4a bd
       -0.21214882 0.35837677 0.09674022 -0.049478
0003b0 40 cf 56 be c2 bc d9 3d 02 1d 26 3e 03 ac 07 bc
       -0.20977497 0.10631706 0.16222003 -0.008280757
0003c0 d3 28 ab 3d bc f3 9d bd 82 6f 79 3e 49 4f 0d be
       0.08357396 -0.07712504 0.24358943 -0.13799776
0003d0 1c d1 c6 bd 84 27 06 be 96 ff 88 3e dd 1c 89 bd
       -0.09707853 -0.13101012 0.26757497 -0.06694958
0003e0 f9 b4 b8 bc 2f d4 5d 3d 5a 9f 56 be 78 38 7b bd
       -0.022547232 0.054157432 -0.20959225 -0.06133315
0003f0 fd a4 84 3c 21 13 b4 3e ba b9 b7 be 29 d5 cb 3e
       0.016191954 0.35170844 -0.35883886 0.39811066

linears.1.bias f4 [64]
000000 75 eb b1 bc 2c 42 ea bc d2 82 8c 3d 92 ce 7e 3d
       -0.02171872 -0.028596006 0.068608895 0.06220872
000010 b9 85 67 3c 25 ba 4f 3a c1 aa 9b b9 a5 51 9d 3d
       0.014131003 0.0007924161 -0.00029691125 0.07681588
000020 61 26 6c ba d8 d4 ea 3c 39 9d b4 bc aa d6 36 3d
       -0.00090084044 0.028665945 -0.022047626 0.044638313
000030 b6 1a 54 bc 19 70 c2 bc 5e 0a af bc 0c d9 94 3c
       -0.0129458215 -0.023735093 -0.021367248 0.018169902
000040 d4 8b 77 bb 09 19 d6 ba f8 c6 0f bc 1a 65 17 3d
       -0.0037772553 -0.0016334365 -0.008775465 0.036961652
000050 92 ce 3d bc 91 dc da 3b 3e 47 2e 3c 98 bd d6 3a
       -0.011584895 0.0066791256 0.010637103 0.0016383408
000060 44 71 68 bc f4 94 79 bb 9f 04 60 bc 78 58 43 3c
       -0.014187161 -0.0038083168 -0.013672977 0.011922948
000070 f6 f4 91 3d 5c 22 54 bc e7 dd cd bc c8 db f2 bc
       0.07126801 -0.012947645 -0.025130225 -0.029645815
000080 c3 67 ae bc 16 24 ba 3d 5c bb 0b bc b2 47 fa b9
       -0.021289712 0.09088914 -0.008528557 -0.00047737133
000090 1b 43 ed 3c c0 3c 98 bc 4c 18 e6 3b fe 88 9f 3c
       0.028962662 -0.018583655 0.0070219394 0.019474503
0000a0 ea ac 56 3c d2 84 3b bc 78 a6 f5 bc cb 96 c8 bb
       0.013102749 -0.011445241 -0.029986605 -0.0061214915
0000b0 4a 07 22 3e e4 43 c1 bb 64 7d 8f 3c 3e fd 51 3c
       0.15823093 -0.005897986 0.017515846 0.012816725
0000c0 33 da 0c bd 6a 3b 5c 3d d4 a8 02 be b6 ef 43 bc
       -0.03438778 0.0537676 -0.12759715 -0.011959007
0000d0 28 f2 ea b9 a3 ab 11 3d 41 50 87 3c 57 12 92 3c
       -0.00044812378 0.035564076 0.01651776 0.01783101
0000e0 43 6b da bc fb bd 08 bc b5 2d f9 bb 04 6b ae 3c
       -0.026662474 -0.008346076 -0.0076043257 0.021291263
0000f0 0b 46 82 bb a7 c4 0b bc 31 2a a2 bb f4 c0 a5 bc
       -0.003975635 -0.008530772 -0.0049488773 -0.020233609

linears.2.weight f4 [64, 64]
000000 59 87 24 be 0d 9b d7 3c f1 88 28 bd 80 c9 eb 3d
       -0.16067256 0.026319051 -0.041146223 0.115130424
000010 4c 36 1c be 37 29 21 3d 4a 28 86 3d e4 5a a6 3d
       -0.15255088 0.039345946 0.06550653 0.08122805
000020 ce ac e3 ba 22 c9 2b 3d 31 3d 40 bc 6e 06 15 3e
       -0.0017370225 0.041939862 -0.011733339 0.14553234
000030 bc 0c 06 3d da 21 20 3e a5 85 65 bd 70 93 b6 3d
       0.03272699 0.15637913 -0.056035656 0.0891484
000040 6f 59 01 3d 08 40 89 3c 0b 48 aa 3e fb 7e 4b 3d
       0.03157943 0.016754165 0.3325809 0.049681645
000050 2f f2 80 3e 5d 36 d1 bc 23 20 0d 3d e0 c7 d5 bd
       0.2518477 -0.025538618 0.034454476 -0.10438514
000060 b8 0c 11 3e 3a 2e 21 3e c3 92 8f bd ce 27 dd bd
       0.14165008 0.1574029 -0.070104145 -0.10798608
000070 4c 8a 5d bd 73 93 48 be 85 81 8a 3c 35 13 eb 3c
       -0.05408697 -0.19587497 0.016907463 0.028695682
000080 be e2 6e 3e ed c7 b9 3d 96 e8 6c 3e b0 16 fe bd
       0.23328683 0.09071336 0.231356 -0.12406671
000090 51 6d 1c bd 59 f6 e2 3d 9f c8 48 bd 03 09 0c be
       -0.03819019 0.11082143 -0.049019452 -0.13675313
0000a0 ea 2e 81 3c 79 77 58 3e b6 04 bd bc bc f7 9c bb
       0.01576944 0.21139325 -0.023073535 -0.0047902744
0000b0 19 4e 86 3c d8 b7 91 bc 6b 1b aa 3d 33 fc c3 bd
       0.016394662 -0.017787859 0.08306011 -0.095695876
0000c0 4b 56 92 be dd a8 81 be f9 07 45 be 19 e8 6a bd
       -0.2858146 -0.25324145 -0.19241323 -0.05735025
0000d0 69 c9 83 be 2f ea 33 be c2 22 81 be 21 23 ff 3d
       -0.257396 -0.17569803 -0.2522183 0.12457872
0000e0 f3 a4 6a bd 23 c5 86 3d 20 54 6e 3d 29 74 69 3e
       -0.057286214 0.065805696 0.058185697 0.22798218
0000f0 80 89 38 bd 95 0b 2a 3e cd cf 39 be 63 e8 08 be
       -0.045053005 0.1660598 -0.18145676 -0.13369898
000100 c7 07 71 be 60 03 28 bd 2e 4b 9b 3d 83 68 b6 bd
       -0.23538123 -0.041018844 0.07582699 -0.08906653
000110 6c 48 61 bb 45 dd 8d bd 95 08 32 bd 0d 4b 95 3e
       -0.0034375442 -0.069269694 -0.043465216 0.29158822
000120 b1 c7 2f 3d 0b 47 48 be 60 ce ed bd 2e f3 0d 3d
       0.04291505 -0.1955835 -0.116116285 0.034655742
000130 b0 56 0f be 74 b5 45 be ed 91 58 3c 46 e9 fd 3c
       -0.13997912 -0.193075 0.013218385 0.030995023
000140 a7 2c 4d 3e 42 01 4d bd f0 b6 37 be af b0 8f 3e
       0.20036565 -0.050050028 -0.17940879 0.28064486
000150 c0 db 15 be 9d 08 c7 3d 05 a0 83 3d 64 19 0e 3e
       -0.14634609 0.0971844 0.06427006 0.13876873
000160 5d 2d 12 be 05 17 e8 bd 7b 0a 87 3d c9 fb 76 be
       -0.14275117 -0.113325156 0.06593796 -0.24119486
000170 07 3e 6f bd 00 f1 55 3e df c3 99 bd e6 1f da 3d
       -0.058408763 0.20892715 -0.075080626 0.106506154
000180 4b 69 76 be 49 77 18 be 8a 8b 67 be a0 19 40 3d
       -0.24063604 -0.14889254 -0.22611824 0.046899438
000190 19 60 a5 be 04 1b 44 be 9c ad e8 3b 81 8a 24 3e
       -0.3229988 -0.1915093 0.007100774 0.1606846
0001a0 5e 60 06 be f6 8f 5d 3d 36 61 f1 3d f9 33 88 3d
       -0.13122699 0.05409237 0.1178612 0.06650538
0001b0 ae fd f9 bb d5 fc 15 3e cf dc 0f 3b 8f 7e 9b 3d
       -0.007629118 0.14647229 0.002195168 0.075924985
0001c0 d3 d0 37 3e 16 12 ae 3d 51 cb b0 bd fb 23 e9 bd
       0.17950754 0.08499543 -0.086325295 -0.11383816
0001d0 18 64 11 3d fa 39 42 bd 3b ed 04 bd 45 5f 58 3e
       0.035495847 -0.047418572 -0.032452803 0.21130092
0001e0 d2 ba 33 3e 50 ae f2 3d 41 87 39 3c 52 dd 17 3d
       0.17551735 0.11849654 0.011323751 0.037076302
0001f0 97 b9 a9 bc 9c 16 9b bd fd 99 59 be a7 8e 20 ba
       -0.020718379 -0.07572672 -0.21250148 -0.00061247725
000200 ac fa ee bd 2b a2 67 be 1b bf 70 be 22 99 79 3d
       -0.116689056 -0.22620456 -0.23510401 0.060937054
000210 82 dc 4f be ab 55 24 3e cf a5 70 3b 8f 84 8c bc
       -0.20298961 0.16048305 0.0036719923 -0.017153053
000220 38 5d b4 3d ec a8 bd bd 2f 04 5e be b4 2f 3b be
       0.088068426 -0.09260735 -0.21681283 -0.18279916
000230 83 5c 4a bd 55 59 f0 bd 17 c9 a1 3e a4 01 bf bd
       -0.049404632 -0.11735789 0.31598732 -0.09326485
000240 66 89 b9 be da 26 62 bd ce 43 72 3d 9d 16 b8 3d
       -0.3623764 -0.055212833 0.059146695 0.08988688
000250 44 43 5e be 3e 37 a8 3d 65 5d 5b bd af 50 14 3e
       -0.21705347 0.082136616 -0.053555865 0.14483903
000260 56 d3 ac 3d cc 60 61 bc 43 03 0c 3e 66 be 33 3e
       0.08438747 -0.013755988 0.13673119 0.175531
000270 f2 07 06 3e 0b c0 26 3e 30 a0 f0 bd d8 d5 29 3e
       0.13088968 0.16284196 -0.11749303 0.16585481
000280 b1 62 f6 bd 43 cd 30 3e 2a bc 84 3d b6 ed 13 be
       -0.12030543 0.17265801 0.06481202 -0.14446148
000290 88 18 07 be ab 6c 5e 3d dc 79 98 bd 62 23 97 3d
       -0.13192952 0.054302853 -0.07445118 0.073797956
0002a0 85 10 64 bc 1a a6 e6 bd f4 9c ed 3d dd b2 9e bc
       -0.013919954 -0.1126215 0.11602202 -0.019372398
0002b0 21 e5 9c 3d 94 06 af 3d 77 3e 43 3d b2 93 a7 bd
       0.0766089 0.085461766 0.047666993 -0.081824675
0002c0 42 12 3c bc b8 f7 20 3e cf 3c 00 be 71 6f d9 3d
       -0.011478962 0.15719497 -0.12523197 0.10616959
0002d0 71 ba 04 be 51 99 0b 3e 66 e6 f7 bd d7 c5 48 3d
       -0.12961747 0.13632704 -0.12104492 0.0490168
0002e0 8e fa 3d bd 3f a1 7d 3c ce 0b 84 be c8 9c bb bd
       -0.046381526 0.015480339 -0.25790256 -0.09160763
0002f0 b3 94 fd 3d 27 c5 97 bd fa 6d 5f 3d fb cb f0 bd
       0.12381878 -0.07410651 0.05454824 -0.11757656
000300 65 b3 a1 bd e2 0c 41 3e fc 06 5e 3e 20 51 aa be
       -0.07895545 0.1885257 0.21682352 -0.33265018
000310 84 38 f0 bd 58 9a 3c be ca 45 18 be 9f 40 48 be
       -0.117295295 -0.18418252 -0.14870372 -0.19555901
000320 16 98 22 be cf 54 39 3d b4 3a af 3b 5d 6d 07 bc
       -0.15878329 0.045246895 0.005347574 -0.00826582
000330 6c c2 73 3c e5 a4 69 3e 93 9f a4 bd ef 1e 77 bd
       0.014877897 0.22816809 -0.08038249 -0.060332235
000340 f9 32 ff 3e ec 16 98 3d 96 07 b4 3e 1d e7 77 3d
       0.49843577 0.07426247 0.35162038 0.06052314
000350 b7 01 92 3c 03 f5 13 be 84 85 33 be 28 33 3b bd
       0.017823083 -0.14448933 -0.17531401 -0.045703083
000360 c3 4e a1 3d f4 db 99 bb 44 fb 29 3d df d6 38 be
       0.07876351 -0.00469541 0.04149939 -0.18050717
000370 85 fb e1 3d a3 ec ae bd 40 7f 59 3e 23 9d 87 3e
       0.11034302 -0.085412286 0.21239948 0.26487073
000380 df 79 aa 3d 67 53 08 be 9a 7e 95 3d 8c 6a 06 bd
       0.08324026 -0.13313065 0.07299538 -0.032816455
000390 0e 1c 79 bd cc d1 32 be 1a 76 43 3c e9 a3 40 be
       -0.06081777 -0.17462844 0.011930013 -0.18812527
0003a0 6a d6 ea 3d 73 db 9e 3d e3 03 ed 3d b8 5d da bd
       0.114666775 0.077567 0.11573007 -0.10662407
0003b0 33 eb f4 bd f8 6b 4b 3d 6d 24 96 bd 04 56 c3 bd
       -0.11958923 0.049663514 -0.073311664 -0.095378906
0003c0 22 be b0 bd 3f aa 9b bd 48 4a 1f be a6 33 28 3d
       -0.08630015 -0.07600831 -0.1555568 0.04106488
0003d0 bb 77 ab bb 6c 23 32 be 4a 1d ba 3c 66 db b9 bd
       -0.005232779 -0.17396325 0.022719044 -0.0907505
0003e0 49 6a f7 3d 7f 2e 4a be 8c 3e 57 3e 6b fa 5b 3d
       0.12080819 -0.197443 0.21019953 0.053705614
0003f0 ae ce 41 3e 38 7e 98 3e 71 bc 1f bd f2 2f f7 3d
       0.18926498 0.29783797 -0.03899807 0.12069692

linears.2.bias f4 [64]
000000 02 11 af 3c c2 90 e1 3b 12 32 a7 3c 93 6e 39 bd
       0.021370415 0.0068837116 0.020409618 -0.045271467
000010 3e 16 bb 3d 8c 92 34 bd 88 b0 b3 bd cb 7c 23 ba
       0.09135102 -0.04408507 -0.08773905 -0.0006236552
000020 90 89 bc bc eb 90 aa 3c 81 cf 16 3b 36 95 75 bc
       -0.023014814 0.020821055 0.0023011866 -0.014989188
000030 91 01 db bc 11 65 05 3d d6 4a b6 3d 9b 19 d0 3c
       -0.026734145 0.032567088 0.089009926 0.025402835
000040 16 da d2 bc 6b fa e8 bc 7e 49 4a bd e2 3a 23 3b
       -0.025738757 -0.028439721 -0.049386494 0.0024906923
000050 4f 92 05 3d 8a a9 8e bc c1 d0 11 bd 76 2b 0a 3c
       0.032610234 -0.017414827 -0.035599474 0.008433213
000060 64 8b 2c 3c b1 f0 1e 3d 37 e3 96 bc 15 e3 11 3c
       0.01053128 0.03880376 -0.018418891 0.008904238
000070 36 38 fd 3a 70 e8 3b 3d 8e 75 87 3c 38 81 5e ba
       0.001931912 0.045875967 0.016535547 -0.0008487883
000080 e1 67 97 bc e4 60 1a bd 65 f0 37 3c 7c 9e 0b bc
       -0.01848215 -0.03769006 0.011226748 -0.008521672
000090 37 1f a8 bb ab d7 fb bb ac 66 00 3b 5a 0e b5 bc
       -0.005130674 -0.0076856217 0.0019592447 -0.02210157
0000a0 d6 fe be bc 1b ab b7 bb f1 71 6d 3c 9d 78 6e 3d
       -0.023314875 -0.005605114 0.014492498 0.058220495
0000b0 00 36 bf bd cf 56 b9 bc 6b 73 af 3c e6 d9 45 bc
       -0.093364716 -0.022624401 0.02141734 -0.012075877
0000c0 8f 8a 4f 3c 27 06 3d 3d 1c 71 b0 bc a6 fb 8a 3d
       0.012667312 0.046148445 -0.02153831 0.067862794
0000d0 0e f6 b0 bc a2 d4 9f 3c 5d e8 9a 3d d6 50 6e 3d
       -0.021601703 0.01951057 0.07563851 0.05818256
0000e0 55 8a 72 3d 1e b3 56 3c 93 9f f0 bc 8e c9 56 bc
       0.059213955 0.013104228 -0.029372966 -0.013109578
0000f0 d1 ef 2f 3d 23 18 05 3d 0a 85 f2 3c 3f b1 0d 3c
       0.042953316 0.03249372 0.029604454 0.008648216

linears.3.weight f4 [32, 64]
000000 43 d1 d2 be f5 44 a2 bd a8 da 1d be 31 c4 7e 3e
       -0.4117528 -0.07923309 -0.15415442 0.24879529
000010 c0 11 8d 3d 19 b6 05 3e ec b7 7d 3e 15 0f 54 3d
       0.06888151 0.13057746 0.24777192 0.051772196
000020 c1 c7 ae 3e 83 3e 8c bd ab 42 f6 3c a9 16 be 3d
       0.34136775 -0.06847861 0.030061087 0.09281666
000030 15 c5 f0 3d 36 d2 98 be e8 d3 92 be 86 06 8a 3b
       0.117563404 -0.29847878 -0.28677297 0.0042122034
000040 76 fd 9f 3d d9 c6 46 3e 29 a2 02 be 5c bd 5b bc
       0.07812016 0.19411792 -0.12757172 -0.013411846
000050 4f 77 ad 3c a6 56 0e 3e ad 3c 8a 3e e8 c0 40 3d
       0.021175055 0.13900241 0.26999417 0.04705897
000060 81 d8 24 be 09 6f aa 3d c6 63 1b be d9 88 81 be
       -0.16098215 0.083219595 -0.1517478 -0.2529972
000070 37 58 1a bd f8 c6 fc 3d a9 9d 1e 3d 31 91 ff 3d
       -0.037681784 0.12342638 0.038724575 0.12478865
000080 57 bd a7 bd d5 ad 12 3d 56 48 28 3e 70 c0 d6 3d
       -0.081904106 0.03581031 0.16433844 0.10485923
000090 eb 61 dc bc 8d 64 98 3d cb 95 3f 3e 99 36 ce bd
       -0.02690216 0.074410535 0.18709485 -0.100690074
0000a0 4b fe 0b 3e 27 e2 49 bd b0 0c 5f bd 8d 9e 50 3e
       0.13671224 -0.04928794 -0.05445546 0.20372982
0000b0 ab d0 ec bb 8f b5 d4 bd d2 e6 8a be 8a c0 53 be
       -0.0072270236 -0.10386192 -0.27129227 -0.20678917
0000c0 06 5a 04 3e 32 74 00 3e 3c 4d d7 3d 2c 9c 43 3e
       0.12924966 0.12544325 0.10512778 0.19102544
0000d0 b3 03 c0 3d 7a bd 7d 3e 60 64 b7 be 9b 23 ee 3d
       0.093757056 0.24779311 -0.35818768 0.11627885
0000e0 56 ef a5 bd 96 c7 25 bc 8d 21 83 3e 9d 60 4c 3e
       -0.0810229 -0.010118386 0.25611535 0.1995873
0000f0 ce 37 14 be 3f b5 43 3d 9e 9d 98 3d a5 a6 2f be
       -0.14474413 0.04778027 0.07451938 -0.17153414
000100 8a 33 c7 3e 2d 21 20 3e d7 a8 16 3e 17 28 6c 3d
       0.3890651 0.15637656 0.14712845 0.05765542
000110 fb 51 b7 3e cb 87 d5 be 29 db 75 be cb fb ef 3d
       0.35804734 -0.41705164 -0.24009384 0.117179476
000120 14 59 e5 3d 48 7a a8 3a cb df 0f 3e 4d 87 12 3f
       0.11198631 0.0012853825 0.14050214 0.572377
000130 cd 20 1f be f8 25 63 be 43 58 6b 3e 7b aa 08 3d
       -0.15539856 -0.22182453 0.22982888 0.033365708
000140 cd 7a 24 3e 89 a0 b9 3c 00 31 29 3d 3b 0a 98 3e
       0.1606247 0.022659557 0.041306496 0.29695305
000150 7b fd 8b 3e 37 06 5e 3e 66 78 c2 3e 91 b8 94 be
       0.27341828 0.21682058 0.37982482 -0.29047063
000160 0f e1 f8 bd 9e d5 99 3d 61 fd ee 3d 7b f8 f0 be
       -0.121523015 0.07511447 0.11669422 -0.47064576
000170 07 fb 2c bd 76 46 89 bd c6 fc 82 be 96 ed a6 be
       -0.042231586 -0.067028925 -0.25583476 -0.3260314
000180 e8 e8 6e 3e c5 2c d0 bd fd 9a ec 3d bd 6e 27 be
       0.23331034 -0.10164789 0.11552999 -0.16350837
000190 c9 2c 04 3f 92 80 0c 3f 18 b7 3c bd bb bd 93 3e
       0.51630837 0.5488368 -0.04607305 0.2885569
0001a0 7b 0b d5 3d 95 e0 b0 be 44 97 a6 be 1c 04 63 be
       0.1040258 -0.34546342 -0.32537282 -0.22169536
0001b0 1b 73 eb 3d 20 22 b0 3e de 5c 03 3d 8c 67 9d 3e
       0.11496564 0.34401035 0.032070987 0.30743062
0001c0 54 50 82 bd 93 2b 85 bd d8 eb a4 3e 60 77 8f be
       -0.063629776 -0.06502452 0.32211185 -0.28020763
0001d0 f6 06 c0 3d 0a 04 db 3d e9 35 0e 3e 6d 33 80 bd
       0.09376328 0.1069413 0.13887753 -0.06259809
0001e0 ee 6e ab 3d 5b 2d c3 bd 32 36 14 bf 2f 6b 83 3e
       0.083707675 -0.09530135 -0.57895195 0.25667712
0001f0 cb 93 13 be ea d0 a5 be 2c ea c0 3e 0d b9 b6 3e
       -0.14411847 -0.3238595 0.3767866 0.35688058
000200 17 4e 6b 3e b5 2d 68 be be 12 36 3e e4 b5 78 3d
       0.22979008 -0.22673686 0.17780587 0.06072034
000210 9e ca 6b 3d 84 44 a0 3e 8c e5 a4 bd 64 f5 f0 bd
       0.057566278 0.31302273 -0.08051595 -0.117655545
000220 19 a5 73 be 8f 6b d7 bd b6 7e 94 be 23 a0 45 3c
       -0.23793449 -0.10518562 -0.29002923 0.012062105
000230 98 b3 88 bc d4 ac 2d be b7 26 87 bd 7c 92 54 be
       -0.0166872 -0.1696046 -0.06599181 -0.20759004
000240 b4 d8 41 3e fd 8a 18 3e bf 81 63 3e bd 6e a0 3c
       0.18930322 0.1489677 0.22217463 0.019584054
000250 0e 20 d4 bd 72 20 1b 3e 6b 9b 94 3d b3 63 1e 3e
       -0.103576764 0.15149096 0.07256206 0.1546772
000260 48 be ed bd 79 af 12 be b7 dc 1a 3d 89 cb 7c bc
       -0.11608559 -0.1432475 0.037808146 -0.015429386
000270 2f bf 0d be f9 ce 44 be cb ab 92 3d 55 b0 bc 3c
       -0.13842462 -0.19219579 0.07161673 0.0230333
000280 1c 64 56 3e ae 74 14 bd 2d f8 b8 3e 9f a0 37 3e
       0.20936626 -0.036244087 0.36126843 0.17932366
000290 67 7a 94 3c b9 9c 14 be 35 e8 0b 3d cc 7f 53 3e
       0.018124772 -0.1451291 0.034156997 0.2065422
0002a0 47 92 98 be dc 07 60 be 17 17 12 3e 35 11 d0 be
       -0.297991 -0.21877998 0.1426662 -0.40638128
0002b0 63 47 64 bd 08 88 6c 3e 0c ef c9 be cf 45 20 be
       -0.055732142 0.23098767 -0.3944019 -0.1565163
0002c0 95 09 7d 3e e9 36 f5 3d a3 ea 2d 3d d1 e7 0d bd
       0.24710687 0.11973364 0.042460095 -0.034644905
0002d0 9f c4 68 3e 0a 64 49 3d 2a 03 a9 be 7b bc d6 3c
       0.22731255 0.04916767 -0.33010226 0.026212921
0002e0 e4 53 48 3c 70 c8 21 be f6 a4 ca 3c 61 98 22 3e
       0.012227032 -0.15799117 0.024736863 0.1587844
0002f0 10 d8 2a be b3 48 ad 3e 28 0f c2 bd a7 e2 35 3e
       -0.16683984 0.33844528 -0.09475547 0.17762242
000300 f6 82 8c be 98 b7 69 3e d5 e2 f0 3d 87 ee 9b bd
       -0.27443665 0.22823942 0.11762015 -0.07613855
000310 6a 06 a3 3d 49 98 69 be f6 47 81 3e 15 6f e5 3d
       0.07960208 -0.22811998 0.25250214 0.11202828
000320 f4 3b 37 3d 24 99 cd be af 1b b0 bd 29 51 ef bd
       0.04473491 -0.401559 -0.0859903 -0.11685402
000330 20 5d 8e 3c 0b 92 f5 3d 3f 31 22 3c 07 fd 37 be
       0.01737839 0.11990746 0.0098994365 -0.17967616
000340 78 7c 09 3e ed 72 e8 bd 7e 14 45 3e 2a 6c 7c 3e
       0.13426387 -0.11350045 0.19246098 0.24650636
000350 6c e9 1f be be af a6 bd 8a 60 a6 3e ba cb a7 bd
       -0.15616387 -0.08138989 0.32495528 -0.08193155
000360 92 8e 28 be 2d d4 71 bd d1 68 0a 3e 84 9f fc 3d
       -0.16460636 -0.059040237 0.13516547 0.12335113
000370 be c0 17 3c 32 70 e8 bd 95 9e 20 be 6f 46 b9 3d
       0.009262262 -0.113495246 -0.15685494 0.09046637
000380 b6 99 74 3d ba ea 86 3e 04 a8 7d 3d 82 36 a7 be
       0.059716903 0.26350957 0.06192781 -0.32658774
000390 8b fe 28 3c 48 76 3b be ae 63 bd 3d e3 cf 94 bc
       0.010314594 -0.1830684 0.09247528 -0.018165534
0003a0 a6 2a c8 3d 65 cc 19 be ef 52 a0 bd d3 5d dc bd
       0.097737595 -0.15019377 -0.07828318 -0.10760083
0003b0 c9 de 82 be fb b0 a3 3e fb 58 3f be d2 b7 03 3e
       -0.25560597 0.31970963 -0.18686287 0.1286309
0003c0 83 24 e5 bd d8 04 60 be 1e e8 2f 3e 72 dc 15 be
       -0.11188605 -0.21876848 0.1717839 -0.14634874
0003d0 40 8f 6a 3e 5e 92 d0 bd b5 7a 51 be 7e bc 16 be
       0.22906208 -0.10184167 -0.20456965 -0.14720342
0003e0 91 5b 5b 3e 53 6a 15 3e 0a 11 bb 3e 02 fa ba bd
       0.21421649 0.1459134 0.36536437 -0.091297165
0003f0 e9 7d 2e 3c 9f 69 1a 3d 2e 97 25 bd c9 91 4f 3d
       0.0106501365 0.037698384 -0.04042738 0.05067614

linears.3.bias f4 [32]
000000 2c ec 1e bd 7e b5 5f 3d 61 a8 6b bc 50 36 22 bd
       -0.03879945 0.054616444 -0.014383406 -0.039602578
000010 82 41 30 bd 59 f7 ba bd b3 04 48 3d 0b e4 57 3d
       -0.043031223 -0.09129209 0.048832607 0.052707713
000020 a7 0c c9 3a 53 6f b6 3c d9 93 6d bd 6d c9 5b bd
       0.0015338854 0.02226988 -0.058002327 -0.05365889
000030 7d 98 dd bd 1f 71 e6 39 33 06 50 bc 55 39 bf 3c
       -0.108201005 0.000439533 -0.0126967905 0.023342768
000040 68 7a 73 ba a1 ae ba bc e2 cc 6c 3d b9 17 65 bb
       -0.00092879543 -0.022788348 0.05781258 -0.0034956767
000050 85 11 cb bc 9a 95 00 bd 35 2b 41 bd 46 78 5a 3d
       -0.024788627 -0.03139267 -0.047160346 0.053337358
000060 ce db ba 3b 72 99 8a bd a4 2e 6b bd bc 34 7f bd
       0.0057024723 -0.067675486 -0.057417527 -0.06230615
000070 e9 91 82 bd 88 d4 0b bd fe 8a 43 bc df 31 a5 3b
       -0.063754864 -0.034138232 -0.011934994 0.0050413455

linears.4.weight f4 [4, 32]
000000 51 a0 5f 3e b3 f3 2a be 54 d5 0f be 5e a3 10 3e
       0.218385 -0.16694526 -0.14046222 0.1412482
000010 bb ee 3e bd fe 51 3e bb 83 fc bf bb 13 4a 23 3e
       -0.04661439 -0.002904057 -0.005858959 0.15946226
000020 12 d7 c0 be 73 31 e7 3e 43 39 78 3c 1c a3 9f 3d
       -0.37664086 0.45154914 0.015150371 0.077947825
000030 2c c2 99 3b 71 d5 84 3e 74 76 5c bf 39 43 49 3e
       0.0046923365 0.25944093 -0.86118245 0.1965455
000040 91 7e c6 3e 9c c8 cb 3e a2 a3 32 3d b4 35 51 3e
       0.38768438 0.3980149 0.043613084 0.20430642
000050 f1 80 f0 bd fe db 95 bd a1 14 6f 3e 5d 88 ef bd
       -0.117433436 -0.07317351 0.23347713 -0.11695931
000060 93 72 eb be 8e 11 86 bd ca 0e be 3c 64 0d 33 3e
       -0.4598585 -0.06546317 0.023200411 0.17485577
000070 30 63 22 3e c4 06 a2 3e 0c 38 25 bf 66 05 2d 3d
       0.1585815 0.31645787 -0.64538646 0.042241476
000080 29 79 2d be dc 46 7c 3e 90 bd 65 bf cf 73 e6 be
       -0.1694075 0.24636406 -0.89742374 -0.4501023
000090 61 54 46 bf d7 0d 6c bf 74 5a fc 3e fe d8 41 3f
       -0.774725 -0.9220862 0.4928776 0.7572173
0000a0 19 d0 a2 3e c4 4f 06 3e d4 76 02 bf c6 b8 9f be
       0.3179939 0.13116366 -0.5096257 -0.31195658
0000b0 81 4b 24 bf b6 2c 99 3e 90 c7 28 bf 3b 44 65 3f
       -0.6417771 0.29916924 -0.6592951 0.89557236
0000c0 3f 58 ce 3e f4 56 5c be b7 9b 70 3f 8c bb 9b 3e
       0.403017 -0.21517545 0.939876 0.30416524
0000d0 d1 3a 47 bf 51 45 2c bf 0c 06 4a bf 6b 86 09 3f
       -0.7782412 -0.6729327 -0.78915477 0.5372073
0000e0 7e bc 6f bd 79 4c 37 bf 4f d4 d1 be 04 a2 60 bf
       -0.05852937 -0.71601063 -0.4098229 -0.87747216
0000f0 25 f0 1b 3f 2f 79 f5 bd 47 43 ed be 3d eb 96 be
       0.60913306 -0.119860046 -0.4634039 -0.29476348
000100 db 22 17 3f d7 fe c0 3e c2 ff c3 be ac 04 33 bf
       0.5903756 0.37694427 -0.38281065 -0.69929004
000110 6d a6 52 3d b0 5c 47 3e 40 04 29 3f 0e 60 8a be
       0.051428247 0.19468951 0.6602211 -0.2702641
000120 14 0d e1 bd 5d c1 81 3e f7 de d5 be cf 04 ce be
       -0.109888226 0.25342837 -0.4177167 -0.40238044
000130 ce ad 92 3c f9 d2 9b 3e b9 8d 91 3e 9e a9 5b bd
       0.017905142 0.30434397 0.28428438 -0.053628556
000140 40 e7 ad bc 7c 04 12 3f 5b eb 8d be 11 22 8d 3c
       -0.021228433 0.5703809 -0.27718624 0.017228158
000150 e7 df 5f 3e 92 a8 06 bf 12 26 0a bf 31 5b 54 3d
       0.21862756 -0.5260097 -0.5396434 0.05184478
000160 5c ad 2e 3f 32 d9 f3 be 0e 53 49 be b3 13 d7 be
       0.68233275 -0.47626644 -0.19660589 -0.42007217
000170 70 90 03 be 2a 3a ab 3e 9b aa 67 be d5 28 88 3e
       -0.12848067 0.33442813 -0.22623675 0.26593652
000180 90 2e 1f bf ec f0 4e 3f f6 fe 5e bf cf 02 02 bf
       -0.62180424 0.8083637 -0.8710779 -0.50785536
000190 79 5c 2b bf d3 5e 61 bf 44 d0 99 3f 42 db 28 3f
       -0.6693798 -0.88035315 1.2016683 0.6595956
0001a0 96 bb 61 3f 83 46 40 3f 2e fb 95 bf 14 c3 56 bf
       0.8817686 0.7510759 -1.1717279 -0.83891416
0001b0 20 08 2a bf 5f 07 37 3e 7e ef 1f bf c1 6c 90 3f
       -0.6641865 0.17873906 -0.6247481 1.1283189
0001c0 61 b1 a7 3e c4 0a 8a be 97 46 36 3f 8e ab 02 bf
       0.32752517 -0.2696134 0.7120146 -0.5104302
0001d0 10 20 82 bf d7 72 88 bf b7 4a 53 bf 85 9f 28 3e
       -1.0166035 -1.0660046 -0.8253588 0.16467102
0001e0 96 18 7a bf ae 10 af bf 70 51 79 bf 28 fb 57 bf
       -0.97693765 -1.3676965 -0.9738989 -0.8436761
0001f0 12 8f 8e 3f 2e a3 a1 be 2c ae 64 be b0 43 46 3f
       1.1137412 -0.3156981 -0.22332066 0.7744703

linears.4.bias f4 [4]
000000 bd cb 86 bc f1 10 c0 3e 39 87 6d bd 42 9a 44 3f
       -0.016454572 0.37512925 -0.057990286 0.7679788
