Iterations/Test model/epoch_3038.pt (torch, 37739 bytes, 10 tensors)

linears.0.weight f4 [32, 2]
000000 49 83 a5 3e f2 8c b2 bd 6d ff 8e 3e ef 7d af be
       0.32326725 -0.087182894 0.2792925 -0.34275767
000010 57 c7 79 3e 8c 3f bc be 95 e6 cc bd d0 4a 07 bf
       0.24392448 -0.36767232 -0.100049175 -0.5284853
000020 5d 56 39 bd 1c 2a a3 3e 93 e4 3c 3d af d3 0c bf
       -0.045248378 0.31868064 0.046116423 -0.55010504
000030 c2 9d 35 3e 9f 70 15 3f c8 68 2a 3e 4c 9d 70 3e
       0.17735961 0.5837497 0.16641533 0.23497504
000040 46 e1 bb 3e 30 f2 9c bd fe 91 6f be 28 8d 20 be
       0.36695307 -0.07663381 -0.23395535 -0.15678847
000050 8c 1a e7 bd c8 45 e3 be c0 40 7c be d9 83 6f 3e
       -0.1128436 -0.44389176 -0.24634075 0.2339014
000060 5e d7 d8 bd 16 da 25 be 26 01 27 3e b0 c7 8f be
       -0.10587953 -0.16196474 0.16309032 -0.28082037
000070 57 72 fc bd 2f 17 31 3f fe 14 6c bd 2f 2a 7e be
       -0.12326496 0.69176 -0.057637207 -0.2482078
000080 c3 09 61 3e 0d 78 0c 3f a2 26 95 3e 32 2c 02 3e
       0.2197638 0.5487068 0.29131037 0.12712172
000090 8b 11 dd bd 30 95 87 3e 2a 27 30 be 93 66 64 be
       -0.10794362 0.2648101 -0.1720244 -0.22304754
0000a0 73 fe e9 bd d2 e3 35 be 46 5f 8d 3e cd dd ae 3d
       -0.114254855 -0.17762688 0.2761175 0.08538399
0000b0 1f 0e 2c 3f b6 58 9b 3c fc 62 88 3e 82 67 6b be
       0.6720905 0.0189632 0.2663802 -0.22988704
0000c0 60 0b 13 bf fc 92 64 3e 8c 66 aa 3e a4 9a f2 bd
       -0.5743923 0.22321695 0.33281362 -0.118459016
0000d0 67 37 38 be 13 e6 09 be 11 38 34 3d 96 78 a5 3e
       -0.17989884 -0.13466673 0.04399878 0.32318562
0000e0 33 7d a6 3d 37 88 71 be d7 2c e8 bc 2f 33 c4 3e
       0.081293486 -0.23587118 -0.028341694 0.383203
0000f0 fb cc 1f 3e 68 17 a0 be 93 89 39 bd d7 d3 2f 3f
       0.15605538 -0.31267858 -0.045297217 0.68682617

linears.0.bias f4 [32]
000000 04 aa 89 3b 11 7a 83 3c f8 27 49 3c dc 96 d1 3b
       0.0042011756 0.016049417 0.012277596 0.0063961577
000010 92 41 5f 3c db c7 37 bc ce 73 82 3b 80 ac 1e bd
       0.013626473 -0.011217083 0.00398109 -0.038738728
000020 5e ee a6 bc a2 2c 96 bc fb 69 cc ba 56 62 78 bd
       -0.020377334 -0.01833183 -0.001559555 -0.060640655
000030 07 61 39 3d bb 10 0c bd 54 95 75 3c 92 35 49 bc
       0.045258548 -0.034195643 0.014989216 -0.012280839
000040 44 7b 5e bb 2f 5b 4b 3a 8d e8 d3 3c 54 ba 29 bb
       -0.0033947984 0.0007757423 0.025867725 -0.0025898414
000050 5b 51 53 3c 9e e3 ab bc 85 c7 d1 3d e9 76 7d 3c
       0.012897815 -0.02098256 0.102431335 0.015470245
000060 00 d7 7b bd b5 46 d0 3c e4 a1 1a bc 83 3f 45 3c
       -0.061484337 0.02542434 -0.009438012 0.012039068
000070 d3 20 b7 3c 68 49 34 3c 2c 63 2a be 12 8e 61 3c
       0.022354519 0.01100383 -0.16639394 0.013766782

linears.1.weight f4 [64, 32]
000000 e8 d9 e8 3c cf 2e 87 be 9a f2 46 be 15 5d 34 be
       0.028424218 -0.264029 -0.19428483 -0.17613633
000010 9b 37 39 3e 2e ad 48 3c 84 e2 a5 bd 1b 45 86 3e
       0.18087618 0.0122483205 -0.08099845 0.26224598
000020 f0 4d 2d 3e 2d 61 a0 3e b6 10 ac 3d fe 65 a5 3e
       0.16924262 0.3132414 0.08401625 0.32304376
000030 fe 5f 65 be 0a 85 f6 be 08 ff a0 bb 63 d1 37 be
       -0.223999 -0.48148376 -0.0049132146 -0.17950968
000040 22 c4 a0 3e 8b f5 7b 3c ad be c0 bc 27 e9 2f 3d
       0.31399637 0.015378366 -0.023528421 0.04294696
000050 07 18 be be a0 45 2c bd c9 2b dc bd e0 9c 45 3e
       -0.37127706 -0.042058587 -0.10750539 0.19298124
000060 93 39 bc 3d 2a 60 29 3e 49 0c 8f be ce 51 b3 bd
       0.09190669 0.1654059 -0.2793906 -0.087558374
000070 f6 7b f8 3d 7c 8c d9 3d 82 e7 a2 bd b5 27 bd 3d
       0.12133019 0.106224984 -0.07954313 0.09236089
000080 93 a3 dd 3c fe e8 af 3d 43 b7 d5 bd e2 b3 1c 3e
       0.027055537 0.085893616 -0.10435345 0.15302995
000090 bf a1 fe bd 34 e7 fb bd 3e 47 58 3e ef 59 a1 3e
       -0.12433194 -0.12299958 0.21120927 0.31513926
0000a0 56 53 c7 3e 09 c6 6a 3e c2 93 f3 bd 3b d6 53 bd
       0.38930768 0.22927107 -0.11893417 -0.051717978
0000b0 2c af 8a bd 70 30 11 3e d7 c1 fa 3d d9 68 6a bd
       -0.06771693 0.14178634 0.12244003 -0.057228897
0000c0 69 9c 61 3e 07 3b 3c be 77 6e 6a be a2 06 67 bd
       0.22032322 -0.18381892 -0.22893701 -0.05640281
0000d0 ea 2a 9b bc ef bb a7 3e 85 cf be bd 6e a3 0e be
       -0.018941361 0.3276057 -0.09316925 -0.13929531
0000e0 c2 70 b1 3d bb de 18 bd 3b 6a a6 3d fa f4 86 bd
       0.08664085 -0.037321787 0.081257306 -0.06589694
0000f0 81 5b c5 bc fb 19 0e bd 78 c6 a6 3e 57 36 68 3e
       -0.024091484 -0.034692746 0.32573295 0.22676979
000100 ef 24 86 bd 1c ab f1 3d 22 6c 46 3e 92 be 0b bd
       -0.06550013 0.11800215 0.19377187 -0.03411729
000110 2f 6f 30 3d 1b 15 2f bd 09 1c 52 bc 8e b9 2d be
       0.043074783 -0.042744737 -0.012824067 -0.16965315
000120 ee 89 a2 bd ab 27 a0 be 6d 20 67 be e8 ca b6 bc
       -0.07936464 -0.31280264 -0.22570963 -0.02231355
000130 31 c1 87 3e 48 60 56 3c f1 de 2c bc ea 3b 8b be
       0.2651458 0.013084479 -0.0105512 -0.27194148
000140 00 aa 0b bd f1 20 8d 3e d4 2a fb bd da 48 c8 bd
       -0.03409767 0.27564195 -0.12264028 -0.0977952
000150 ab fd 39 be 60 61 41 be 0c ff 19 3e e6 47 81 bd
       -0.18163173 -0.18884802 0.15038699 -0.06312542
000160 9a 39 5d bd 76 7e 1c 3d e7 f4 16 3d 77 e6 a3 bd
       -0.05401001 0.03820654 0.03685465 -0.08002942
000170 f1 f7 99 bd 25 b3 8c 3e 25 0c a0 bd 6e 27 69 be
       -0.07517994 0.27480426 -0.078148164 -0.22768947
000180 9c d3 f3 bc bc fd 23 3e 20 b3 c7 3d 66 cb 07 be
       -0.02976399 0.1601476 0.09750962 -0.13261184
000190 ed 33 67 be 79 b1 78 be 2f a7 cd 3b 4b 20 89 bd
       -0.22578402 -0.2428645 0.0062760334 -0.066956125
0001a0 34 7c 7c 3e c5 92 49 be 06 4b 0c 3d f8 46 8c bc
       0.24656755 -0.19684894 0.034251235 -0.017123684
0001b0 d9 a4 29 3c 99 77 2e 3e f3 72 1f 3e 56 4c ce be
       0.010354244 0.1703781 0.15571193 -0.40292615
0001c0 3f 7f 17 bd 16 b2 b3 bd 5d 29 2f 3d 28 43 99 bd
       -0.036986586 -0.087742016 0.042764056 -0.07483512
0001d0 56 53 cc bd 71 3d 13 3e 2f fa 8a 3e c0 0a 77 3d
       -0.099768326 0.14378907 0.27144 0.060312986
0001e0 46 af 27 be df df 88 3e ef 17 a9 bd 4a 4d 8c bd
       -0.16375455 0.267333 -0.08256518 -0.06850679
0001f0 40 31 2b 3c 94 4f eb bc bd 77 6c be 77 21 d7 3c
       0.010448754 -0.02872447 -0.23092552 0.026261074
000200 2b 90 05 3d 34 50 24 3d e7 ba 8c bd df 19 76 bd
       0.032608192 0.04011555 -0.06871586 -0.060083266
000210 ad 14 fa 3c 6f 86 c9 bd 75 8d 0f 3e 6f 49 2c 3d
       0.030527437 -0.09840094 0.14018805 0.04206222
000220 52 27 e6 bc 6b 95 49 be 33 b6 b3 be 73 76 30 be
       -0.028094921 -0.19685905 -0.35099944 -0.17232685
000230 ad 68 1f be 85 dc 43 be 44 ba ca 3e 04 69 2f 3c
       -0.15567274 -0.1912709 0.39595234 0.01070619
000240 7d 30 06 3e ca 60 7e 3e 69 6e 5a bd ac e8 96 3e
       0.13104434 0.2484161 -0.05332795 0.2947439
000250 4a 7d 1a be 8a ab 07 3d 6c 4d 7c be 1d dc ec 3c
       -0.15086856 0.033122577 -0.24638909 0.028913552
000260 55 20 04 bd 83 00 05 3d 9d 20 28 be 07 5f 2b 3e
       -0.032257397 0.03247119 -0.16418691 0.16735469
000270 7b de 2a 3d b9 95 8e 3c 62 ef 38 bd 1b 3d 42 3e
       0.04171608 0.017405378 -0.04515017 0.18968622
000280 c9 c3 7a 3d c9 71 14 be a8 7d 3f be 51 ae a5 bd
       0.06122187 -0.1449653 -0.18700278 -0.08089889
000290 be 5a ae 3e 22 b6 3b be 15 57 d1 bd 75 24 c6 bd
       0.34053606 -0.18331197 -0.10221688 -0.096749224
0002a0 fd 53 cf 3c d2 0e bd bd b3 7a 1d 3d 4c 31 d0 3d
       0.025308603 -0.092313424 0.038447093 0.10165653
0002b0 fa 9f b0 bd 78 be 83 3e c5 97 13 3e f6 a3 76 3d
       -0.08624263 0.25731254 0.14413364 0.06021496
0002c0 12 38 d8 be 9d 79 0a 3d b9 08 97 3d 3f 8f 9c 3e
       -0.42230278 0.033807386 0.073747106 0.30578038
0002d0 69 86 9b 3d 22 74 80 be 50 aa 20 be 30 cc c3 bd
       0.07593996 -0.25088602 -0.15689969 -0.0956043
0002e0 7d c8 5c 3e 0e b2 3d 3d 47 0b b8 3e 2c a7 96 bd
       0.21560855 0.046312384 0.35946104 -0.07356104
0002f0 ae 11 31 bd ed a8 f6 3d 0e 10 96 be e9 22 a0 ba
       -0.04322975 0.12043939 -0.29309124 -0.0012217435
000300 fd d8 30 be c2 b2 00 3e 5e e0 7c 3e 3b ed 1a 3e
       -0.17270274 0.1256819 0.24694964 0.15129559
000310 7e b3 2b be aa 41 c9 3d c9 9c f8 bc f5 47 78 be
       -0.1676769 0.098269776 -0.030348198 -0.242462
000320 28 9d b5 3e 5d 76 b6 be 34 cd 09 3e a7 ea 0c 3d
       0.35471463 -0.3563718 0.13457185 0.03440347
000330 d9 cb 10 be 77 ec 25 be b3 5c d3 bc 69 8d 8a be
       -0.14140262 -0.16203485 -0.025801038 -0.27061012
000340 af 1c dc 3d db e9 0c be 58 28 62 bd 48 f0 ed 3d
       0.107476585 -0.13761084 -0.055214256 0.11618096
000350 a6 68 1e 3e e0 a6 28 be 64 53 70 3e 1b 0b 35 bd
       0.15469608 -0.16469908 0.23469311 -0.044200044
000360 a2 5b 65 bd 0f ca 73 bd a4 67 1b 3e 44 8c 9e bd
       -0.05599559 -0.05951887 0.15176255 -0.07741597
000370 b4 42 ef bd 78 8b d7 be 53 3f 5c bd 7b a9 95 bd
       -0.116826445 -0.42098594 -0.05377133 -0.073077165
000380 5f 97 85 3d b5 e4 11 be 57 d6 0b 3e cf 3a 26 3d
       0.06523012 -0.14247401 0.13655983 0.040583428
000390 4c 76 2b 3e a9 5c 2a be ab 08 f6 3d f5 04 42 3e
       0.16744345 -0.1663691 0.12013372 0.18947203
0003a0 ae 41 63 be 7e f0 be 3e af 77 0f 3e cd b2 5d bd
       -0.22193024 0.37292856 0.140105 -0.054125596
0003b0 4e ed 36 be 7b cf e9 3d ce d6 f9 3d 5f f7 0c 3d
       -0.17863962 0.11416527 0.12199174 0.0344156
0003c0 e8 33 4d 3d fb c1 c3 bd 1e 19 67 3e 4c 23 ea bd
       0.05009833 -0.09558483 0.22568175 -0.114325136
0003d0 53 f3 8e bd 27 7d 18 be 06 b7 80 3e 4c 15 87 bd
       -0.06980004 -0.14891492 0.25139636 -0.06595859
0003e0 51 f3 3b bc c4 1f 42 3d 7b 75 44 be 6a 89 fb bd
       -0.011471585 0.047393575 -0.1918544 -0.12282069
0003f0 58 5a 2c 3d 4c 1a 7b 3e 83 5b b6 be db b9 95 3e
       0.042078346 0.2452175 -0.35616693 0.2924336

linears.1.bias f4 [64]
000000 b5 f1 b4 bc 92 52 16 bd 88 23 1b 3d 70 8b 2d 3d
       -0.022087911 -0.03669984 0.037875682 0.042369306
000010 a2 ee 6a 3c 4b 89 14 3d 72 63 8e bb 47 54 b4 3d
       0.014339121 0.036263745 -0.004345351 0.08805137
000020 42 5b 8e 3a 91 92 f4 3c de df c5 bc 9b 03 05 3d
       0.0010860937 0.029855045 -0.0241546 0.03247414
000030 a0 5a 02 bd 7a 6e d2 bc 0c 13 88 bc 92 e8 c5 3c
       -0.031824708 -0.025687445 -0.016610645 0.02415875
000040 97 d7 d4 bb 76 15 0c ba e9 79 8b bc b3 7e e9 3c
       -0.006495427 -0.0005343774 -0.017025905 0.028502798
000050 79 e4 47 bc e6 a8 68 3c 32 ba ae 3c be 14 4f 3b
       -0.012200468 0.014200425 0.02132902 0.0031598057
000060 d9 38 74 bc 1a f5 a8 bb 60 b1 91 bc 45 cb 44 3c
       -0.014906132 -0.0051561715 -0.017784774 0.012011354
000070 48 96 89 3d bf 71 97 bb 7d 7c 06 bd 56 c9 99 3b
       0.06718117 -0.004621714 -0.032833565 0.0046931906
000080 64 35 f8 bc 81 3b f9 3c 02 30 a7 bd f3 49 e5 3a
       -0.030298896 0.030423881 -0.08163454 0.0017493352
000090 c1 3f ae 3c f2 1f ad bc 74 5b 6c bc 1b 40 b1 3c
       0.021270635 -0.021133397 -0.014426101 0.021637013
0000a0 4a e2 83 3c cd c6 60 bc ff 83 e1 bc e5 65 16 bc
       0.016099114 -0.013719273 -0.027528761 -0.009179567
0000b0 a3 88 1c 3e 05 d5 65 bb dd c5 7b 3c 9b 0e 6c 3c
       0.15286498 -0.0035069596 0.0153669985 0.014407779
0000c0 ec d4 e7 bc cb ea 75 3d b0 50 fd bd 93 de 26 bc
       -0.028299771 0.06003837 -0.123689055 -0.010184902
0000d0 ce 46 aa bb 27 7b 00 3d 4a 18 80 3c 8a 4f 9b 3c
       -0.005196429 0.031367447 0.015636582 0.018958826
0000e0 3b 3a 0d bd 19 0f 0e bc e0 94 5d bc de e9 96 bb
       -0.03447936 -0.008670592 -0.013524264 -0.004605516
0000f0 c6 0c 37 bb 8b 0a fa bb 40 cb 2b bd 51 be ca bc
       -0.0027931198 -0.0076306514 -0.04194188 -0.024748953

linears.2.weight f4 [64, 64]
000000 34 1e 19 be eb d2 89 3c 4f 64 4f bd 96 58 d2 3d
       -0.14952928 0.016824206 -0.05063277 0.10270803
000010 12 1a 27 be 68 b2 6c 3d d7 6d 4e 3d 4a ad a8 3d
       -0.16318539 0.05778733 0.05039772 0.08236177
000020 1d 04 41 bc e8 73 06 3d 70 0c ce bc 8d 6a 09 3e
       -0.011780766 0.03282538 -0.025152415 0.13419552
000030 c0 88 80 3c 02 e3 13 3e 2b 79 58 bd a8 f9 cb 3d
       0.015690207 0.14442065 -0.05284993 0.099597275
000040 8e db 42 b9 69 92 db 3c 3d 3a 9f 3e 40 9c 1b 3d
       -0.00018583072 0.026803212 0.3109912 0.03799081
000050 a4 5d 68 3e b7 c8 15 bc 7a cd 34 3d 80 13 b4 bd
       0.22691971 -0.009142092 0.04414127 -0.08792782
000060 4c 0a 1a 3e 3a 71 17 3e f4 b6 b2 bd ec 73 da bd
       0.1504299 0.14789286 -0.08726302 -0.106666416
000070 c8 3a 89 bd ed 23 2d be 14 38 0d bb b0 88 2e 3d
       -0.06700665 -0.16908236 -0.0021548318 0.042610824
000080 d4 05 4d 3e 20 c2 9d 3d 5a 21 58 3e 32 6a f4 bd
       0.20021755 0.07703042 0.21106473 -0.11934318
000090 0d 79 6b bd 89 68 c7 3d a1 35 85 bd e5 54 03 be
       -0.05748849 0.097367354 -0.065043695 -0.12825353
0000a0 64 19 07 3d 11 97 5f 3e 6b 9c be bc ae 99 04 3c
       0.0329832 0.21834971 -0.023267945 0.008093281
0000b0 57 9a bd 3c 31 2d df bb 3e 9b c5 3d 26 b3 bc bd
       0.023144884 -0.006810807 0.09648751 -0.09213857
0000c0 37 12 8c be 52 26 88 be 66 55 44 be 37 c4 38 bd
       -0.27357647 -0.26591736 -0.19173202 -0.045109
0000d0 3c ff 8a be b3 97 3c be 15 65 82 be 3b bd 12 3e
       -0.27147853 -0.18417244 -0.25467744 0.14329998
0000e0 3b 1b 76 bd fc 48 8c 3d 81 a1 98 3d a2 ab 59 3e
       -0.060084563 0.06849858 0.074526794 0.21256879
0000f0 8b 5e 6a bd 56 0c 2a 3e 89 c4 47 be 55 ba 18 be
       -0.05721907 0.16606268 -0.19508566 -0.1491483
000100 53 61 92 be ef 56 39 bd 9a 32 ee 3d 03 0b fb bc
       -0.28589877 -0.045248922 0.11630745 -0.0306449
000110 24 82 54 3c 77 e6 dc bd d6 f5 9c bb 8d 6b b1 3e
       0.012970481 -0.10786145 -0.004790048 0.34652367
000120 24 02 9a 3d 49 f4 27 be 11 a9 da bd 2b f6 9e 3d
       0.075199395 -0.16401781 -0.10676778 0.077617966
000130 33 ef e7 bd c0 7f 53 be 8e c8 38 bd 31 e7 47 3c
       -0.113249205 -0.20654202 -0.04511314 0.012201116
000140 43 79 72 3e 06 13 8b bd 97 e4 19 be 8c f8 a9 3e
       0.2367907 -0.06790738 -0.15028606 0.3319744
000150 5c 30 d1 bd 08 3a 49 3d f0 73 76 3d 77 42 f5 3d
       -0.10214302 0.04912761 0.06016916 0.11975568
000160 87 2d 18 be ea 54 bd bd 6b 66 af 3d d3 f4 8a be
       -0.14861117 -0.09244712 0.085644566 -0.2713991
000170 37 1f 8d 3c ac e0 36 3e 2f 60 38 bd fb 99 7d 3d
       0.017226798 0.17859143 -0.045013603 0.061914425
000180 4d 23 51 be fe f2 b2 bd f8 b7 4f be 8b 20 23 bd
       -0.20423622 -0.08737753 -0.20285022 -0.039825957
000190 9a c5 97 be 40 2c 37 be 66 7a 05 3d 8c c8 29 3e
       -0.29642946 -0.17887974 0.03258743 0.16580409
0001a0 ce 9c 17 be eb 04 e7 3c b5 f4 d2 3d 98 0c 7e 3c
       -0.1480591 0.028200587 0.103005804 0.015505932
0001b0 21 d6 88 bc d2 d6 f3 3d be 3c e5 bc 7e 3a b5 3d
       -0.016703667 0.11906208 -0.027983066 0.08849047
0001c0 ad 12 05 3e 06 1d ec 3d fe d3 15 be 6a 84 12 be
       0.12995405 0.11528973 -0.1463165 -0.14308324
0001d0 5b 6a a1 3d 1a 03 16 bb 97 1c d5 bc 91 cc 46 3e
       0.07881614 -0.0022890032 -0.02601461 0.19413973
0001e0 cd ab 16 3e 31 aa 30 3e 57 9d ad 3c c9 65 98 3d
       0.14713974 0.17252423 0.02119319 0.07441289
0001f0 15 34 22 3b 0d d4 a8 bd 8a 53 37 be 68 95 44 3c
       0.0024750282 -0.082435705 -0.17902961 0.011998512
000200 2b 8a 3e be 4b 74 86 be 47 ad 6c be 60 c4 74 3d
       -0.18607394 -0.262606 -0.23112975 0.05975759
000210 df 11 94 be 77 85 30 3e 7e 82 33 3d 2c d5 8e bc
       -0.28919885 0.17238413 0.04382562 -0.017435633
000220 ea c2 bb 3d 45 59 fe bd cf 9b 52 be 35 6d 36 be
       0.09168036 -0.124193706 -0.20567249 -0.17815097
000230 4a 44 13 bd ba 35 d0 bd 11 72 11 3e a8 55 22 bd
       -0.035953797 -0.101664975 0.14203669 -0.03963247
000240 72 53 1f be 4e 0d 28 3d 15 d8 03 3e 51 a9 12 3e
       -0.15559176 0.041028313 0.12875398 0.14322402
000250 d6 25 c0 bd 4a a2 81 3d d4 5e 87 bd 6f b4 f1 3d
       -0.09382217 0.06329782 -0.06609884 0.11801993
000260 b6 8c 54 3e 9d cc 9b bd a2 da a4 3d d5 f9 a8 3c
       0.20756802 -0.07607386 0.080495134 0.020626942
000270 b8 10 12 3e f5 bf fe 3d 6a aa 8e bd 16 16 2a 3e
       0.1426419 0.12438957 -0.06966098 0.16609988
000280 b9 bc 9b bd e0 91 20 3e 79 b3 97 3d e4 4a 77 be
       -0.07604355 0.15680647 0.074072786 -0.24149662
000290 e6 b1 3e be ac df fa bc 7b 50 b1 bd f0 0e 89 3d
       -0.1862255 -0.030624233 -0.086579286 0.06692302
0002a0 83 67 21 bd 71 9f 41 bd 1c cd 09 3e a2 19 ca bd
       -0.039405357 -0.047271196 0.1345715 -0.0986817
0002b0 87 7a d8 3d b3 d2 1b 3e 48 f9 22 3d 1a 6b 0e be
       0.10570245 0.15217094 0.039788514 -0.13908044
0002c0 3a d0 c0 bc 53 36 11 3e d4 db 0b be db d5 0f 3e
       -0.02353679 0.1418088 -0.13658077 0.14046423
0002d0 a9 7a af bd 82 c7 f8 3d da be 87 be 2f bd ba 3c
       -0.085683174 0.12147428 -0.26512796 0.022795288
0002e0 83 f3 1a bd dd 5a db 3d 95 0f 83 bd c1 11 b5 bd
       -0.037829887 0.1071069 -0.063994564 -0.08841277
0002f0 88 c1 aa 3d ba 87 24 3d 39 c9 d5 3c b2 8b d6 bd
       0.083376944 0.0401685 0.026096927 -0.104758635
000300 16 e7 8a bd e6 75 33 3e 8e 09 61 3e f2 8a a8 be
       -0.067823574 0.17525443 0.21976301 -0.32918507
000310 bb c1 df bd f9 0e 38 be ff 31 1f be 23 51 14 be
       -0.10925623 -0.17974462 -0.15546416 -0.14484076
000320 be 54 21 be 80 e5 4d 3d c0 c4 66 bc 7f fb 17 bc
       -0.15754983 0.050267696 -0.014084995 -0.00927627
000330 1f 6b f8 3b 65 91 33 3e 2e 62 83 bb e1 6b 81 bd
       0.007581129 0.17535932 -0.0040095067 -0.063194044
000340 86 b4 ba 3e ab af 84 3d ab 82 a1 3e f4 f1 55 3d
       0.36465853 0.064788185 0.31545004 0.052232698
000350 e3 fe 1d bc 55 5a 10 be 0f 53 17 be 0a 45 08 bd
       -0.009643289 -0.14096959 -0.14777778 -0.033268966
000360 e8 36 90 3d de 76 8d 3a 3d f0 1e 3d f4 36 1d be
       0.070417225 0.0010792871 0.038803328 -0.15352994
000370 f8 10 e8 3d a2 29 91 bd 09 d2 4e 3e 47 e9 87 3e
       0.113313615 -0.07088019 0.2019731 0.26545164
000380 5b 7e 52 3d cd fd 07 be 8c f9 75 3d b5 ad 27 bc
       0.051390033 -0.13280411 0.06005244 -0.010234286
000390 96 83 81 bd 91 c4 32 be 63 f0 e9 3b 2b bf 18 be
       -0.06323926 -0.17457797 0.007139252 -0.14916675
0003a0 6f 74 01 3e f7 46 69 3d 95 d2 8e 3d ad 17 bf bd
       0.12642072 0.056952443 0.06973759 -0.09330688
0003b0 8e 48 ec bd 15 97 02 3d dd fe 90 bd a2 33 ad bc
       -0.11537276 0.031882364 -0.07079861 -0.021142785
0003c0 ce fa b0 bd 88 e9 9a bd d5 f9 45 be dc f6 1a 3d
       -0.08641587 -0.07564074 -0.19333585 0.03783308
0003d0 36 6c 56 bc ad ed 26 be b7 69 20 3d 6d 4b 92 bd
       -0.013087323 -0.16301604 0.039163318 -0.071432926
0003e0 0d f3 92 3d bb 43 54 be 43 9c e9 3d d7 fa 4d 3d
       0.071752645 -0.20728962 0.11406758 0.050288048
0003f0 1f e8 42 3e ba b6 74 3e f8 48 1d bd ee 7f d1 3d
       0.1903386 0.2389783 -0.038399667 0.10229479

linears.2.bias f4 [64]
000000 4d 94 8a 3c 38 cb 2d 3d ab 46 18 3d e7 ac 04 bd
       0.016916418 0.042430133 0.03717677 -0.032391455
000010 28 1d b2 3d 04 a9 84 bd 29 2f 96 bd 24 d8 4d 3c
       0.08696967 -0.0647755 -0.07333214 0.012563739
000020 10 fe 5c bc 70 1b c0 3c 86 67 2f 3c e1 38 5b bc
       -0.013488308 0.023450583 0.010705834 -0.01338026
000030 bf 98 0f bd 18 51 bd 3c a5 45 c7 3d 69 a0 45 3b
       -0.03505778 0.023109958 0.097300805 0.0030155426
000040 f2 ce 40 bd 59 2a ae bc 18 11 b9 bc 73 f6 55 bb
       -0.04707236 -0.021260427 -0.022591159 -0.0032648116
000050 04 68 2f 3d 86 db fa bb 86 3f a7 bc b7 83 85 3b
       0.042823806 -0.0076555638 -0.020416033 0.0040745395
000060 f3 9f 82 3c f3 f9 01 3d c0 f3 9f b9 36 09 aa 3b
       0.01594541 0.03173251 -0.0003050845 0.0051890863
000070 db e6 42 ba e7 9f ac 3d 97 77 75 3b 29 51 25 3b
       -0.0007434913 0.084289365 0.0037455314 0.0025225377
000080 fd 4f d5 bc 46 43 6f bd 0a 60 b5 bc ee 9c 1f 3a
       -0.026039118 -0.058413766 -0.022140522 0.0006088753
000090 61 a1 97 bb 8e 00 ca bb c3 f2 13 3c 21 47 2c bc
       -0.004627392 -0.006164617 0.009030047 -0.010515005
0000a0 a0 d2 2a bc ca d7 2a 3b ab ab ae 3c 31 c6 24 3d
       -0.0104261935 0.0026068562 0.021322092 0.040228073
0000b0 20 bb 8e bd 2a b1 15 bc 5d 0e 98 3c 67 ff 5c bc
       -0.06969285 -0.0091364775 0.018561536 -0.013488627
0000c0 76 2a 3a 3c c9 93 5e 3d 88 52 c5 bc da 6e dd 3c
       0.011362663 0.054340158 -0.024087206 0.027030397
0000d0 6e 4c 0a bd ce 8d b9 bb c7 9a 9d 3d e7 d1 9e 3d
       -0.033764295 -0.0056626564 0.07695537 0.077548794
0000e0 7c 96 86 3d da 93 31 3c bf fc 07 bd e7 ea 76 bc
       0.06571671 0.010838473 -0.03320002 -0.0150706535
0000f0 a4 21 e2 3c 5c 32 df 3c f2 97 33 3d 17 92 c4 3b
       0.027603932 0.027245693 0.04384608 0.0059988606

linears.3.weight f4 [32, 64]
000000 62 92 e6 be 00 7f a9 bd f6 ad 21 be 07 7a 64 3e
       -0.45033556 -0.082761765 -0.15789017 0.22312175
000010 ab de 8e 3d 2c 7c 10 3e 47 95 7e 3e 6f b8 ea 3c
       0.06976064 0.14109868 0.24861632 0.028652398
000020 58 71 ad 3e 8b ae 42 bc 8b 24 02 3d f2 92 81 bc
       0.33875537 -0.011882435 0.03177313 -0.01581714
000030 75 4d b5 3d b6 bf 86 be 6e 25 93 be 05 24 53 bc
       0.088526644 -0.2631814 -0.28739494 -0.012887006
000040 40 3d fa 3c 13 78 10 3e 4b 59 1e be b7 5f 05 bd
       0.030546784 0.14108305 -0.1546375 -0.032561984
000050 f3 75 6e 3d e0 4f db 3d 73 3a 6d 3e 01 b4 c3 3d
       0.058217954 0.10708594 0.23166828 0.095558174
000060 5e 06 09 be 41 62 86 3d e4 73 3a be be a0 52 be
       -0.13381335 0.06561709 -0.18208271 -0.20569131
000070 0c 87 39 bb 30 14 dc 3d 04 ff cd 3d 97 25 36 3e
       -0.0028309254 0.10746038 0.10058406 0.17787777
000080 32 46 dd bd 05 0b 07 3c 77 79 10 3e f2 42 dd 3d
       -0.10804404 0.008242373 0.14108835 0.108037844
000090 37 4d e4 bd a5 cf d1 3c 17 72 63 3e 23 e9 00 be
       -0.1114754 0.025611708 0.2221149 -0.12588935
0000a0 57 e6 f2 3d a8 5d d1 bc bd 32 96 bc c6 09 53 3e
       0.1186034 -0.025557354 -0.01833474 0.20609197
0000b0 d3 48 e8 bc 46 ef 3e be f6 6e 5d be 22 ff b0 be
       -0.028355038 -0.18645963 -0.2162436 -0.3456965
0000c0 db 1d 4c 3e 8e ac 06 3e c0 ad 5e 3d ba e9 54 3e
       0.19933264 0.13151762 0.05436492 0.20792285
0000d0 9f 78 fe 3b d4 d6 7b 3e 87 66 b1 be 83 d3 1c 3e
       0.007765844 0.24593669 -0.34648535 0.1531506
0000e0 b9 01 3d bd 96 eb 30 3c b5 0e 87 3e a9 ea 08 3e
       -0.04614422 0.010798356 0.26378408 0.13370766
0000f0 c6 cf f6 bd a8 49 81 3d 5d 61 cc 3d dd 72 50 be
       -0.120513484 0.06312877 0.09979508 -0.20356317
000100 5d a8 93 3e 34 24 30 3e 3a 7f 19 3e 6a 24 38 3c
       0.28839388 0.1720131 0.1498994 0.011239151
000110 a8 4d b0 3e fb 08 e2 be 63 b5 68 be d5 ea ec 3d
       0.34434247 -0.44147477 -0.22725444 0.11568228
000120 b8 3b 2d 3e 5c 87 1b 3e 0e a2 7e 3e 5f 1f c0 3e
       0.16917312 0.15188354 0.24866506 0.37523934
000130 a6 aa 51 be 11 67 2d be 61 19 6a 3e ee e7 77 3d
       -0.20475253 -0.16933848 0.22861244 0.06052392
000140 bc 3a b9 bc 64 6b 98 bd a6 7b 8e 3b 4a 3a 8b 3e
       -0.022611015 -0.07442358 0.004348236 0.2719291
000150 ef 66 af 3e 24 0c 21 3e 5a d5 9f 3e a2 04 31 be
       0.3425822 0.15727288 0.31217462 -0.17286924
000160 77 a7 d7 3d fd cc f8 3d 44 9c 52 3d d7 dc bb be
       0.10529988 0.121484734 0.051418558 -0.36691925
000170 66 7c 2c 3d fe a9 62 bc d3 1d 18 be f9 3a 6d be
       0.042110823 -0.013834475 -0.14855127 -0.23167028
000180 90 7b 34 3e 6b 90 1e be 41 87 9a 3b b8 cc 94 be
       0.1762526 -0.15484779 0.0047158306 -0.29062438
000190 a3 b0 b8 3e de ff f6 3e 67 43 22 3b bb b8 d7 3c
       0.36072263 0.48242086 0.0024759413 0.026333204
0001a0 73 0a bc 3d 3e 5f 98 be e4 d7 f2 bd 94 57 26 be
       0.091816805 -0.29760164 -0.11857584 -0.16244346
0001b0 94 b3 88 3d e1 c3 48 3e ce f0 1b 3e d1 70 c9 3d
       0.06674877 0.19605972 0.15228578 0.09835971
0001c0 b5 1a a6 3d c8 0d a3 bd 50 f3 5d 3e e9 38 b4 be
       0.08110563 -0.07961613 0.21674848 -0.3519967
0001d0 30 d6 90 bd d6 8a 29 bd 0d 08 11 3e 1d 4c 73 3c
       -0.07072103 -0.04139217 0.14163227 0.01484969
0001e0 c0 60 90 3e 6a 89 a8 bb 8b 4c 11 bf 93 d0 c4 bc
       0.28198814 -0.005143334 -0.5675742 -0.024025237
0001f0 3c 0e c1 bd 13 60 ce be 87 f9 db 3e 6d 11 93 3e
       -0.09426543 -0.40307674 0.42963812 0.28724232
000200 b0 03 6d 3e 10 7f 2b be 28 13 53 3e 4f 11 ac 3d
       0.23145938 -0.16747689 0.20612776 0.08401739
000210 2e 98 8b 3d f8 06 5e 3e 09 a5 9e bd e6 15 ae bc
       0.06816135 0.21682346 -0.07746322 -0.021250676
000220 3f fa 24 be c4 16 09 be cb 16 3f be a3 54 d5 3d
       -0.16111086 -0.1338759 -0.18661039 0.10416534
000230 ab 30 d2 3b 91 b8 51 be de 57 d4 bc 4c e6 d7 bd
       0.006414493 -0.20480563 -0.025920805 -0.105419725
000240 74 37 e5 3d a6 46 3c 3e 7d 89 66 3e 42 75 ad 3d
       0.111922175 0.18386325 0.22513385 0.08469631
000250 8b e7 e8 bd 44 e1 4c 3e c5 86 07 3e 83 dc bb 3d
       -0.11372288 0.20007807 0.13235004 0.09172919
000260 8b 94 8d bc 00 7b e2 bc 33 5f 84 3d c6 2a b3 bd
       -0.017282745 -0.027646542 0.0646347 -0.08748393
000270 c0 e1 4c be 7a ee 94 bd 07 07 1d 3d 3c 2f 74 bd
       -0.20007992 -0.07272048 0.03833678 -0.05961536
000280 2b 6e 6e 3e e3 86 bf bc 2c b2 92 3e ad 27 78 3d
       0.23284213 -0.023379749 0.2865156 0.060584713
000290 05 d6 ee 3d 1e 50 bf bc 42 f4 45 bd b1 b4 b9 3d
       0.11661915 -0.023353633 -0.048328646 0.09067667
0002a0 b0 b8 73 be 95 21 7e be c2 b8 45 3e 56 58 a5 be
       -0.23800921 -0.24817498 0.19308761 -0.32293957
0002b0 25 1e f8 bc 66 cb 8c 3e 7c 81 be be 5c dc 33 bd
       -0.030287812 0.2749893 -0.37208164 -0.043911323
0002c0 29 59 14 3e 40 76 6e 3d d3 90 a7 3d a1 fa 0d be
       0.14487137 0.05821824 0.0818192 -0.13865139
0002d0 ad 5a 83 3e d4 13 91 bd df 95 ae be df 9d 2c bb
       0.25655118 -0.0708386 -0.34098718 -0.0026339216
0002e0 0a 96 9b 3d 1d 01 d3 bd 34 e6 f9 bc 15 1e 42 3c
       0.07596977 -0.10302947 -0.030505277 0.011847992
0002f0 25 f0 2d be 5d 6f 6b 3e 53 e8 a2 bd 1f 68 60 3e
       -0.16986139 0.229917 -0.079544686 0.21914719
000300 05 19 98 be b0 7d 49 3e 06 f0 bb 3d ec ae a6 bd
       -0.29706588 0.19676852 0.0917664 -0.081388324
000310 fd 07 9a 3d 04 fb 46 be 41 72 83 3e 2a f7 8b 3d
       0.07521055 -0.19431692 0.25673106 0.06834252
000320 ef 9e f5 3c 47 42 c7 be 29 25 d4 bd 47 c4 08 be
       0.029983012 -0.38917753 -0.1035865 -0.13356124
000330 39 26 ef 39 fa 3a 16 3e 80 28 ce bb 6e 0e 5e be
       0.0004561411 0.14670935 -0.006291449 -0.21685192
000340 7a 36 23 3e 28 82 0f be 50 bc 30 3e a8 d8 6a 3e
       0.1593875 -0.14014494 0.17259336 0.2293421
000350 73 19 10 be 0b 21 d5 bd 32 5b 90 3e 18 c0 04 bd
       -0.14072208 -0.10406693 0.28194577 -0.032409757
000360 e6 1f 45 be 90 19 d0 bd 5a 43 0d 3e 53 a9 26 3e
       -0.1925045 -0.10161126 0.13795224 0.1627553
000370 56 69 39 3d 8a ef 19 be 2c 9d ed bd 13 81 0d 3e
       0.04526647 -0.15032783 -0.11602244 0.13818769
000380 45 7c 69 3d ef 68 85 3e 62 a0 be 3d 59 f3 96 be
       0.05700328 0.2605662 0.09307934 -0.29482535
000390 ec 86 12 bd f3 ca 5a be fa 81 0c 3e bd 3d 8d 3c
       -0.035773203 -0.21366481 0.13721457 0.017241353
0003a0 0b 80 98 3d 9c e0 01 be 3f 84 c9 bd 84 95 08 be
       0.07446297 -0.12683338 -0.09839677 -0.13338286
0003b0 8d c6 83 be 5c cf 8e 3e c2 1f 28 be 4e d1 ac 3c
       -0.2573742 0.27892578 -0.16418365 0.021095898
0003c0 e1 c1 4e bd 2d 48 4c be 8f 61 22 3e da ed f4 bd
       -0.050477866 -0.19949408 0.15857528 -0.11959429
0003d0 15 67 45 3e d6 35 9e bd eb dd 52 be 9d 37 0a be
       0.19277604 -0.07725112 -0.20592467 -0.13497777
0003e0 0c cf 42 3e 34 8e 01 3e 2d e4 c7 3e 5e d6 40 bd
       0.19024295 0.12651902 0.39041272 -0.047079436
0003f0 d8 0e 2d 3c 5f da 86 3d 67 56 21 bd 7c 9d d2 3c
       0.010562621 0.0658462 -0.03938904 0.02570986

linears.3.bias f4 [32]
000000 51 9f 02 bd 2b 62 4a 3d ff 0b 0d bd e9 72 e7 bc
       -0.031890217 0.049410027 -0.03443527 -0.028253036
000010 f4 e4 a7 bc ee e3 5c bd 9c 50 8c 3d 55 c3 1f 3d
       -0.020494916 -0.05392831 0.068513125 0.039004643
000020 90 4b b7 3c d2 3b 7e 3c 98 bf 59 bc 42 c2 d4 bc
       0.022374898 0.015517192 -0.013290308 -0.025971536
000030 d3 16 4f bd 17 b9 96 3a 05 f3 b3 bc 1d a3 08 3d
       -0.050558876 0.0011499253 -0.021966467 0.033358682
000040 56 5b 2f bb fe 4d 4b bc e8 66 0e 3d 3a 79 52 bb
       -0.0026757321 -0.0124087315 0.034766108 -0.0032115714
000050 c1 be a9 bc d7 1e 30 bc 26 3e 26 bd f9 28 17 3d
       -0.020720841 -0.01074954 -0.040586613 0.03690431
000060 42 78 03 3c 40 cd 25 bd 8c 55 a2 bc c3 16 83 bd
       0.008024277 -0.040478945 -0.019816183 -0.06400826
000070 91 4b 6a bd 8b 22 00 bd 41 93 ad bc f5 63 80 bb
       -0.057200972 -0.031282943 -0.02118838 -0.003918166

linears.4.weight f4 [4, 32]
000000 ad e6 66 3e 9f 72 13 be 88 a5 e3 bd 39 6c ed 3d
       0.22548933 -0.14399193 -0.11115557 0.115929075
000010 81 aa b6 bd 9e dc bc bc 01 15 99 bc 96 df 20 3e
       -0.0891924 -0.023054417 -0.018686773 0.15710291
000020 87 35 cf be 12 9d ee 3e e6 6d f6 bc 42 42 a3 3c
       -0.40470526 0.4660421 -0.0300817 0.019929055
000030 f1 58 a6 bc 86 59 47 3e 30 f3 52 bf 01 38 41 3e
       -0.020306082 0.19467744 -0.82402325 0.1886902
000040 c8 bf a7 3e 73 ae cc 3e 3f 1a 74 3d b2 fb 08 3e
       0.32763505 0.39976844 0.059595343 0.13377264
000050 c3 24 0f be 66 a0 c6 bd 84 13 83 3e bd 37 a9 bd
       -0.13978867 -0.09698562 0.25600827 -0.08262584
000060 71 89 de be a8 48 a5 bd ba b8 3d bb 04 28 2e 3e
       -0.43464234 -0.08070499 -0.0028949217 0.17007452
000070 c9 51 d5 3d f5 57 9f 3e 60 12 1e bf 95 52 cf 3d
       0.1041599 0.31121793 -0.6174679 0.10123173
000080 af 3e 94 bd d4 13 07 3e 6c 38 32 bf 59 25 d8 be
       -0.072385184 0.13191158 -0.6961734 -0.42215994
000090 9d ec 13 bf 16 3b 3f bf 73 9b 91 3e d1 4c 4a 3f
       -0.5778292 -0.74699533 0.2843891 0.7902346
0000a0 fb 7a ec 3d d5 e4 59 3e 5c 9b d7 be d3 96 b5 be
       0.11546894 0.21278699 -0.42110717 -0.35466632
0000b0 b7 ec 23 bf 3c 16 29 3e 21 50 44 bf af 45 4e 3f
       -0.64033073 0.16512388 -0.76684767 0.8057508
0000c0 f2 e2 8b 3e 7a 0f f4 bd af 94 67 3f 1d 1a 76 3e
       0.27321583 -0.119170144 0.9046125 0.24033399
0000d0 66 7a 21 bf 0d 63 10 bf 0d 3d 1b bf ec 3f 01 3f
       -0.6307739 -0.5640114 -0.6064003 0.5048816
0000e0 41 31 45 3e ef 24 37 bf ae d0 ad be e7 84 4b bf
       0.1925707 -0.7154073 -0.33948272 -0.7949967
0000f0 6b 2e ba 3e 8d 88 ea bd c3 bf 13 bf 44 8d 56 be
       0.3636354 -0.11451826 -0.5771448 -0.20952326
000100 a5 7c d5 3e b0 22 22 3f 53 d9 eb bd 94 bc b3 be
       0.4169666 0.6333418 -0.11516061 -0.3510481
000110 40 e1 39 3d 83 30 b7 3e 0b 7e 9b 3e 3e 06 85 be
       0.04538083 0.357792 0.303696 -0.25981325
000120 40 82 a1 bc 73 5b 05 3f 83 8c a0 bd bd 61 64 bd
       -0.019715428 0.52092665 -0.078393005 -0.055757273
000130 a5 1d 32 3e f5 91 21 3f d6 14 41 3e 7c 2f c7 3c
       0.17394121 0.6311334 0.18855605 0.024314635
000140 6d 29 4f 3e 92 ff 06 3f e1 a4 8b bd 6c b4 8a 3e
       0.20230646 0.5273372 -0.068185575 0.27090776
000150 2b 8a 99 3e 44 c9 a0 be e0 37 92 be c3 b1 9b be
       0.29988226 -0.31403553 -0.28558254 -0.3040906
000160 75 58 ef 3e 60 58 d0 be b4 57 16 bd 35 7d ec be
       0.46747175 -0.40692425 -0.036704734 -0.46189275
000170 20 85 ea 3c 9c 9d 6d 3e 9b 27 8b be 36 81 8a bd
       0.028627932 0.23204654 -0.27178654 -0.06762926
000180 73 fe 8a be c6 bc f0 3e 79 91 01 bf d8 cd 26 be
       -0.27147254 0.47019023 -0.506126 -0.1628946
000190 83 57 8a be 70 c1 05 bf 92 6f 56 3f 9e 4c a0 3e
       -0.2701989 -0.5224829 0.8376399 0.31308454
0001a0 f6 7b 09 3f 32 aa ca 3e a1 7d 49 bf 5c ab f6 be
       0.53704774 0.39582974 -0.7870732 -0.48177612
0001b0 e9 ad 9d be a0 38 10 3f e5 00 91 be 02 f4 4a 3f
       -0.30796745 0.563364 -0.28320995 0.79278576
0001c0 df aa 25 3f 0c a0 b1 3d ba 68 b8 3e e4 62 12 be
       0.64713854 0.08673105 0.360174 -0.14295536
0001d0 9b d7 24 bf d6 ff 2a bf 93 ca f2 be 5f dc 28 be
       -0.6439149 -0.66796625 -0.47420177 -0.16490315
0001e0 c0 2f 11 bf 9c 05 83 bf 9b 08 1f bf 0a 00 ff be
       -0.56713486 -1.0236087 -0.62122506 -0.49804717
0001f0 6a 4c 43 3f a8 8a d3 3c 30 0a f4 3d 0a 1f d9 3e
       0.76288474 0.025822952 0.119160056 0.42406493

linears.4.bias f4 [4]
000000 ee 01 ca bb 58 3f a0 3e e5 08 79 3d 8b 39 dc 3e
       -0.006164781 0.31298327 0.060799498 0.43012652
