Iterations/Test model/epoch_2940.pt (torch, 37739 bytes, 10 tensors)

linears.0.weight f4 [32, 2]
0	0x3ea56942	0.32306868
1	0xbdad3e57	-0.08459156
2	0x3e8ef3f3	0.27920493
3	0xbead0318	-0.33791423
4	0x3e798410	0.24366784
5	0xbeba0b15	-0.3633658
6	0xbdcccfaf	-0.1000055
7	0xbf0643db	-0.5244729
8	0xbd38dc42	-0.04513193
9	0x3ea0fdb6	0.31443566
10	0x3d3cf756	0.046134315
11	0xbf0b64f9	-0.5445095
12	0x3e3589ee	0.17728397
13	0x3f145ba6	0.57952344
14	0x3e2a38f5	0.1662329
15	0x3e6e7053	0.23285036
16	0x3ebbb7e6	0.3666374
17	0xbd94db18	-0.07268351
18	0xbe6ef69a	-0.23336259
19	0xbe1f3998	-0.15549314
20	0xbde704d4	-0.11280218
21	0xbee14c5f	-0.4400358
22	0xbe7a352f	-0.2443435
23	0x3e6a5ec7	0.22887717
24	0xbdd8b404	-0.1058121
25	0xbe24e36c	-0.1610238
26	0x3e271ef9	0.16320409
27	0xbe8d5b70	-0.27608824
28	0xbdfc7a72	-0.12328042
29	0x3f300a72	0.6876594
30	0xbd6bbc7b	-0.057552796
31	0xbe7a6c43	-0.24455361
32	0x3e60eb69	0.21964802
33	0x3f0b91e4	0.54519486
34	0x3e94e63d	0.29081908
35	0x3dfdc99f	0.12391972
36	0xbddd12f4	-0.10794631
37	0x3e84c1e8	0.2592919
38	0xbe2f6927	-0.17129956
39	0xbe60faee	-0.21970722
40	0xbde97fb6	-0.11401312
41	0xbe3375de	-0.17525432
42	0x3e8d3cf5	0.2758557
43	0x3daa1c9c	0.08306238
44	0x3f2b7639	0.6697727
45	0x3caffa35	0.021481613
46	0x3e87f9b6	0.26557702
47	0xbe6747fa	-0.2258605
48	0xbf12a85a	-0.57288134
49	0x3e609c0b	0.21934526
50	0x3ea9f5c7	0.33195326
51	0xbdeff069	-0.117157765
52	0xbe3813fe	-0.17976376
53	0xbe070179	-0.13184156
54	0x3d342468	0.043980032
55	0x3ea37c52	0.31930786
56	0x3da5f66a	0.081036404
57	0xbe6b5f21	-0.22985508
58	0xbce808bb	-0.028324476
59	0x3ec1df3b	0.37865624
60	0x3e1f9fb9	0.15588273
61	0xbe9b69df	-0.3035421
62	0xbd3993f3	-0.04530711
63	0x3f2ead4f	0.682332

linears.0.bias f4 [32]
0	0x3b737b52	0.0037152362
1	0x3c81207a	0.015762556
2	0x3c41c4b4	0.011826683
3	0x3bd4d994	0.006495664
4	0x3c604351	0.0136879245
5	0xbc36003d	-0.011108455
6	0x3b7a3c4d	0.0038182915
7	0xbd1f323e	-0.038866274
8	0xbcad0978	-0.02112268
9	0xbc8e9d1c	-0.0174089
10	0xbab973fb	-0.0014148945
11	0xbd6ecd9f	-0.058301564
12	0x3d3ac543	0.04559828
13	0xbd0b498b	-0.034005683
14	0x3c747350	0.014920071
15	0xbc45ca8e	-0.012072219
16	0xbb6c41b2	-0.00360499
17	0x39b924e4	0.00035313435
18	0x3cd27a59	0.025693106
19	0xba6eb20d	-0.0009105511
20	0x3c560412	0.013062494
21	0xbcadb8da	-0.021206308
22	0x3dcf9411	0.10135663
23	0x3c659b32	0.014014052
24	0xbd77d32c	-0.060504124
25	0x3cc4ee04	0.024039276
26	0xbc170d34	-0.009219456
27	0x3c43aef1	0.011943565
28	0x3cb5dacf	0.022199063
29	0x3c315965	0.010824536
30	0xbe2ab2e8	-0.1666981
31	0x3c5e93bd	0.013585028

linears.1.weight f4 [64, 32]
0	0x3ce8c80f	0.028415708
1	0xbe87282c	-0.26397836
2	0xbe46dfce	-0.19421312
3	0xbe340af7	-0.17582308
4	0x3e38b1c4	0.18036562
5	0x3c550b42	0.013003172
6	0xbda64978	-0.08119482
7	0x3e8639b0	0.26215887
8	0x3e2d48a5	0.16922243
9	0x3ea06807	0.31329367
10	0x3dac87e6	0.08424358
11	0x3ea56138	0.32300735
12	0xbe654a6f	-0.22391675
13	0xbef67660	-0.48137188
14	0xbbac9082	-0.00526625
15	0xbe3793db	-0.17927496
16	0x3ea0af75	0.31383863
17	0x3c7b342a	0.015332261
18	0xbcc2251d	-0.023699338
19	0x3d30438c	0.043033168
20	0xbebe0c58	-0.37118793
21	0xbd2c6d75	-0.042096574
22	0xbddc02ec	-0.10742745
23	0x3e45a57c	0.19301409
24	0x3dbc2511	0.09186757
25	0x3e295f8c	0.16540354
26	0xbe8f05e7	-0.2793419
27	0xbdb41bd2	-0.08794369
28	0x3df8ca25	0.12147931
29	0x3dd79f45	0.10528425
30	0xbda27740	-0.079329014
31	0x3dbb189b	0.091355525
32	0x3cdbfda8	0.026854351
33	0x3daf8c98	0.08571738
34	0xbdd60dde	-0.10451864
35	0x3e1d0231	0.15332867
36	0xbdfec7c0	-0.12440443
37	0xbdfb8b90	-0.12282479
38	0x3e5800f5	0.21094115
39	0x3ea141e8	0.31495595
40	0x3ec73929	0.38910797
41	0x3e6b0121	0.2294965
42	0xbdf3043e	-0.118660435
43	0xbd52ed87	-0.051496055
44	0xbd8a65b6	-0.06757681
45	0x3e11163c	0.14168638
46	0x3dfac98a	0.12245472
47	0xbd69334f	-0.056933697
48	0x3e615a71	0.22007157
49	0xbe3c73b7	-0.18403517
50	0xbe6a5bab	-0.22886531
51	0xbd660f46	-0.05616691
52	0xbc99830e	-0.01873925
53	0x3ea7a1dd	0.3274068
54	0xbdbf416d	-0.09338651
55	0xbe0ed58b	-0.13948648
56	0x3db1e1eb	0.086856686
57	0xbd19bf76	-0.037536107
58	0x3da6d88e	0.08146773
59	0xbd87b047	-0.06625419
60	0xbcc69335	-0.024240116
61	0xbd0f3519	-0.034962747
62	0x3ea6d55a	0.3258465
63	0x3e67eb8f	0.22648452
64	0xbd86d9f7	-0.06584542
65	0x3df0eb4c	0.11763629
66	0x3e46124b	0.19342916
67	0xbd0a8262	-0.03381575
68	0x3d2f5ba3	0.042812
69	0xbd2e0eb7	-0.042494502
70	0xbc583818	-0.013196968
71	0xbe2dbf96	-0.16967615
72	0xbda3193d	-0.07963798
73	0xbe9ff15b	-0.31238827
74	0xbe66c12b	-0.22534625
75	0xbcb1d34f	-0.021707205
76	0x3e879ec6	0.26488322
77	0x3c5671d6	0.013088664
78	0xbc2c6724	-0.0105226375
79	0xbe8af1d8	-0.27137637
80	0xbd0cff7f	-0.034423348
81	0x3e8cf4d6	0.27530545
82	0xbdfb4d28	-0.12270576
83	0xbdc79258	-0.0974471
84	0xbe39cfaa	-0.18145624
85	0xbe419df8	-0.18907917
86	0x3e195022	0.14971974
87	0xbd820e72	-0.063504115
88	0xbd5ae989	-0.053445373
89	0x3d1ab77c	0.03777264
90	0x3d18718f	0.037217673
91	0xbda54057	-0.080689125
92	0xbd9b04cf	-0.075692765
93	0x3e8c71e7	0.2743065
94	0xbd9c49d6	-0.076312706
95	0xbe698f19	-0.22808494
96	0xbd074cc4	-0.033032194
97	0x3e20c2b5	0.15699275
98	0x3dc1549a	0.094399646
99	0xbe04783b	-0.1293649
100	0xbe65bb61	-0.2243476
101	0xbe79bc75	-0.24388297
102	0x3b3d8338	0.0028917324
103	0xbd8e68e4	-0.069536
104	0x3e7935b6	0.24336895
105	0xbe460797	-0.19338833
106	0x3d19feed	0.03759663
107	0xbc5c3f89	-0.013442882
108	0x3c45b3a8	0.012066759
109	0x3e2c1d43	0.16808037
110	0x3e218e6c	0.15776986
111	0xbecc810f	-0.39942214
112	0xbd251a05	-0.040308017
113	0xbdba8cb3	-0.091088675
114	0x3d3800a3	0.044922482
115	0xbd9200d1	-0.07129062
116	0xbdc62ac6	-0.09676127
117	0x3e10031b	0.14063685
118	0x3e88e7a3	0.26739225
119	0x3d695f86	0.056975864
120	0xbe23c333	-0.15992431
121	0x3e871706	0.26384753
122	0xbda2603c	-0.079285115
123	0xbd9371a1	-0.07199407
124	0x3bef95d3	0.0073115616
125	0xbce6e6a0	-0.028186142
126	0xbe6bf4ea	-0.23042646
127	0x3cdbb7de	0.026821073
128	0x3d055ac5	0.032557268
129	0x3d243fa0	0.04009974
130	0xbd8cbaff	-0.06871604
131	0xbd7531d0	-0.059861958
132	0x3cf77db0	0.0302113
133	0xbdc893aa	-0.0979379
134	0x3e0f6445	0.14003094
135	0x3d2c01fd	0.041994084
136	0xbce69ce8	-0.02815099
137	0xbe498134	-0.19678193
138	0xbeb39f58	-0.35082507
139	0xbe306c11	-0.17228724
140	0xbe1f5d71	-0.15562989
141	0xbe43ce9a	-0.19121781
142	0x3ecaa079	0.39575556
143	0x3c32943a	0.010899598
144	0x3e060ddb	0.13091223
145	0x3e7e4e49	0.24834551
146	0xbd5ad28a	-0.053423442
147	0x3e96f4a6	0.29483527
148	0xbe1a68b6	-0.15079007
149	0x3d076dfa	0.033063866
150	0xbe7c4e9e	-0.24639365
151	0x3ceca38d	0.02888658
152	0xbd03fae7	-0.0322217
153	0x3d04c837	0.032417502
154	0xbe280e6f	-0.16411756
155	0x3e2b12ab	0.1670634
156	0x3d2b0a13	0.041757654
157	0x3c89b742	0.016811017
158	0xbd37ebe6	-0.044902705
159	0x3e4199ae	0.1890628
160	0x3d827a53	0.06370988
161	0xbe1178d9	-0.14206256
162	0xbe3c775d	-0.18404908
163	0xbda512d6	-0.08060233
164	0x3eac6f1d	0.33678523
165	0xbe3719a2	-0.17880872
166	0xbdcf9a78	-0.101368845
167	0xbdc43c9e	-0.09581874
168	0x3ce240cd	0.02761879
169	0xbdc1a393	-0.094550274
170	0x3d1b5ec5	0.037932176
171	0x3dc91caf	0.09819924
172	0xbdb13525	-0.08652715
173	0x3e84e608	0.2595675
174	0x3e0feaf1	0.14054467
175	0x3d730b9c	0.059337243
176	0xbed7a5b7	-0.42118618
177	0x3d135578	0.03597018
178	0x3d91f6a5	0.07127122
179	0x3e9ba5d4	0.30399954
180	0x3d9901c4	0.0747104
181	0xbe7ee6b7	-0.24892698
182	0xbe1cf54e	-0.15327951
183	0xbdbdfed0	-0.09277117
184	0x3e5955f8	0.212242
185	0x3d491b5a	0.04909835
186	0x3eb7003c	0.35742366
187	0xbd9714c2	-0.07377006
188	0xbd21949b	-0.03944836
189	0x3ded423c	0.11584899
190	0xbe961ec9	-0.29320362
191	0xbbbb0f6c	-0.0057086255
192	0xbe310c98	-0.1728996
193	0x3e006db8	0.12541854
194	0x3e7c9591	0.2466643
195	0x3e1abdfb	0.15111534
196	0xbe2af180	-0.16693687
197	0x3dc72a21	0.09724832
198	0xbcf8558d	-0.030314231
199	0xbe785929	-0.24252762
200	0x3eb58548	0.35453248
201	0xbeb66320	-0.356225
202	0x3e09b9c6	0.13449773
203	0x3d0e0b2b	0.03467862
204	0xbe10c100	-0.14136124
205	0xbe263990	-0.16232896
206	0xbcce9b47	-0.025220526
207	0xbe8a9659	-0.2706783
208	0x3ddc1730	0.1074661
209	0xbe0d114b	-0.13776128
210	0xbd60b27f	-0.054857727
211	0x3dee2865	0.116287984
212	0x3e1e7c6c	0.1547715
213	0xbe28ce4e	-0.16484949
214	0x3e6ff99a	0.23435059
215	0xbd361032	-0.04444904
216	0xbd642d71	-0.0557074
217	0xbd74ac97	-0.059734907
218	0x3e1b8c24	0.15190178
219	0xbd9e0dbb	-0.07717463
220	0xbdf009ba	-0.11720605
221	0xbed6ec18	-0.41977
222	0xbd5d5157	-0.05403265
223	0xbd92fca0	-0.07177091
224	0x3d854b91	0.06508554
225	0xbe11ee0b	-0.14250962
226	0x3e0bd981	0.1365719
227	0x3d2969d3	0.041360687
228	0x3e2a54ea	0.16633955
229	0xbe28ba30	-0.16477275
230	0x3df4e2df	0.11957335
231	0x3e41d038	0.18927085
232	0xbe6364d1	-0.22206427
233	0x3ebf1469	0.3732026
234	0x3e101be3	0.14073138
235	0xbd5d095b	-0.053964
236	0xbe36d62f	-0.17855142
237	0x3dea41b6	0.114383146
238	0x3df86e15	0.121303715
239	0x3d0feebd	0.035139788
240	0x3d4b541d	0.049640764
241	0xbdc43665	-0.095806874
242	0x3e66bc22	0.22532704
243	0xbde978a5	-0.11399964
244	0xbd8e64ca	-0.06952818
245	0xbe18a863	-0.14907984
246	0x3e80a26f	0.25123927
247	0xbd873ec8	-0.066037714
248	0xbc396180	-0.01131475
249	0x3d417144	0.04722716
250	0xbe4432ce	-0.19160005
251	0xbdfdb7da	-0.123885825
252	0x3d2cb44f	0.042164143
253	0x3e790977	0.24320017
254	0xbeb5ba3d	-0.3549365
255	0x3e94a66d	0.29033223

linears.1.bias f4 [64]
0	0xbcb5617e	-0.022141214
1	0xbd172e2a	-0.03690926
2	0x3d1463d8	0.03622803
3	0x3d27396a	0.04082624
4	0x3c685090	0.014179364
5	0x3d1ce108	0.038300544
6	0xbb93028d	-0.004486388
7	0x3db26f3a	0.08712621
8	0x39d3267e	0.00040273735
9	0x3ceccfc2	0.02890766
10	0xbcc4d91b	-0.024029305
11	0x3d01dccc	0.03170471
12	0xbd05c1f7	-0.032655682
13	0xbcd163b1	-0.025560232
14	0xbc88a0e9	-0.01667829
15	0x3ccaf5b1	0.024775358
16	0xbbd02820	-0.0063524395
17	0xb9fae422	-0.00047853688
18	0xbc8c1715	-0.01710085
19	0x3ce3cc2a	0.027807314
20	0xbc43df2e	-0.011955066
21	0x3c6e368f	0.014539375
22	0x3caf9564	0.02143354
23	0x3b4d2366	0.0031301617
24	0xbc71cd8b	-0.014758478
25	0xbbabe068	-0.005245257
26	0xbc962fe6	-0.018333387
27	0x3c412913	0.011789578
28	0x3d88cd8c	0.0667983
29	0xbb8ab792	-0.004233309
30	0xbd06b8ca	-0.032891072
31	0x3bcba0ac	0.006214222
32	0xbcf88643	-0.030337458
33	0x3cd270a2	0.025688473
34	0xbdaa1d94	-0.08306423
35	0x3af12069	0.00183965
36	0x3ca963aa	0.020677406
37	0xbcaec95c	-0.02133625
38	0xbc7b55ec	-0.01534031
39	0x3caf4198	0.021393582
40	0x3c8191ad	0.015816534
41	0xbc5c7151	-0.013454751
42	0xbcdda942	-0.027058247
43	0xbc193cc0	-0.009352863
44	0x3e1c15d9	0.15242709
45	0xbb58d1c2	-0.003308401
46	0x3c794801	0.015214921
47	0x3c6a8ee3	0.014316293
48	0xbce44fdb	-0.02787011
49	0x3d726308	0.059176475
50	0xbdfacf0f	-0.122465245
51	0xbc20a75c	-0.009805527
52	0xbbb22039	-0.00543597
53	0x3cfc9b68	0.030835822
54	0x3c7c4ef7	0.015399686
55	0x3c9a1e4e	0.018813279
56	0xbd0cb521	-0.034352425
57	0xbc0c6d1f	-0.008570938
58	0xbc5d7d34	-0.01351862
59	0xbbc703e4	-0.006073462
60	0xbb40355b	-0.0029328677
61	0xbbf16018	-0.0073661916
62	0xbd328918	-0.043587774
63	0xbccadfd6	-0.024764936

linears.2.weight f4 [64, 64]
0	0xbe193fcb	-0.14965741
1	0x3c8b5e9a	0.017012883
2	0xbd4f1f3c	-0.050566897
3	0x3dd283dc	0.102790564
4	0xbe27194f	-0.16318248
5	0x3d6bdee9	0.05758563
6	0x3d4f1007	0.050552394
7	0x3da83c2a	0.082146004
8	0xbc3e6088	-0.0116196945
9	0x3d06de21	0.032926682
10	0xbccc2216	-0.024918597
11	0x3e097375	0.1342295
12	0x3c81fc15	0.015867272
13	0x3e13fc8f	0.14451812
14	0xbd5a283d	-0.05326103
15	0x3dcba3c0	0.09943342
16	0x3a2de0c1	0.0006632917
17	0x3cdb7823	0.026790684
18	0x3e9f5f9b	0.3112763
19	0x3d1c431f	0.03814995
20	0x3e6874d4	0.22700816
21	0xbc195b2e	-0.009360118
22	0x3d33ee46	0.043928407
23	0xbdb46965	-0.08809165
24	0x3e1a04b3	0.15040855
25	0x3e177e90	0.14794374
26	0xbdb26b9f	-0.08711933
27	0xbddae48e	-0.106881246
28	0xbd895fe6	-0.06707744
29	0xbe2d5302	-0.16926196
30	0xbb027c75	-0.0019910608
31	0x3d2e0c6d	0.04249232
32	0x3e4d3ebc	0.20043463
33	0x3d9d70f6	0.07687561
34	0x3e58577b	0.21127121
35	0xbdf58711	-0.119886525
36	0xbd6b090e	-0.057381682
37	0x3dc7964e	0.09745465
38	0xbd84dceb	-0.06487449
39	0xbe0395a6	-0.12850055
40	0x3d0676ed	0.03282826
41	0x3e5fb067	0.21844636
42	0xbcbbf44d	-0.02294364
43	0x3c015d3f	0.007895767
44	0x3cbb56f0	0.022868603
45	0xbbd8bf85	-0.006614628
46	0x3dc559bc	0.09636256
47	0xbdbd26b6	-0.09235899
48	0xbe8c1a23	-0.2736369
49	0xbe8816d5	-0.2657992
50	0xbe4415c6	-0.19148931
51	0xbd391891	-0.045189444
52	0xbe8ae909	-0.27130917
53	0xbe3c92cb	-0.18415372
54	0xbe82629c	-0.25465858
55	0x3e128557	0.14308678
56	0xbd7500b8	-0.05981514
57	0x3d8c7365	0.06857947
58	0x3d9b0504	0.07569316
59	0x3e59cc27	0.21269284
60	0xbd69d8d4	-0.05709155
61	0x3e2a4e13	0.16631345
62	0xbe47a25b	-0.19495527
63	0xbe188a66	-0.14896545
64	0xbe924863	-0.28570852
65	0xbd3907c9	-0.04517344
66	0x3ded83d5	0.115974106
67	0xbcfdd152	-0.0309836
68	0x3c4dbd1f	0.012557297
69	0xbddc5090	-0.107575536
70	0xbba4105d	-0.0050068335
71	0x3eb0afce	0.34509128
72	0x3d991088	0.07473856
73	0xbe2826de	-0.16421077
74	0xbdda955e	-0.10673021
75	0x3d9ea450	0.07746184
76	0xbde84f99	-0.11343307
77	0xbe52977a	-0.20565596
78	0xbd3a8e55	-0.045545895
79	0x3c4b9f8d	0.012428177
80	0x3e7328df	0.2374606
81	0xbd8a44ea	-0.067514256
82	0xbe198e6b	-0.14995734
83	0x3ea9d3c9	0.33169392
84	0xbdd0d656	-0.10197131
85	0x3d4a743d	0.04942726
86	0x3d74fa6d	0.059809137
87	0x3df54f9a	0.119780734
88	0xbe17c080	-0.14819527
89	0xbdbde349	-0.09271867
90	0x3daef99c	0.08543703
91	0xbe8b112a	-0.27161533
92	0x3c8a611e	0.016892012
93	0x3e36efe3	0.17864947
94	0xbd38b466	-0.045093916
95	0x3d7ed203	0.062212
96	0xbe50e1a4	-0.20398575
97	0xbdb275dc	-0.08713886
98	0xbe4fc018	-0.20288122
99	0xbd21a0a4	-0.03945984
100	0xbe97e43c	-0.29666317
101	0xbe374ca4	-0.1790033
102	0x3d04a488	0.03238347
103	0x3e292925	0.16519602
104	0xbe178c46	-0.14799604
105	0x3cebae68	0.028769687
106	0x3dd483e7	0.10376721
107	0x3c812923	0.015766686
108	0xbc85ebe9	-0.016347842
109	0x3df4a5e4	0.119457036
110	0xbce2e28d	-0.027695918
111	0x3db1b0c6	0.08676295
112	0x3e055544	0.13020808
113	0x3deb8be6	0.11501293
114	0xbe14d31a	-0.14533654
115	0xbe123b41	-0.14280416
116	0x3da0fd60	0.078608274
117	0xbb396216	-0.0028287224
118	0xbcd7e716	-0.026355308
119	0x3e46c88c	0.1941244
120	0x3e17c00c	0.14819354
121	0x3e3075e1	0.17232467
122	0x3caeed04	0.021353252
123	0x3d9803c2	0.07422592
124	0x3b134961	0.0022474157
125	0xbda69e12	-0.08135618
126	0xbe37888e	-0.17923185
127	0x3c457f38	0.012054257
128	0xbe414ced	-0.18877001
129	0xbe872e21	-0.2640238
130	0xbe6b98df	-0.23007534
131	0x3d7a7764	0.061149016
132	0xbe948f29	-0.29015473
133	0x3e3032cb	0.17206876
134	0x3d3a048d	0.045414496
135	0xbc851b53	-0.01624838
136	0x3dbdda7d	0.09270189
137	0xbdfdd998	-0.12395018
138	0xbe526d7f	-0.20549582
139	0xbe354949	-0.17703737
140	0xbd10e240	-0.03537202
141	0xbdd0ef17	-0.10201853
142	0x3e0b21c7	0.13587104
143	0xbd211b0b	-0.03933243
144	0xbe191c52	-0.1495221
145	0x3d2c41b1	0.042054836
146	0x3e059d17	0.13048206
147	0x3e15125e	0.14557788
148	0xbdb903b9	-0.09033913
149	0x3d7d5841	0.061851744
150	0xbd8771c2	-0.066134945
151	0x3df06ada	0.1173913
152	0x3e56181a	0.20907632
153	0xbd9c6d5f	-0.076380484
154	0x3da422c3	0.08014443
155	0x3c89d833	0.016826725
156	0x3e1367b1	0.14395024
157	0x3dfd0cee	0.12355982
158	0xbd8c3235	-0.06845514
159	0x3e292a52	0.1652005
160	0xbd9a12f4	-0.07523146
161	0x3e2142c1	0.15748121
162	0x3d97ac1c	0.07405874
163	0xbe7d0bc3	-0.24711518
164	0xbe3eda56	-0.18637976
165	0xbd0271f0	-0.03184694
166	0xbdb0ca93	-0.08632388
167	0x3d89d473	0.067299746
168	0xbd23c38e	-0.039981417
169	0xbd3e17ce	-0.04640942
170	0x3e0a51a2	0.13507703
171	0xbdd088d1	-0.10182346
172	0x3dd9a09d	0.10626338
173	0x3e1d15c0	0.15340328
174	0x3d1f2522	0.038853772
175	0xbe0f8ae0	-0.1401782
176	0xbccc43dc	-0.024934702
177	0x3e11c359	0.14234675
178	0xbe0d7579	-0.13814344
179	0x3e0fa70d	0.14028569
180	0xbdab9784	-0.08378509
181	0x3df9e7e1	0.122024305
182	0xbe88dcd2	-0.26730973
183	0x3cb6b6d6	0.02230398
184	0xbd1d11f8	-0.038347214
185	0x3de415bb	0.11136957
186	0xbd6f5b36	-0.058436595
187	0xbdb37137	-0.087618284
188	0x3daaea0c	0.08345422
189	0x3d30b0b6	0.043137275
190	0x3cd771bb	0.026299348
191	0xbdd60bd7	-0.10451477
192	0xbd8a4f2f	-0.06753384
193	0x3e32fadc	0.17478508
194	0x3e611828	0.21981871
195	0xbea8910d	-0.32923165
196	0xbddf0d3f	-0.10891198
197	0xbe37cfc7	-0.17950355
198	0xbe1f6ac1	-0.15568067
199	0xbe11d575	-0.14241584
200	0xbe2152b5	-0.15754206
201	0x3d4d4e16	0.050123297
202	0xbc70265c	-0.014657583
203	0xbc1a8560	-0.009431213
204	0x3befb382	0.0073151
205	0x3e31ef0c	0.17376345
206	0xbac2ad5c	-0.001485269
207	0xbd8141c3	-0.06311371
208	0x3eb80b69	0.35946205
209	0x3d8408cd	0.06446991
210	0x3ea0e203	0.31422433
211	0x3d5510fd	0.052018154
212	0xbc2a6545	-0.010400121
213	0xbe102a8b	-0.14078729
214	0xbe164a95	-0.14676888
215	0xbd068bc2	-0.032848127
216	0x3d8f7ca6	0.07006197
217	0x3a9b9379	0.0011869512
218	0x3d1e7d75	0.038693864
219	0xbe1c8358	-0.15284479
220	0x3de894c8	0.11356503
221	0xbd9043c1	-0.07044173
222	0x3e4e6e46	0.20159253
223	0x3e87f1f3	0.2655178
224	0x3d4eb3b6	0.050464354
225	0xbe086f1c	-0.13323635
226	0x3d7429a0	0.05961001
227	0xbc18b010	-0.00931932
228	0xbd81a77f	-0.063307755
229	0xbe32df7f	-0.1746807
230	0x3be33e5c	0.006934924
231	0xbe1748f0	-0.14773917
232	0x3e01c938	0.12674415
233	0x3d66923c	0.056291804
234	0x3d8a400a	0.06750496
235	0xbdbe5bb0	-0.09294832
236	0xbdebccad	-0.11513648
237	0x3d0004ee	0.0312547
238	0xbd90dda1	-0.07073522
239	0xbc931966	-0.017956447
240	0xbdb0e568	-0.08637506
241	0xbd9af9be	-0.07567166
242	0xbe47d06a	-0.19513097
243	0x3d1acc27	0.03779235
244	0xbc5b1125	-0.013370787
245	0xbe2689cf	-0.16263507
246	0x3d21b579	0.039479706
247	0xbd9127f9	-0.07087702
248	0x3d8e6223	0.06952312
249	0xbe5498a9	-0.2076136
250	0x3de1e9ad	0.11030898
251	0x3d4d3c7d	0.050106514
252	0x3e42d4db	0.1902651
253	0x3e72d163	0.23712687
254	0xbd1e0678	-0.038580388
255	0x3dd05fe4	0.1017454

linears.2.bias f4 [64]
0	0x3c89e913	0.016834771
1	0x3d2c4c31	0.04206485
2	0x3d1de9cd	0.038553048
3	0xbd023389	-0.03178743
4	0x3db12f72	0.086516276
5	0xbd881662	-0.06644894
6	0xbd930b1c	-0.07179853
7	0x3c4b15c0	0.012395322
8	0xbc596a9c	-0.013270047
9	0x3cc5e410	0.0241566
10	0x3c38d7e2	0.011281939
11	0xbc545ebf	-0.012962042
12	0xbd0fcd2e	-0.035107784
13	0x3cb6131b	0.022225907
14	0x3dc6e4ca	0.09711607
15	0x3b254b37	0.0025221833
16	0xbd4275ce	-0.04747563
17	0xbcaa043b	-0.02075397
18	0xbcabaeaf	-0.020957319
19	0xbb620a18	-0.003449088
20	0x3d2e4b56	0.042552315
21	0xbbea75d4	-0.0071551595
22	0xbca2448a	-0.019808073
23	0x3b825bdc	0.0039782356
24	0x3c80b4d6	0.01571123
25	0x3d046886	0.032326244
26	0xb9a7915e	-0.0003196103
27	0x3ba53649	0.0050418717
28	0xba8cb204	-0.0010734205
29	0x3db17be0	0.086662054
30	0x3b55aca2	0.0032604118
31	0x3b2cd1e4	0.0026370222
32	0xbcd5182e	-0.026012506
33	0xbd6d9ade	-0.05800902
34	0xbcbf6383	-0.02336288
35	0x3a351c7f	0.00069088483
36	0xbb95dd71	-0.004573517
37	0xbbc7aaa6	-0.006093341
38	0x3c1d7562	0.009610506
39	0xbc29f3ea	-0.010373095
40	0xbc2117f6	-0.009832373
41	0x3b53389a	0.0032229782
42	0x3cb04185	0.021515617
43	0x3d25cd4a	0.040478982
44	0xbd8d2938	-0.068926275
45	0xbc0db368	-0.008648731
46	0x3c961419	0.01832013
47	0xbc5db6f2	-0.013532387
48	0x3c3b15cf	0.011418774
49	0x3d5dae39	0.05412123
50	0xbcc3f000	-0.023918152
51	0x3cbd74e0	0.02312702
52	0xbd0aa179	-0.0338454
53	0xbbecdec8	-0.007228706
54	0x3d9af9aa	0.07567151
55	0x3d9e5ad9	0.077321716
56	0x3d87ad55	0.06624857
57	0x3c29c04d	0.0103607895
58	0xbd081d74	-0.033231214
59	0xbc741503	-0.014897588
60	0x3cde4fcc	0.02713766
61	0x3cd71b49	0.026258128
62	0x3d30e09f	0.043182965
63	0x3bc0cadd	0.005883558

linears.3.weight f4 [32, 64]
0	0xbee6ba48	-0.45063996
1	0xbda8010b	-0.08203324
2	0xbe21136f	-0.1573007
3	0x3e62e86b	0.22158973
4	0x3d903674	0.07041636
5	0x3e0fd38f	0.14045547
6	0x3e7e1286	0.24811754
7	0x3cedbb3f	0.02901995
8	0x3eadb180	0.33924484
9	0xbc2d7fc1	-0.010589541
10	0x3d048a3f	0.032358404
11	0xbc9015bb	-0.017588487
12	0x3db23e33	0.0870327
13	0xbe85d16c	-0.2613634
14	0xbe92c64b	-0.2866691
15	0xbc4e3b40	-0.0125873685
16	0x3cf15e8d	0.02946403
17	0x3e0e4078	0.1389178
18	0xbe1fcc60	-0.15605307
19	0xbd05b057	-0.032638874
20	0x3d7562da	0.059908725
21	0x3dd9b0d9	0.10629434
22	0x3e6afdc3	0.22948365
23	0x3dc3fdcf	0.095698945
24	0xbe07ff12	-0.13280895
25	0x3d873a62	0.066029325
26	0xbe3b9390	-0.1831801
27	0xbe5267cf	-0.20547412
28	0xbb2e90ef	-0.002663668
29	0x3ddcc292	0.10779299
30	0x3dd2122e	0.10257374
31	0x3e36bac0	0.17844677
32	0xbde007fa	-0.109390214
33	0x3be0d9eb	0.0068619153
34	0x3e0f9dd2	0.14025047
35	0x3ddc0cf5	0.10744659
36	0xbde600f9	-0.11230654
37	0x3ccf409b	0.025299361
38	0x3e637138	0.22211158
39	0xbe01bec1	-0.12670423
40	0x3df30373	0.11865892
41	0xbcd4850c	-0.025942348
42	0xbc8e2faa	-0.017356712
43	0x3e53c8ad	0.2068202
44	0xbcf0303f	-0.02931988
45	0xbe40df67	-0.18835221
46	0xbe5b7add	-0.21433587
47	0xbeb223d0	-0.34792948
48	0x3e4c839a	0.19972077
49	0x3e065591	0.13118578
50	0x3d55a149	0.052155767
51	0x3e54d8d9	0.20785846
52	0x3bb2a621	0.005451933
53	0x3e7b2ae6	0.24528083
54	0xbeb0cf7b	-0.34533295
55	0x3e1e6145	0.15466793
56	0xbd392607	-0.04520228
57	0x3c3e833c	0.011627968
58	0x3e86b741	0.26311687
59	0x3e07289a	0.13199082
60	0xbdf40852	-0.119156495
61	0x3d80ceb0	0.062894225
62	0x3dcea7ef	0.100906245
63	0xbe503e4b	-0.20336263
64	0x3e901c6c	0.28146684
65	0x3e2e3892	0.17013767
66	0x3e14ea46	0.14542493
67	0x3bea40e6	0.00714885
68	0x3eae525d	0.34047213
69	0xbede7892	-0.43451363
70	0xbe67de1f	-0.22643326
71	0x3de062ab	0.109563194
72	0x3e2bb5dc	0.16768593
73	0x3e20608a	0.15661827
74	0x3e7d2de4	0.24724537
75	0x3ebc5d22	0.36789805
76	0xbe5522cb	-0.20814054
77	0xbe28a739	-0.1647004
78	0x3e65afc8	0.22430336
79	0x3d64cdd2	0.055860348
80	0xbcd580dd	-0.026062423
81	0xbda274f3	-0.079324625
82	0x3ab9eb6e	0.0014184543
83	0x3e890444	0.26761067
84	0x3eb15f7a	0.34643155
85	0x3e1b8b9a	0.15189973
86	0x3e9c988c	0.30585134
87	0xbe2b5437	-0.16731344
88	0x3dde570c	0.108564466
89	0x3ded0047	0.115723185
90	0x3d3e8d23	0.046521317
91	0xbeb8c2e2	-0.36086184
92	0x3d422531	0.04739875
93	0xbc960d09	-0.018316763
94	0xbe116986	-0.1420041
95	0xbe6672b2	-0.2250469
96	0x3e3071fc	0.17230982
97	0xbe213b59	-0.15745296
98	0x3badfa4e	0.0053093797
99	0xbe930794	-0.2871672
100	0x3eb4b62d	0.3529524
101	0x3ef368b3	0.47540817
102	0x3c09d9c2	0.008413734
103	0x3cd8b402	0.026453022
104	0x3db59e45	0.08868078
105	0xbe95875c	-0.29204834
106	0xbde98c07	-0.11403661
107	0xbe2685d8	-0.16261995
108	0x3d840c8a	0.06447704
109	0x3e41ad5b	0.18913786
110	0x3e20472e	0.15652153
111	0x3db88de1	0.09011436
112	0x3db4d20f	0.08829128
113	0xbd9af7cc	-0.07566795
114	0x3e583e71	0.2111757
115	0xbeb207af	-0.34771487
116	0xbd9de9ce	-0.0771061
117	0xbd1bdb74	-0.038051084
118	0x3e0fd0ee	0.14044544
119	0x3c9aff1a	0.01892047
120	0x3e917d13	0.28415737
121	0xbb511f86	-0.0031909659
122	0xbf1007ee	-0.562621
123	0xbceb6f0f	-0.02873948
124	0xbdba73dd	-0.091041304
125	0xbecc7170	-0.39930296
126	0x3edcb350	0.43105555
127	0x3e90145f	0.28140542
128	0x3e6c37fa	0.23068228
129	0xbe2a4729	-0.16628708
130	0x3e53857e	0.20656392
131	0x3da84233	0.082157515
132	0x3d8de6bd	0.069287755
133	0x3e5c9fe8	0.21545374
134	0xbda11f09	-0.078672476
135	0xbca82563	-0.02052564
136	0xbe2422b6	-0.16028866
137	0xbe07545c	-0.13215774
138	0xbe3da3e7	-0.18519555
139	0x3dd35c91	0.1032039
140	0x3b6891d8	0.003548732
141	0xbe4e0b50	-0.20121503
142	0xbccba98b	-0.024861118
143	0xbdd6b5d9	-0.104839034
144	0x3de0ac84	0.10970405
145	0x3e383f6f	0.17992948
146	0x3e63feac	0.22265118
147	0x3dadcb9e	0.084861025
148	0xbde21f58	-0.110411346
149	0x3e4c096c	0.19925469
150	0x3e051390	0.12995744
151	0x3dbca8b1	0.09211863
152	0xbc80b0c0	-0.015709281
153	0xbcdb4426	-0.026765894
154	0x3d83f122	0.06442477
155	0xbdb28742	-0.08717205
156	0xbe4c3772	-0.19943026
157	0xbd923838	-0.07139629
158	0x3d26b010	0.04069525
159	0xbd706b2b	-0.058695953
160	0x3e6c972b	0.23104541
161	0xbcd6162a	-0.026133616
162	0x3e922ea6	0.28551215
163	0x3d731bb7	0.059352603
164	0x3dedabcd	0.11605034
165	0xbcb9baa7	-0.02267201
166	0xbd463b15	-0.04839619
167	0x3db701e7	0.0893591
168	0xbe73c9da	-0.23807469
169	0xbe7fae4d	-0.24968834
170	0x3e46b056	0.19403204
171	0xbea49d9e	-0.32151502
172	0xbd005b08	-0.031336814
173	0x3e8b9953	0.27265415
174	0xbebc6134	-0.3679291
175	0xbd405d26	-0.046963833
176	0x3e14d188	0.14533055
177	0x3d6a9e31	0.05727977
178	0x3da0a71b	0.07844373
179	0xbe1061ea	-0.14099851
180	0x3e81669c	0.25273597
181	0xbd93d516	-0.07218377
182	0xbeadc666	-0.33940428
183	0xb8e68830	-0.000109926215
184	0x3d9e857d	0.077403046
185	0xbdd0d7c2	-0.101974025
186	0xbcffec43	-0.031240588
187	0x3c1270e6	0.00893805
188	0xbe2be3d9	-0.16786136
189	0x3e697e80	0.22802162
190	0xbd9ee7d2	-0.0775906
191	0x3e608ced	0.21928759
192	0xbe99589b	-0.29950413
193	0x3e49462f	0.19655679
194	0x3dbba54f	0.091623895
195	0xbdab34f7	-0.083597116
196	0x3d9a25e2	0.07526757
197	0xbe469850	-0.1939404
198	0x3e839088	0.25696206
199	0x3d8aab68	0.067709744
200	0x3cf94ae1	0.030431213
201	0xbec6697b	-0.3875235
202	0xbdd2f9d8	-0.1030156
203	0xbe0d06fb	-0.13772194
204	0xbaf3f28c	-0.0018611713
205	0x3e190adb	0.14945547
206	0xbbc92d59	-0.006139439
207	0xbe5e1e7c	-0.21691316
208	0x3e221799	0.15829314
209	0xbe12af50	-0.14324689
210	0x3e2e9679	0.17049588
211	0x3e6a3779	0.22872724
212	0xbe0d6114	-0.13806564
213	0xbdd8cabd	-0.10585544
214	0x3e8df925	0.27729145
215	0xbcff4c01	-0.031164171
216	0xbe43f207	-0.19135295
217	0xbdd0a7f7	-0.10188287
218	0x3e0bb2ae	0.1364238
219	0x3e27e9a7	0.16397725
220	0x3d3d49fe	0.046213143
221	0xbe19e044	-0.15026957
222	0xbde59bed	-0.11211381
223	0x3e0f6090	0.1400168
224	0x3d621fba	0.055206038
225	0x3e84bf16	0.25927037
226	0x3dbd7f5e	0.09252809
227	0xbe9719cb	-0.29511866
228	0xbd1d2733	-0.03836746
229	0xbe5c951a	-0.21541253
230	0x3e0d77ec	0.13815278
231	0x3c86f977	0.016476376
232	0x3d9803f2	0.074226275
233	0xbdff2305	-0.12457851
234	0xbdc721b6	-0.09723227
235	0xbe082617	-0.1329578
236	0xbe841d35	-0.25803533
237	0x3e8cac20	0.2747507
238	0xbe2445a9	-0.16042198
239	0x3c803709	0.015651243
240	0xbd478453	-0.04871018
241	0xbe4bbf39	-0.19897164
242	0x3e1f198c	0.15537089
243	0xbdf3fed7	-0.11913841
244	0x3e409d20	0.18809938
245	0xbd9f18cc	-0.077684015
246	0xbe52b019	-0.20574988
247	0xbe082384	-0.13294798
248	0x3e43c44c	0.1911785
249	0x3e027f38	0.12743843
250	0x3ec7ec33	0.39047393
251	0xbd48a1cc	-0.048982427
252	0x3c46c874	0.012132753
253	0x3d8735c7	0.06602054
254	0xbd1c4fad	-0.038161922
255	0x3ccb00cd	0.024780655

linears.3.bias f4 [32]
0	0xbd0179ce	-0.031610303
1	0x3d4ac807	0.049507167
2	0xbd0a173c	-0.033713564
3	0xbce67bad	-0.028135145
4	0xbca167aa	-0.019702751
5	0xbd56da81	-0.052454475
6	0x3d89d8f5	0.067308344
7	0x3d1c9556	0.038228355
8	0x3cba0cd9	0.022711204
9	0x3c74aaf7	0.014933339
10	0xbc4d9abd	-0.0125490995
11	0xbccc3a16	-0.024930041
12	0xbd4a1fac	-0.04934661
13	0x3a922120	0.0011148788
14	0xbcb3d7fa	-0.021953572
15	0x3d06088e	0.032723002
16	0xbb305cb8	-0.0026910733
17	0xbc45fab5	-0.012083699
18	0x3d0a0a2c	0.033701107
19	0xbb60ff85	-0.003433199
20	0xbca2383e	-0.019802209
21	0xbc26ef54	-0.010188896
22	0xbd255b3f	-0.040370222
23	0x3d16bdab	0.036801975
24	0x3c0b4d5c	0.008502331
25	0xbd22431e	-0.03961479
26	0xbc9da60d	-0.019244218
27	0xbd80aef1	-0.062833674
28	0xbd518293	-0.051149916
29	0xbcfd1e41	-0.030898215
30	0xbcaeda42	-0.021344308
31	0xbb878afc	-0.0041364413

linears.4.weight f4 [4, 32]
0	0x3e66b3b9	0.22529496
1	0xbe116df1	-0.14202096
2	0xbde3ddfa	-0.11126323
3	0x3de9d9bd	0.114184834
4	0xbdbf333e	-0.093359455
5	0xbcd2ac99	-0.025717067
6	0xbc963615	-0.018336335
7	0x3e20af1d	0.156918
8	0xbecf1e96	-0.40453023
9	0x3eeec801	0.46636966
10	0xbd0d62a7	-0.03451791
11	0x3c88c309	0.016694563
12	0xbcb9057f	-0.022585629
13	0x3e479bde	0.19493052
14	0xbf52acee	-0.8229512
15	0x3e40ce80	0.18828773
16	0x3ea7cfc7	0.3277571
17	0x3eccc5e4	0.3999473
18	0x3d7ab6a7	0.061209347
19	0x3e07ac92	0.13249424
20	0xbe12b629	-0.14327301
21	0xbdcb2ddb	-0.099208556
22	0x3e82fb75	0.2558247
23	0xbda3461b	-0.07972356
24	0xbedebd42	-0.43503767
25	0xbda5f079	-0.08102507
26	0xbbab5545	-0.005228671
27	0x3e2d982d	0.16952582
28	0x3dcbb9f9	0.09947581
29	0x3e9f2418	0.31082225
30	0xbf1de8af	-0.6168317
31	0x3dd7ac9c	0.105309695
32	0xbd825a9d	-0.06364939
33	0x3e022d4b	0.1271259
34	0xbf307ed8	-0.6894355
35	0xbed341fd	-0.41261283
36	0xbf125cc8	-0.5717282
37	0xbf3d392c	-0.7391536
38	0x3e8e1a4c	0.27754438
39	0x3f488eec	0.7834308
40	0x3de04a90	0.10951722
41	0x3e53199a	0.20615235
42	0xbed3f519	-0.41397932
43	0xbeb146a1	-0.34624198
44	0xbf220738	-0.63292265
45	0x3e29ea9b	0.16593401
46	0xbf42ca12	-0.76089585
47	0x3f4cd07e	0.80005634
48	0x3e8c2fa9	0.27380112
49	0xbde1111e	-0.10989593
50	0x3f65bdb9	0.8974262
51	0x3e8007a6	0.25005835
52	0xbf1fcef4	-0.6242516
53	0xbf0f16f5	-0.55894405
54	0xbf19aae3	-0.6002638
55	0x3efde26a	0.49586803
56	0x3e45ade5	0.19304617
57	0xbf356668	-0.70859385
58	0xbeaa21d0	-0.33228922
59	0xbf49e9c4	-0.78872323
60	0x3eb6d81c	0.35711753
61	0xbddb094b	-0.10695132
62	0xbf125348	-0.5715833
63	0xbe5c2374	-0.214979
64	0x3ed378b3	0.41303024
65	0x3f205175	0.62624294
66	0xbddf02fb	-0.1088924
67	0xbeb1208c	-0.34595144
68	0x3d3e8668	0.0465149
69	0x3eb2e3d6	0.3493945
70	0x3e977a94	0.29585707
71	0xbe8790f5	-0.2647778
72	0xbcdacd39	-0.026709186
73	0x3f05f390	0.5232477
74	0xbd893d91	-0.06701196
75	0xbd62bc23	-0.055355202
76	0x3e2ba5d1	0.16762473
77	0x3f236863	0.63831156
78	0x3e4785de	0.1948466
79	0x3cb7f7cd	0.022457028
80	0x3e4a4698	0.19753492
81	0x3f05c351	0.52251154
82	0xbd8d3000	-0.06893921
83	0x3e88a585	0.2668878
84	0x3e9988a6	0.29987067
85	0xbe9bbad4	-0.30415976
86	0xbe8da89e	-0.27667707
87	0xbe9e9d0a	-0.30979186
88	0x3ee8f677	0.45500538
89	0xbecdf033	-0.4022232
90	0xbd1e3cd7	-0.03863224
91	0xbee8ae62	-0.45445544
92	0x3cb1d6aa	0.021708805
93	0x3e70ce54	0.23516208
94	0xbe87d510	-0.2652974
95	0xbd8fc221	-0.07019449
96	0xbe84c17f	-0.25928876
97	0x3eebab29	0.46029022
98	0xbefd1448	-0.49429536
99	0xbe19a915	-0.15005906
100	0xbe83f372	-0.25771672
101	0xbf026df9	-0.50949055
102	0x3f53764c	0.8260238
103	0x3e9a1f6e	0.30102104
104	0x3f06d514	0.5266888
105	0x3ec4a613	0.38407955
106	0xbf463a64	-0.7743285
107	0xbef00ed1	-0.46886304
108	0xbe973c0b	-0.29537997
109	0x3f116010	0.56787205
110	0xbe8b60e4	-0.2722236
111	0x3f482c65	0.7819274
112	0x3f2802b7	0.6562914
113	0x3dccde40	0.10003328
114	0x3eb24764	0.34820092
115	0xbe04593c	-0.12924665
116	0xbf21c2ea	-0.6318804
117	0xbf287aa3	-0.6581213
118	0xbeed6456	-0.46365613
119	0xbe35901d	-0.17730756
120	0xbf0ec21a	-0.55764925
121	0xbf8185c4	-1.0118947
122	0xbf1bf8a5	-0.60926276
123	0xbef98224	-0.48732102
124	0x3f40c806	0.7530521
125	0x3d17de33	0.03707714
126	0x3e04f924	0.12985665
127	0x3ed3e84b	0.41388163

linears.4.bias f4 [4]
0	0xbbc66fca	-0.0060558068
1	0x3e9dd75f	0.30828378
2	0x3d7d1f30	0.06179732
3	0x3ed7019f	0.41993424
