Iterations/Test model/epoch_1323.pt (torch, 37739 bytes, 10 tensors)

linears.0.weight f4 [32, 2]
0	0x3ea3a990	0.31965303
1	0xbd8034cf	-0.062600724
2	0x3e8df499	0.27725676
3	0xbe8fedc1	-0.2811108
4	0x3e780bf2	0.24223307
5	0xbea978a4	-0.33099854
6	0xbdcc949e	-0.09989284
7	0xbee9ecae	-0.45688385
8	0xbd2bd016	-0.041946493
9	0x3e82283c	0.2542132
10	0x3d3c2d7c	0.045941815
11	0xbee60250	-0.4492364
12	0x3e34c92c	0.17654866
13	0x3f029031	0.5100127
14	0x3e26e530	0.16298366
15	0x3e3e16e8	0.18563426
16	0x3eb66160	0.35621166
17	0xbd36b66d	-0.04460757
18	0xbe63498a	-0.22196022
19	0xbddadeda	-0.10687037
20	0xbde6e0f7	-0.112733774
21	0xbec2dc59	-0.38058737
22	0xbe60757c	-0.21919817
23	0x3e594b9e	0.21220252
24	0xbdd5a1af	-0.10431229
25	0xbe046469	-0.12928928
26	0x3e2a8759	0.16653194
27	0xbe308cf8	-0.17241275
28	0xbdfd2b63	-0.12361791
29	0x3f1f513e	0.6223334
30	0xbd6b5bfa	-0.057460763
31	0xbe37d4bf	-0.1795225
32	0x3e5e8969	0.21732105
33	0x3ef95ab5	0.48702016
34	0x3e8ffe95	0.28123918
35	0x3d688059	0.056763027
36	0xbdd9a3ce	-0.106269464
37	0x3e2d5f8a	0.16930977
38	0xbe2102bc	-0.157237
39	0xbe141c74	-0.14463979
40	0xbddf5e9a	-0.10906716
41	0xbdda772e	-0.10667263
42	0x3e899da0	0.2687807
43	0x3cfbdb97	0.030744357
44	0x3f1b714d	0.6071976
45	0xbc440ab1	-0.01196544
46	0x3e8183bc	0.25295818
47	0xbe64b44e	-0.22334406
48	0xbf08b00b	-0.5339362
49	0x3e600f6e	0.21880886
50	0x3ea27aa3	0.3173419
51	0xbdec5d8b	-0.115412794
52	0xbe354053	-0.17700319
53	0xbda37544	-0.07981351
54	0x3d39368e	0.045218043
55	0x3e8214c1	0.2540646
56	0x3d9ae693	0.0756351
57	0xbe353f38	-0.17699897
58	0xbcdc94ed	-0.026926482
59	0x3e9ccc76	0.3062474
60	0x3df95a09	0.12175376
61	0xbe2620dd	-0.16223474
62	0xbd375134	-0.044755176
63	0x3f1b785a	0.60730517

linears.0.bias f4 [32]
0	0x3bd9a627	0.0066421214
1	0x3c90feb4	0.017699577
2	0x3c1f935b	0.009739722
3	0x3bc74fb6	0.0060825003
4	0x3ba6d0b8	0.005090799
5	0x39b41370	0.00034346757
6	0xba9e28ca	-0.00120666
7	0xbc8c8ed6	-0.017157953
8	0x3b6b9f01	0.0035952928
9	0xbc0c662c	-0.008569282
10	0x3a53d4ef	0.0008080741
11	0xbc8b0436	-0.016969781
12	0x3caa2ac9	0.020772355
13	0xbc477399	-0.012173557
14	0x3bae17b0	0.0053128824
15	0xbb9424a8	-0.0045209713
16	0xbb890288	-0.00418121
17	0x3af7e807	0.0018913754
18	0x3c01f04f	0.007930829
19	0x3bb8ea86	0.0056431917
20	0x3b28b393	0.00257418
21	0xbc3fa864	-0.011697862
22	0x3d76a281	0.06021357
23	0x3bcd6950	0.0062686577
24	0xbd3641e0	-0.044496417
25	0x3c3f2083	0.011665466
26	0xbbbd0789	-0.0057687205
27	0x3b854c70	0.00406795
28	0x3c785997	0.015158079
29	0x3b5ceac2	0.0033709262
30	0xbd657edc	-0.056029186
31	0x3ba2fea7	0.0049742046

linears.1.weight f4 [64, 32]
0	0x3cd8a378	0.026445135
1	0xbe87857b	-0.26469025
2	0xbe475475	-0.19465812
3	0xbe2d1e64	-0.16906124
4	0x3e32d16c	0.174627
5	0x3cc00e54	0.023444332
6	0xbdaf6c53	-0.08565583
7	0x3e843a4e	0.25825733
8	0x3e2aad33	0.16667633
9	0x3ea16a79	0.31526545
10	0x3db6b6cc	0.089215845
11	0x3ea58a05	0.32331863
12	0xbe60a609	-0.21938337
13	0xbef6d7c6	-0.48211497
14	0xbc185780	-0.009298205
15	0xbe3348d8	-0.17508256
16	0x3e9e9867	0.3097565
17	0x3c546f1f	0.012965946
18	0xbcc48879	-0.023990856
19	0x3d3cdb5a	0.046107627
20	0xbebc8a11	-0.36824086
21	0xbd380854	-0.044929817
22	0xbdd5df46	-0.10442977
23	0x3e447ff6	0.19189438
24	0x3dbb60d7	0.0914933
25	0x3e27b727	0.16378461
26	0xbe8e0e9c	-0.2774552
27	0xbdc1a7cd	-0.094558336
28	0x3dfcf2aa	0.12350972
29	0x3dbd9748	0.0925737
30	0xbdac4896	-0.08412282
31	0x3d9cef06	0.076627776
32	0x3c99ea9a	0.018788625
33	0x3da341b5	0.07971517
34	0xbde2ab03	-0.11067774
35	0x3e29a697	0.16567455
36	0xbdf1438c	-0.11780462
37	0xbdfc381d	-0.1231539
38	0x3e4e308a	0.20135704
39	0x3e9abcca	0.3022216
40	0x3ec26338	0.37966323
41	0x3e7236cc	0.23653716
42	0xbddee3d8	-0.108833015
43	0xbd40ce85	-0.047071952
44	0xbd52a426	-0.051426075
45	0x3e076458	0.13221872
46	0x3e02540d	0.12727375
47	0xbd4df158	-0.05027899
48	0x3e572b1c	0.21012539
49	0xbe4531e1	-0.19257309
50	0xbe612aef	-0.21989034
51	0xbd3cfa04	-0.04613687
52	0xbc1459de	-0.009054629
53	0x3ea26474	0.31717265
54	0xbdc5110b	-0.09622391
55	0xbe161745	-0.14657314
56	0x3dbcd4e6	0.09220295
57	0xbd37a00a	-0.04483036
58	0x3db51f69	0.08843882
59	0xbd97bd44	-0.074091464
60	0xbccaebf5	-0.024770716
61	0xbd08548e	-0.033283763
62	0x3e9696d3	0.29411945
63	0x3e67066b	0.22561042
64	0xbd939c4c	-0.07207546
65	0x3de2ed5b	0.11080428
66	0x3e3ff9dc	0.18747658
67	0xbd009c1e	-0.031398885
68	0x3d24ab11	0.040202204
69	0xbd2bfd9e	-0.041989915
70	0xbc8f09ad	-0.017460668
71	0xbe2d89aa	-0.16947046
72	0xbdaed1f7	-0.08536141
73	0xbe9cda69	-0.30635384
74	0xbe62c9b0	-0.2214725
75	0xbc58d8bd	-0.013235268
76	0x3e85383e	0.26019472
77	0x3c4ddaab	0.012564342
78	0xbc145bae	-0.009055061
79	0xbe877a0b	-0.264603
80	0xbd1d4ab7	-0.03840133
81	0x3e8a1cd6	0.26975125
82	0xbdfbda7e	-0.122975335
83	0xbdc10f2f	-0.09426724
84	0xbe37aa19	-0.17935981
85	0xbe45838f	-0.19288467
86	0x3e0dd7e5	0.13851888
87	0xbd8e486a	-0.06947406
88	0xbd2f06e8	-0.042731196
89	0x3cfadc88	0.030622736
90	0x3d2ddc06	0.04244616
91	0xbdb4bd7f	-0.08825206
92	0xbdac806b	-0.08422931
93	0x3e8a8f81	0.2706261
94	0xbd4cbbbb	-0.04998372
95	0xbe6c4773	-0.2307413
96	0xbdb5e0c1	-0.08880759
97	0x3dd298f1	0.102830775
98	0x3d2fe033	0.042938422
99	0xbd94af69	-0.07260019
100	0xbe51b73a	-0.20480052
101	0xbe844044	-0.2583028
102	0xbd6a6ff4	-0.057235673
103	0xbde5a312	-0.11212744
104	0x3e41bc46	0.18919477
105	0xbe08c093	-0.13354711
106	0x3dc6154c	0.09672031
107	0x3d4887aa	0.048957504
108	0x3d271504	0.040791526
109	0x3e05d9f7	0.13071428
110	0x3e4054d1	0.18782355
111	0xbeaba058	-0.3352077
112	0xbdc96437	-0.098335676
113	0xbe17c0bd	-0.14819618
114	0x3da4a22e	0.08038746
115	0xbc8512e1	-0.016244354
116	0xbd3ea079	-0.046539757
117	0x3db5659b	0.0885727
118	0x3e3f8e04	0.18706518
119	0x3b324188	0.0027199704
120	0xbdb57955	-0.08861033
121	0x3e520992	0.20511463
122	0xbcb74068	-0.022369578
123	0xbe0d9bfa	-0.13829032
124	0xbd4be956	-0.049783073
125	0xbcb33747	-0.021876944
126	0xbe523f2a	-0.20531908
127	0x3d023852	0.031791992
128	0x3d01838c	0.031619594
129	0x3d229ebf	0.039702173
130	0xbd8c9eb5	-0.068662085
131	0xbd671d34	-0.056424335
132	0x3cbdb0ad	0.023155535
133	0xbdb5943a	-0.088661626
134	0x3e0d012a	0.13769975
135	0x3d2a002d	0.041504074
136	0xbcefe261	-0.02928275
137	0xbe486fbd	-0.19573875
138	0xbeb241b7	-0.3481576
139	0xbe2fe53b	-0.17177288
140	0xbe1fd785	-0.15609558
141	0xbe426407	-0.1898347
142	0x3ec85103	0.39124307
143	0x3c657e1e	0.014007119
144	0x3e041c61	0.1290145
145	0x3e7d3fe4	0.24731404
146	0xbd6457bd	-0.055747736
147	0x3e975f20	0.29564762
148	0xbe19bc60	-0.15013266
149	0x3d042615	0.03226288
150	0xbe79f414	-0.24409515
151	0x3cea03dd	0.028566295
152	0xbd04777d	-0.032340515
153	0x3d010ef2	0.031508394
154	0xbe2732ce	-0.16327974
155	0x3e25da85	0.1619664
156	0x3d2d9124	0.042374745
157	0x3b98b568	0.004660297
158	0xbd199453	-0.03749497
159	0x3e34153a	0.17586222
160	0x3df44cbd	0.11928699
161	0xbdb83ccf	-0.08995973
162	0xbe061752	-0.13094833
163	0xbdef1dd1	-0.11675609
164	0x3e8859fc	0.26631153
165	0xbdf21d6e	-0.118220195
166	0xbd7708d7	-0.060311165
167	0xbd116354	-0.035495117
168	0x3db2ebde	0.08736394
169	0xbe1283d9	-0.14308108
170	0x3954e064	0.00020301488
171	0x3d51ce7a	0.051222302
172	0xbe1faf80	-0.15594292
173	0x3ea56909	0.32306698
174	0x3da58a5d	0.08083031
175	0x3d04684d	0.03232603
176	0xbebfbd8f	-0.3744931
177	0x3db964d4	0.090524346
178	0x3bb6804f	0.005569495
179	0x3e7f3a43	0.24924569
180	0x3cb32923	0.021870201
181	0xbe42644b	-0.18983571
182	0xbda93d7a	-0.08263679
183	0xbd1c64c6	-0.038182043
184	0x3e16dbf9	0.1473235
185	0x3dd4cc57	0.10390537
186	0x3e9ed619	0.3102272
187	0xbd73ae92	-0.059492655
188	0xbaa8f9ba	-0.0012891807
189	0x3d4e781f	0.050407525
190	0xbe39b40b	-0.18135087
191	0xbd8196ac	-0.063275665
192	0xbe36fcaf	-0.17869829
193	0x3df4de84	0.11956504
194	0x3e765a0b	0.24057786
195	0x3e1f4f0f	0.15557502
196	0xbe1edfdb	-0.15515082
197	0x3dad4d2b	0.08461984
198	0xbd112147	-0.035432126
199	0xbe7f05c9	-0.2490455
200	0x3eb28a49	0.34871128
201	0xbeb37053	-0.35046634
202	0x3e0e9840	0.13925266
203	0x3d25d230	0.040483654
204	0xbe08ea77	-0.13370691
205	0xbe2de533	-0.16981964
206	0xbc82f5c2	-0.015986327
207	0xbe889c51	-0.2668176
208	0x3dd0e7cb	0.10200461
209	0xbe131234	-0.14362413
210	0xbd3e5f4f	-0.046477612
211	0x3dfac105	0.12243847
212	0x3e24bde0	0.16088057
213	0xbe2efa5a	-0.17087689
214	0x3e64d999	0.22348632
215	0xbd4ec9e5	-0.05048551
216	0xbd43dba9	-0.047816906
217	0xbd863a2e	-0.06554066
218	0x3e216ebd	0.157649
219	0xbda31c7a	-0.07964416
220	0xbdfc8984	-0.123309165
221	0xbecf2bb2	-0.40463024
222	0xbd8cffb5	-0.0688471
223	0xbd66eab4	-0.056376174
224	0x3d7f9aec	0.062403604
225	0xbe13f41a	-0.14448586
226	0x3e0bc3fa	0.13648978
227	0x3d5be939	0.053689215
228	0x3e0e549c	0.13899463
229	0xbe06db53	-0.13169603
230	0x3de07867	0.10960465
231	0x3e43c531	0.19118191
232	0xbe64fb17	-0.22361408
233	0x3ec1f281	0.37880328
234	0x3e1b6a07	0.15177165
235	0xbd47b560	-0.048756957
236	0xbe3fab56	-0.18717703
237	0x3dfa119a	0.122103885
238	0x3dd6702e	0.10470615
239	0x3d4eaae7	0.050455954
240	0x3d2d0659	0.04224238
241	0xbdcb36a6	-0.09922533
242	0x3e5c2827	0.21499692
243	0xbde46217	-0.11151522
244	0xbd8a72b9	-0.06760163
245	0xbe1931b9	-0.14960374
246	0x3e7ca94d	0.24673958
247	0xbd8984f8	-0.06714815
248	0xbbdb5975	-0.0066940137
249	0x3d3334c9	0.04375151
250	0xbe3f38c8	-0.18674004
251	0xbe163d5c	-0.14671844
252	0x3d1cb0fd	0.038254727
253	0x3e4b152f	0.198323
254	0xbe99f4e6	-0.30069655
255	0x3e77f8a1	0.24215938

linears.1.bias f4 [64]
0	0xbc8f7712	-0.017512832
1	0xbc806c7a	-0.015676726
2	0x3c209c95	0.009802957
3	0x3b420eb4	0.0029610815
4	0x3bfb3faa	0.0076675015
5	0x3adede8c	0.001700358
6	0x38700b0f	5.7230758e-05
7	0x3d070ad3	0.032969307
8	0xbbbcd7ec	-0.0057630446
9	0x3c48fe47	0.012267656
10	0xbbf5674f	-0.007489122
11	0x3c984533	0.018587684
12	0xbc475c55	-0.01216801
13	0xbc37426b	-0.011185269
14	0xbc792e32	-0.015208768
15	0x3c56db74	0.013113845
16	0x3b2236cf	0.0024751907
17	0x39e3888a	0.00043398543
18	0xbbca3856	-0.0061712665
19	0x3c8383d1	0.016054066
20	0xbbe7c3a3	-0.0070728823
21	0x3bfc33fc	0.0076966267
22	0x3b11f103	0.0022268898
23	0x3a8ca45a	0.0010730133
24	0xbc09f4c7	-0.008420176
25	0xbb26343f	-0.002536073
26	0xbc005356	-0.007832369
27	0x3be2e34b	0.006924068
28	0x3ce29de4	0.027663179
29	0xba14423a	-0.00056556205
30	0xbc8a9141	-0.016914966
31	0x390d03ce	0.00013448225
32	0xbc255d47	-0.01009304
33	0x38bd364a	9.0223344e-05
34	0xbcf8d489	-0.030374782
35	0x3b8d0421	0.0043034707
36	0x3c497d9c	0.012298014
37	0xbb9746f9	-0.004616615
38	0xbc0c00c1	-0.008545102
39	0x3bba95ce	0.0056941276
40	0x3c1a8751	0.009431676
41	0xbb2a558d	-0.0025990934
42	0xbc52751c	-0.012845304
43	0xbc1a341c	-0.009411838
44	0x3d50dd33	0.050992202
45	0x3a9f2f4c	0.0012144833
46	0x3b94c325	0.0045398646
47	0x3be216c0	0.0068996847
48	0xbc3d871f	-0.01156786
49	0x3cadb4e3	0.021204418
50	0xbd0b1062	-0.03395117
51	0xbb9ac553	-0.00472323
52	0xbb3a2225	-0.00284017
53	0x3c3eb874	0.011640657
54	0x3c1c1b8c	0.009528052
55	0x3b8eb37a	0.0043548914
56	0xbc4a3933	-0.012342739
57	0xbba6adc2	-0.0050866315
58	0xbb84f53b	-0.004057554
59	0xbb97ca7b	-0.004632292
60	0xbb909eb3	-0.0044134497
61	0xbac92d1a	-0.0015348524
62	0xbcaf080e	-0.021366145
63	0xbc067bf9	-0.008208268

linears.2.weight f4 [64, 64]
0	0xbe173fd1	-0.14770438
1	0x3d04e059	0.032440517
2	0xbd5931ab	-0.053025883
3	0x3dcd689d	0.10029719
4	0xbe28820c	-0.16455859
5	0x3d543b11	0.051814143
6	0x3d528485	0.05139591
7	0x3d28e742	0.04123617
8	0xbc3409f0	-0.010988697
9	0x3d1786d3	0.036993813
10	0xbc4b04e7	-0.0123913055
11	0x3e05c0cd	0.13061829
12	0x3cb78a1e	0.022404727
13	0x3e2e233b	0.17005627
14	0xbd6ed970	-0.058312833
15	0x3dbd1ab0	0.09233606
16	0x3cc9f44f	0.024652628
17	0x3ce289af	0.027653543
18	0x3ea7e335	0.32790533
19	0x3d1e92c1	0.038714174
20	0x3e676ca8	0.22600043
21	0xbc4a38de	-0.01234266
22	0x3cf45a0a	0.02982809
23	0xbdc22881	-0.09480382
24	0x3e17b40e	0.14814779
25	0x3e16aba1	0.14713909
26	0xbda577e5	-0.08079509
27	0xbddd2228	-0.107975304
28	0xbd98cefa	-0.07461353
29	0xbe35ea28	-0.17765105
30	0x3b2e2916	0.0026574782
31	0x3d2f0487	0.042728927
32	0x3e5b5824	0.21420342
33	0x3da1d54b	0.079020105
34	0x3e64efdd	0.22357126
35	0xbe01a067	-0.12658845
36	0xbd5a6e1b	-0.05332766
37	0x3dcee5ac	0.101024
38	0xbd6f82a5	-0.0584742
39	0xbe1cedbb	-0.15325062
40	0x3cd837f0	0.02639386
41	0x3e6596c2	0.22420791
42	0xbbdb8337	-0.0066989916
43	0x3c228a26	0.0099206325
44	0x3bc13e73	0.005897337
45	0x3b810e4b	0.0039384714
46	0x3dc4f1b6	0.09616415
47	0xbdfdc788	-0.12391573
48	0xbe8a0995	-0.26960436
49	0xbe86e71d	-0.263482
50	0xbe1fa187	-0.15588962
51	0xbd3a5fd2	-0.045501538
52	0xbe89c75e	-0.26909918
53	0xbe41a763	-0.18911509
54	0xbe828a98	-0.25496364
55	0x3e064faa	0.13116327
56	0xbce1483d	-0.027500266
57	0x3d4cb8be	0.04998087
58	0x3dc580f9	0.0964374
59	0x3e5d32a2	0.21601346
60	0xbd5b5bd5	-0.053554375
61	0x3e3adbfd	0.18247981
62	0xbe43afe5	-0.19110067
63	0xbe0de71c	-0.13857692
64	0xbe88e903	-0.26740274
65	0x3c84a246	0.01619066
66	0x3dda8a96	0.106709644
67	0xbd28efb7	-0.041244235
68	0x3c1fc3bc	0.009751257
69	0xbdfec001	-0.124389656
70	0xbc302c58	-0.01075276
71	0x3e87867b	0.26469788
72	0x3d887910	0.06663716
73	0xbe1a4728	-0.15066206
74	0xbdb2074c	-0.08692798
75	0x3d9dcf21	0.07705522
76	0xbdd60be1	-0.104514845
77	0xbe187c1d	-0.14891095
78	0xbc9f31c4	-0.01943291
79	0xbc099b9f	-0.008398919
80	0x3e6b60a9	0.22986092
81	0xbd996cd3	-0.0749146
82	0xbdfe6050	-0.12420714
83	0x3ea0f952	0.31440216
84	0xbde3317f	-0.11093425
85	0x3d4733bc	0.048633322
86	0x3cd44c0c	0.025915168
87	0x3dd97634	0.106182486
88	0xbe1f7d65	-0.15575178
89	0xbdaf652e	-0.0856422
90	0x3dd77fa8	0.10522395
91	0xbe7d113e	-0.24713609
92	0xbbfbcb09	-0.007684116
93	0x3e269f6b	0.1627175
94	0xbd1d07a6	-0.038337372
95	0x3d88e4dc	0.066842765
96	0xbe30c60a	-0.17263046
97	0xbd80bf29	-0.06286461
98	0xbe35a7ca	-0.17739788
99	0xbc8c7a66	-0.017148208
100	0xbe8ea0bd	-0.2785701
101	0xbe10dde2	-0.14147142
102	0x3d37bc57	0.04485735
103	0x3ddf405c	0.109009475
104	0xbe1fc4d6	-0.1560243
105	0x3d17313f	0.0369122
106	0x3e0e19f2	0.13877085
107	0x3d3e54c7	0.04646757
108	0xbd5265f8	-0.051366776
109	0x3dff2289	0.12457759
110	0xbcb1f896	-0.02172498
111	0x3cf9c395	0.030488769
112	0x3e0ca2c5	0.13733967
113	0x3df2769f	0.118390314
114	0xbd964e12	-0.073391095
115	0xbe1747b9	-0.14773454
116	0x3d9912b6	0.07474272
117	0xbcd3e96b	-0.025868138
118	0x3a201085	0.0006105977
119	0x3e34689e	0.17618033
120	0x3e565298	0.20929945
121	0x3e10c8b8	0.14139068
122	0x3c7342da	0.014847482
123	0x3db2e0d3	0.08734288
124	0x3c4c29c2	0.012461128
125	0xbd944375	-0.07239429
126	0xbe296bcf	-0.16545032
127	0x3d0336c7	0.03203466
128	0xbe4c2b8c	-0.19938487
129	0xbe6a1945	-0.22861202
130	0xbe6a7e64	-0.22899777
131	0x3d7f69dd	0.06235682
132	0xbe9a24a6	-0.30106086
133	0x3e1af2e0	0.15131712
134	0x3d705d42	0.058682688
135	0xbdbba15a	-0.09161635
136	0x3dc531a1	0.096286066
137	0xbddeb42d	-0.108742096
138	0xbe322807	-0.17398082
139	0xbe2f7dbe	-0.1713781
140	0xbc744c20	-0.014910728
141	0xbd23ee47	-0.04002216
142	0x3db9598e	0.09050284
143	0xbd680ca1	-0.05665267
144	0xbd8665eb	-0.06562408
145	0x3d49a524	0.049229756
146	0x3e49f3a4	0.19721848
147	0x3e213086	0.15741166
148	0xbd833e70	-0.064083934
149	0x3d346131	0.044038
150	0xbdf411ec	-0.11917481
151	0x3dbea281	0.09308339
152	0x3e5d5de1	0.21617843
153	0xbd9be33c	-0.07611701
154	0x3dc3dc07	0.09563451
155	0xbb9474f2	-0.0045305425
156	0x3e0cde00	0.13756561
157	0x3dc1eb27	0.0946868
158	0xbd3b3028	-0.045700222
159	0x3e235e8b	0.15954034
160	0xbce23e22	-0.027617518
161	0x3e368ebc	0.17827886
162	0x3dd96ec5	0.10616831
163	0xbe92db1f	-0.286828
164	0xbe3392e4	-0.17536503
165	0xbca32e24	-0.019919463
166	0xbd8a5907	-0.06755262
167	0xba7813a2	-0.0009463375
168	0xbd728793	-0.059211325
169	0xbcdb981d	-0.026805932
170	0x3e51009f	0.20410393
171	0xbde0d38a	-0.10977848
172	0x3d870736	0.06593172
173	0x3e39e9cc	0.18155593
174	0x3d05c3a6	0.032657288
175	0xbe635a3c	-0.2220239
176	0xbce779d2	-0.02825633
177	0x3e1b710f	0.15179847
178	0xbd86f860	-0.065903425
179	0x3e0b24da	0.13588277
180	0xbd864157	-0.06555431
181	0x3de147ea	0.11000045
182	0xbe8c57e1	-0.27410796
183	0xbc233861	-0.009962172
184	0x3d1f28b6	0.038857184
185	0x3dd0d5c2	0.10197021
186	0x3bcc361c	0.0062320363
187	0xbd8d416e	-0.06897245
188	0x3dc36de6	0.09542446
189	0x3dc6ff1a	0.097166255
190	0x3d2e1158	0.04249701
191	0xbd99aa8e	-0.07503234
192	0xbd8960fb	-0.06707951
193	0x3e252995	0.16129144
194	0x3e60a507	0.21937953
195	0xbea90f93	-0.33019695
196	0xbdd6cac5	-0.10487894
197	0xbe30aa7a	-0.17252532
198	0xbe23101d	-0.15924115
199	0xbdbeafe6	-0.09310894
200	0xbe208997	-0.15677486
201	0x3d35c22d	0.044374634
202	0xbcb9528a	-0.022622366
203	0xbc81e364	-0.015855499
204	0x3ae44f2e	0.0017418617
205	0x3e18cc0f	0.14921592
206	0x3ba9d483	0.005182804
207	0xbd6f8eab	-0.05848567
208	0x3ea609e1	0.32429412
209	0x3d8189cd	0.063251115
210	0x3e948ff7	0.29016086
211	0x3d57a111	0.05264384
212	0xbc96f40e	-0.018426921
213	0xbe0aa730	-0.1354034
214	0xbdfe9dda	-0.124324515
215	0xbccab1fa	-0.024743069
216	0x3d85ffb5	0.06542913
217	0xbab50dd1	-0.0013813322
218	0x3d0d5c10	0.034511626
219	0xbe1bfa76	-0.15232262
220	0x3df0a25b	0.11749717
221	0xbd7f3b46	-0.062312387
222	0x3e467e8f	0.19384216
223	0x3e891251	0.26771787
224	0x3d079b46	0.033107065
225	0xbe12feb0	-0.14354968
226	0x3d4e6997	0.050393667
227	0xbc070eff	-0.008243321
228	0xbd8790d6	-0.06619422
229	0xbe3bc56a	-0.18337026
230	0x3ae5a590	0.0017520655
231	0xbdf0988f	-0.11747848
232	0x3e06c55a	0.13161221
233	0x3d4e9ecc	0.05044441
234	0x3c9542eb	0.018220386
235	0xbdc4fa0e	-0.09618007
236	0xbddbadd7	-0.10726517
237	0x3ce6359d	0.028101737
238	0xbd8e710c	-0.06955156
239	0x3d134aac	0.035959885
240	0xbda9babe	-0.08287571
241	0xbd9ef543	-0.07761624
242	0xbe716670	-0.23574233
243	0x3d2467db	0.040138107
244	0xbc934bf5	-0.017980555
245	0xbe20e1e3	-0.15711169
246	0x3d100868	0.035164267
247	0xbd80a085	-0.06280617
248	0x3cbd6d8f	0.02312353
249	0xbe508b80	-0.20365715
250	0x3db2644b	0.087105356
251	0x3d30dbb3	0.04317827
252	0x3e3e5b1f	0.18589447
253	0x3e648fea	0.22320524
254	0xbd3c7c9d	-0.046017278
255	0x3dbe1a56	0.09282367

linears.2.bias f4 [64]
0	0x3ada653b	0.0016662249
1	0x3c340a41	0.010988773
2	0x3bed598c	0.007243341
3	0xbc3bd3f2	-0.011464106
4	0x3d248431	0.04016513
5	0xbcfb42a4	-0.030671425
6	0xbcc603ad	-0.024171675
7	0xbae5ed7f	-0.0017542093
8	0xbad10854	-0.0015947917
9	0x3c745d2a	0.01491479
10	0x3b3a2e52	0.0028408957
11	0xbbfe057a	-0.0077521177
12	0xbc7609c2	-0.015016975
13	0x3bb5cc5f	0.0055480446
14	0x3d01f336	0.031726085
15	0x3be414b8	0.0069604777
16	0xbcae8751	-0.021304758
17	0xbb66b10c	-0.0035200743
18	0xbbfbd9c5	-0.0076858723
19	0xb55fefa2	-8.3422685e-07
20	0x3c918be4	0.0177669
21	0xbbb389f0	-0.00547909
22	0xbc0d5189	-0.0086253965
23	0x3b74b107	0.0037336962
24	0x3c06a7b4	0.0082186945
25	0x3bba4398	0.0056843273
26	0xbb920ec7	-0.004457328
27	0x3b958e11	0.004564055
28	0x3a929114	0.0011182153
29	0x3cd5365c	0.026026897
30	0x3b7410f5	0.0037241552
31	0x3bcdc69c	0.0062797796
32	0xbc350929	-0.011049547
33	0xbcb42720	-0.021991313
34	0xbb91c7d6	-0.004448871
35	0xb9b74735	-0.00034957533
36	0xbbaab49e	-0.0052095195
37	0xbbcdb2bf	-0.0062774117
38	0x3c28e174	0.010307658
39	0x3b9d2709	0.004795913
40	0xbb9bb577	-0.004751857
41	0x3c3568e8	0.011072375
42	0x3c1b2a29	0.009470501
43	0x3c13aa4a	0.009012768
44	0x3b27c452	0.0025599194
45	0x3a05e879	0.00051081885
46	0x3c280237	0.010254434
47	0xbc1891ec	-0.009312134
48	0x3c17589e	0.009237437
49	0x3c8e855b	0.017397573
50	0xbc2e572c	-0.010640901
51	0xbb1d15f6	-0.0023969389
52	0xbc96661e	-0.01835924
53	0xbb814a87	-0.003945652
54	0x3c8ba34e	0.017045643
55	0x3cbb40d1	0.022858055
56	0x3cfb6f85	0.030692825
57	0x3b392a87	0.0028254108
58	0xbbc0d9c9	-0.005885337
59	0xbc151044	-0.009098116
60	0x3c33a045	0.010963504
61	0x3bc32c31	0.0059561958
62	0x3cab9728	0.0209461
63	0xbb21dec8	-0.0024699438

linears.3.weight f4 [32, 64]
0	0xbee832da	-0.45351297
1	0xbcdaf9e5	-0.026730487
2	0xbe0f0a64	-0.13968807
3	0x3e02c511	0.12770487
4	0x3de1b1ee	0.110202655
5	0x3de31608	0.110881865
6	0x3e51f0c4	0.20502001
7	0x3d1f7265	0.038927455
8	0x3eaee2a9	0.34157303
9	0x3cbbf001	0.022941591
10	0x3d25e634	0.040502742
11	0xbd20491d	-0.039132226
12	0xbc35923d	-0.011082229
13	0xbe3c32b8	-0.18378723
14	0xbe82b3a6	-0.25527686
15	0xbc2b2b3f	-0.010447322
16	0xbc90fc88	-0.017698541
17	0x3d75e587	0.060033347
18	0xbe4c73ea	-0.19966093
19	0xbd431add	-0.04763304
20	0x3e20af4f	0.15691875
21	0x3d965447	0.073402934
22	0x3e082a01	0.13297273
23	0x3db2bf98	0.0872795
24	0xbdd637a7	-0.104598336
25	0x3da476c2	0.08030464
26	0xbe540f6d	-0.2070901
27	0xbe4a6edc	-0.19768852
28	0x3be7a632	0.0070693726
29	0x3e273108	0.16327298
30	0x3e117ba6	0.14207324
31	0x3e532eb0	0.20623279
32	0xbe372a02	-0.17887118
33	0xbda7d22f	-0.08194386
34	0x3dd677b0	0.10472047
35	0x3dc62ff1	0.09677113
36	0xbdff20aa	-0.12457402
37	0x3c941a37	0.018078906
38	0x3e6a0b0e	0.2285578
39	0xbe1b0560	-0.15138769
40	0x3deba5c0	0.11506224
41	0xbdb5b8f7	-0.0887317
42	0x3c16b46b	0.009198288
43	0x3e75c897	0.240023
44	0xbd7e2793	-0.06204946
45	0xbe72c758	-0.23708856
46	0xbe00f224	-0.1259237
47	0xbec82df7	-0.39097568
48	0x3e4f3037	0.20233236
49	0x3e1380dc	0.14404625
50	0xbd30e37c	-0.043185696
51	0x3e47ea79	0.19523038
52	0xbd9d77a2	-0.07688834
53	0x3e649e8b	0.22326104
54	0xbe970c10	-0.2950139
55	0x3e5b1942	0.21396354
56	0xbc3085aa	-0.0107740555
57	0x3d3724b8	0.044712752
58	0x3e729399	0.23689117
59	0x3d994f8b	0.07485875
60	0xbd7606bc	-0.060065016
61	0x3d62e0a3	0.05539001
62	0x3e1fa2e0	0.15589476
63	0xbe37558b	-0.17903726
64	0x3e26b6dd	0.16280694
65	0x3dc3946c	0.095497936
66	0x3d28caca	0.04120902
67	0xbcd7365d	-0.02627104
68	0x3e80f37c	0.25185764
69	0xbe8b866f	-0.27251002
70	0xbe5ef7c3	-0.21774201
71	0xbc710587	-0.0147107905
72	0x3de8c48b	0.113656126
73	0x3e41b402	0.18916324
74	0x3e4e4d0a	0.20146576
75	0x3e82aae1	0.25520995
76	0xbe6faf33	-0.23406677
77	0xbd586104	-0.052826896
78	0x3e0206d3	0.12697916
79	0xbdaaca40	-0.083393574
80	0xbcfcfef0	-0.030883282
81	0xbe20eb6a	-0.15714803
82	0xbd6983eb	-0.057010572
83	0x3e330496	0.17482218
84	0x3ec0eb4e	0.37679523
85	0x3cce0240	0.025147557
86	0x3e3816ab	0.17977397
87	0xbd7cf62b	-0.0617582
88	0x3df40946	0.11915831
89	0xbbfbf0b5	-0.0076886066
90	0x3c6f0ee6	0.014590954
91	0xbe6aee9c	-0.22942585
92	0x3e1ed7bf	0.15511988
93	0xbe103636	-0.1408318
94	0xbd830c8a	-0.06398876
95	0xbdc5ada7	-0.09652262
96	0x3e024163	0.12720256
97	0xbe240a79	-0.1601962
98	0x3d402db2	0.04691858
99	0xbe584157	-0.21118675
100	0x3e43eaad	0.1913249
101	0x3e9562e0	0.29176998
102	0x3e039954	0.12851459
103	0x3d8a73e8	0.067603886
104	0x3caba44f	0.020952372
105	0xbe435126	-0.19073924
106	0xbdc7944b	-0.097450815
107	0xbe4bc138	-0.19897926
108	0x3d896957	0.06709545
109	0x3d5cc696	0.053900324
110	0x3e3dd4ae	0.18538162
111	0xbd6414cc	-0.055683896
112	0x3e6a28ed	0.22867174
113	0x3ccc720f	0.024956731
114	0x3df72af8	0.120687425
115	0xbe723689	-0.23653616
116	0xbe466550	-0.19374585
117	0x3d6f8b2b	0.05848233
118	0x3db5be6f	0.08874213
119	0x3daa95f4	0.083293825
120	0x3e8ca1f9	0.27467325
121	0xbbed008b	-0.0072327307
122	0xbee9fcc7	-0.45700666
123	0xbd66872e	-0.05628126
124	0xbd9372d6	-0.071996376
125	0xbe987594	-0.29777205
126	0x3ed49e4e	0.41527027
127	0x3e1bb086	0.15204057
128	0x3e4f32fa	0.2023429
129	0xbe179d99	-0.14806212
130	0x3e50debb	0.20397465
131	0x3ce9d245	0.028542647
132	0x3d9e228a	0.077214316
133	0x3e514605	0.20436867
134	0xbdd6600f	-0.104675405
135	0xbc97ae0b	-0.018515607
136	0xbe1db20e	-0.15399954
137	0xbddfad68	-0.109217465
138	0xbe34f595	-0.17671807
139	0x3db0ce6d	0.086331226
140	0xbda090c8	-0.07840115
141	0xbdf4ed86	-0.119593665
142	0xbc9a47c1	-0.018833043
143	0xbdcf8522	-0.10132815
144	0x3d8aafc5	0.06771807
145	0x3e006be7	0.12541161
146	0x3e3a782e	0.18209907
147	0x3da2176f	0.07914626
148	0xbcaaba81	-0.020840885
149	0x3e32e4fc	0.17470163
150	0x3d8b8af2	0.06813611
151	0x3dd23e5f	0.102658026
152	0x3ba86de4	0.005140053
153	0xbcac0dd7	-0.021002693
154	0x3d811be4	0.06304148
155	0xbd9881a6	-0.074466035
156	0xbe3bf9f1	-0.18357064
157	0xbd8aa7ba	-0.067702726
158	0x3da932c7	0.08261638
159	0xbcb8114e	-0.022469189
160	0x3e43d5a3	0.19124465
161	0xbdbdd490	-0.09269059
162	0x3e8c667a	0.27421933
163	0x3d494313	0.049136233
164	0x3db5f9d7	0.08885544
165	0xbd0fb00b	-0.035079997
166	0xbd20a2fe	-0.03921794
167	0x3d9878ef	0.07444941
168	0xbe78dd81	-0.24303247
169	0xbe856abf	-0.26058003
170	0x3e57bd3e	0.21068284
171	0xbe9acbdb	-0.30233654
172	0xbd32b369	-0.04362813
173	0x3e6b3859	0.22970714
174	0xbe962948	-0.2932837
175	0xbdcfec9f	-0.10152554
176	0x3e248ff6	0.16070542
177	0x3d2dbbb1	0.042415325
178	0xbbe7e5ff	-0.007076978
179	0xbe27c32b	-0.16383044
180	0x3e2d5340	0.16926289
181	0xbda4dfb4	-0.080504805
182	0xbea36a0d	-0.31916848
183	0x3d48814d	0.048951436
184	0x3dc445d7	0.095836334
185	0xbdaf8ae4	-0.08571413
186	0xbd108bac	-0.03528945
187	0xbd244079	-0.04010055
188	0xbe085c0b	-0.13316362
189	0x3e5741d9	0.21021213
190	0xbd39531c	-0.045245275
191	0x3e578be1	0.21049453
192	0xbea548c0	-0.32282066
193	0x3e66de3e	0.22545716
194	0x3dc4db26	0.09612112
195	0xbe294baa	-0.1653277
196	0x3dc969c6	0.09834628
197	0xbe54fe5d	-0.20800157
198	0x3e6c36d4	0.2306779
199	0x3d861fe3	0.06549051
200	0x3d103ef9	0.035216305
201	0xbeb741e1	-0.3579245
202	0xbdc094d8	-0.0940339
203	0xbe3c4449	-0.18385424
204	0xbdc2ebaa	-0.095176056
205	0x3e610872	0.21975878
206	0x3c2fa86d	0.010721308
207	0xbe5ae9a0	-0.21378183
208	0x3df9da1e	0.12199806
209	0xbe63f25e	-0.22260424
210	0x3e063896	0.13107523
211	0x3e5bb225	0.21454675
212	0xbd450e17	-0.04810914
213	0xbe0f363d	-0.13985534
214	0x3e26f62c	0.16304845
215	0xbce036b7	-0.02736984
216	0xbe29b18f	-0.1657164
217	0xbdc5cdbf	-0.096583836
218	0x3de28d38	0.110620916
219	0x3e3769b0	0.1791141
220	0x3d783c29	0.06060425
221	0xbddc72e4	-0.10764101
222	0xbd6c429b	-0.057680707
223	0x3e30483f	0.1721506
224	0xbb989202	-0.0046560774
225	0x3e45e9f2	0.19327524
226	0x3d8bacda	0.06820078
227	0xbe9b0ec7	-0.30284712
228	0xbd89257a	-0.06696601
229	0xbe71b5f3	-0.23604564
230	0x3e1a8eb7	0.15093504
231	0xbbaccd55	-0.005273501
232	0x3d9116ac	0.070844024
233	0xbe105c6d	-0.14097758
234	0xbd94bbee	-0.07262407
235	0xbde11798	-0.10990828
236	0xbe8fe498	-0.2810409
237	0x3e5800a5	0.21093996
238	0xbd8672f4	-0.06564894
239	0xbd610acf	-0.05494195
240	0xbd070b54	-0.032969788
241	0xbe3b29f2	-0.1827772
242	0x3d8f2963	0.06990316
243	0xbe007ec4	-0.12548357
244	0x3dc61db1	0.09673632
245	0xbdbe3f02	-0.092893615
246	0xbe3a161e	-0.181725
247	0xbda74347	-0.08167129
248	0x3e610cb3	0.219775
249	0x3e1fbaff	0.15598677
250	0x3ec1fe2a	0.37889224
251	0xbdce213a	-0.10064931
252	0x3d768afe	0.060191147
253	0x3d7ecdc3	0.06220795
254	0x3bd9c0fd	0.0066453204
255	0x3cfac8aa	0.030613262

linears.3.bias f4 [32]
0	0xbb10fa7c	-0.0022121957
1	0x3d20e158	0.039277405
2	0xbc45b47f	-0.012066959
3	0xbc136a30	-0.008997485
4	0xbc31f8fc	-0.010862585
5	0xbc940c70	-0.018072337
6	0x3ce317ae	0.027721252
7	0x3c4db04d	0.01255424
8	0xbb001bc8	-0.001954781
9	0x3be70fa3	0.0070514246
10	0xbc0f7451	-0.008755759
11	0xbbeb8a0f	-0.0071880887
12	0xbc977cf4	-0.0184922
13	0x3be40cb2	0.006959521
14	0xbc1d3f22	-0.009597572
15	0x3c7ec294	0.015549321
16	0x3ba238d2	0.004950621
17	0x3bcb75e8	0.006209124
18	0x3c41440a	0.011796007
19	0x3b14a46a	0.0022681006
20	0xbbffbac1	-0.007804245
21	0xbc14c8b8	-0.009081058
22	0xbbf46c5a	-0.0074592056
23	0x3b6cd155	0.0036135514
24	0xb96ccef3	-0.00022583808
25	0xbc9c8e0a	-0.019110698
26	0xbc0e58f2	-0.008688198
27	0xbc6307a0	-0.013856798
28	0xbb6c4cf5	-0.0036056612
29	0x39e62beb	0.0004390174
30	0xbc33a7a3	-0.010965261
31	0xba0b7e67	-0.00053212646

linears.4.weight f4 [4, 32]
0	0x3e64ef44	0.22356898
1	0xbdbd1def	-0.09234225
2	0xbe01f8b8	-0.12692535
3	0x3db5294e	0.08845769
4	0xbe12e2ff	-0.14344405
5	0xbda22deb	-0.079189144
6	0x3bb0bda9	0.005393703
7	0x3e380d64	0.17973858
8	0xbeb4ce4c	-0.35313642
9	0x3ef5fc66	0.48044127
10	0xbdedf518	-0.116190135
11	0xbd3f581f	-0.0467149
12	0xbda89d48	-0.08233124
13	0x3e51b894	0.20480567
14	0xbf5066d1	-0.81406885
15	0x3e3c8d35	0.18413241
16	0x3eb08f62	0.34484392
17	0x3ecb1607	0.39665243
18	0x3df06285	0.11737541
19	0x3e003cdc	0.12523216
20	0xbe680bb9	-0.22660722
21	0xbe16bae0	-0.14719725
22	0x3e5e6648	0.21718705
23	0xbd227164	-0.03965892
24	0xbee0c552	-0.43900543
25	0xbdef23ad	-0.116767265
26	0xbdaec78f	-0.085341565
27	0x3de31229	0.11087448
28	0x3d53ab16	0.051676832
29	0x3e922d06	0.28549975
30	0xbf1da752	-0.61583436
31	0x3e3317a5	0.17489488
32	0xbbdabc66	-0.006675291
33	0xbd57bb47	-0.052668836
34	0xbf0761b2	-0.52883446
35	0xbe7d8d81	-0.2476101
36	0xbee49de1	-0.44651702
37	0xbf126d0c	-0.5719764
38	0x3daffb31	0.08592833
39	0x3f1cb903	0.61219805
40	0xbddb8aed	-0.10719857
41	0x3d38400e	0.044982962
42	0xbe87a4d9	-0.26492956
43	0xbe357d50	-0.17723584
44	0xbeee3413	-0.46524104
45	0x3d990595	0.07471768
46	0xbf18c630	-0.5967741
47	0x3f23ea69	0.64029557
48	0x3e2d644f	0.16932796
49	0xbdb6bf04	-0.08923152
50	0x3f351d52	0.70747864
51	0x3e5a3c62	0.21312097
52	0xbef17c39	-0.47165087
53	0xbed947b6	-0.42437524
54	0xbeca9bef	-0.39572093
55	0x3e92336e	0.28554863
56	0x3e8abbf7	0.2709653
57	0xbf083c9b	-0.53217477
58	0xbe22c6e8	-0.15896189
59	0xbf182b6c	-0.59441257
60	0x3e529cd9	0.20567645
61	0x3d6f0523	0.058354508
62	0xbed4044f	-0.41409537
63	0xbebb9ec8	-0.36644578
64	0x3e9b2c8f	0.30307433
65	0x3efc76bb	0.49309334
66	0xbd5f419c	-0.05450593
67	0xbeb7c809	-0.35894802
68	0x3d777c06	0.060421012
69	0x3ead0fd9	0.33801153
70	0x3e7f0a4f	0.24906276
71	0xbebce042	-0.36889845
72	0xbdfc28d7	-0.12312477
73	0x3f0d9e4b	0.5531966
74	0xbc44ea51	-0.012018756
75	0xbc298264	-0.010346029
76	0x3e5272d1	0.20551611
77	0x3f3a14ba	0.72687876
78	0x3e91e455	0.28494516
79	0xbd35fd5e	-0.044431083
80	0x3e162734	0.14663392
81	0x3ecc4975	0.39899793
82	0xbd827b6e	-0.063711986
83	0x3e5e1c31	0.21690442
84	0x3ec7863f	0.3896961
85	0xbe3ecec2	-0.1863356
86	0xbe3bcfae	-0.18340942
87	0xbec1032c	-0.37697732
88	0x3eb0e19d	0.3454713
89	0xbea92a9f	-0.3304033
90	0xbda6cc7d	-0.08144472
91	0xbec2a199	-0.38013914
92	0xbdd3f55e	-0.103495345
93	0x3e2ce48c	0.16884059
94	0xbe0eb860	-0.13937521
95	0xbdc30246	-0.09521918
96	0xbd9cb1ef	-0.07651126
97	0x3e3eb28c	0.18622798
98	0xbe70f5a3	-0.23531203
99	0x3e1ac03f	0.15112399
100	0xbd5299dd	-0.051416267
101	0xbe82f0e7	-0.2557442
102	0x3f0eea03	0.55825824
103	0x3d529f7c	0.051421627
104	0x3e7d0cf2	0.2471197
105	0x3e093a47	0.13401137
106	0xbf0ef1f2	-0.5583793
107	0xbe576f71	-0.21038605
108	0xbd3e3b55	-0.046443302
109	0x3ed1eeb7	0.41002437
110	0xbcc4224f	-0.02394214
111	0x3f097d99	0.5370727
112	0x3f0b0068	0.54297495
113	0x3e85f011	0.2615972
114	0x3dbcf48f	0.09226333
115	0xbd5ad2a9	-0.053423557
116	0xbecd7043	-0.4012471
117	0xbef3a01d	-0.47583094
118	0xbe374fe5	-0.17901571
119	0xbef93b2b	-0.48677954
120	0xbeb2b3a4	-0.3490268
121	0xbf41e695	-0.75742465
122	0xbeb718e0	-0.35761166
123	0xbe624ad3	-0.22098856
124	0x3efa51e7	0.48890612
125	0x3e92ab9a	0.28646547
126	0x3ebf6669	0.3738282
127	0x3e4337f4	0.19064313

linears.4.bias f4 [4]
0	0x3b84e3c5	0.0040554726
1	0x3e43925f	0.19098805
2	0x3db3a196	0.087710544
3	0x3e65a8d0	0.22427678
