Iterations/Test model/epoch_198.pt (torch, 37727 bytes, 10 tensors)

linears.0.weight f4 [32, 2]
00000000: 9a11 c93e 76a8 50bf 5474 8e3e b060 93bf
00000010: 1611 873e 38f0 193f 1aa5 debc 1c39 b4bf
00000020: a2cd 5fbd a3b0 9e3f 4108 0c3c 3ebb c4bf
00000030: c42d 8a3d 8274 bf3f c93e 73bd facc 3dbf
00000040: 50a8 db3e b9ac 56bf 8f4e 57be a3f5 63bf
00000050: bad1 86bd d1e2 adbf 5dbd 36be 06ef 28bf
00000060: 4bbd 7ebd b3eb 673f 7f12 683e 9992 9cbe
00000070: 5921 d5bd adb9 d23f ac6c de3c 52a2 93bf
00000080: 9302 143e c027 a73f 45f5 943e 7546 573e
00000090: 3748 063c 338b ac3f 9ce7 63be 44d6 f33e
000000a0: a23d fbbb 0e7c b03f 62b9 393e deb9 673e
000000b0: c1b8 543f 12da 39bf ea9a 733e ae21 99bf
000000c0: a3b1 3ebf 2b5e 603f 31e5 d33e 6b4b 56bf
000000d0: afef 39bd 6758 a13e 411c b8bb 1f57 9b3f
000000e0: caa2 233d 1aff a9bf 66fd 95bc d545 ad3f
000000f0: 8fd9 f73d c4c8 a3bf d3b7 d5bc cf64 db3f
0.3927124 -0.8150705 0.27823126 -1.1513882 0.26380223 0.6013217 -0.027178336 -1.4079928
-0.054639466 1.2397655 0.00854689 -1.5369642 0.0674701 1.495743 -0.05938605 -0.74140894
0.4290185 -0.83857304 -0.21026061 -0.89046687 -0.06582971 -1.3584844 -0.17845674 -0.6598972
-0.062192243 0.90594023 0.22663306 -0.30580595 -0.10406751 1.6462914 0.027151428 -1.1533911
0.14454107 1.3059006 0.29093376 0.21022971 0.008195928 1.347998 -0.2225632 0.4762441
-0.0076672593 1.3787858 0.18137124 0.22629496 0.8309441 -0.72598374 0.23789564 -1.1963403
-0.744898 0.8764369 0.41385797 -0.8370883 -0.045394596 0.31512758 -0.0056186025 1.2135962
0.03995017 -1.3280976 -0.018309306 1.3536936 0.12102043 -1.2795644 -0.02608863 1.7140139

linears.0.bias f4 [32]
00000000: 0756 a53d 9d6b 893d 2b17 033e 5578 0f3e
00000010: 5691 6ebd 3bc4 c83c 1faa f1bd 2955 77be
00000020: ec59 ca3d d885 27be 2df7 f83d 704e 85b8
00000030: 00fc 99bc 3a0f e03d 7c28 19bd 6048 f83d
00000040: b329 ecbd c542 183e 1767 a13c c8d4 90bd
00000050: d259 f43d 0177 143e fabd 5b3e 712d 233d
00000060: ed53 6abe 99b4 d73d 6c37 1b3e b1c5 07be
00000070: f4ad 4f3d f48c 8dbd c29a 683d 9dc7 39bd
0.08073049 0.06709979 0.12801807 0.14010747 -0.058244072 0.024507632 -0.11800026 -0.2415358
0.098804325 -0.16359651 0.1215652 -6.356544e-05 -0.01879692 0.10940404 -0.037392125 0.121231794
-0.11531391 0.1486922 0.019702477 -0.07071835 0.11931194 0.14498521 0.21459189 0.03983826
-0.22883578 0.10532493 0.1515786 -0.13259007 0.050703004 -0.0691165 0.056788214 -0.04535638

linears.1.weight f4 [64, 32]
00000000: b55f 243d 5ec0 16be 7195 f9bd fc40 adbd
00000010: e262 72be 998e 0b3f b55e 50be 66a0 9c3e
00000020: dc97 3e3e a22e c23e 3c3a 683e eaac 683e
00000030: 5108 8fbe 67d6 e2be 5e01 a7be c238 63be
00000040: 505a 4b3e 2abf 04bd 2f73 9bbe e183 183e
00000050: 00ab 01bf fe46 7ebd 4835 2fbc 5225 913e
00000060: 18f3 81bc ef2c 483e b159 90be 45e0 11be
00000070: 01ac d03e 95c1 dbbe fc7a 5c3d 65f3 febe
00000080: 623c 803e c05b 623e 32ad d5bc 5497 933e
00000090: 3751 c6bd bfdc edbd 688d 0f3e 888d 263e
000000a0: 9488 1f3f 411a d33b b952 ffbc 09f0 c4bc
000000b0: 5d0d a53d 0aaf c83e a48e c33d 5715 7e3d
000000c0: 36d7 4f3e 90b9 de3c 39cc efbd b675 bc3b
000000d0: 391a cc3d 2461 af3e 6445 1a3e ff93 babd
000000e0: ccd3 2ebe d36b 613e 3b20 a3bd 6e03 38be
000000f0: 5a37 20bd 9e77 d53b 2228 863e 1b76 7a3e
00000100: 3896 87bd 12f5 a43d 2260 eb3d 0842 9a3e
00000110: fac3 67bd 8bc0 863d f9a5 86be a5f4 9cbe
00000120: 1487 86bd aebc 9abe b541 2c3d 63d3 da3d
00000130: 446e c83e 4031 93bb 1dc7 90bd e76b 503c
00000140: b0c6 47be b34b 973e 1393 8dbd 105b 123d
00000150: 69fd 8fbd 1d96 8fbe 4d59 613e 3ac1 01be
00000160: f5d6 0bbe c358 933d d5c8 a5bb af98 e5be
00000170: b23e bdbd e169 a13d 18c2 f2bd 36e7 ebbe
00000180: ef77 dbbc 932e 64bb 7230 a7bd d3ab 313e
00000190: 0480 c4bd 5e9f a9be 5c2d 6ebe 811e 96be
000001a0: 418b 943e b5fc 78be 4d17 903e 894e 513e
000001b0: 3bdc 743e 9f0f 343e 6190 813e 1d14 a6bd
000001c0: 7e1e 64be 29b2 ddbc e816 913e 0744 ff3d
000001d0: ab50 183e 2747 2abd 85b2 b83e 37a6 d1bd
000001e0: 7480 92be 4ddf ae3e b26b 08be e807 d5be
000001f0: 0cd1 2cbe c587 273d 3416 a8be 31aa 233d
00000200: 4aa7 fdbb 126b b23c 8f83 15bd 4411 5fbe
00000210: fe9e 2c3e fae8 82be 9392 8b3e 6376 773d
00000220: 9154 b1bd 675d 21be fd0b fdbe 6121 5fbe
00000230: 0e38 29be ddc1 4ebe 2886 003f dedb e1bd
00000240: 0c09 513e ac84 3f3e 6772 cbbc d711 713e
00000250: 153c 03be ec61 4d3d 7fbb bbbe da67 283d
00000260: 2e8b b93d 2454 09bd 09ca 9fbd adc6 ad3e
00000270: 4050 fdbc bb5d 513e 2782 46bd 380a eb3e
00000280: a295 543d 2740 00be 53bb 94bd 001b a0be
00000290: 6958 b93e 3bbe a4be fe86 e23d 66b6 f93c
000002a0: a02d b13b b006 02be 8f4a 2dbe 674a 18bd
000002b0: 6cf5 64be ddaf 953e 4c97 243e 40d9 33be
000002c0: b5bd 8cbe 80e5 263d 96c2 82bc 703a 293e
000002d0: bcf5 d2bc 44be ffbd a68d 4fbe d765 f7bc
000002e0: bc5c 893e 2aaa 5a3c f8b6 bd3e a6ab 253e
000002f0: d7b6 25bd 13c0 7f3e 859a 28be 3443 313e
00000300: 0530 dfbd e44d f0bc 7c1d 853d 6615 ae3e
00000310: ea89 6b3e 1a45 edbe b3eb 28be 6be1 f4be
00000320: 3098 ef3e ff57 01bf e4e2 593e 7040 873e
00000330: 9383 223e d7af e2bd 1bc6 6e3e 2705 873d
00000340: 5a73 393d 916a a13c 70ee a43e 8303 803e
00000350: 8566 033f 9d2e a4be 56b7 e03e fca5 42be
00000360: 4231 93be b2a0 c93d 772f 6e3d 87a5 95be
00000370: 427b bdbe dcbe f53c 9cf4 8abe 67e8 b13e
00000380: 5490 933c 8dc6 3ebe d52d 273e 50e3 d0bd
00000390: 1006 9f3e cbac debe adfa 7e3e 13e3 403e
000003a0: 3739 8fbe acad cd3e a26a 503b b543 bbbd
000003b0: cb61 2dbe acfc f83d a3e9 723e 8d85 10bd
000003c0: eec2 ee3d cb8f 17be 465a 883e e0a1 17be
000003d0: 7fc5 913c 99c0 17be 9c8a 083e 5a21 b1bd
000003e0: 02d6 d73d 46a1 9bbc 6224 e6bd 49f6 8f3c
000003f0: f446 8dbd 166b d93e 7f2b a5be 308f 063f
0.040130336 -0.1472182 -0.12186707 -0.084596604 -0.23670533 0.5451446 -0.20348628 0.30591124
0.18612617 0.37926203 0.22678465 0.22722211 -0.27936032 -0.443042 -0.3261823 -0.2218962
0.1985867 -0.03240887 -0.30361316 0.14894058 -0.5065155 -0.062079422 -0.010693856 0.28348786
-0.015862986 0.19548391 -0.2819343 -0.14245708 0.4075623 -0.4292113 0.053828225 -0.4979507
0.25046068 0.22105312 -0.026083563 0.28826392 -0.09683459 -0.116143696 0.14018786 0.16264927
0.62317777 0.0064423387 -0.031167375 -0.024040239 0.080591895 0.39196044 0.09548691 0.06203207
0.2029694 0.027188092 -0.11708874 0.005751337 0.09965939 0.342538 0.15065533 -0.09110259
-0.17072982 0.22013788 -0.07965132 -0.17970058 -0.039115287 0.0065145036 0.26202494 0.24459116
-0.06620449 0.08054556 0.11492945 0.30128503 -0.056583382 0.065796934 -0.26298502 -0.306554
-0.06568733 -0.30222076 0.04205485 0.1068485 0.39146626 -0.004491955 -0.07069228 0.012721038
-0.19509387 0.2954994 -0.06912818 0.035731375 -0.07030756 -0.28044215 0.22006722 -0.12671366
-0.13656218 0.07194664 -0.0050593414 -0.4484305 -0.09240474 0.07881523 -0.11853427 -0.46074837
-0.026790587 -0.00348178 -0.08163537 0.17350702 -0.095947295 -0.331294 -0.2325949 -0.29320148
0.29012492 -0.2431515 0.28142777 0.20440115 0.23912136 0.17584084 0.25305465 -0.08109305
-0.22277257 -0.027062492 0.2833779 0.12464147 0.14874522 -0.041571762 0.360737 -0.10236781
-0.28613627 0.3415474 -0.13322333 -0.41607594 -0.1687662 0.040900964 -0.3282944 0.03995723
-0.0077408897 0.02177957 -0.036502417 -0.2178393 0.16857526 -0.25568372 0.27260265 0.060415637
-0.08658708 -0.15758286 -0.4942321 -0.21790077 -0.1652529 -0.2019114 0.50204706 -0.110282645
0.20413607 0.18702954 -0.024834825 0.23541962 -0.12815888 0.050142214 -0.36666486 0.041114666
0.090597495 -0.03352751 -0.07802207 0.3394064 -0.030922055 0.20445912 -0.048463967 0.45906234
0.051900513 -0.12524472 -0.07262292 -0.312706 0.36200264 -0.32176384 0.11060904 0.030482482
0.0054070503 -0.12697864 -0.16922973 -0.03718033 -0.22359246 0.29235736 0.1607334 -0.17563343
-0.27488485 0.040746212 -0.015961926 0.16526198 -0.02575194 -0.12487462 -0.20268878 -0.030199928
0.26828563 0.013346234 0.37053657 0.1617876 -0.040457573 0.24975614 -0.16465195 0.17310792
-0.10897831 -0.029334016 0.06499764 0.340007 0.23001829 -0.46341783 -0.16496162 -0.4782823
0.46795797 -0.50524896 0.21277958 0.2641635 0.15870504 -0.11068695 0.23317759 0.065927796
0.045276023 0.019704135 0.32213163 0.2500268 0.5132831 -0.32066813 0.43889874 -0.1900863
-0.28748518 0.09845103 0.058150735 -0.2922785 -0.370081 0.029998235 -0.27139747 0.3474762
0.018013157 -0.18630429 0.16326077 -0.101996064 0.31059313 -0.43491206 0.24900313 0.18836622
-0.2797334 0.40171564 0.003180184 -0.091437735 -0.16931836 0.12157568 0.23721938 -0.035283614
0.11658274 -0.14800946 0.26631373 -0.14807844 0.017794369 -0.14819564 0.13334125 -0.086489394
0.105388656 -0.0189978 -0.11237408 0.017573493 -0.06898299 0.42464513 -0.32259747 0.52562237

linears.1.bias f4 [64]
00000000: afe4 afbd e5d9 073e dc57 6b3d 293e 483e
00000010: bf05 77bd 512f 73bd 912b a63e f949 f73b
00000020: 956b 3b3e 4cb7 7a3e 9675 b83c 9d49 7d3e
00000030: 761a a53d cf49 5a3d 2e16 1cbe 7497 d33e
00000040: 7c3d 14bc 6a37 443c f84d 953c 1572 a83d
00000050: cc71 ed3c 1b70 dfbd 7c95 01bd e1f4 babd
00000060: 77fb af3c 8167 9ebc 1e51 1b3d fe5a 573a
00000070: 3eca 7ebe 8b5d ecbd 810e 413d c9f4 4cbd
00000080: 07aa f2bd 7199 013e b44a 0d3e f9b4 efbc
00000090: d1ce 553e 4b8a c1bd 3311 653c da22 1bbc
000000a0: f8cd 77bd 6896 443e af5f a9bc c351 213e
000000b0: 94af 863e 2059 503e 5e73 f2bd 9072 cebd
000000c0: 5d3d 3abe 5254 04be 7aeb 383d 4eba 1e3e
000000d0: 6751 e33d c49f 2b3e 81a4 dc3d 04bc 7dbd
000000e0: 6195 283e 380b 883e 4218 163d 6242 303d
000000f0: 791b d9bd 31b3 31be b233 2b3e 34b6 bf3d
-0.0858854 0.13266714 0.057456836 0.19554962 -0.060308214 -0.059371296 0.32455114 0.00754666
0.18302758 0.24483985 0.022517007 0.24735112 0.08061688 0.053293046 -0.15242836 0.41326487
-0.009047862 0.011976102 0.018225655 0.082248844 0.028984927 -0.10910054 -0.0316367 -0.09128738
0.021482212 -0.019336464 0.037919156 0.0008215158 -0.24881837 -0.115412794 0.047132973 -0.050038133
-0.118488364 0.1265619 0.13798028 -0.0292611 0.20879675 -0.094502054 0.013981151 -0.0094687585
-0.06049916 0.19198 -0.020675508 0.15753846 0.2630583 0.20346498 -0.11838411 -0.10080445
-0.1818747 -0.1292279 0.045146443 0.15500757 0.11099511 0.16760164 0.10773564 -0.061946884
0.16463234 0.2657106 0.036644228 0.043032058 -0.10600943 -0.17353512 0.16718939 0.09360924

linears.2.weight f4 [64, 64]
00000000: c8b0 d9bd 2d45 073e e357 03be b33a 933d
00000010: cc92 ce3e a72d f53d cd08 3fbd 1309 fe3d
00000020: d4de f43b 6ee4 3b3d 86b0 abbd 94d5 913d
00000030: 6fc9 b53c 713b 7b3d 0fa8 3d3e 7a22 4a3c
00000040: 68d2 51be e616 99be 3518 7d3e 5a6a 3bbe
00000050: 2c4f c03c 8731 b63d 66f4 813e 5f88 873d
00000060: 0b30 5ebe 2bea ac3e f05a 95bd 4181 ec3d
00000070: a776 4cbe 1585 debc 4f94 dbbd a4ca 663e
00000080: 32a1 7a3e 9216 b63d 321e 813e 3e07 613e
00000090: a620 45bd 5462 da3e 906a 29be ab0c e83c
000000a0: 4993 ed3d de1e 833e cbdf 38be a567 063e
000000b0: e26d 563d de86 10be 894f 023e 06f3 6a3e
000000c0: 44cc 01be eac4 86be 33c5 aebe 1c25 65bc
000000d0: 2b2b d5be f3ae 2fbe 51bd 3ebe 540b 973e
000000e0: fc54 24be ed38 483c bded f5bd da6a 4c3e
000000f0: c509 95bd 83bc 803d 3859 56be dfb4 80be
00000100: 328c 45be c1e5 3d3d 0ccb 49ba c375 15be
00000110: ee92 8e3c 1ca0 27be 77b2 09be b2ce 533e
00000120: 6022 4d3c 43bd 84be 5aab 12bb 8311 99bd
00000130: 1408 41be 3bf6 733c d9ae 2f3e 8e53 61bd
00000140: cc89 823e 3b4e 3ebc a4de 6cbd 0e42 803e
00000150: 300b 0bbd 2b2f 093e 861e b63d be80 d73d
00000160: 517e 15be 8c5e 29be b814 0c3e 5f70 d9be
00000170: 6a9e f83c 118f 4f3e a7f9 74bd cff0 3d3e
00000180: ab67 0bbe e9f0 08be 068e 83be f5e0 fd3c
00000190: 7355 acbe 4a2b 16be 2bab 843d f90e 073d
000001a0: 6c2f 2dbe fa20 eebd 6661 033e d99a 043e
000001b0: d1fe b7bd e44a da39 1507 6e3d ca22 a53c
000001c0: 81e6 833e 4f3b fb3d 2b21 36be b184 31bd
000001d0: d6c9 35bd 0ddc 11be 58c5 09bc 91e2 f73d
000001e0: 7fa2 c63d b208 f33c a490 8ebd f405 b83d
000001f0: b757 84bd 3c64 db3b a9b8 96be 2ce7 693d
00000200: 1b4e 82bd 0111 e6bd ebc7 c7be 3fa2 0fbe
00000210: dca1 d63c 65c2 c53d 6162 0abe d142 28be
00000220: 16d4 69bd 6a91 9abe 5c9c 02be 9399 dbbe
00000230: 13d4 45be 0b83 553c 9618 783e d996 33be
00000240: a728 a33b d733 073d cb78 883e 20d4 ddbd
00000250: b336 1bbd 82ca 853e 5bf5 16be 96cb d93d
00000260: dcfc 243e 13ed 28be 6b11 4f3e 450a dbbc
00000270: 641f 713e d41b 9f3e 0b17 a8bd 9cb9 c43e
00000280: 76e4 b83d a8fd af3b 5ca8 aabd 66e0 1cbd
00000290: 9be8 a4be d99c 383e 4a70 a7bc d07b 86bd
000002a0: 0847 80bd a83d 06be 276e 0c3e 0b19 bdbc
000002b0: e01a d9bc 5432 013d ff30 803e d5e3 ac3b
000002c0: 1674 543e 6135 543e 6815 65be 6701 6a3e
000002d0: efbd a4be bc0f 40bd ebb2 17be 5d72 12bd
000002e0: 88eb 60be c043 a4bc 5ff2 62be 71c3 edbd
000002f0: 4a68 a6bc 581e d33d adab 30be ea20 54bd
00000300: 6441 c63d d1d8 e03e 5150 d83d 34d9 b9be
00000310: ab5b 923e eb40 9bbe 3128 b2be e653 0dbe
00000320: b21d 3fbe 2083 a33d 01f4 823d bc81 b9bd
00000330: 6620 563d 440f 2a3e 7c0d fa3d 23f7 91be
00000340: 3c8b 7d3e 77b7 e7bd 202f c23e 3431 97bd
00000350: a371 80be 6b31 04bd 3aa7 7f3d 6bd2 913d
00000360: 93b4 73be 1417 393e 17cd 533e be52 1fbc
00000370: ab68 02be 46ea 873d 05e1 573e 7de8 233f
00000380: 153b 013e 7a04 67bd 7130 133e 5171 ce3e
00000390: 0d52 69bc 3c10 6f3e d3cc 013d 1790 843d
000003a0: 16c0 b63d 9764 923d aa7e 8ebe 8646 703e
000003b0: a008 ebbc 2c29 8abe fbbb 8cbd 1259 bf3e
000003c0: 061f 053e e28f ec3d 64cd 28bf aaac 9d3e
000003d0: 1e1a 67be f579 6bbd 0b14 b13e 2c9a 4eba
000003e0: 8d49 c8bd dfdb a8be ae6a b2be 9b74 2e3e
000003f0: 5f5f 2c3d d377 6c3e ef58 35bd 1d74 1a3e
-0.106294215 0.13209982 -0.12826495 0.0718893 0.40346372 0.11971598 -0.046639252 0.124040745
0.0074728522 0.045872144 -0.083832785 0.07120815 0.022190778 0.061335985 0.1852114 0.012337321
-0.2049042 -0.29900283 0.24716265 -0.18302289 0.023475252 0.08896165 0.25381774 0.066178076
-0.21698014 0.33772406 -0.072927356 0.11548091 -0.19967137 -0.027163068 -0.10721647 0.22538239
0.24475554 0.08891024 0.2521835 0.21975419 -0.04812684 0.42653143 -0.16544557 0.028326353
0.11600358 0.25609487 -0.1805412 0.13125475 0.052350886 -0.14113948 0.12725653 0.22944269
-0.12675577 -0.26322109 -0.34134826 -0.013985898 -0.41634497 -0.17156582 -0.18626906 0.2950083
-0.16048044 0.012220603 -0.120082356 0.19962636 -0.07277254 0.06285956 -0.20932472 -0.25137994
-0.19291762 0.04636169 -0.0007697798 -0.14595704 0.017404046 -0.1636967 -0.13446985 0.20684317
0.012520403 -0.25925645 -0.0022379966 -0.07474043 -0.18850738 0.014890249 0.17156543 -0.055011325
0.25495756 -0.011615331 -0.057829514 0.25050396 -0.033946216 0.133969 0.08892541 0.105226025
-0.14598967 -0.16539973 0.13679779 -0.42468545 0.030348975 0.20269419 -0.0598084 0.18548892
-0.13613765 -0.1337315 -0.25694293 0.030991057 -0.33658943 -0.14664951 0.0647796 0.032973263
-0.16912621 -0.116273835 0.12830123 0.12949695 -0.08984149 0.00041635998 0.058112223 0.02015819
0.25761798 0.122671716 -0.1778609 -0.043339435 -0.04438194 -0.14244099 -0.008408867 0.12103761
0.096989624 0.029667232 -0.06961182 0.089855105 -0.06462043 0.0066952985 -0.2943776 0.05710523
-0.06362554 -0.11233712 -0.39019713 -0.14026736 0.026200227 0.096562184 -0.13514091 -0.16431738
-0.057087027 -0.30189067 -0.12754959 -0.42890605 -0.19319181 0.013031731 0.24228129 -0.17538013
0.0049792114 0.033008423 0.26654658 -0.10831475 -0.037893962 0.26131064 -0.14742033 0.10634534
0.16112083 -0.16496687 0.20221488 -0.026738295 0.23547131 0.3107592 -0.0820752 0.3842286
0.090279505 0.0053708144 -0.08332893 -0.03829994 -0.32208714 0.18028583 -0.020439286 -0.06566584
-0.06263548 -0.13109457 0.13713895 -0.02308323 -0.026502073 0.031542137 0.2503738 0.005276183
0.20747408 0.20723487 -0.22371447 0.22852097 -0.32176158 -0.046890005 -0.14814346 -0.035753597
-0.21964848 -0.020051837 -0.2216277 -0.11609543 -0.0203134 0.10308522 -0.17252989 -0.0517892
0.09680441 0.43915418 0.10562194 -0.36298525 0.28585562 -0.30322966 -0.3479629 -0.13801536
-0.18663672 0.079839945 0.06394196 -0.09057948 0.05227699 0.16607386 0.12209603 -0.28508863
0.24760145 -0.1131429 0.3792658 -0.073824316 -0.25086698 -0.03227369 0.06241534 0.07120212
-0.23799352 0.1807521 0.20683704 -0.009724317 -0.1273524 0.06636481 0.21081932 0.64026624
0.12620194 -0.056400754 0.14373948 0.4032083 -0.014240754 0.23346037 0.031689476 0.064727955
0.08923356 0.07148092 -0.27831012 0.23464403 -0.028690636 -0.26984537 -0.06871792 0.37372643
0.13000116 0.11550881 -0.659384 0.30795795 -0.22568557 -0.057489354 0.34585604 -0.000788125
-0.09779654 -0.32980248 -0.34847015 0.17036669 0.04208314 0.23092584 -0.044274267 0.15083356

linears.2.bias f4 [64]
00000000: 6178 71bd b136 32bd 0087 39be 67e9 52be
00000010: 1ebe 51be db02 23be 2246 613e 594b 97bc
00000020: ebff 10be 55c7 a2be a34d a9bd 48b6 23be
00000030: 1940 2b3e 9cea b93c 1ab5 0a3e 3a7f f33c
00000040: 7c49 7c3e 4e3c fcbd 93a3 ad3d 0b7c 1dbe
00000050: cf2f 1abe 144b fcbd 4598 f1bd dd48 243d
00000060: a8ea 9fbd a761 033e 6f2b 053e 39e8 623d
00000070: 1bb1 debc cfd1 9abd 6830 98bd adfe 54be
00000080: de48 873d 8206 513e 2ad3 11be 1240 74be
00000090: f048 483e 6098 283d 67df 0ebe a9d3 3f3d
000000a0: 98bd 5cbe cfb0 41be d54a 213e 4d28 63be
000000b0: 0c60 39be 0fa5 3cbe 7bfe bbbd 12ef 443e
000000c0: 4823 72be f466 febc 0531 7b3e af75 853e
000000d0: 39ab 283e 76d2 5abe 9600 8f3d e142 c4bd
000000e0: 2db8 e53d 38f1 023e 95e0 bcbd ef35 5ebe
000000f0: 5bfb c93d 7c87 a5bd 2b93 e7bd e262 e93d
-0.058952693 -0.04350919 -0.18117905 -0.20596848 -0.2048268 -0.15919058 0.2199941 -0.018468546
-0.14160125 -0.31792703 -0.08266761 -0.15987504 0.1672367 0.022694878 0.13545647 0.029723752
0.24637407 -0.1231619 0.08478465 -0.1537935 -0.150573 -0.123190075 -0.11796621 0.04010855
-0.07808429 0.1283022 0.1300485 0.055397246 -0.02718406 -0.07559549 -0.07431108 -0.20800276
0.06605695 0.20412639 -0.14240709 -0.23852566 0.19559073 0.04116094 -0.13952409 0.046832714
-0.215567 -0.18915103 0.15751202 -0.22183342 -0.18103045 -0.1842234 -0.09179398 0.19231823
-0.23646271 -0.031054951 0.24530418 0.26066348 0.16471566 -0.21369347 0.06982534 -0.09583069
0.11216769 0.1278733 -0.09222523 -0.21700262 0.098623954 -0.08082482 -0.11307367 0.113958135

linears.3.weight f4 [32, 64]
00000000: ad4c 9cbe e496 09be a97a cd3d bbe3 923e
00000010: 3ea9 743e 194c 093e 688b a4bd b14d bc3e
00000020: be97 ed3e c5f4 fc3d b393 1a3e f974 3b3e
00000030: fb0a 03be 8e8a c0bd f5b3 d6be 4162 103d
00000040: d1f6 62be b078 203e f531 90be 296a 853d
00000050: ada1 933e faed 0c3e dff0 b03e caed 9e3d
00000060: 7140 2b3d a6a9 7abd 903a 55be c5d5 efbd
00000070: 681f 2eba eaaa fc3d a173 3a3e 313e b43e
00000080: 4867 babc 80e8 87be 16f4 2d3e f22d 693e
00000090: 5cfa 03be 7d83 1dbd 16d4 913e 4568 19bd
000000a0: 3c48 c33e 5114 c03d d337 fa3d 40ed 983e
000000b0: 980e b53d b98a aebd be2b 62be 1d09 07bf
000000c0: 2f4e b23e 4ccf b33d 1a9d 2abe 1902 e13c
000000d0: 0b3f 4fbe 3f72 a93e 5062 2cbe c642 d53e
000000e0: a451 d4bd da0a e3bd f3e4 58bd 42b9 323e
000000f0: 88db 6ebd 8758 373e d845 ae3d 2743 46be
00000100: 76d5 413e 1d29 d33d 21cc aa3e 882a 05be
00000110: 96fc 013f cd14 85be b301 c3be 93a1 073e
00000120: e9ee cb3e a35b dd3e cc9e f03e 7b0e c13e
00000130: 41e0 14bf 49e4 033e 5d64 b43d 3150 7ebd
00000140: e696 a9be b987 043c 6f46 adbd 6507 283e
00000150: 610d 2e3f a924 46bc c68b 723e 9c2b 633e
00000160: c10f d23e 4182 c5bd 70d0 97bc cc7a b03c
00000170: b0f0 2d3e 8a2f 0abe 0258 0abe a60a 173e
00000180: cd5d 673e f7f3 efbe 5073 103e 624b 52be
00000190: 634a 853e 5a8a 573d 06f9 bf3e c38f 833e
000001a0: ad46 c73d 399c 343e 7230 803e dc92 f1bd
000001b0: 887e a03e 7271 a33e 936f e63e c383 2ebe
000001c0: 90ac f73e b3bb d4bd 8eb8 09be 0182 0abf
000001d0: da5e 0fbf 63e3 2d3d 9363 ac3e 0050 cb3e
000001e0: 0feb 013e 19f9 0bbe 185e e4be b0f5 23bc
000001f0: 124d b5bd 64f0 88be 88cd c73e 34a7 23be
00000200: f005 bdbd edc5 873c 8060 113d dd05 2bbe
00000210: b4ea 59bd e6ca 4d3d c077 e7bc e96e 19be
00000220: e45e 65be 7ae2 4cbe 2c43 27be 0e9f 8fbd
00000230: 3658 d5bc bc21 c6bd 18f9 113e 27de 22be
00000240: 91bd 803e 40df 2abd 16f4 9e3e a580 0dbe
00000250: d7ff a6bd d084 793e e89e 1c3d fba1 c33d
00000260: 5bdc 9ebd e493 bc3d ce97 f93d 1e2a 28be
00000270: 626b 50be 9e1c 963d 0fb2 5f3d 04bf 7ebd
00000280: da0b 2e3d 2253 513c b052 593e 1428 b5bd
00000290: ae96 173e 7a93 88bd 4bdb 81bd 620b afbd
000002a0: c534 afbe 23a2 c4be ff67 113e 0d6b babe
000002b0: 89e5 07be 31c3 043e 08e1 05be 1344 d4bd
000002c0: 7ab8 143e 188c e93d 865f 403c a0ae d33b
000002d0: afeb 583e 6720 0cbe ecae e3be 4fd2 57bd
000002e0: 694f 913e c9c5 743d 3935 e13d 7be2 71be
000002f0: 4e6e 45be 0a6e 323d 8da0 203e 0a71 873e
00000300: dd7a acbe b4bf b53e a24d 00bd 83fe 2d3d
00000310: 9518 6bbd 6bd8 a8be 0d92 f43e 29a8 0b3b
00000320: af71 fabd 83ed f3be 0fe4 6fbe ac02 88be
00000330: 94fd 743e dbf1 153d 851a 7c3e ea74 f0be
00000340: 04c2 113f 48ba 72be 8944 ed3e 1a7c 7dbd
00000350: 5a88 77be 221a 863d fe99 9a3b 98aa 9bbd
00000360: 6bb7 aebe ce08 c1b9 af91 863e 0ee7 b13d
00000370: 381f 14be f800 db3d bbe4 c2bd 0870 81bd
00000380: 1e34 a1bd 1222 033f e9d5 95bd 73b3 cebe
00000390: 1ce7 0fbd a8e2 99bd 02fb a23c 7df0 6f3c
000003a0: c885 403d fb38 e0be 8f58 6fbe ecf1 b0be
000003b0: 9846 a8be 480a 513e 90dc 5cbd 8b35 ad3d
000003c0: bbe5 94be 52b0 81bd 2b6c 753e f330 413e
000003d0: ca1d c73e ea0d d1bd 8dc9 20be 35d1 16be
000003e0: 401f 943e 895d 893e 5550 0f3f 2758 31be
000003f0: eeac 08be 6435 87bd 35f2 563d 3faa 0a3e
-0.3052725 -0.13436466 0.10033161 0.2868937 0.23892686 0.13407935 -0.08034402 0.36778024
0.46404833 0.123513736 0.15095405 0.1830634 -0.12797157 -0.09401427 -0.4193417 0.035249952
-0.22164465 0.15671039 -0.28163114 0.06514389 0.28834286 0.13762656 0.3455877 0.077601984
0.041809503 -0.061196946 -0.20823121 -0.11710695 -0.0006642253 0.12337287 0.18208171 0.35203698
-0.022754326 -0.2654457 0.16987643 0.22771433 -0.12888473 -0.038455475 0.2848212 -0.037452955
0.38141048 0.09378875 0.12217679 0.29868507 0.08840674 -0.08522553 -0.22086999 -0.5274828
0.34825274 0.08779773 -0.16661492 0.02746682 -0.20238893 0.33094975 -0.16834378 0.41652507
-0.10367134 -0.11086054 -0.052952718 0.17453483 -0.05831483 0.17904864 0.085094154 -0.19361554
0.18929085 0.10310576 0.33358863 -0.13004506 0.5077604 -0.25992432 -0.38087234 0.1324523
0.3983071 0.43233976 0.46996152 0.3770636 -0.58154684 0.12880053 0.08808205 -0.062088195
-0.3312294 0.008088999 -0.084607 0.16409071 0.67989165 -0.012093701 0.23686132 0.22184604
0.41027644 -0.096439846 -0.018532008 0.02154293 0.16986346 -0.13494697 -0.13510135 0.14750156
0.22594376 -0.46865818 0.14106488 -0.20536569 0.26033315 0.052622177 0.37494677 0.2569562
0.09730277 0.17637719 0.2503696 -0.11795589 0.31346536 0.3192249 0.45007 -0.1704245
0.48373842 -0.10387363 -0.13449308 -0.5410462 -0.56004107 0.04245318 0.3366972 0.39709473
0.12687324 -0.13669242 -0.44603038 -0.010007307 -0.088525906 -0.26745903 0.39023995 -0.15981752
-0.09229648 0.01657387 0.03549242 -0.16701455 -0.053202346 0.050242327 -0.028255343 -0.14983715
-0.22399479 -0.20008269 -0.16334218 -0.07012759 -0.026043039 -0.09674403 0.14255178 -0.15905057
0.25144628 -0.041716814 0.31045598 -0.13818605 -0.08154266 0.2436707 0.038237482 0.0955238
-0.07756873 0.092078954 0.121871576 -0.16422316 -0.20353463 0.07329677 0.05461317 -0.062193885
0.04249177 0.012776168 0.21222949 -0.08845535 0.14803573 -0.06668754 -0.06340655 -0.08547093
-0.34219947 -0.3840495 0.14199828 -0.36409798 -0.13271154 0.12965085 -0.13074124 -0.103645466
0.14523497 0.11403674 0.011741525 0.006460026 0.21183656 -0.13684236 -0.44469392 -0.0526908
0.28380898 0.059758935 0.109964795 -0.23621552 -0.19280359 0.043561973 0.15686245 0.2645343
-0.33687487 0.3549782 -0.031324036 0.04247905 -0.05739649 -0.32977614 0.47767678 0.0021309948
-0.12228715 -0.47642145 -0.23426841 -0.26564538 0.23924857 0.036607604 0.24619491 -0.46964198
0.5693667 -0.23703873 0.4634135 -0.06188593 -0.24173108 0.06547953 0.0047180643 -0.076008976
-0.34124312 -0.0003681839 0.26283023 0.08686648 -0.14465034 0.10693544 -0.09516283 -0.063201964
-0.07871269 0.5122386 -0.07316191 -0.40371284 -0.035132512 -0.075139344 0.01989508 0.014644739
0.047002584 -0.43793473 -0.23373626 -0.34559572 -0.3286636 0.20414078 -0.053921282 0.08457478
-0.2908152 -0.063324586 0.23967044 0.18866329 0.38889915 -0.10207732 -0.15701886 -0.14728244
0.28930092 0.26829174 0.5598195 -0.17318784 -0.13347217 -0.0660198 0.05247708 0.13541506

linears.3.bias f4 [32]
00000000: 9720 cfbd b554 d63d 95f5 b93d e2c7 d938
00000010: 20df fcbd 16de cbbc 00e6 39be 8713 863e
00000020: 10b2 593e 5f32 1bbe dfd5 5ebd 6c1a 393e
00000030: 6a07 76be 2db2 9c3d c43f 853d 43eb c33d
00000040: cd29 1f3d deff 823d fe09 ab3d b87a fbbd
00000050: 8c2d c9bc 3396 8dbd df21 28be d78f 8c3e
00000060: e673 23be 7b1f 8c3d 88bf 2d3e 630e 70bb
00000070: ead0 1d3e 1d01 bd3d 786c 103e 915e 3cbe
-0.10113638 0.10465375 0.09080044 0.000103845974 -0.12347245 -0.024886172 -0.18154144 0.26186773
0.21259332 -0.15155934 -0.054403182 0.18076485 -0.24026266 0.07651172 0.06506303 0.09566357
0.038858224 0.06396459 0.08351515 -0.12279266 -0.024557851 -0.06913414 -0.16419171 0.2745349
-0.1596218 0.06841942 0.16967595 -0.003662967 0.15411726 0.09228728 0.14103878 -0.18395449

linears.4.weight f4 [4, 32]
00000000: d503 82bd c9b5 56be e690 bbbc 6a73 ca3d
00000010: 0e74 19be c2fd 15be 04ac 80be 44bd ae3d
00000020: 8ebb 38be 4946 023e 7812 b4bd 4ab4 5b3d
00000030: cfc4 06be 56b9 f3bd e931 23bf 600b 103d
00000040: 59da 72bc 8c38 933e 200e dd3c c637 763e
00000050: 2b35 4bbe d9f4 ddbd eced 703d c0fb 3f3e
00000060: 7e30 cdbe b7f3 833e a27c 3e3e f0da 603e
00000070: d8c8 123e baa7 a23c 9699 00bf a883 aabd
00000080: b4ab 30bf 2a01 073f 991e aebe be8d 5dbf
00000090: ada3 373e 8e6a 5cbe 9b41 56bf 0ad2 063f
000000a0: af51 f13f 2e38 febf 4182 d53e c890 65bf
000000b0: 5d49 4ebf 7aeb 533f baed f5bf c599 ef3f
000000c0: 4965 61bf 965c 233f ccbf 9d3f c694 16bf
000000d0: 7327 0dc0 0a8a 093e 9d4d 09c0 f28b f03f
000000e0: ec8a 69bf 1dfe 483e 4f71 0d40 3685 dbbf
000000f0: b1ee 0840 b27d 17be 47ee 9fbf 7905 b2be
00000100: 10a4 0e3f 04c0 e039 fe8c 55be 4df3 713e
00000110: 1418 0c3e e908 06be f30a fd3d 1397 8b3e
00000120: d5b7 c33e 56b0 00be e5bb ccbd a894 293e
00000130: 961a 06be 25e2 603e fa9c 9c3e b452 2bbe
00000140: 1115 cabe 5a2a 633e 1c62 203e dfa9 283f
00000150: 5f41 b53d 37a3 99bd 3cba 8bbe 5a72 7fbd
00000160: eb8a cd3d 2df1 db3e a276 4b3e c94f 303d
00000170: 8a9a 1dbc c5c2 81be 653b a53c 7f84 8cbe
00000180: 4d55 e5be f9a1 1ebe aed9 67bd 8814 8e3e
00000190: c565 03be 147c 24be 7e5c 483e 9f0f e93e
000001a0: 9a50 183f 7ba5 0abd 5ef0 e3be e743 373e
000001b0: 6167 2b3e 12d2 933d 72c3 373e e2a3 5b3d
000001c0: 9626 813e 43e2 883d f60e 55be 8650 813d
000001d0: 07b5 8cbd 7a66 98be 5779 1cbe 9822 c4be
000001e0: d889 8ebe 8241 09bf eaba 21bc 2587 253e
000001f0: addb fb3e e072 5bbd 71aa 343f e3ad a5be
-0.06348387 -0.20967783 -0.022896241 0.09885295 -0.14985678 -0.14647582 -0.25131238 0.08532193
-0.18040296 0.12722124 -0.08792585 0.053638734 -0.13161014 -0.119005844 -0.6374803 0.035167098
-0.014822566 0.2875408 0.026984274 0.24044713 -0.198445 -0.108377166 0.05882065 0.18748379
-0.4007606 0.25771877 0.18602231 0.21958518 0.14334428 0.019855369 -0.50234354 -0.08325893
-0.69012 0.5273615 -0.3400772 -0.86544406 0.17933531 -0.21525022 -0.83693856 0.52664244
1.8853053 -1.9860895 0.41700938 -0.89674044 -0.80580693 0.82781184 -1.9213173 1.8718802
-0.88045174 0.6381315 1.2324157 -0.5882076 -2.2055328 0.13431564 -2.1453621 1.8792708
-0.912276 0.19628187 2.2100408 -1.7150028 2.1395686 -0.14794043 -1.2494591 -0.347698
0.5571909 0.00042867672 -0.20854566 0.23627968 0.1368106 -0.13089336 0.12355604 0.27263698
0.3822619 -0.12567267 -0.099967755 0.16560614 -0.13096079 0.21961267 0.30588514 -0.16730767
-0.39469197 0.22184125 0.15662426 0.658842 0.08850359 -0.07501834 -0.27290523 -0.062364914
0.10036262 0.4295744 0.19869474 0.04304484 -0.0096193645 -0.2534391 0.020169923 -0.27444836
-0.44791642 -0.15491475 -0.05660408 0.2775004 -0.12831791 -0.16062957 0.19566533 0.4551973
0.5949799 -0.03384922 -0.44519323 0.17896996 0.16738655 0.07217802 0.1794565 0.053623088
0.2522475 0.06683781 -0.20806488 0.06314187 -0.06870466 -0.29765683 -0.15280662 -0.38307643
-0.2783954 -0.5361558 -0.009871224 0.16164835 0.49191037 -0.05357635 0.7057257 -0.32359228

linears.4.bias f4 [4]
00000000: bf5d b83d c7ef ae3f 3101 343e 496c d7bd
0.09002256 1.3666924 0.1757858 -0.10518701
