Iterations/Test model/epoch_4116.pt (torch, 37739 bytes, 10 tensors)

linears.0.weight f4 [32, 2]
0	0x3ea63acc	0.32466733
1	0xbde8bb92	-0.11363901
2	0x3e8f193a	0.27948934
3	0xbec62085	-0.38696685
4	0x3e7adfca	0.24499431
5	0xbed431bb	-0.4144419
6	0xbdcd7c9a	-0.100335315
7	0xbf0ec311	-0.557664
8	0xbd3d7754	-0.04625638
9	0x3eb61e14	0.35569823
10	0x3d3ddf40	0.046355486
11	0xbf181415	-0.5940564
12	0x3e365a15	0.17807801
13	0x3f1d9798	0.6155944
14	0x3e2ccf43	0.16875939
15	0x3e7e1f6e	0.24816677
16	0x3ebc6514	0.36795866
17	0xbdf6c934	-0.12050095
18	0xbe72e907	-0.23721705
19	0xbe11d090	-0.14239717
20	0xbde7825d	-0.11304162
21	0xbef27187	-0.4735224
22	0xbe8520be	-0.26001543
23	0x3e99e9ac	0.3006109
24	0xbddba72d	-0.107252456
25	0xbe23ef75	-0.16009314
26	0x3e26df15	0.16296037
27	0xbea0b9a5	-0.31391636
28	0xbdfcc481	-0.12342168
29	0x3f396421	0.7241841
30	0xbd6d4ea2	-0.05793632
31	0xbe8ae105	-0.271248
32	0x3e61eef9	0.22063817
33	0x3f12b428	0.57306147
34	0x3e96d0ec	0.2945627
35	0x3e0dac0b	0.1383516
36	0xbddd4ade	-0.108052954
37	0x3e9ef28c	0.31044424
38	0xbe378557	-0.17921959
39	0xbe794666	-0.24343261
40	0xbded0d1a	-0.115747645
41	0xbe3a2acc	-0.18180388
42	0x3e8e26ea	0.27764064
43	0x3db9ca54	0.09071794
44	0x3f2f1fa3	0.6840765
45	0xbcad95be	-0.021189567
46	0x3e8bb813	0.27288875
47	0xbe916b9c	-0.28402412
48	0xbf14b842	-0.58093655
49	0x3e8bdb17	0.2731559
50	0x3ead3303	0.3382798
51	0xbe0d34b7	-0.1378964
52	0xbe3905a4	-0.18068558
53	0xbe1a68c9	-0.15079035
54	0x3d343b4b	0.04400186
55	0x3eb4a4cd	0.35281983
56	0x3da9c7e9	0.08290083
57	0xbe94c083	-0.29053125
58	0xbcea5774	-0.028606154
59	0x3ed6fd7c	0.41990268
60	0x3e215118	0.15753591
61	0xbec3ea9b	-0.38264927
62	0xbd3a4dd9	-0.045484398
63	0x3f38c246	0.7217144

linears.0.bias f4 [32]
0	0x3c0a6620	0.0084472
1	0x3c95fa38	0.01830779
2	0x3c788a45	0.015169685
3	0x3bb26677	0.0054443437
4	0x3c4e9b68	0.012610294
5	0xbc3a4afb	-0.011370416
6	0x3bac015e	0.0052491864
7	0xbd12bbaf	-0.03582352
8	0xbc5938a8	-0.013258137
9	0xbcd6caba	-0.026219714
10	0xbb360138	-0.0027771723
11	0xbd991bba	-0.074759915
12	0x3d284f0d	0.041091014
13	0xbd0e7002	-0.034774788
14	0x3c758db2	0.014987396
15	0xbc621e1d	-0.013801125
16	0xbabb4237	-0.0014286701
17	0x3b9a38e0	0.004706487
18	0x3cd8e8e4	0.026478238
19	0xbc8899ec	-0.016674958
20	0x3c2a6953	0.010401088
21	0xbc95ff94	-0.018310346
22	0x3dde917b	0.10867592
23	0x3cdfcbaf	0.027318804
24	0xbd8c2fa2	-0.06845023
25	0x3d150aa8	0.036387116
26	0xbc3e5fd4	-0.011619527
27	0x3c4f1dad	0.012641353
28	0x3cc1f67e	0.023677107
29	0x3c463aba	0.012098962
30	0xbe2262b7	-0.15857969
31	0x3c719247	0.014744348

linears.1.weight f4 [64, 32]
0	0x3ce8c6c6	0.028415095
1	0xbe877270	-0.26454496
2	0xbe47af36	-0.19500431
3	0xbe36a19d	-0.17835088
4	0x3e3dde11	0.18541743
5	0x3bc0b20e	0.005880601
6	0xbda2f922	-0.079576746
7	0x3e866ace	0.2625336
8	0x3e2d5b41	0.16929342
9	0x3ea0349d	0.3129014
10	0x3da8c360	0.0824039
11	0x3ea586c9	0.32329395
12	0xbe656ad2	-0.2240403
13	0xbef72e45	-0.48277488
14	0xbaee8284	-0.0018196856
15	0xbe39a4a9	-0.18129219
16	0x3ea155bf	0.31510732
17	0x3c805dd4	0.01566974
18	0xbcb1b72f	-0.021693794
19	0x3d2d9c19	0.042385194
20	0xbebe4b68	-0.37166905
21	0xbd2bce08	-0.041944534
22	0xbddb65d4	-0.107127815
23	0x3e453d13	0.19261579
24	0x3dbbc46d	0.091683246
25	0x3e296b62	0.1654487
26	0xbe8f2e54	-0.27965033
27	0xbdad387f	-0.084580414
28	0x3df5c8b0	0.12001169
29	0x3de99750	0.11405814
30	0xbda7a7d9	-0.08186311
31	0x3dcdf5ef	0.10056674
32	0x3ce8aeb1	0.028403612
33	0x3db2bf4d	0.08727894
34	0xbdd2f1e2	-0.10300042
35	0x3e1bdf75	0.15221961
36	0xbdff2f39	-0.12460179
37	0xbdfb09d7	-0.12257736
38	0x3e597874	0.21237355
39	0x3ea18d5a	0.31553155
40	0x3ec7f2da	0.3905247
41	0x3e6940a9	0.22778572
42	0xbdf5bb4f	-0.11998617
43	0xbd5c3dc0	-0.053769827
44	0xbd8a2f04	-0.06747249
45	0x3e11a81a	0.14224282
46	0x3df92ed4	0.12167135
47	0xbd708468	-0.058720022
48	0x3e62c31d	0.22144742
49	0xbe3ae579	-0.182516
50	0xbe6ac9f0	-0.22928596
51	0xbd6cc0e2	-0.057801135
52	0xbca14c39	-0.019689666
53	0x3ea8429b	0.32863316
54	0xbdba8f08	-0.09109312
55	0xbe0d168e	-0.13778135
56	0x3dada351	0.08478416
57	0xbd123bcb	-0.035701554
58	0x3da3d69d	0.079999186
59	0xbd83d97c	-0.06437966
60	0xbcb71cf9	-0.022352682
61	0xbd0dd03f	-0.034622427
62	0x3ea5dd90	0.323956
63	0x3e67fbf7	0.2265471
64	0xbd84ad7d	-0.06478403
65	0x3df49dd2	0.11944164
66	0x3e47f0a3	0.1952539
67	0xbd01652b	-0.031590622
68	0x3d2c8395	0.042117674
69	0xbd21e73f	-0.039527174
70	0xbc612714	-0.013742227
71	0xbe3039ec	-0.17209595
72	0xbda23d8d	-0.07921896
73	0xbea0962b	-0.3136457
74	0xbe65d35d	-0.2244391
75	0xbcd0b3ec	-0.025476418
76	0x3e8a0045	0.2695333
77	0x3c49b2de	0.012310712
78	0xbc471997	-0.012152097
79	0xbe8b529d	-0.27211466
80	0xbd0f4f00	-0.03498745
81	0x3e8d40ab	0.275884
82	0xbdf9b67b	-0.121930085
83	0xbdc8873a	-0.097914174
84	0xbe389ce8	-0.18028605
85	0xbe41d452	-0.1892865
86	0x3e1c78e5	0.15280493
87	0xbd7c8789	-0.061652694
88	0xbd657dac	-0.056028053
89	0x3d22567e	0.039633267
90	0x3d155064	0.03645362
91	0xbda51038	-0.08059734
92	0xbd92d11a	-0.07168789
93	0x3e8b3cfe	0.2719497
94	0xbdb90e94	-0.09035984
95	0xbe6d3c34	-0.23167497
96	0xbc4a17cb	-0.012334774
97	0x3e36aca3	0.17839293
98	0x3ded9d69	0.11602289
99	0xbe111ac8	-0.14170372
100	0xbe74eb41	-0.23917867
101	0xbe68ee52	-0.22747162
102	0x3c9e4a6e	0.0193226
103	0xbd6ba38e	-0.057529025
104	0x3e86be44	0.26317036
105	0xbe5b98a3	-0.21444945
106	0x3cb5aab3	0.022176122
107	0xbd193c06	-0.03741076
108	0x3bbcb04f	0.0057583223
109	0x3e3adc7d	0.18248172
110	0x3e0e4dcb	0.13896863
111	0xbed56278	-0.41676688
112	0xbcc0a5de	-0.023516592
113	0xbd916bca	-0.07100637
114	0x3cfba671	0.030719014
115	0xbdbd56ab	-0.09245046
116	0xbde66035	-0.11248819
117	0x3e22d0ba	0.15899935
118	0x3e958e42	0.29210097
119	0x3da3125e	0.07962488
120	0xbe3c988f	-0.18417571
121	0x3e929f92	0.28637367
122	0xbdca43b1	-0.09876192
123	0xbd6a2b2d	-0.057170082
124	0x3cf31187	0.029671444
125	0xbd25a2cc	-0.04043846
126	0xbe6f4744	-0.2336703
127	0x3c55e81e	0.013055829
128	0x3d05443c	0.032535776
129	0x3d230a3b	0.03980468
130	0xbd8d9c47	-0.06914573
131	0xbd797f97	-0.060912695
132	0x3d078b3a	0.03309176
133	0xbdd0693f	-0.10176324
134	0x3e101732	0.14071348
135	0x3d2b9f5d	0.041900028
136	0xbce68fe6	-0.028144788
137	0xbe49a846	-0.19693097
138	0xbeb4037c	-0.35158908
139	0xbe3058c1	-0.17221357
140	0xbe1efc5f	-0.1552596
141	0xbe44c412	-0.1921542
142	0x3ecb99db	0.3976582
143	0x3c22da9b	0.009939815
144	0x3e0692f6	0.13141999
145	0x3e7e6b21	0.24845554
146	0xbd559113	-0.052140307
147	0x3e96db14	0.29464018
148	0xbe1a6c8b	-0.15080468
149	0x3d074912	0.03302867
150	0xbe7c1e8e	-0.2462103
151	0x3cead46b	0.028665742
152	0xbd04ae24	-0.032392636
153	0x3d04f415	0.032459337
154	0xbe281e8b	-0.16417901
155	0x3e2cc78e	0.16872999
156	0x3d280705	0.04102232
157	0x3cb135a5	0.021632025
158	0xbd41d4e9	-0.047322188
159	0x3e46a505	0.19398887
160	0x3d4135a4	0.047170296
161	0xbe29249c	-0.16517872
162	0xbe556787	-0.20840274
163	0xbdd3418a	-0.10315235
164	0x3ec10068	0.37695622
165	0xbe6ad2a0	-0.2293191
166	0xbdc0c956	-0.09413402
167	0xbdbbe83d	-0.09175155
168	0x3c5bc6a4	0.013414059
169	0xbda6d774	-0.08146563
170	0x3cd6f1fb	0.026238432
171	0x3e0382ee	0.12842914
172	0xbdc779da	-0.09740038
173	0x3e7902c8	0.24317467
174	0x3e34b9c4	0.17648989
175	0x3d562c12	0.052288122
176	0xbed5f17e	-0.41785806
177	0x3cc951b2	0.024575088
178	0x3dbb90cd	0.09158478
179	0x3e9f548c	0.31119192
180	0x3d98260a	0.074291304
181	0xbe8420b8	-0.25806212
182	0xbe369bbd	-0.17832847
183	0xbdec1e2f	-0.115291946
184	0x3e722dab	0.23650233
185	0x3cecca2c	0.028904997
186	0x3ebc4432	0.3677078
187	0xbd53385b	-0.051567417
188	0xbd9c46b1	-0.07630671
189	0x3e2c1ba4	0.16807419
190	0xbe9183a6	-0.28420752
191	0x3d3a3e2e	0.045469455
192	0xbe2f5895	-0.17123635
193	0x3e031212	0.12799862
194	0x3e7f883b	0.24954312
195	0x3e1ddfb4	0.15417367
196	0xbe33a83d	-0.17544647
197	0x3ddfbc3f	0.10924577
198	0xbd015e89	-0.031584296
199	0xbe784b3b	-0.24247448
200	0x3eb648c8	0.35602403
201	0xbeb6ed07	-0.35727713
202	0x3e0b80e3	0.13623385
203	0x3d02e8dc	0.031960353
204	0xbe10930e	-0.14118597
205	0xbe232edf	-0.15935849
206	0xbd01df1b	-0.03170691
207	0xbe89c2a0	-0.269063
208	0x3dda9d45	0.10674528
209	0xbe0c04e6	-0.13673744
210	0xbd703ab9	-0.058649752
211	0x3ded10f6	0.11575501
212	0x3e1e4c69	0.15458836
213	0xbe27b57f	-0.16377829
214	0x3e721651	0.23641326
215	0xbd2c2b8f	-0.04203373
216	0xbd6cba92	-0.057795115
217	0xbd6d16b9	-0.057883
218	0x3e1a95dc	0.1509623
219	0xbda5bb71	-0.08092392
220	0xbde775b5	-0.11301748
221	0xbede20d3	-0.43384418
222	0xbd5450e4	-0.051834956
223	0xbdb1f261	-0.08688808
224	0x3d887c05	0.0666428
225	0xbe11995e	-0.14218661
226	0x3e0bb24f	0.13642238
227	0x3d0ae0f8	0.033905953
228	0x3e3482d1	0.17628027
229	0xbe37bc8c	-0.17943019
230	0x3dffda26	0.124927804
231	0x3e444da6	0.19170246
232	0xbe61ba31	-0.22043683
233	0x3ebdbea9	0.37059525
234	0x3e0a08d6	0.13479933
235	0xbd62336a	-0.055224814
236	0xbe38a641	-0.18032171
237	0x3de6bcb0	0.11266458
238	0x3e029699	0.12752761
239	0x3cea2c58	0.028585598
240	0x3d5dbf4b	0.05413751
241	0xbdbf6533	-0.09345474
242	0x3e69de7f	0.22838782
243	0xbdf037b7	-0.11729377
244	0xbd942986	-0.072344825
245	0xbe16b936	-0.1471909
246	0x3e821fd3	0.25414905
247	0xbd85a531	-0.065256484
248	0xbc5f91ad	-0.013645572
249	0x3d489c81	0.04897738
250	0xbe46addc	-0.1940226
251	0xbde9f45b	-0.1142356
252	0x3d268c14	0.040660933
253	0x3e85ee29	0.26158264
254	0xbeba06b7	-0.36333248
255	0x3e9e5a47	0.3092825

linears.1.bias f4 [64]
0	0xbcad85e7	-0.021182014
1	0xbd0c80b7	-0.03430244
2	0x3d46a1d6	0.048494183
3	0x3d4f4d37	0.050610747
4	0x3c7c8f00	0.015414953
5	0x3c697bb6	0.014250686
6	0xbb4d3e80	-0.003131777
7	0x3dbddbcd	0.09270439
8	0x3b9ddacd	0.004817343
9	0x3d10f57a	0.035390355
10	0xbcc208e5	-0.023685882
11	0x3d1a5008	0.03767398
12	0xbcc102d3	-0.023560917
13	0xbcd77488	-0.026300684
14	0xbc84b746	-0.016200673
15	0x3c914096	0.017730992
16	0xbbecd111	-0.007227071
17	0xbaeaaa95	-0.0017903621
18	0xbc814ccb	-0.015783688
19	0x3d080a90	0.0332132
20	0xbc623785	-0.013807182
21	0x3c2c4600	0.010514736
22	0x3c981a40	0.018567204
23	0x3b4308a2	0.0029759784
24	0xbc8226ee	-0.015887704
25	0xbb717430	-0.0036842935
26	0xbc5c994c	-0.013464283
27	0x3c5fc546	0.0136578735
28	0x3d944ef0	0.07241619
29	0xbc01bee2	-0.007919045
30	0xbd024020	-0.031799436
31	0xbc413774	-0.011793006
32	0xbcf06a2b	-0.0293475
33	0x3d7f36ce	0.062308125
34	0xbd804896	-0.06263845
35	0x3a913be3	0.001108047
36	0x3cdf8f5d	0.02729004
37	0xbc945197	-0.018105311
38	0xbb90088d	-0.0043955506
39	0x3cb99397	0.022653384
40	0x3c9ac51c	0.018892817
41	0xbc7dbada	-0.015486443
42	0xbcf8343b	-0.030298343
43	0xbc022a49	-0.007944652
44	0x3e1d3849	0.15353502
45	0xbba794f6	-0.005114193
46	0x3c84cf16	0.016212028
47	0x3c76b56c	0.015057903
48	0xbd00244e	-0.031284623
49	0x3d870164	0.06592062
50	0xbe0579dd	-0.13034768
51	0xbc627bf0	-0.013823494
52	0xbb1ee29c	-0.0024243956
53	0x3d112a34	0.03544064
54	0x3c912f98	0.01772289
55	0x3c9f1353	0.019418394
56	0xbd0d659c	-0.03452073
57	0xbc1be817	-0.009515784
58	0xbc4a43b5	-0.012345244
59	0x3bbc3498	0.0057435744
60	0xba939f3e	-0.0011262668
61	0xbc1ceefe	-0.009578465
62	0xbcd7ebac	-0.026357494
63	0xbcc0c715	-0.02353243

linears.2.weight f4 [64, 64]
0	0xbe173610	-0.14766717
1	0x3c96ddd9	0.018416332
2	0xbd4ccdb0	-0.050000846
3	0x3dd4b9c1	0.10386992
4	0xbe24387a	-0.16037169
5	0x3d69b81e	0.057060353
6	0x3d4c9794	0.049949244
7	0x3da989f1	0.08278263
8	0xbc31c4ea	-0.010850171
9	0x3d0a1818	0.033714384
10	0xbcd03605	-0.025416384
11	0x3e0a4d39	0.1350602
12	0x3c80d320	0.015725672
13	0x3e13f352	0.14448288
14	0xbd20b3bf	-0.03923392
15	0x3dc9e4e1	0.09858108
16	0xbc982745	-0.018573413
17	0x3cc45423	0.0239659
18	0x3e9e2ce0	0.30893612
19	0x3d1624d5	0.03665622
20	0x3e657c27	0.22410642
21	0xbc0ff917	-0.008787415
22	0x3d3658ac	0.044518158
23	0xbdb3a01f	-0.08770775
24	0x3e16b4e0	0.14717436
25	0x3e193938	0.14963233
26	0xbdafee07	-0.08590322
27	0xbdca714b	-0.0988489
28	0xbd89404a	-0.06701715
29	0xbe2cfe82	-0.16893962
30	0xbb32173a	-0.0027174489
31	0x3d2bc8f7	0.041939702
32	0x3e4c5f98	0.19958341
33	0x3da2a722	0.07942034
34	0x3e58340a	0.21113601
35	0xbde6f45c	-0.112770766
36	0xbd653644	-0.055959955
37	0x3dcc71f0	0.09982669
38	0xbd843f86	-0.06457429
39	0xbe02ef18	-0.1278652
40	0x3d088923	0.03333391
41	0x3e5c21dd	0.21497293
42	0xbcd03864	-0.025417514
43	0x3c29602e	0.010337872
44	0x3cbc6315	0.022996465
45	0xbc342543	-0.010995212
46	0x3dc4f8ec	0.096177906
47	0xbdb51ac4	-0.08842996
48	0xbe8c3184	-0.27381527
49	0xbe87d37d	-0.2652854
50	0xbe4453e7	-0.19172631
51	0xbd3db6b3	-0.046316814
52	0xbe8b6ada	-0.2722996
53	0xbe3b44c8	-0.18287957
54	0xbe804ab6	-0.25057
55	0x3e131d3c	0.14366621
56	0xbd7a345d	-0.061085094
57	0x3d82f305	0.063940085
58	0x3d6571b0	0.056016624
59	0x3e5a20b1	0.21301533
60	0xbd66a4f8	-0.05630967
61	0x3e230af9	0.15922154
62	0xbe46c495	-0.19410928
63	0xbe18bed7	-0.1491655
64	0xbe9074c9	-0.282141
65	0xbd3c5dcf	-0.0459879
66	0x3de5966b	0.112103306
67	0xbd1a1ab0	-0.037623107
68	0x3c271d6a	0.010199884
69	0xbdd55e34	-0.104183584
70	0xbc0699c5	-0.008215372
71	0x3eaeb4ef	0.34122416
72	0x3d8fd9d4	0.07023969
73	0xbe2bcc17	-0.16777073
74	0xbddca207	-0.10773092
75	0x3d94fbe3	0.07274606
76	0xbdecb4e7	-0.11557942
77	0xbe526508	-0.20546353
78	0xbd368851	-0.044563595
79	0x3c700e61	0.014651866
80	0x3e72f722	0.23727086
81	0xbd852983	-0.06502058
82	0xbe1c1435	-0.15242083
83	0x3ea7f8f1	0.32807115
84	0xbdd8112d	-0.10550151
85	0x3d59e1f4	0.053194
86	0x3d7a7dfb	0.0611553
87	0x3df92bd4	0.12166563
88	0xbe163992	-0.14670399
89	0xbdc3a73c	-0.09553382
90	0x3daa698d	0.083209135
91	0xbe8bacea	-0.2728036
92	0x3c4ab73a	0.012372786
93	0x3e39802c	0.181153
94	0xbd432a43	-0.047647726
95	0x3d879587	0.06620317
96	0xbe539908	-0.20663846
97	0xbdc377fe	-0.09544371
98	0xbe5133f0	-0.20429969
99	0xbd0cec56	-0.034405075
100	0xbe9953c2	-0.29946715
101	0xbe3a010e	-0.18164465
102	0x3cf769d4	0.03020183
103	0x3e29d288	0.16584218
104	0xbe165982	-0.14682582
105	0x3d0470b7	0.032334056
106	0x3dd3794b	0.10325869
107	0x3ca150ee	0.01969191
108	0xbc849e3d	-0.016188735
109	0x3dfcbcfb	0.12340733
110	0xbccabaa2	-0.024747197
111	0x3daecc2e	0.08535038
112	0x3e09c03c	0.13452238
113	0x3de5bc44	0.112175494
114	0xbe111416	-0.14167818
115	0xbe0f0d67	-0.13969956
116	0x3d9a03d3	0.07520261
117	0xbbda12fb	-0.0066550947
118	0xbceeb2ed	-0.029138053
119	0x3e484b16	0.19559893
120	0x3e18de1b	0.14928477
121	0x3e2c47c4	0.16824251
122	0x3cb7d9b5	0.022442678
123	0x3d91344b	0.07090052
124	0xb95ffd69	-0.0002136134
125	0xbd9ff29d	-0.07809947
126	0xbe3b1378	-0.18269145
127	0x3c2e6399	0.010643863
128	0xbe27687b	-0.1634845
129	0xbe7e2baf	-0.24821351
130	0xbe73e239	-0.23816766
131	0x3d56ba7c	0.05242394
132	0xbe8da502	-0.27664953
133	0x3e2eb633	0.17061691
134	0x3d02b958	0.03191504
135	0xbcd2e9ff	-0.025746344
136	0x3db103d2	0.08643307
137	0xbdf98873	-0.12184229
138	0xbe5202bf	-0.2050886
139	0xbe3d0da4	-0.18462235
140	0xbd1e5250	-0.038652718
141	0xbdcc7298	-0.099827945
142	0x3e4870c3	0.19574265
143	0xbd3f892a	-0.04676167
144	0xbe57e218	-0.21082342
145	0x3cdce1df	0.026963172
146	0x3deba83e	0.11506699
147	0x3dfd9d08	0.12383467
148	0xbe000b24	-0.1250425
149	0x3d94e56d	0.07270322
150	0xbd8ad447	-0.0677877
151	0x3df8de1e	0.121517405
152	0x3e41766e	0.18892834
153	0xbd8dadb8	-0.069179
154	0x3db3db22	0.08782031
155	0x3d6bc76c	0.05756323
156	0x3e06768e	0.13131163
157	0x3e055d4a	0.13023868
158	0xbda16409	-0.07880408
159	0x3e2f9263	0.17145686
160	0xbda7ce0c	-0.08193597
161	0x3e1ede92	0.15514591
162	0x3d9ba70a	0.076002195
163	0xbe4e07f0	-0.20120215
164	0xbe39776d	-0.18111964
165	0xbc6b423a	-0.014359051
166	0xbdaf39a4	-0.08555916
167	0x3d80effa	0.06295772
168	0xbd12fc06	-0.03588488
169	0xbd6a7b2e	-0.05724638
170	0x3e091fb3	0.13390999
171	0xbd9697d0	-0.07353175
172	0x3dc66c50	0.09688628
173	0x3e0f38ad	0.13986464
174	0x3d38485c	0.044990882
175	0xbe03ee8c	-0.12883967
176	0xbc60382f	-0.01368527
177	0x3e0f4518	0.13991201
178	0xbdffc983	-0.12489607
179	0x3e0e03ed	0.13868685
180	0xbdcdf487	-0.100564055
181	0x3df3123f	0.118687145
182	0xbe74361e	-0.23848769
183	0x3cd536b8	0.026027068
184	0xbd08f8e9	-0.033440504
185	0x3d9a5baf	0.075370185
186	0xbde6969b	-0.112591945
187	0xbdbe55a8	-0.092936814
188	0x3db1a65c	0.08674309
189	0x3c45a890	0.012064114
190	0x3cebd922	0.02879006
191	0xbdd7370e	-0.10508548
192	0xbd90e777	-0.070753984
193	0x3e372f02	0.17889026
194	0x3e603dc6	0.21898565
195	0xbea8d190	-0.32972383
196	0xbde5f7d4	-0.1122891
197	0xbe397361	-0.1811042
198	0xbe1d660f	-0.15370964
199	0xbe272b31	-0.1632507
200	0xbe21977c	-0.15780443
201	0x3d4e90cb	0.050431054
202	0xbc1210e4	-0.00891516
203	0xbc0f06c0	-0.008729637
204	0x3c1d28b9	0.009592229
205	0x3e4274db	0.1898989
206	0xbceb5e90	-0.028731614
207	0xbd81ab13	-0.06331458
208	0x3ed216fb	0.41033158
209	0x3d8b0f71	0.067900546
210	0x3ea6e53b	0.32596764
211	0x3d5ec4fb	0.054387074
212	0xbb137c7c	-0.0022504618
213	0xbe115a27	-0.14194547
214	0xbe1fd2ba	-0.1560773
215	0xbd16b693	-0.03679521
216	0x3d968797	0.073500805
217	0xb9c905f1	-0.00038342134
218	0x3d21cdef	0.039503034
219	0xbe24aed6	-0.1608232
220	0x3de43dff	0.11144637
221	0xbd98dfe3	-0.07464578
222	0x3e51f064	0.20501858
223	0x3e87d865	0.26532283
224	0x3d733b2b	0.0593826
225	0xbe0666a8	-0.13125098
226	0x3d823ae5	0.063588895
227	0xbc9620f5	-0.018326262
228	0xbd80a50f	-0.062814824
229	0xbe329cf4	-0.17442685
230	0x3c0cdc30	0.008597419
231	0xbe24e1c9	-0.16101755
232	0x3dfced81	0.12349988
233	0x3d814b1c	0.06313154
234	0x3db18abb	0.08669039
235	0xbdc6d095	-0.097077526
236	0xbdefcf0d	-0.11709414
237	0x3d1a8c84	0.037731662
238	0xbd91f0d0	-0.071260095
239	0xbd3fc5a4	-0.046819344
240	0xbdb0e16a	-0.08636744
241	0xbd9ae08c	-0.0756236
242	0xbe381fe6	-0.17980918
243	0x3d1e0c83	0.03858615
244	0xbc31026a	-0.010803798
245	0xbe2a840d	-0.16651936
246	0x3d0ff008	0.03514102
247	0xbd9c998b	-0.076464735
248	0x3db6491e	0.08900665
249	0xbe5065bb	-0.20351307
250	0x3e1799bd	0.1480474
251	0x3d5251bc	0.05134748
252	0x3e431523	0.19051032
253	0x3e83785f	0.25677773
254	0xbd1ac0c5	-0.037781496
255	0x3ddb7478	0.10715574

linears.2.bias f4 [64]
0	0x3c8a4cb1	0.016882272
1	0x3d2353f8	0.039875
2	0x3cd5296d	0.02602073
3	0xbd16d6aa	-0.036825813
4	0x3dbd27d2	0.09236111
5	0xbd5526d8	-0.052038997
6	0xbdadcbeb	-0.0848616
7	0x3c3a936c	0.011387687
8	0xbc7b2d2c	-0.015330594
9	0x3cac9237	0.021065814
10	0x3baf0af0	0.00534188
11	0xbc84161d	-0.016123826
12	0xbd0e95f0	-0.03481096
13	0x3cf9b562	0.030481998
14	0x3dc3903a	0.095489934
15	0x3c1bd53b	0.009511287
16	0xbd29b332	-0.04143066
17	0xbcd550fd	-0.026039595
18	0xbd068e28	-0.032850415
19	0xbb04971f	-0.0020231677
20	0x3d3359db	0.043786865
21	0xbc3b663a	-0.011437947
22	0xbcc989b4	-0.024601795
23	0x3bb04da9	0.0053803516
24	0x3c86f118	0.016472384
25	0x3cc1d28c	0.023659967
26	0xbad99189	-0.0016599159
27	0x3be13a97	0.0068734395
28	0x3ac73044	0.0015196879
29	0x3d7d7027	0.061874535
30	0x3c0ad550	0.008473709
31	0x3b2bb5c6	0.0026200875
32	0xbcc85300	-0.02445364
33	0xbd77fc15	-0.06054314
34	0xbc26b3c2	-0.010174694
35	0xbaa6fc02	-0.0012739899
36	0xbbae1c27	-0.0053134146
37	0xbc03e654	-0.00805052
38	0x3ba83ef1	0.0051344563
39	0xbc2dd4d4	-0.010609824
40	0xbc79b735	-0.015241434
41	0xbab92b85	-0.001412735
42	0x3c9503c7	0.018190278
43	0x3ceff218	0.029290244
44	0xbd8e6576	-0.06952946
45	0xbc281a12	-0.010260122
46	0x3ca72a0e	0.020405795
47	0xbc613465	-0.013745402
48	0x3c443bd8	0.0119771585
49	0x3d5a6891	0.05332238
50	0xbccbff0b	-0.024901887
51	0x3d552ac4	0.052042738
52	0xbd047996	-0.032342516
53	0x3c17128c	0.0092207305
54	0x3da58255	0.080814995
55	0x3d969d40	0.07354212
56	0x3d7f9d24	0.06240572
57	0x3c6605b3	0.014039445
58	0xbd0269a7	-0.03183904
59	0xbc879e97	-0.016555114
60	0x3cf32581	0.02968097
61	0x3d026d00	0.03184223
62	0x3d504871	0.050850336
63	0x3bdec17b	0.006797967

linears.3.weight f4 [32, 64]
0	0xbedf4b71	-0.43612245
1	0xbda9979d	-0.08280871
2	0xbe215191	-0.15753771
3	0x3e6ecbfa	0.23319998
4	0x3d9044c9	0.0704437
5	0x3e12d4e2	0.14339021
6	0x3e7d0c70	0.24711776
7	0x3d042963	0.032266032
8	0x3eabafb5	0.3353249
9	0xbcd2202a	-0.025650103
10	0x3ceb8202	0.028748516
11	0x3c5461e4	0.012962792
12	0x3dc97e29	0.09838516
13	0xbe8d3ce0	-0.27585506
14	0xbe93390c	-0.2875446
15	0xbc499257	-0.012302957
16	0x3d25f9fb	0.040521603
17	0x3e243b9e	0.16038367
18	0xbe149e2e	-0.14513466
19	0xbcf3e94b	-0.029774329
20	0x3d3c6013	0.04599006
21	0x3dede89b	0.116166316
22	0x3e7f6adc	0.24943107
23	0x3db26f02	0.08712579
24	0xbe12ea32	-0.14347151
25	0x3d887ff3	0.066650294
26	0xbe2fc9a5	-0.17166765
27	0xbe5a69fa	-0.2132949
28	0xbc1a27ab	-0.009408872
29	0x3de0087f	0.109391205
30	0x3da38ad8	0.07985467
31	0x3e2a3d16	0.16624865
32	0xbdc9572c	-0.0983108
33	0x3c8ca9db	0.017170837
34	0x3e14fbab	0.14549129
35	0x3de1c1a4	0.11023262
36	0xbdbbbe0b	-0.09167107
37	0x3d1d3e51	0.038389508
38	0x3e5ddb54	0.21665698
39	0xbdf4b557	-0.1194865
40	0x3df5ef6e	0.12008558
41	0xbd0c13b1	-0.034198467
42	0xbcdc14b0	-0.026865333
43	0x3e4f5376	0.20246682
44	0xbcb01359	-0.0214936
45	0xbe255a3d	-0.16147704
46	0xbe6fe060	-0.23425436
47	0xbe9cc867	-0.30621645
48	0x3e3eeee9	0.18645824
49	0x3e08d9e4	0.13364369
50	0x3d95fb2f	0.073233
51	0x3e52b467	0.2057663
52	0x3d07e922	0.033181317
53	0x3e7e9c09	0.2486421
54	0xbeb2eb68	-0.34945226
55	0x3e10c0aa	0.14135996
56	0xbd5a9646	-0.05336597
57	0x3b97736b	0.004621913
58	0x3e86771c	0.26262748
59	0x3e19a2dc	0.15003532
60	0xbe04e06d	-0.12976237
61	0x3d7f7647	0.062368657
62	0x3dbd13b6	0.09232275
63	0xbe48abe4	-0.19596821
64	0x3eaf1126	0.3419277
65	0x3e42dd94	0.19029838
66	0x3e359671	0.1773317
67	0x3cdfcf46	0.027320515
68	0x3ebcf6bf	0.36907002
69	0xbef4a1da	-0.47779733
70	0xbe7a9888	-0.24472249
71	0x3e21c521	0.15797855
72	0x3e1dbd09	0.15404142
73	0x3dd76cca	0.10518797
74	0x3e6499ab	0.22324245
75	0x3edfce23	0.43711957
76	0xbe429f56	-0.19006094
77	0xbe41259d	-0.18862005
78	0x3e81ccfd	0.25351706
79	0x3d9a6dc6	0.07540469
80	0x3c574943	0.013140026
81	0xbd258ead	-0.04041927
82	0x3c6389d5	0.013887842
83	0x3e931edb	0.28734478
84	0x3ea543ae	0.32278198
85	0x3e3c841f	0.18409775
86	0x3eb23a2e	0.34810013
87	0xbe65820e	-0.22412893
88	0x3d5132ff	0.051074024
89	0x3e1bf6fb	0.15230934
90	0x3da86b0d	0.08223543
91	0xbed1c095	-0.4096724
92	0x3b9dfa29	0.004821081
93	0x3c565f35	0.013084223
94	0xbe4a0842	-0.19729713
95	0xbe8ce7c6	-0.2752058
96	0x3e479dda	0.1949381
97	0xbe13ba2d	-0.14426489
98	0x3bf94a97	0.0076077688
99	0xbe9331c5	-0.2874891
100	0x3ed67533	0.4188629
101	0x3f06df7e	0.5268477
102	0xbd1fcda6	-0.03901448
103	0x3d974b01	0.07387353
104	0x3dcda8b1	0.10041941
105	0xbeacaa81	-0.33723834
106	0xbe2e3d93	-0.17015676
107	0xbe25ab3e	-0.16178605
108	0x3da50324	0.0805724
109	0x3e7ea70b	0.2486841
110	0x3df8295b	0.12117263
111	0x3e2d46d0	0.16921544
112	0x3cba16b3	0.022715902
113	0xbdb21384	-0.086951286
114	0x3e8053e4	0.25064003
115	0xbeb073d7	-0.3446338
116	0xbcc357b9	-0.02384554
117	0xbcd70092	-0.02624539
118	0x3e1db429	0.15400757
119	0xbbe28e49	-0.0069139344
120	0x3e771869	0.24130405
121	0xbcb00380	-0.021486044
122	0xbf19761d	-0.5994585
123	0x3d3e693c	0.046487078
124	0xbddd2e3b	-0.107998334
125	0xbecb5891	-0.39716008
126	0x3ed79f8e	0.42113918
127	0x3ea9fffa	0.33203107
128	0x3e6bf3ea	0.23042265
129	0xbe327708	-0.1742822
130	0x3e4be495	0.19911416
131	0x3dae360a	0.08506401
132	0x3d718f41	0.05897451
133	0x3e6c2dd1	0.23064353
134	0xbd99dbd2	-0.075126305
135	0xbd01f638	-0.031728953
136	0xbe3120d8	-0.17297685
137	0xbe1135cb	-0.14180677
138	0xbe50486c	-0.20340127
139	0x3dce1225	0.100620545
140	0x3c4d3b22	0.012526305
141	0xbe58d2f9	-0.2117423
142	0xbd13db9e	-0.036098115
143	0xbdee4b0b	-0.11635407
144	0x3dffcac2	0.12489845
145	0x3e49c541	0.19704153
146	0x3e6f8812	0.2339175
147	0x3d9bc2a2	0.07605483
148	0xbdfc31bd	-0.12314174
149	0x3e49a937	0.19693457
150	0x3e04b70a	0.12960449
151	0x3dbeacea	0.093103245
152	0xbcf13533	-0.029444313
153	0xbd22a527	-0.039708283
154	0x3d82edfb	0.063930474
155	0xbda98d0e	-0.08278857
156	0xbe4aab81	-0.19791986
157	0xbdaef282	-0.085423484
158	0x3cf5eb1e	0.03001934
159	0xbd60ac15	-0.05485161
160	0x3e70ab39	0.23502816
161	0xbc81088e	-0.01575115
162	0x3e96cb5b	0.29452023
163	0x3d9ad793	0.07560649
164	0x3dde56a8	0.10856372
165	0xbd257e5c	-0.04040371
166	0xbd29f80c	-0.04149632
167	0x3dd3a389	0.10333926
168	0xbe7927ef	-0.2433164
169	0xbe720d46	-0.23637876
170	0x3e3e53eb	0.185867
171	0xbeaa4669	-0.33256844
172	0xbcd3900d	-0.025825525
173	0x3e8efa5c	0.27925384
174	0xbec62587	-0.38700506
175	0xbd24bb69	-0.04021779
176	0x3e18f8ab	0.1493861
177	0x3d8c7973	0.06859102
178	0x3db4911d	0.08816741
179	0xbdf0f324	-0.117651254
180	0x3e87f7e6	0.2655632
181	0xbd613250	-0.054979622
182	0xbeb20285	-0.34767547
183	0xbc1a0e24	-0.009402785
184	0x3d82e44b	0.063912
185	0xbde07631	-0.10960043
186	0xbcae5aa5	-0.021283457
187	0x3d0690cd	0.032852937
188	0xbe33e13c	-0.17566389
189	0x3e7e788e	0.24850675
190	0xbdb5dc5f	-0.08879923
191	0x3e5adc93	0.21373205
192	0xbe8b1113	-0.27161464
193	0x3e50cc40	0.20390415
194	0x3dc6fd66	0.09716301
195	0xbd8fbb81	-0.070181854
196	0x3da4b4ee	0.08042322
197	0xbe4ed879	-0.20199765
198	0x3e802948	0.25031495
199	0x3da0fdda	0.07860918
200	0x3ceac178	0.028656706
201	0xbecdad4b	-0.40171275
202	0xbdd5cada	-0.104390815
203	0xbdc58b6b	-0.096457325
204	0x3c421eff	0.01184821
205	0x3e077977	0.13229929
206	0xbb0a2974	-0.0021081837
207	0xbe59e249	-0.21277727
208	0x3e294381	0.16529657
209	0xbdf98975	-0.12184421
210	0x3e3b9c69	0.18321384
211	0x3e71faaf	0.23630784
212	0xbe1ea928	-0.15494215
213	0xbdb7f654	-0.0898253
214	0x3e9f1e64	0.31077874
215	0xbd421fdc	-0.047393665
216	0xbe4bda92	-0.19907597
217	0xbdc28c78	-0.094994485
218	0x3e179833	0.14804153
219	0x3e18e012	0.14929226
220	0x3d0e5eea	0.034758486
221	0xbe15c0a9	-0.14624275
222	0xbe13d525	-0.14436777
223	0x3df59cfa	0.119928315
224	0x3d890338	0.06690067
225	0x3e8817f7	0.26580784
226	0x3dc06676	0.09394543
227	0xbe97e0f2	-0.29663807
228	0xbc134224	-0.008987937
229	0xbe46cd74	-0.19414312
230	0x3e00cd68	0.12578356
231	0x3ca701f0	0.020386666
232	0x3da0653f	0.07831811
233	0xbe1a3443	-0.15058999
234	0xbdd83cf6	-0.105585024
235	0xbe07e06b	-0.13269202
236	0xbe82831c	-0.25490654
237	0x3e9ff86f	0.31244227
238	0xbe409c48	-0.18809617
239	0x3d8e90cb	0.06961211
240	0xbd8f9f46	-0.07012801
241	0xbe525cef	-0.20543264
242	0x3e37127d	0.17878146
243	0xbe031c33	-0.12803726
244	0x3e67e8dd	0.22647424
245	0xbd9f30a8	-0.07772952
246	0xbe4e7f1f	-0.2016568
247	0xbe15d9aa	-0.14633814
248	0x3e3ed30e	0.18635198
249	0x3dfab0f4	0.122407824
250	0x3ec4c542	0.38431746
251	0xbd147526	-0.036244534
252	0x3b4faa67	0.003168726
253	0x3d768e07	0.06019404
254	0xbd36f651	-0.0446685
255	0x3d223f29	0.039611015

linears.3.bias f4 [32]
0	0xbd01ec7d	-0.031719673
1	0x3d6f5e2f	0.05843943
2	0xbd0e49c7	-0.03473833
3	0xbcde8982	-0.027165178
4	0xbcee864b	-0.02911677
5	0xbd8a0bba	-0.06740518
6	0x3d9b46b8	0.07581848
7	0x3d3507e1	0.044196967
8	0x3c5a11ea	0.013309935
9	0x3c9d27b6	0.019183975
10	0xbcb2f849	-0.021846907
11	0xbd0ac4d2	-0.03387911
12	0xbd79a0fd	-0.060944546
13	0x3aff4a4f	0.0019477102
14	0xbcb73071	-0.022361966
15	0x3d265bb9	0.040614817
16	0xba83996c	-0.001004023
17	0xbc54200e	-0.012947096
18	0x3d34b101	0.044114117
19	0xba188f3c	-0.00058196834
20	0xbce1e57e	-0.02757525
21	0xbc9251c0	-0.017861247
22	0xbd27a069	-0.040924463
23	0x3d0f22c9	0.034945283
24	0x3b88fafc	0.0041803103
25	0xbd422410	-0.047397673
26	0xbccde608	-0.025134102
27	0xbd8c2aad	-0.06844077
28	0xbdb20190	-0.08691704
29	0xbd03ebd6	-0.032207333
30	0xbc91e522	-0.017809454
31	0xbb0310b8	-0.0019998979

linears.4.weight f4 [4, 32]
0	0x3e631e58	0.22179544
1	0xbe23b616	-0.15987429
2	0xbddd7cdb	-0.1081483
3	0x3e03d163	0.12872843
4	0xbd6afd73	-0.057370614
5	0xbc042ce5	-0.008067344
6	0xbcc19284	-0.023629434
7	0x3e1c1581	0.15242578
8	0xbecdcdc4	-0.4019605
9	0x3eebdd65	0.46067348
10	0x3a8ad674	0.0010592476
11	0x3d3ba22d	0.04580896
12	0xbbb204ee	-0.0054327166
13	0x3e5111fd	0.20417018
14	0xbf53394e	-0.82509315
15	0x3e425c48	0.18980515
16	0x3ea9e95f	0.3318586
17	0x3ec932a1	0.3929644
18	0x3d4dd255	0.050249416
19	0x3e17974d	0.1480381
20	0xbdf06b80	-0.11739254
21	0xbda57707	-0.08079343
22	0x3e820b1c	0.253991
23	0xbdd6ef6f	-0.10494887
24	0xbedf09d0	-0.43562174
25	0xbd96cdab	-0.07363447
26	0x3c2f4900	0.010698557
27	0x3e30b649	0.17257036
28	0x3e16336b	0.14668052
29	0x3e9f8e0b	0.31163058
30	0xbf1dfae4	-0.61710954
31	0x3d9211b9	0.071322866
32	0xbe1696e2	-0.14705995
33	0x3e2a63de	0.16639659
34	0xbf3fd390	-0.74932194
35	0xbeffa780	-0.4993248
36	0xbf229611	-0.63510233
37	0xbf4f6d41	-0.81026083
38	0x3ead398e	0.33832973
39	0x3f570a56	0.84000146
40	0x3e2adc9c	0.16685718
41	0x3e87ec34	0.26547396
42	0xbefa2b24	-0.4886104
43	0xbeda4735	-0.42632452
44	0xbf32e07d	-0.6987379
45	0x3e025eae	0.1273143
46	0xbf4f67f5	-0.81018
47	0x3f5a3ec0	0.85252
48	0x3e7b535c	0.24543518
49	0xbe4fcd52	-0.20293167
50	0x3f76a7c3	0.96349734
51	0x3e1e99ec	0.15488404
52	0xbf2fac86	-0.68622625
53	0xbf1d87fb	-0.61535615
54	0xbf295691	-0.66147715
55	0x3f13bedb	0.577131
56	0x3e32839a	0.17433015
57	0xbf449d0b	-0.7680213
58	0xbecc8d47	-0.39951536
59	0xbf5954ae	-0.84894836
60	0x3ed84207	0.42237875
61	0xbe37d8ba	-0.17953768
62	0xbf1e3ffb	-0.61816376
63	0xbe29465f	-0.1653075
64	0x3ef11231	0.4708419
65	0x3f24b54c	0.6433914
66	0xbe5056d3	-0.20345621
67	0xbee6970a	-0.4503711
68	0xbca66886	-0.020313513
69	0x3ed372ea	0.4129861
70	0x3ec58405	0.38577285
71	0xbe676433	-0.22596817
72	0x3bd24e92	0.0064180577
73	0x3ef48094	0.47754347
74	0xbe450191	-0.19238879
75	0xbdfced16	-0.12349908
76	0x3e5900fc	0.21191782
77	0x3f0e9d5d	0.5570887
78	0x3e1abf1f	0.1511197
79	0xbb94d3d7	-0.004541855
80	0x3e7ec7e2	0.24880937
81	0x3f1640fa	0.58692896
82	0xbda161a0	-0.078799486
83	0x3e913a17	0.28364632
84	0x3e93161a	0.287278
85	0xbed64fd4	-0.4185778
86	0xbeb8c262	-0.36085802
87	0xbe4a4b8b	-0.1975538
88	0x3f12b751	0.5731097
89	0xbedda8cb	-0.4329284
90	0xbc513d0f	-0.012770905
91	0xbf02739c	-0.50957656
92	0x3c413005	0.011791234
93	0x3e5ed568	0.21761096
94	0xbea81d49	-0.32834843
95	0x3cab4473	0.020906663
96	0xbec08ff1	-0.3760982
97	0x3f0f6917	0.5601973
98	0xbf1c5b94	-0.6107724
99	0xbe8ba666	-0.2727539
100	0xbec8a922	-0.39191538
101	0xbf22ca4f	-0.6358995
102	0x3f7140e2	0.9423963
103	0x3ed6a248	0.41920686
104	0x3f217390	0.6306696
105	0x3f00549e	0.50129116
106	0xbf68a202	-0.90872204
107	0xbf18a0f4	-0.59620595
108	0xbed65def	-0.4186854
109	0x3ee3cf92	0.444943
110	0xbec3d4fb	-0.3824843
111	0x3f64a67c	0.89316535
112	0x3f07ae2c	0.5300014
113	0xbccde6bf	-0.025134442
114	0x3eef6990	0.46760225
115	0xbe83fb42	-0.25777632
116	0xbf412473	-0.7544624
117	0xbf481e00	-0.78170776
118	0xbf122321	-0.5708485
119	0xbd72e40a	-0.059299506
120	0xbf2f9273	-0.6858284
121	0xbf90734d	-1.1285187
122	0xbf3a8340	-0.7285652
123	0xbf18dbf8	-0.59710646
124	0x3f58edf0	0.84738064
125	0xbd997035	-0.07492105
126	0x3cb53817	0.022121472
127	0x3f04f910	0.5194254

linears.4.bias f4 [4]
0	0xbbdb6124	-0.0066949297
1	0x3eb6fbd0	0.35738993
2	0x3d3cfc46	0.046139024
3	0x3f06c6eb	0.52647275
