Iterations/Test model/epoch_4802.pt (torch, 37739 bytes, 10 tensors)

linears.0.weight f4 [32, 2]
0.3250567 -0.1362526 0.27893 -0.42306292 0.24365942 -0.45595872 -0.10045234 -0.58309305
-0.046517156 0.38586092 0.046561345 -0.6281597 0.17835516 0.6412131 0.17055471 0.26970974
0.36720854 -0.15431117 -0.23637168 -0.13137795 -0.11301654 -0.499255 -0.2590655 0.3480839
-0.10847094 -0.16669984 0.16337672 -0.34452152 -0.123667754 0.75030744 -0.057715926 -0.29176766
0.22085331 0.5956257 0.29464054 0.14946292 -0.10800029 0.34396186 -0.18314484 -0.2595584
-0.11587124 -0.19270459 0.27756476 0.10108229 0.6822147 -0.05626055 0.27497786 -0.32047194
-0.57853466 0.30941844 0.33866423 -0.15654016 -0.18059976 -0.16754642 0.043925665 0.37818873
0.08288556 -0.33118626 -0.028669942 0.45077053 0.15808846 -0.42085797 -0.04563229 0.75048137
00000000: d56d a63e cd85 0bbe eacf 8e3e b49b d8be
00000010: db81 793e 6c73 e9be f5b9 cdbd 9645 15bf
00000020: c688 3ebd 908f c53e 1cb7 3e3d 13cf 20bf
00000030: bca2 363e 8b26 243f e5a5 2e3e 6517 8a3e
00000040: c202 bc3e bf03 1ebe 6b0b 72be f187 06be
00000050: 3775 e7bd 5a9e ffbe 3ca4 84be 0e38 b23e
00000060: 0326 debd 5db3 2abe 3a4c 273e 2065 b0be
00000070: 8545 fdbd 2614 403f 8967 6cbd 9262 95be
00000080: 5f27 623e ed7a 183f 20db 963e cf0c 193e
00000090: 422f ddbd c51b b03e 528a 3bbe d7e4 84be
000000a0: e74d edbd 5a54 45be f81c 8e3e 3b04 cf3d
000000b0: 9fa5 2e3f 7671 66bd e6c9 8c3e e614 a4be
000000c0: d91a 14bf 186c 9e3e 6665 ad3e 104c 20be
000000d0: 25ef 38be 4a91 2bbe 66eb 333d f4a1 c13e
000000e0: e8bf a93d 3f91 a9be 3add eabc 65cb e63e
000000f0: f1e1 213e b27a d7be ede8 3abd 8c1f 403f

linears.0.bias f4 [32]
0.009827657 0.019042727 0.015215557 0.0053319456 0.011985251 -0.011018417 0.0053998376 -0.03486152
-0.010323357 -0.027907785 -0.0029200374 -0.076767445 0.040181506 -0.03426737 0.014618625 -0.013954649
-0.0010356923 0.005546453 0.02607866 -0.020664776 0.009842555 -0.017565506 0.10997607 0.030758632
-0.07005937 0.039585784 -0.012038094 0.012425427 0.024200447 0.012062369 -0.15359208 0.014589135
00000000: 2e04 213c 7eff 9b3c ac4a 793c 9ab7 ae3b
00000010: c95d 443c 9786 34bc 1ff1 b03b f4ca 0ebd
00000020: 4c23 29bc de9e e4bc 195e 3fbb 4038 9dbd
00000030: 5d95 243d f15b 0cbd f582 6f3c 0aa2 64bc
00000040: 11c0 87ba 05bf b53b eaa2 d53c 2d49 a9bc
00000050: ab42 213c 89e5 8fbc 223b e13d 87f9 fb3c
00000060: 497b 8fbd b424 223d 6d3b 45bc 0594 4b3c
00000070: 0440 c63c 3ea1 453c 3e47 1dbe 4407 6f3c

linears.1.weight f4 [64, 32]
0.02857549 -0.26489764 -0.19554755 -0.1808997 0.18940291 9.263914e-05 -0.07788159 0.26320142
0.16946891 0.31236282 0.08047756 0.32338238 -0.2244986 -0.48373747 0.0008624698 -0.18325536
0.31648567 0.016192732 -0.020217042 0.04148095 -0.3724216 -0.041590832 -0.10585649 0.19243675
0.09098487 0.16568998 -0.2802002 -0.08153817 0.11887938 0.12072611 -0.08302061 0.10771407
0.02818517 0.08716079 -0.10313157 0.15297227 -0.124070324 -0.12279472 0.21195461 0.31463394
0.39017266 0.22788991 -0.11948583 -0.05407628 -0.06636814 0.14155638 0.122010425 -0.05860521
0.22099479 -0.1828105 -0.22858322 -0.05758845 -0.019023921 0.3281257 -0.09052278 -0.13783064
0.08452298 -0.03570831 0.08024968 -0.06454265 -0.022056924 -0.03421757 0.32287523 0.22677702
-0.06732098 0.11766074 0.19363806 -0.0260012 0.041176513 -0.03608794 -0.018011702 -0.17636883
-0.0820584 -0.31092963 -0.2198623 -0.024055768 0.2744416 0.010140588 -0.012279945 -0.2680588
-0.03903466 0.27285203 -0.12020931 -0.09446286 -0.17649227 -0.19249603 0.15020691 -0.06362685
-0.05353312 0.037296966 0.03931316 -0.08585798 -0.071785726 0.26754266 -0.09562676 -0.23652543
-0.014648797 0.17952149 0.117887065 -0.1227504 -0.24693236 -0.21234468 0.0074248943 -0.066138454
0.259394 -0.21177222 0.035833266 -0.040034898 0.012583739 0.18095338 0.13071063 -0.40997532
-0.034636177 -0.07600503 0.030663365 -0.08715046 -0.10288098 0.15270014 0.2915497 0.080594674
-0.18390054 0.28586027 -0.09438042 -0.066964336 0.035422068 -0.052296024 -0.236397 -0.0018224269
0.031790793 0.038822405 -0.07022463 -0.06138287 0.035876833 -0.105341494 0.14076532 0.041452855
-0.028894588 -0.19636805 -0.35175738 -0.1712717 -0.15479061 -0.19336218 0.39972576 0.009722838
0.13130598 0.24788679 -0.050679807 0.29510894 -0.15037256 0.03238648 -0.24639024 0.027707957
-0.031869534 0.031721223 -0.16365679 0.1695373 0.039638706 0.025788289 -0.048415333 0.19829655
0.04544543 -0.17098194 -0.21519566 -0.12339843 0.39697313 -0.2537878 -0.081076615 -0.08318101
0.012389773 -0.08254887 0.0107491305 0.1363513 -0.10741434 0.23842905 0.19203503 0.037507195
-0.40740553 0.026419723 0.09946677 0.3063926 0.06676776 -0.2557924 -0.18135177 -0.12060803
0.24052751 0.025900582 0.36495194 -0.028732954 -0.089949474 0.19437116 -0.28274694 0.070378855
-0.17135876 0.12867923 0.25048128 0.1583183 -0.18113776 0.11782117 -0.03423335 -0.24389684
0.35582942 -0.35659698 0.1392942 0.0314016 -0.13984437 -0.15821214 -0.035635896 -0.26615173
0.10457174 -0.13747336 -0.06052971 0.11706094 0.15597902 -0.16440369 0.23544477 -0.041561645
-0.057412125 -0.05797659 0.15177892 -0.08551009 -0.1110025 -0.4435792 -0.050931033 -0.09744898
0.067166656 -0.1426319 0.13568906 0.028783442 0.18243007 -0.18883096 0.12831183 0.19399866
-0.21976164 0.3694954 0.13094084 -0.054697208 -0.18290181 0.11190356 0.13152274 0.02487532
0.05700844 -0.09221944 0.23000562 -0.11914977 -0.07442708 -0.14600411 0.25562412 -0.06547871
-0.014422516 0.049399324 -0.19530822 -0.10851537 0.03835227 0.2730091 -0.3639553 0.3209841
00000000: 2517 ea3c aaa0 87be 9e3d 48be c53d 39be
00000010: d6f2 413e 4247 c238 6280 9fbd 56c2 863e
00000020: 4289 2d3e 05ee 9f3e 6bd1 a43d 6092 a53e
00000030: f6e2 65be 70ac f7be 5e17 623a 4ba7 3bbe
00000040: 690a a23e 9fa6 843c 369e a5bc eee7 293d
00000050: 0bae bebe 265b 2abd 4acb d8bd 240e 453e
00000060: 4756 ba3d a2aa 293e 6776 8fbe 7cfd a6bd
00000070: 0877 f33d 403f f73d b606 aabd 3299 dc3d
00000080: 96e4 e63c 5b81 b23d a536 d3bd c3a4 1c3e
00000090: 9518 febd cc7b fbbd a10a 593e b317 a13e
000000a0: b6c4 c73e f95b 693e fdb4 f4bd 177f 5dbd
000000b0: 05ec 87bd 28f4 103e 9ae0 f93d 040c 70bd
000000c0: 754c 623e ad32 3bbe b811 6abe dee1 6bbd
000000d0: 0ed8 9bbc 1700 a83e 0264 b9bd 7a23 0dbe
000000e0: 621a ad3d e042 12bd f259 a43d f02e 84bd
000000f0: b9b0 b4bc b927 0cbd e74f a53e 3c38 683e
00000100: 95df 89bd 1df8 f03d 0e49 463e 7800 d5bc
00000110: b4a8 283d f3d0 13bd 478d 93bc 089a 34be
00000120: 3c0e a8bd 2b32 9fbe 9523 61be 9a10 c5bc
00000130: 9c83 8c3e b524 263c d331 49bc 013f 89be
00000140: cfe2 1fbd 43b3 8b3e 4c30 f6bd be75 c1bd
00000150: 64ba 34be ae1d 45be d7cf 193e cb4e 82bd
00000160: 8b45 5bbd b4c4 183d d606 213d 4fd6 afbd
00000170: 6504 93bd 5afb 883e f6d7 c3bd b933 72be
00000180: 8201 70bc 7bd4 373e c66e f13d 9064 fbbd
00000190: d6db 7cbe e270 59be 874c f33b 9973 87bd
000001a0: 4acf 843e d1da 58be e7c5 123d a2fb 23bd
000001b0: 072c 4e3c d84b 393e 02d9 053e 49e8 d1be
000001c0: aade 0dbd 86a8 9bbd bd31 fb3c f17b b2bd
000001d0: 43b3 d2bd 6d5d 1c3e 0146 953e d20e a53d
000001e0: 6c50 3cbe 475c 923e 864a c1bd 9924 89bd
000001f0: bb16 113d 5b34 56bd 0e12 72be 80de eeba
00000200: 1037 023d 3e04 1f3d eed1 8fbd 9b6c 7bbd
00000210: 96f3 123d 48bd d7bd c924 103e 78ca 293d
00000220: 58b4 ecbc b514 49be 8b19 b4be d961 2fbe
00000230: 6e81 1ebe bc00 46be dba8 cc3e 8a4c 1f3c
00000240: 1375 063e 09d6 7d3e a195 4fbd 8518 973e
00000250: 44fb 19be b0a7 043d b94d 7cbe ccfb e23c
00000260: a189 02bd 1dee 013d a595 27be 309b 2d3e
00000270: 325c 223d f641 d33c 284f 46bd 400e 4b3e
00000280: fd24 3a3d e415 2fbe 405c 5cbe 51b8 fcbd
00000290: 1040 cb3e 79f0 81be 7f0b a6bd ce5a aabd
000002a0: 79fe 4a3c 620f a9bd 1f1d 303c ad9f 0b3e
000002b0: 0dfc dbbd bf26 743e d5a4 443e 25a1 193d
000002c0: 7597 d0be 2d6e d83c 3cb5 cb3d 7edf 9c3e
000002d0: 89bd 883d 39f7 82be 47b4 39be 5801 f7bd
000002e0: d84c 763e 752d d43c fbda ba3e 5f61 ebbc
000002f0: 6e37 b8bd 3c09 473e 35c4 90be ca22 903d
00000300: ac78 2fbe 7dc4 033e 153f 803e 311e 223e
00000310: 2d7c 39be 3a4c f13d 4538 0cbd 18c0 79be
00000320: 462f b63e e193 b6be 24a3 0e3e f79e 003d
00000330: 5d33 0fbe 5d02 22be f2f6 11bd 0a45 88be
00000340: b529 d63d d1c5 0cbe 00ee 77bd a5bd ef3d
00000350: f7b8 1f3e 7159 28be 6f18 713e 8b3c 2abd
00000360: fa28 6bbd dc78 6dbd ef6b 1b3e ea1f afbd
00000370: 4755 e3bd d01c e3be 0f9d 50bd 5593 c7bd
00000380: ac8e 893d 190e 12be 13f2 0a3e 41cb eb3c
00000390: f3ce 3a3e e75c 41be 2d64 033e 96a7 463e
000003a0: 3209 61be 802e bd3e 5b15 063e 2e0a 60bd
000003b0: 9d4a 3bbe b22d e53d e6ad 063e 54c7 cb3c
000003c0: af81 693d 8cdd bcbd 9886 6b3e cb04 f4bd
000003d0: 3a6d 98bd 1a82 15be 2ae1 823e b419 86bd
000003e0: 6b4c 6cbc f256 4a3d e1fe 47be 4e3d debd
000003f0: 4517 1d3d d9c7 8b3e 5958 babe 0758 a43e

linears.1.bias f4 [64]
-0.020738563 -0.03338354 0.051102098 0.053788956 0.015354046 0.007143271 -0.003014906 0.09149088
0.003558469 0.036553167 -0.022677584 0.039030783 -0.02100037 -0.02648001 -0.016689153 0.016162712
-0.007367095 -0.002317634 -0.014765147 0.034527194 -0.013789028 0.009103677 0.016854266 0.0024675298
-0.015808938 -0.0034127655 -0.012919821 0.013835511 0.074725166 -0.009312344 -0.03122662 -0.016512273
-0.028311612 0.07011776 -0.052837215 0.0005977312 0.029386483 -0.017599827 -0.00024101297 0.02219446
0.018226024 -0.015492362 -0.030474795 -0.0073408214 0.15353695 -0.0054841605 0.016897142 0.015078235
-0.03244247 0.06604515 -0.13326503 -0.014282627 -0.0012616729 0.036370315 0.018371336 0.01970881
-0.033765268 -0.009984545 -0.011834691 0.008977419 -0.00062006497 -0.009925085 -0.019383756 -0.022946272
00000000: ebe3 a9bc 2ebd 08bd 6f50 513d cf51 5c3d
00000010: 898f 7b3c 1a12 ea3b bb95 45bb 925f bb3d
00000020: 3435 693b c6b8 153d 57c6 b9bc bede 1f3d
00000030: f808 acbc 9bec d8bc b1b7 88bc aa67 843c
00000040: ac67 f1bb 72e3 17bb 84e9 71bc 636c 0d3d
00000050: 60eb 61bc 9727 153c f511 8a3c 48b6 213b
00000060: bf81 81bc b4a8 5fbb a8ad 53bc 57ae 623c
00000070: 8209 993d cd92 18bc f8ce ffbc bf44 87bc
00000080: c1ed e7bc e699 8f3d d66b 58bd 10b1 1c3a
00000090: ecbb f03c 832d 90bc 6db8 7cb9 28d1 b53c
000000a0: be4e 953c add3 7dbc 47a6 f9bc 468b f0bb
000000b0: ca38 1d3e 79b4 b3bb e06b 8a3c b40a 773c
000000c0: 65e2 04bd ae42 873d a176 08be ae01 6abc
000000d0: b85e a5ba 0af9 143d 7c7f 963c 5f74 a13c
000000e0: 734d 0abd 3896 23bc 4be6 41bc 0616 133c
000000f0: db8b 22ba d39c 22bc afca 9ebc d2f9 bbbc

linears.2.weight f4 [64, 64]
-0.14796756 0.020422794 -0.048409153 0.105796464 -0.15742075 0.054734815 0.051284082 0.08290959
-0.008592576 0.035208 -0.02390393 0.13646047 0.017415583 0.14521466 -0.033960674 0.096300706
-0.025267169 0.021009564 0.309619 0.037555005 0.2239606 -0.0106244795 0.043731567 -0.08902583
0.14374863 0.151861 -0.08318701 -0.094286375 -0.065801784 -0.17085949 -0.001491167 0.03991316
0.20128512 0.0801597 0.21284978 -0.11220164 -0.053110108 0.10275448 -0.062571846 -0.12860179
0.032251425 0.212286 -0.026061937 0.009820312 0.021174667 -0.013796311 0.09450021 -0.08700619
-0.27525428 -0.2633495 -0.19176276 -0.048471794 -0.27108648 -0.18108344 -0.24692929 0.14200222
-0.06118006 0.062030066 0.04824668 0.21487238 -0.054241106 0.15606146 -0.19212306 -0.14763196
-0.27287093 -0.046948083 0.103464246 -0.05032689 0.00556549 -0.09477987 -0.01647672 0.32858688
0.060340233 -0.17534234 -0.110746376 0.06383645 -0.121962726 -0.19966947 -0.03818721 0.02046058
0.23430923 -0.05996169 -0.15761612 0.3178984 -0.11218859 0.06398635 0.06268279 0.1262807
-0.14379843 -0.101168655 0.07789123 -0.2693005 -0.00017847112 0.18736449 -0.05401042 0.07573977
-0.21218853 -0.10455249 -0.20879276 -0.015675995 -0.30582345 -0.18606383 0.023945482 0.1650473
-0.1434291 0.03918929 0.104570225 0.030668024 -0.01093393 0.1286234 -0.017352829 0.077349044
0.14434361 0.10508041 -0.13045363 -0.13277316 0.066054784 -0.016172873 -0.033800088 0.19962263
0.15538028 0.157787 0.019370811 0.063109204 -0.0063244654 -0.07196606 -0.1906133 0.0074626273
-0.15774831 -0.24272044 -0.23505518 0.058580637 -0.26355696 0.1600282 0.032340687 -0.024288282
0.091780856 -0.11169968 -0.20480302 -0.18018316 -0.03497705 -0.10332541 0.2208841 -0.057584543
-0.24239331 0.012047659 0.10859025 0.12045855 -0.13854323 0.06821763 -0.066997066 0.121007346
0.17233253 -0.058329266 0.09796528 0.07811407 0.13167879 0.12971222 -0.079271495 0.16648398
-0.08422343 0.16493298 0.07850705 -0.19261782 -0.17111158 -0.00038455287 -0.07927719 0.06389388
-0.03554068 -0.06764236 0.13158055 -0.06739317 0.09020995 0.12924899 0.040994152 -0.120051265
-0.016162988 0.14581946 -0.124803714 0.1304705 -0.101414464 0.12355007 -0.21573517 0.027069664
-0.035350274 0.06630432 -0.13915268 -0.08801608 0.09568703 -0.0055684336 0.039066616 -0.10491255
-0.07193821 0.18054606 0.2180686 -0.3311992 -0.11400297 -0.1811527 -0.15319344 -0.17133112
-0.1583926 0.049570937 -0.0063461782 -0.009311201 0.010266442 0.19715676 -0.040987596 -0.06291465
0.4320293 0.06979584 0.33084455 0.0551239 0.0011689261 -0.1418308 -0.15990263 -0.038310926
0.075151406 -0.0015871399 0.03956785 -0.1652395 0.11005613 -0.0762295 0.20615308 0.26587686
0.063085735 -0.13285494 0.065062314 -0.021421073 -0.06295798 -0.17485733 0.008991633 -0.16656601
0.12211957 0.06677045 0.09396911 -0.09875185 -0.11795144 0.0412609 -0.07119552 -0.058327768
-0.085701786 -0.0760167 -0.17363384 0.039429374 -0.010146913 -0.16873647 0.03241545 -0.078897476
0.09660844 -0.20183171 0.16539916 0.05131011 0.19017008 0.26632074 -0.038262162 0.10947131
00000000: cf84 17be b44d a73c ad48 46bd d1ab d83d
00000010: e832 21be 9d31 603d 420f 523d 81cc a93d
00000020: e0c7 0cbc 4436 103d 2dd2 c3bc 4bbc 0b3e
00000030: 20ab 8e3c 27b3 143e 591a 0bbd 4e39 c53d
00000040: 18fd cebc 401c ac3c 6286 9e3e 47d3 193d
00000050: ed55 653e 4c12 2ebc df1f 333d 2d53 b6bd
00000060: d732 133e 7381 1b3e f35d aabd 3719 c1bd
00000070: 16c3 86bd caf5 2ebe 4373 c3ba fb7b 233d
00000080: b01d 4e3e c52a a43d 4bf5 593e f9c9 e5bd
00000090: fc89 59bd f170 d23d ab25 80bd 30b0 03be
000000a0: 121a 043d 8061 593e d87f d5bc 60e5 203c
000000b0: 7f76 ad3c ec09 62bc 5389 c13d 4d30 b2bd
000000c0: 21ee 8cbe bfd5 86be 755d 44be 5c8a 46bd
000000d0: d9cb 8abe f06d 39be 08db 7cbe 0869 113e
000000e0: f197 7abd 3d13 7e3d 509e 453d 8107 5c3e
000000f0: ec2b 5ebd 93ce 1f3e e8bb 44be d52c 17be
00000100: bdb5 8bbe a24c 40bd 10e5 d33d 9223 4ebd
00000110: b75e b63b f31b c2bd 30fa 86bc 8a3c a83e
00000120: 5227 773d f18c 33be ffce e2bd afbc 823d
00000130: 98c7 f9bd 2776 4cbe 316a 1cbd f29c a73c
00000140: c2ee 6f3e 649a 75bd 1f66 21be 94c3 a23e
00000150: 22c3 e5bd 470b 833d d65f 803d ba4f 013e
00000160: e53f 13be 8331 cfbd 7085 9f3d c1e1 89be
00000170: fa23 3bb9 7adc 3f3e 083a 5dbd 741d 9b3d
00000180: f347 59be 9e1f d6bd c5cd 55be f26a 80bc
00000190: e494 9cbe 8487 3ebe 5129 c43c 2902 293e
000001a0: 14df 12be f384 203d ea28 d63d 823b fb3c
000001b0: 3a24 33bc dab5 033e 8527 8ebc 2d69 9e3d
000001c0: d0ce 133e 6634 d73d a395 05be b0f5 07be
000001d0: bb47 873d f97c 84bc f671 0abd e069 4c3e
000001e0: 021c 1f3e ea92 213e 89af 9e3c 663f 813d
000001f0: 763d cfbb f162 93bd 2230 43be 0e89 f43b
00000200: c688 21be b58b 78be 4eb2 70be 40f2 6f3d
00000210: f0f0 86be 6fde 233e ab77 043d 38f8 c6bc
00000220: 9af7 bb3d cdc2 e4bd e2b7 51be ef81 38be
00000230: 1844 0fbd 469c d3bd 712f 623e c5dd 6bbd
00000240: f435 78be 8b63 453c 9164 de3d f9b2 f63d
00000250: 47de 0dbe afb5 8b3d c235 89bd b3d2 f73d
00000260: f077 303e abea 6ebd 05a2 c83d 45fa 9f3d
00000270: ced6 063e 48d3 043e 1859 a2bd c77a 2a3e
00000280: 557d acbd 31e4 283e 4ec8 a03d 9b3d 45be
00000290: e037 2fbe d09d c9b9 145c a2bd cbda 823d
000002a0: 1b93 11bd 1488 8abd 0dbd 063e 6e05 8abd
000002b0: ffbf b83d d959 043e 7ce9 273d 70dd f5bd
000002c0: 3e68 84bc b251 153e 1799 ffbd 0f9a 053e
000002d0: 63b2 cfbd d207 fd3d aee9 5cbe 33c1 dd3c
000002e0: 73cb 10bd 8fca 873d 0a7e 0ebe c641 b4bd
000002f0: 90f7 c33d 6877 b6bb 5104 203d 64dc d6bd
00000300: 5754 93bd 11e1 383e 604d 5f3e f192 a9be
00000310: 647a e9bd 1880 39be bede 1cbe 6d71 2fbe
00000320: ab31 22be e50a 4b3d 9af3 cfbb 028e 18bc
00000330: 9434 283c 76e3 493e 9ce2 27bd 65d9 80bd
00000340: f232 dd3e 1ff1 8e3d 7564 a93e 99c9 613d
00000350: a736 993a 183c 11be 84bd 23be ebeb 1cbd
00000360: fbe8 993d 9407 d0ba e611 223d 8b34 29be
00000370: 1c65 e13d 361e 9cbd cb19 533e 0321 883e
00000380: 1833 813d 200b 08be 643f 853d 3f7b afbc
00000390: 1df0 80bd cd0d 33be a451 133c 4890 2abe
000003a0: d319 fa3d f2be 883d e072 c03d 693e cabd
000003b0: 8690 f1bd 3101 293d f5ce 91bd 19e9 6ebd
000003c0: 6b84 afbd a5ae 9bbd 12cd 31be b280 213d
000003d0: 3d3f 26bc 41c9 2cbe 10c6 043d 0095 a1bd
000003e0: a5da c53d f9ac 4ebe 665e 293e 8d2a 523d
000003f0: f2bb 423e 315b 883e c9b8 1cbd 7f32 e03d

linears.2.bias f4 [64]
0.017372124 0.033983838 0.025400048 -0.039191734 0.093352064 -0.050570056 -0.08720978 0.009712163
-0.01725842 0.024496084 0.0035070274 -0.016087653 -0.034703203 0.032704856 0.09385794 0.01354536
-0.03847334 -0.029149968 -0.03309838 -0.0018707304 0.042034414 -0.0119029265 -0.027110286 0.0061647985
0.014960301 0.02283863 -0.0047662994 0.0073067374 0.0008582541 0.05716882 0.010528069 0.00229047
-0.023017878 -0.05995464 -0.0068708425 -0.001969182 -0.0055317436 -0.008960413 0.004130768 -0.012528278
-0.015525522 -0.00282638 0.016417991 0.030963218 -0.07429386 -0.01156533 0.020641139 -0.0143018365
0.012254477 0.052146893 -0.024945278 0.058406886 -0.03139309 0.0156081775 0.079503186 0.06913043
0.06502537 0.013676613 -0.032317884 -0.016441617 0.030724201 0.032315526 0.052927792 0.0074940077
00000000: fc4f 8e3c a332 0b3d c313 d03c 8387 20bd
00000010: 5e2f bf3d 8c22 4fbd 0b9b b2bd c41f 1f3c
00000020: 8861 8dbc 03ac c83c 28d6 653b 41ca 83bc
00000030: f224 0ebd 87f5 053d 9738 c03d 5ced 5d3c
00000040: 3996 1dbd eacb eebc 2b92 07bd 4c33 f5ba
00000050: 472c 2c3d 7e04 43bc 6416 debc 1402 ca3b
00000060: 0d1c 753c 1418 bb3c 9e2e 9cbb 5b6d ef3b
00000070: 75fc 603a da29 6a3d ec7d 2c3c b61b 163b
00000080: fd8f bcbc ff92 75bd ce24 e1bb 640d 01bb
00000090: a143 b5bb b2ce 12bc 655b 873b 6843 4dbc
000000a0: c25e 7ebc ca3a 39bb 067f 863c 93a6 fd3c
000000b0: 6127 98bd 837c 3dbc 9b17 a93c 4052 6abc
000000c0: 00c7 483c fb97 553d 0a5a ccbc 0f3c 6f3d
000000d0: 0a96 00bd 71b9 7f3c 91d2 a23d 4194 8d3d
000000e0: 052c 853d df13 603c c25f 04bd 92b0 86bc
000000f0: 52b1 fb3c 495d 043d d0ca 583d 4b90 f53b

linears.3.weight f4 [32, 64]
-0.4261941 -0.08071534 -0.15446535 0.23719633 0.072162785 0.14101711 0.24655373 0.038469158
0.33608633 -0.03500774 0.029304713 0.033136126 0.10309133 -0.28220305 -0.28529507 -0.008090962
0.0465989 0.1703575 -0.14097553 -0.025803454 0.04012349 0.12209482 0.2565409 0.07793094
-0.1477126 0.07125729 -0.16736084 -0.22182027 -0.016963948 0.11230995 0.06917495 0.15543976
-0.09388496 0.02174521 0.14656344 0.10842408 -0.07489201 0.049629737 0.20978153 -0.11766485
0.12365674 -0.03971449 -0.0302407 0.20297688 -0.018260878 -0.14633198 -0.24406314 -0.27602994
0.17328031 0.13245198 0.082561456 0.20241123 0.047975115 0.24792138 -0.35014433 0.13520245
-0.055997036 0.0026265054 0.25863937 0.15857375 -0.13348225 0.059695393 0.0889359 -0.18820448
0.35652652 0.19206005 0.1784294 0.03129358 0.37083137 -0.47187293 -0.248594 0.16533647
0.14345579 0.08250926 0.2034612 0.46384004 -0.18516213 -0.19373137 0.2537494 0.07311036
0.035989854 -0.02698195 0.01839893 0.2876405 0.31555066 0.19023186 0.3568294 -0.24410549
0.010462509 0.14841709 0.08927602 -0.4239303 -0.007499127 0.010197396 -0.21228932 -0.28684196
0.20068659 -0.13926312 0.017866133 -0.26638445 0.43942338 0.5357236 -0.04993963 0.12055757
0.09983673 -0.34421965 -0.19899349 -0.16871439 0.08759675 0.27017242 0.10665638 0.20080581
0.00031974263 -0.08237543 0.26197898 -0.32633328 -0.0048426925 0.009120313 0.15421098 -0.015911957
0.2085268 -0.031574294 -0.60244656 0.09033265 -0.11305002 -0.37966302 0.41576347 0.3429691
0.22706345 -0.17805298 0.19274761 0.08032719 0.05540802 0.24048337 -0.07798334 -0.04154308
-0.18339959 -0.1401473 -0.21628961 0.090126 0.007966227 -0.20427339 -0.042886905 -0.12773564
0.1300099 0.19164641 0.23266117 0.0664382 -0.11992893 0.18974516 0.12007699 0.09860183
-0.03825567 -0.052152 0.06178218 -0.07418406 -0.19012587 -0.09541988 0.03333136 -0.04290043
0.23078433 -0.019473545 0.30012026 0.08836893 0.094248466 -0.057437632 -0.032864742 0.113457456
-0.25154468 -0.2327132 0.17997025 -0.33988032 -0.026650531 0.27332473 -0.38564706 -0.057073012
0.16009893 0.07620664 0.08102777 -0.10502914 0.2578164 -0.04112145 -0.34692293 -0.0061874343
0.055445302 -0.114040256 -0.013572492 0.044237826 -0.17412849 0.26070362 -0.08940676 0.20787466
-0.2651383 0.20707108 0.10120768 -0.06905509 0.08275675 -0.20580046 0.25060418 0.08330714
0.031125195 -0.4041619 -0.10146991 -0.09015248 0.014171128 0.12795152 0.0012199611 -0.20866999
0.16452244 -0.11822194 0.18488894 0.24006012 -0.1573621 -0.085887946 0.31569773 -0.053754423
-0.19725469 -0.09039266 0.14748693 0.14338236 0.029071392 -0.14359222 -0.14964378 0.112092376
0.06804753 0.26710573 0.09155948 -0.30030718 -0.0002911919 -0.1879091 0.120645516 0.017776858
0.082076855 -0.1544884 -0.104085654 -0.12977162 -0.2556706 0.3190582 -0.19296077 0.08484206
-0.07800674 -0.20834832 0.18283853 -0.13351443 0.23406227 -0.08131616 -0.2006827 -0.14792393
0.18891233 0.124323525 0.38012123 -0.03727316 0.0029550774 0.055805333 -0.044937138 0.044989526
00000000: 1d36 dabe 164e a5bd 2a2c 1ebe 98e3 723e
00000010: 15ca 933d ca66 103e 9578 7c3e d691 1d3d
00000020: 8213 ac3e 4764 0fbd 7010 f03c bfb9 073d
00000030: 8c21 d33d eb7c 90be 3212 92be f48f 04bc
00000040: 7dde 3e3d 3272 2e3e e45b 10be c461 d3bc
00000050: 8758 243d d90c fa3d 5459 833e 429a 9f3d
00000060: f941 17be 58ef 913d a460 2bbe da24 63be
00000070: faf7 8abc c202 e63d 99ab 8d3d 9a2b 1f3e
00000080: c246 c0bd 0323 b23c ba14 163e 720d de3d
00000090: fb60 99bd 8d48 4b3d f8d0 563e 45fa f0bd
000000a0: bf3f fd3d a9ab 22bd 58bb f7bc 2cd9 4f3e
000000b0: d697 95bc 0dd8 15be b0eb 79be cc53 8dbe
000000c0: 6570 313e 7ea1 073e fb15 a93d e444 4f3e
000000d0: 8e81 443d 1adf 7d3e 1e46 b3be 8372 0a3e
000000e0: 265d 65bd 7321 2c3b 616c 843e 2861 223e
000000f0: 92af 08be 2883 743d 0624 b63d adb8 40be
00000100: a58a b63e 64ab 443e 32b6 363e b22d 003d
00000110: 9cdd bd3e 5499 f1be 6d8f 7ebe f74d 293e
00000120: 13e6 123e 9dfa a83d 2258 503e 717c ed3e
00000130: 249b 3dbe 8461 46be 71eb 813e e2ba 953d
00000140: 196a 133d 4009 ddbc 5ab9 963c 9e45 933e
00000150: db8f a13e 24cc 423e 58b2 b63e caf6 79be
00000160: f16a 2b3c a6fa 173e 59d6 b63d 640d d9be
00000170: 3dbb f5bb fb12 273c 5f62 59be f3dc 92be
00000180: c980 4d3e fe9a 0ebe ff5b 923c 8b63 88be
00000190: 1afc e03e 2f25 093f 7f8d 4cbd e3e6 f63d
000001a0: 3377 cc3d 8f3d b0be f3c4 4bbe 77c3 2cbe
000001b0: ed65 b33d 0a54 8a3e a96e da3d 0aa0 4d3e
000001c0: 21a3 a739 73b4 a8bd 1c22 863e 2815 a7be
000001d0: 73af 9ebb 5e6d 153c 7ce9 1d3e cb59 82bc
000001e0: 0d88 553e 0c54 01bd f039 1abf 5300 b93d
000001f0: c586 e7bd 3163 c2be f3de d43e a599 af3e
00000200: 5283 683e 8553 36be a15f 453e 9582 a43d
00000210: 85f3 623d 4641 763e bbb5 9fbd 1429 2abd
00000220: 1acd 3bbe c682 0fbe 067b 5dbe fb93 b83d
00000230: c784 023c 0b2d 51be 2eaa 2fbd 22cd 02be
00000240: 5121 053e f53e 443e bb3e 6e3e c010 883d
00000250: 4d9d f5bd 8e4c 423e edea f53d c2ef c93d
00000260: fab1 1cbd 569d 55bd 500f 7d3d d0ed 97bd
00000270: 5bb0 42be 7f6b c3bd 7786 083d 5cb8 2fbd
00000280: ba52 6c3e fc86 9fbc 5da9 993e c5fa b43d
00000290: 5705 c13d b943 6bbd 2e9d 06bd 625c e83d
000002a0: 77ca 80be 5e4c 6ebe 1f4a 383e cb04 aebe
000002b0: 3752 dabc 38f1 8b3e 8873 c5be 64c5 69bd
000002c0: f9f0 233e 3a12 9c3d e3f1 a53d 8519 d7bd
000002d0: 8300 843e f76e 28bd e29f b1be f6bf cabb
000002e0: 9d1a 633d f08d e9bd 285f 5ebc b932 353d
000002f0: bd4e 32be f27a 853e e41a b7bd 18dd 543e
00000300: 35c0 87be 710a 543e f945 cf3d c16c 8dbd
00000310: 5f7c a93d 5bbd 52be 314f 803e ef9c aa3d
00000320: 44fa fe3c 4fee cebe 75cf cfbd dda1 b8bd
00000330: 052e 683c b905 033e 1ae7 9f3a 96ad 55be
00000340: 9278 283e 581e f2bd 8753 3d3e 52d2 753e
00000350: 8823 21be 05e6 afbd 22a3 a13e 992d 5cbd
00000360: 22fd 49be c91f b9bd d006 173e d3d2 123e
00000370: 2127 ee3c d709 13be 383c 19be b090 e53d
00000380: 815c 8b3d 15c2 883e 8983 bb3d ddc1 99be
00000390: 1dab 98b9 3e6b 40be ff14 f73d c6a0 913c
000003a0: e917 a83d 3532 1ebe dc2a d5bd dae2 04be
000003b0: 42e7 82be 995b a33e 8297 45be adc1 ad3d
000003c0: ffc1 9fbd 4359 55be 063a 3b3e 02b8 08be
000003d0: 05ae 6f3e 1689 a6bd c47f 4dbe 5f79 17be
000003e0: 3c72 413e 559d fe3d 409f c23e beab 18bd
000003f0: f9a9 413b 2294 643d 0110 38bd f046 383d

linears.3.bias f4 [32]
-0.032412678 0.061202165 -0.031014718 -0.028937498 -0.033350054 -0.07722135 0.073880404 0.045740012
0.009658375 0.019467814 -0.028036946 -0.038691964 -0.06775843 0.0012452615 -0.022306135 0.040319066
-0.0012693806 -0.014249764 0.04856689 -0.0011789775 -0.029002672 -0.021660311 -0.04352718 0.037343416
0.005528668 -0.05049379 -0.030137999 -0.066424385 -0.083494306 -0.0324863 -0.014534379 -0.0019958324
00000000: 28c3 04bd 1faf 7a3d 9412 febc 550e edbc
00000010: 119a 08bd 3a26 9ebd 9c4e 973d e159 3b3d
00000020: 293e 1e3c f77a 9f3c bdad e5bc 777b 1ebd
00000030: efc4 8abd 0b38 a33a 5bbb b6bc 9b25 253d
00000040: 5861 a6ba d877 69bc 13ee 463d ec87 9aba
00000050: 0397 edbc f770 b1bc 8e49 32bd 69f5 183d
00000060: d429 b53b 94d2 4ebd f7e3 f6bc 8209 88bd
00000070: 10ff aabd 5b10 05bd 9b21 6ebc 83cc 02bb

linears.4.weight f4 [4, 32]
0.21875972 -0.16194996 -0.10635409 0.13234651 -0.05044706 -0.0064988197 -0.025872337 0.15151753
-0.3989363 0.45768064 0.007282965 0.054102845 -0.0024530797 0.21421286 -0.82583195 0.19097361
0.33663642 0.39056325 0.048078377 0.15666291 -0.11197053 -0.07657079 0.25200278 -0.109429
-0.4415757 -0.070350975 0.014117194 0.1731317 0.15405656 0.31154698 -0.6173482 0.06281478
-0.18641093 0.18561229 -0.7745141 -0.5314647 -0.6623962 -0.83586323 0.3641603 0.85024303
0.19713391 0.28359884 -0.5202491 -0.4539984 -0.71831536 0.106940456 -0.8196116 0.8732264
0.22588283 -0.24535823 0.986407 0.12145647 -0.7097504 -0.6432167 -0.6960452 0.60617185
0.12635668 -0.7840389 -0.42523545 -0.87382275 0.46248916 -0.21026395 -0.62876856 -0.14878005
0.51549613 0.59000623 -0.23873958 -0.5190161 -0.06940581 0.38606888 0.44606555 -0.23509382
-0.04941903 0.42788318 -0.25184658 -0.18999714 0.21316397 0.5028131 0.1570861 -0.026704539
0.22770317 0.6322979 -0.097238 0.23889859 0.29055703 -0.47405267 -0.3971451 -0.13213186
0.6251424 -0.41305387 -0.035222393 -0.5204453 -0.030224653 0.25236416 -0.34790894 0.082539864
-0.43445405 0.6139223 -0.6694192 -0.33161 -0.4615392 -0.6977309 1.001797 0.47836828
0.6852898 0.5606062 -0.9768951 -0.65769947 -0.47950265 0.37597647 -0.43999255 0.95089453
0.4677369 -0.08522999 0.52720726 -0.31914946 -0.8159037 -0.85242707 -0.6285886 -0.0018047766
-0.75740904 -1.1876608 -0.7885005 -0.6543914 0.902834 -0.13236581 -0.034065206 0.57696813
00000000: 8c02 603e 36d6 25be 2cd0 d9bd d885 073e
00000010: 94a1 4ebd 0df4 d4bb 39f2 d3bc 6927 1b3e
00000020: 6141 ccbe 1e55 ea3e f0a5 ee3b f29a 5d3d
00000030: d9c3 20bb 9e5a 5b3e b969 53bf 968e 433e
00000040: 9c5b ac3e e8f7 c73e d5ed 443d 3e6c 203e
00000050: ce50 e5bd 25d1 9cbd 8206 813e 501c e0bd
00000060: 3616 e2be 2c14 90bd ce4b 673c 7049 313e
00000070: 01c1 1d3e 1683 9f3e 880a 1ebf 09a5 803d
00000080: 82e2 3ebe 2611 3e3e 8e46 46bf 120e 08bf
00000090: cc92 29bf 22fb 55bf 3873 ba3e 87a9 593f
000000a0: 79dd 493e de33 913e 0c2f 05bf 7a72 e8be
000000b0: 84e3 37bf 9903 db3d 11d2 51bf c48b 5f3f
000000c0: d44d 673e 303f 7bbe 2b85 7c3f 2bbe f83d
000000d0: 34b2 35bf daa9 24bf 0530 32bf 142e 1b3f
000000e0: a563 013e c6b6 48bf 76b8 d9be d9b2 5fbf
000000f0: 61cb ec3e 6f4f 57be faf6 20bf cc59 18be
00000100: 8ef7 033f a60a 173f 2678 74be 3dde 04bf
00000110: a224 8ebd d2aa c53e b462 e43e 6fbc 70be
00000120: 9c6b 4abd 8113 db3e 09f2 80be 9c8e 42be
00000130: a847 5a3e 5cb8 003f 2edb 203e 7ac3 dabc
00000140: 052b 693e 46de 213f b724 c7bd d5a1 743e
00000150: e4c3 943e 08b7 f2be 9a56 cbbe 934d 07be
00000160: 5509 203f cc7b d3be 5b45 10bd e73b 05bf
00000170: b199 f7bc e035 813e 1f21 b2be a90a a93d
00000180: c370 debe 032a 1d3f 0f5f 2bbf c9c8 a9be
00000190: de4e ecbe 7e9e 32bf e23a 803f b0ec f43e
000001a0: 276f 2f3f e383 0f3f cc15 7abf fe5e 28bf
000001b0: 5f81 f5be fd7f c03e b446 e1be d36d 733f
000001c0: 367b ef3e 108d aebd 0ef7 063f 8f67 a3be
000001d0: 11df 50bf a938 5abf 2feb 20bf 418e ecba
000001e0: 8fe5 41bf 4505 98bf 2bdb 49bf 3286 27bf
000001f0: 2120 673f e78a 07be f587 0bbd 2fb4 133f

linears.4.bias f4 [4]
-0.008371211 0.38151184 0.03602462 0.582794
00000000: 6727 09bc 8555 c33e 8d8e 133d fd31 153f
