Iterations/Test model/epoch_9702.pt (torch, 37739 bytes, 10 tensors)

linears.0.weight f4 [32, 2]
000000 1e 2d a6 3e 32 da 8c be 12 c3 8b 3e 27 b7 1a bf
       0.32456297 -0.2751022 0.27297264 -0.6043572
000010 b5 42 74 3e ee 98 28 bf 4a 95 d2 bd 93 1c 45 bf
       0.23853572 -0.6585835 -0.10282381 -0.76996726
000020 18 6d 55 bd 63 a3 10 3f 46 0c 51 3d ff 9d 54 bf
       -0.052105993 0.5649931 0.051037095 -0.8305358
000030 aa ba 3e 3e 73 50 53 3f 6d 88 3f 3e 1c f5 f0 3e
       0.18625894 0.8254463 0.18704386 0.47062004
000040 c1 6f b8 3e 30 40 9a be 01 d5 80 be 00 fd 90 be
       0.3602276 -0.30127096 -0.2516251 -0.28318024
000050 97 01 ea bd ab 78 2e bf 75 52 9f be b4 fe 0a 3f
       -0.114260845 -0.68152875 -0.31117597 0.54294896
000060 31 5a 09 be 58 c4 bf be 40 41 2b 3e d8 78 05 bf
       -0.13413312 -0.37454486 0.1672411 -0.5213752
000070 ec 8e 00 be 2e 2a 6d 3f f8 09 70 bd e3 72 f2 be
       -0.1255452 0.92642486 -0.058603257 -0.47353277
000080 58 bf 69 3e ec b5 45 3f 05 9c a1 3e 55 d3 b3 3e
       0.22826898 0.77230716 0.31564346 0.3512217
000090 c9 68 e2 bd 62 bb 05 3f 87 4d 63 be 04 f1 e7 be
       -0.110551424 0.5223905 -0.22197543 -0.45301068
0000a0 7e 1d fc bd 57 8e c7 be 27 15 94 3e 77 f7 95 3e
       -0.12310313 -0.38975784 0.28922388 0.29290363
0000b0 a3 6a 2f 3f 6c c5 4e be 82 cb 93 3e 62 ab 00 bf
       0.6852209 -0.20192498 0.28866202 -0.5026151
0000c0 01 d4 10 bf b4 b4 ea 3e 9c b4 b5 3e 03 3b 8c be
       -0.5657349 0.4584099 0.35489357 -0.27388772
0000d0 f3 4c 3f be 33 f5 af be 34 c7 2e 3d 83 35 0e 3f
       -0.18681698 -0.3436676 0.042670444 0.555504
0000e0 6a 69 a9 3d 42 67 08 bf cf 12 fa bc 90 af 23 3f
       0.08272059 -0.5328256 -0.030526547 0.6393976
0000f0 74 3f 2a 3e d0 a3 0c bf 53 79 46 bd b2 96 6f 3f
       0.16625768 -0.5493746 -0.048455548 0.9358932

linears.0.bias f4 [32]
000000 71 7d 52 3c 51 60 bd 3c d5 de 96 3c 1d 12 f5 3b
       0.01284729 0.023117216 0.018416801 0.007478966
000010 b8 ad 0b 3c 33 a1 e7 bb 61 2b 54 3b 01 24 18 bd
       0.0085253045 -0.007068777 0.0032374489 -0.03714371
000020 73 6e c0 ba 14 50 eb bc c0 05 87 ba df 37 a5 bd
       -0.0014681354 -0.028724708 -0.0010301396 -0.08067297
000030 db a9 27 3d 84 89 f1 bc c6 28 41 3c af fd 3b bc
       0.04093347 -0.029484518 0.011789506 -0.011474057
000040 7a 1f 1e bb a4 d5 61 3b 55 f5 b5 3c 79 9a ad bc
       -0.0024127648 0.0034459615 0.02221171 -0.021191822
000050 1a 4c 3e 3c 55 36 95 bc a8 b3 e7 3d bc 93 10 3d
       0.011614824 -0.018214384 0.113135636 0.03529714
000060 7b c4 97 bd 65 99 3d 3d 30 bf 2f bc 0e 9e 15 3c
       -0.074105226 0.046288867 -0.010726735 0.009131921
000070 f3 68 d6 3c 5c 5d 1b 3c 07 c7 07 be 0f 45 3b 3c
       0.02617309 0.009482708 -0.13259517 0.011430039

linears.1.weight f4 [64, 32]
000000 ed 8a dd 3c f5 3e 8c be 01 f8 54 be 7b ae 62 be
       0.027043784 -0.27391782 -0.20797731 -0.22136872
000010 07 e2 76 3e aa e6 98 bd ea 17 50 bd db 8b 8c 3e
       0.2410966 -0.07465871 -0.050804056 0.2745045
000020 8d 04 2c 3e cc 13 9d 3e 95 c6 41 3d e7 2f a8 3e
       0.16798611 0.30679166 0.047308523 0.32849047
000030 ce 6c 6f be e9 b6 fe be 3c f7 2c 3d c2 f7 55 be
       -0.2338135 -0.49748924 0.04222797 -0.20895293
000040 ab bb ad 3e a9 f6 cc 3c be 62 7a b9 45 a6 f3 3c
       0.33932242 0.02501996 -0.00023878642 0.02974237
000050 e1 0f c6 be c3 48 0f bd a8 59 cb bd 16 aa 3e 3e
       -0.3868399 -0.0349815 -0.0992921 0.1861957
000060 a3 53 b4 3d 2e 4f 29 3e d6 f8 93 be 2a de 31 bd
       0.08805015 0.16534111 -0.28900784 -0.043424763
000070 4b f3 cd 3d 21 f6 3f 3e 8f e8 b4 bd f9 29 3a 3e
       0.1005617 0.18746234 -0.088334195 0.18180074
000080 fd b1 0e 3d 39 c2 b5 3d 8f 17 d4 bd 89 bd f6 3d
       0.03483771 0.08874936 -0.10356056 0.1204787
000090 6e 84 cb bd e5 00 26 be 86 ef 73 3e 76 3d a5 3e
       -0.09937368 -0.16211279 0.2382184 0.32273453
0000a0 02 62 cb 3e e9 70 5e 3e bb aa 19 be a8 44 6f bd
       0.39723212 0.2172276 -0.15006535 -0.058415085
0000b0 51 df 8f bd 47 4b 0c 3e f6 62 10 3e 1e 83 a2 bd
       -0.07025016 0.13700591 0.1410025 -0.07935165
0000c0 ca cb 7a 3e 11 fc 2b be 27 99 61 be 4f e9 95 bd
       0.24491802 -0.16795374 -0.22031079 -0.07319891
0000d0 93 4c 0b bd 66 d2 ad 3e 73 3a a6 bd 7e 5e 09 be
       -0.034008574 0.33949584 -0.08116617 -0.13414952
0000e0 3f f4 9c 3d 8d 70 ed bc e7 8e 88 3d e9 0c 1a bd
       0.07663774 -0.028984332 0.066678815 -0.03760997
0000f0 32 ce cb bc bb aa e4 ba 01 98 a2 3e f5 09 87 3e
       -0.024878595 -0.0017445901 0.31756595 0.26374784
000100 1c 5c 9a bd 99 6e e6 3d af 38 41 3e bc 13 99 39
       -0.075371 0.112515636 0.1886928 0.00029197137
000110 7b 02 1d 3d 2c d3 b6 bc d1 98 15 bd 82 17 4c be
       0.038332444 -0.022317491 -0.03652269 -0.19930843
000120 de 43 ba bd 41 37 9a be d4 a7 4b be 36 ec bd bc
       -0.09094976 -0.3012028 -0.1988824 -0.023183923
000130 e3 90 9b 3e a4 f9 b9 ba 3c ec 31 bc 63 a8 7f be
       0.30383977 -0.0014188779 -0.010859545 -0.24966578
000140 7d 7c 66 bd 9b b9 85 3e 45 b9 e1 bd 9c a2 a3 bd
       -0.056271065 0.26118168 -0.110216655 -0.0799
000150 a1 7c 20 be a8 56 53 be 12 7d 1a 3e f1 07 8d bd
       -0.15672542 -0.20638525 0.15086773 -0.0688628
000160 5d 24 55 bd ca 07 02 3d a8 4f 54 3d 30 27 e0 bd
       -0.05203663 0.03174571 0.05183378 -0.109449744
000170 ef 48 8c bd 3f 35 80 3e 2e 15 04 be 70 f7 81 be
       -0.068498485 0.25040624 -0.12898704 -0.25384092
000180 72 55 b5 3c 8e b9 5b 3e bd 4d 22 3e f6 c3 9f bd
       0.02213547 0.21457502 0.15849967 -0.078010485
000190 00 99 96 be ff 43 10 be 54 c6 9b 3b 3c 21 a4 bd
       -0.29413605 -0.14088438 0.004753867 -0.080141515
0001a0 1c d3 a1 3e 31 c5 65 be 31 1b 3e 3d c5 c7 6f bd
       0.31606376 -0.22438504 0.04641265 -0.058540124
0001b0 09 07 c9 3c fc 70 48 3e 3c df 8e 3d 1f f9 ca be
       0.024539487 0.1957435 0.06976172 -0.3964319
0001c0 bb 3c b6 bc 0c fd 1c bd 28 88 43 3c 49 fc be bd
       -0.022245755 -0.03832726 0.011934318 -0.09325463
0001d0 92 e2 b5 bd b4 13 26 3e 8d 24 9c 3e d0 69 dc 3d
       -0.088811055 0.16218454 0.30496636 0.1076237
0001e0 e1 95 4f be 98 7c 9c 3e 40 58 de bd 21 28 bd bd
       -0.20272018 0.30563807 -0.10856676 -0.092361696
0001f0 77 25 86 3d 3e f2 d0 bd 6f fb 74 be b4 7a 80 bd
       0.065501146 -0.10202454 -0.2392404 -0.06273404
000200 c1 6f f4 3c dc 5c 02 3d c5 75 a2 bd 90 5d ae bd
       0.029838445 0.03182684 -0.07932619 -0.085139394
000210 45 07 94 3d 0c 9d 20 be af 50 1f 3e 7d c7 42 3d
       0.07227949 -0.15684909 0.15558122 0.047553528
000220 e2 18 f8 bc 72 26 4b be 23 70 bd be 1c dc 29 be
       -0.030285303 -0.19838884 -0.36999616 -0.16587871
000230 9e ea 23 be 02 45 50 be a1 3f da 3e 57 f8 b9 bb
       -0.16007468 -0.20338824 0.4262667 -0.0056753564
000240 16 06 13 3e d0 27 81 3e 34 c7 14 bd 19 25 94 3e
       0.1435779 0.25225687 -0.036322787 0.28934553
000250 0b 13 22 be aa 7c 12 3d e5 bf 78 be 4e 88 b4 3c
       -0.15827577 0.03576342 -0.24291952 0.022037651
000260 0f 32 06 bd 29 c6 f5 3c 15 af 2b be f8 5e 46 3e
       -0.032762583 0.030001717 -0.16766007 0.19372165
000270 4a 1b ce 3c 82 9a 9a 3d c5 44 59 bd 36 ba 80 3e
       0.025159497 0.07549001 -0.0530441 0.25142068
000280 29 2a 69 bc 3d 30 76 be 40 dc 94 be 7c d5 48 be
       -0.014231243 -0.24041839 -0.29074287 -0.19612688
000290 6e 92 00 3f 6f d5 bc be e7 a9 52 bd 25 55 5f bd
       0.50223434 -0.36881587 -0.051431563 -0.05452456
0002a0 46 90 49 bd 09 25 68 bd b8 a9 18 bd 71 9b 42 3e
       -0.049209855 -0.056675944 -0.03727123 0.19004609
0002b0 b7 d5 0f be 1a bb 43 3e a2 91 92 3e a7 b7 8a bc
       -0.1404637 0.19114342 0.28626734 -0.016933275
0002c0 0b 4b c8 be cf 99 1d bc c8 93 23 3e d7 22 a1 3e
       -0.39119753 -0.00961919 0.15974343 0.31471893
0002d0 ba b7 31 3d 1c b8 8b be b0 3a 63 be 27 6e 3b be
       0.043388106 -0.27288902 -0.22190356 -0.18303739
0002e0 df cd 95 3e ce 8f ba bc 7a d4 c4 3e 65 f0 51 3d
       0.2925863 -0.02277365 0.38443357 0.05125465
0002f0 ad 88 30 be 4c c1 9b 3e 32 bf 9d be 40 d2 34 3e
       -0.17239638 0.3042091 -0.30809933 0.17658329
000300 fe de 27 be 5b 60 12 3e 0e 46 89 3e a6 95 47 3e
       -0.16393659 0.14294569 0.2681126 0.1949068
000310 63 b1 70 be 74 dc 46 3e bd 0e 64 bd c6 cc 81 be
       -0.23505168 0.19420034 -0.055678118 -0.25351542
000320 cf 1e ba 3e 10 4b b6 be 36 f8 2a 3e d4 8f b1 3c
       0.3635163 -0.35604143 0.16696247 0.021675028
000330 a7 06 06 be d3 b3 11 be 7b 89 a3 bd c6 b1 79 be
       -0.13088475 -0.14228754 -0.07985207 -0.24384221
000340 2b 61 b3 3d b9 2e 0f be 92 da a8 bd dd 8f fc 3d
       0.08758768 -0.13982667 -0.08244814 0.12332127
000350 d6 d6 2a 3e 51 62 2a be 1b d0 6f 3e c5 37 f6 bc
       0.16683516 -0.16639067 0.2341923 -0.03005589
000360 0c 72 76 bd 57 c2 56 bd 81 e6 1e 3e df cb f7 bd
       -0.060167357 -0.05243143 0.15517618 -0.12099432
000370 db c4 b4 bd 08 32 03 bf ef a3 3d bd c9 95 31 be
       -0.0882661 -0.51248217 -0.046298917 -0.17342295
000380 e0 2c 94 3d 08 f2 17 be a1 2f 01 3e 40 56 cb bc
       0.07235122 -0.14838421 0.12615825 -0.0248214
000390 2c 54 79 3e a6 5a 8c be cc c8 28 3e c3 5f 62 3e
       0.24348515 -0.2741291 0.16482848 0.22106843
0003a0 b8 b9 59 be 8a f0 b6 3e 07 78 b5 3d d6 a3 44 bd
       -0.21262252 0.35730392 0.08860784 -0.04800781
0003b0 09 51 59 be 13 91 d4 3d db e3 2f 3e 0a 9e 61 bc
       -0.21222319 0.10379233 0.17176764 -0.01377059
0003c0 33 d4 b6 3d ea e3 98 bd 5b 4b 7d 3e 71 d5 0f be
       0.089271925 -0.07465346 0.24735777 -0.14046265
0003d0 be 71 d0 bd 0e 9b 03 be f4 16 89 3e 2f 14 8d bd
       -0.101779446 -0.12852117 0.26775324 -0.06888615
0003e0 98 4e b6 bc 40 f1 5a 3d ea ec 58 be 34 14 5a bd
       -0.022254273 0.05345273 -0.21184126 -0.053241923
0003f0 d9 f3 46 3c d4 26 ba 3e 91 d0 b7 be 50 c6 d2 3e
       0.012143099 0.36357749 -0.3590131 0.41166925

linears.1.bias f4 [64]
000000 fe 1b ae bc 51 ff ea bc ac 99 91 3d 28 5b 7f 3d
       -0.021253582 -0.028686197 0.07109389 0.062342793
000010 c7 b8 66 3c 6f dc 93 bb 9d d5 0c b9 94 05 9c 3d
       0.01408214 -0.0045123617 -0.00013431018 0.076182514
000020 5a 3f 84 39 55 7b 11 3d d5 9b ad bc 19 f8 37 3d
       0.00025224203 0.03551801 -0.02119247 0.04491434
000030 d9 cd 5e bc af 88 c4 bc 71 fc ab bc 48 71 91 3c
       -0.013598883 -0.023990957 -0.020994397 0.017754212
000040 9e 18 7d bb c4 a5 fe ba 87 1c 0c bc b5 37 17 3d
       -0.003861941 -0.0019428064 -0.008551723 0.03691836
000050 c3 62 3f bc e8 95 c5 3b 8a 72 29 3c 83 37 e0 3a
       -0.0116812615 0.006029833 0.01034225 0.0017106388
000060 96 2e 6e bc 04 3d 58 bb 72 9e 57 bc db 3f 46 3c
       -0.014537474 -0.0032995353 -0.013160335 0.012100185
000070 96 9b 91 3d 2e 6f 58 bc 61 7e d1 bc 61 01 5e bd
       0.07109754 -0.013210101 -0.025572957 -0.054200534
000080 58 c0 ad bc f7 67 c8 3d 09 a7 13 bc 8b da 0f ba
       -0.02120988 0.09785455 -0.009011992 -0.00054875825
000090 61 71 f4 3c 3b c3 90 bc c5 78 d8 3b a8 68 9a 3c
       0.02983922 -0.017671218 0.0066061937 0.018848732
0000a0 4a 7b 5c 3c 6b a3 3f bc 4b da f2 bc 68 6e cd bb
       0.013457129 -0.011696677 -0.029645106 -0.006269265
0000b0 c8 c4 1e 3e b0 15 b9 bb 3a cb 8c 3c 75 46 53 3c
       0.15504754 -0.0056483373 0.01718675 0.012895216
0000c0 23 43 0e bd 6a 9a 5e 3d ca c9 f8 bd 15 a6 4e bc
       -0.034731995 0.05434648 -0.12147863 -0.012612839
0000d0 44 73 ca b9 72 a1 0f 3d 82 5b 88 3c 14 b2 8c 3c
       -0.00038614322 0.035066076 0.016645197 0.017174758
0000e0 d2 dc d5 bc c7 e4 11 bc cf 16 02 bc e2 08 b2 3c
       -0.026106272 -0.008904642 -0.007940008 0.021732751
0000f0 29 52 49 bb 2e 76 0b bc 4f 51 4f bb 6e 09 a0 bc
       -0.0030719137 -0.008512063 -0.0031634157 -0.019535746

linears.2.weight f4 [64, 64]
000000 28 31 26 be d8 33 d9 3c 3c 79 29 bd 3b 40 eb 3d
       -0.16229689 0.026513979 -0.041375384 0.1148686
000010 0f d5 1f be 03 e1 22 3d 5f 75 89 3d da 4e a4 3d
       -0.15608619 0.03976537 0.0671184 0.08022852
000020 02 7b 81 ba 8c 3f 1c 3d 0d 45 23 bc b1 16 15 3e
       -0.0009878578 0.03814654 -0.009965193 0.14559437
000030 32 e5 11 3d b7 df 21 3e 5a 7c 76 bd a4 cd bd 3d
       0.03561897 0.15807997 -0.060177185 0.092677385
000040 62 f2 7f 3d 96 b5 ad 3c 80 ed ac 3e cc 56 50 3d
       0.062487014 0.021204751 0.33774948 0.050864026
000050 9d f3 83 3e d3 68 d9 bc 07 69 06 3d 10 2d dc bd
       0.257718 -0.026539242 0.032815006 -0.107507825
000060 7b c1 1a 3e 4a 5c 1e 3e d9 9b 92 bd 12 b0 ee bd
       0.1511287 0.15464893 -0.07158632 -0.116546765
000070 a5 fe 5d bd fd 01 4f be 2a 74 ac 3c 02 ee eb 3c
       -0.054197926 -0.20215602 0.021051485 0.028800014
000080 e7 18 75 3e 49 a0 b9 3d b5 b1 71 3e dd b3 00 be
       0.2393528 0.09063775 0.23602946 -0.12568612
000090 e4 99 21 bd 57 c7 de 3d 46 32 47 bd 0e 6e 0d be
       -0.039453402 0.10877865 -0.04863193 -0.13811514
0000a0 7a 4d 40 3c 0f 7d 5b 3e a8 99 b2 bc db a7 ee bb
       0.011737222 0.21434425 -0.021801785 -0.0072831935
0000b0 8e 63 8a 3c 0d fe 7e bc 70 af a7 3d 69 76 c9 bd
       0.016893174 -0.0155635 0.08187759 -0.09837038
0000c0 4c 60 92 be b2 ff 81 be c6 6a 44 be da 12 66 bd
       -0.28589094 -0.25390393 -0.19181356 -0.056170322
0000d0 63 15 83 be 6e ca 34 be 00 0c 87 be 66 8f f9 3d
       -0.25602254 -0.17655346 -0.26376343 0.12185554
0000e0 43 ac 65 bd fc 3a 8b 3d d3 9c 92 3d a3 de 69 3e
       -0.056072485 0.0679836 0.07158818 0.22838835
0000f0 2b 2a 42 bd d6 a6 2e 3e de 3a 3b be a3 f3 06 be
       -0.047403496 0.1705583 -0.18284175 -0.13178878
000100 e4 22 6e be 69 84 29 bd 5e 2f 89 3d b4 aa d5 bd
       -0.23255497 -0.04138604 0.06698488 -0.1043295
000110 d6 6e 54 bc dd e1 6f bd f8 6a 48 bd f4 5d 8c 3e
       -0.0129658785 -0.05856501 -0.04893014 0.2741543
000120 14 2e 20 3d ce af 53 be f6 05 e5 bd 01 a0 c7 3c
       0.039106444 -0.20672533 -0.111827776 0.024368288
000130 c9 94 13 be 2f 7d 36 be 4d 8f 5a 3b 97 a7 1e 3d
       -0.14412226 -0.17821191 0.0033349574 0.038734045
000140 b3 66 62 3e 7e 41 1c bd df e2 34 be b8 2d 8d 3e
       0.22109489 -0.038148396 -0.1766467 0.27573943
000150 f5 89 12 be 09 19 dd 3d 38 d1 6e 3d 55 9b 0d 3e
       -0.14310439 0.10795791 0.058304995 0.13828786
000160 59 6d 09 be c9 6e fb bd 75 c4 6e 3d a5 50 81 be
       -0.13420619 -0.1227699 0.058292825 -0.2525684
000170 12 84 9d bd 8c 95 59 3e 50 b3 a1 bd 71 5d f5 3d
       -0.07691206 0.21248454 -0.07895529 0.11980713
000180 a1 50 79 be cf ea 2d be a6 43 6b be f6 13 56 3d
       -0.24347164 -0.16984104 -0.22975025 0.05226513
000190 9c d1 a9 be 61 24 4d be 53 2a ed 39 a0 e1 1a 3e
       -0.33167732 -0.20033409 0.00045235697 0.15125132
0001a0 af 21 06 be b6 6d 8e 3d dd ec 04 3e 25 a0 8b 3d
       -0.13098787 0.069545195 0.12980981 0.068176545
0001b0 29 9a cc bb 4b 85 26 3e c7 2c ea 3b c7 75 64 3d
       -0.0062439633 0.16261785 0.007146451 0.055776384
0001c0 6e 9e 43 3e 2f 2a 9b 3d 66 51 92 bd bc 3f d4 bd
       0.19103405 0.07576405 -0.07144432 -0.10363719
0001d0 eb ea ee 3c 75 fc 7b bd 77 1f 3d bd 40 5b 56 3e
       0.029164752 -0.06152006 -0.046172585 0.20933247
0001e0 30 cc 41 3e 5c 00 01 3e 09 4b 06 3d 30 48 e7 3c
       0.18925548 0.12597793 0.032786403 0.028232664
0001f0 e8 e3 ed bc 7e d4 4f bd fe 65 64 be cb d3 ea 3a
       -0.029039338 -0.050739758 -0.22304532 0.0017915902
000200 33 83 f2 bd 40 fd 6b be a0 86 6c be e1 73 83 3d
       -0.118414305 -0.23045826 -0.2309823 0.064185865
000210 52 15 48 be 27 32 26 3e 5c 6b 9e 3b 72 6f 46 bc
       -0.19539383 0.16230069 0.0048345756 -0.012111532
000220 06 f8 b9 3d ee 6b be bd e4 23 64 be e1 56 38 be
       0.0908051 -0.0929793 -0.22279316 -0.18001892
000230 6a c6 60 bd 4a 8b fc bd 18 36 a2 3e d2 9d bc bd
       -0.054876722 -0.12331255 0.31681895 -0.09209789
000240 da ed c1 be 47 6c 81 bd 6b 77 48 3d a2 f1 bc 3d
       -0.3787678 -0.063194804 0.04894201 0.09225775
000250 5e 7d 62 be dc 94 a4 3d ad 10 42 bd e9 e2 1c 3e
       -0.22118136 0.08036205 -0.047379185 0.15320934
000260 92 1b 95 3d 25 9c 01 bc 69 7e 0a 3e fa 53 39 3e
       0.07280649 -0.007910763 0.13524784 0.18098441
000270 d8 bc 09 3e 01 7d 34 3e 65 de fa bd 18 f4 25 3e
       0.13450944 0.1762581 -0.1224945 0.16206396
000280 6c 69 07 be 82 28 32 3e fd 1b 67 3d 80 ed 15 be
       -0.13223809 0.17398265 0.056423176 -0.1464138
000290 a1 b3 02 be 0e 69 55 3d 16 22 a0 bd 7e bc a2 3d
       -0.12763835 0.05210214 -0.078190014 0.07946108
0002a0 a0 3a 9b bb 53 37 f5 bd c7 a9 e1 3d 8e c9 a3 bc
       -0.0047372133 -0.11973443 0.110187106 -0.01999357
0002b0 ce b9 a5 3d 26 6a a2 3d 60 ff 3d 3d 77 0b 99 bd
       0.0809208 0.079304025 0.046386123 -0.0747289
0002c0 0b e8 6f bc 73 8b 24 3e 97 fa 04 be 79 53 d0 3d
       -0.014642726 0.1606882 -0.12986217 0.10172171
0002d0 f9 1c 03 be e7 7b 10 3e 00 1f e7 bd 4b 9f 65 3d
       -0.12804021 0.14109765 -0.1128521 0.056060117
0002e0 2a 58 54 bd 96 ab 88 3c ca d4 8a be 45 39 b6 bd
       -0.051841892 0.016683381 -0.2711547 -0.08897642
0002f0 e2 2f 01 3e 34 49 a9 bd c4 2f 66 3d 3c be fd bd
       0.12615922 -0.082659155 0.056197897 -0.123898
000300 22 ea b1 bd 96 c6 38 3e 5d 9e 62 3e 2e 9f a8 be
       -0.086872354 0.18044505 0.22130723 -0.32933944
000310 da 6b f6 bd df f1 3a be 2d 5c 14 be ea 98 43 be
       -0.1203229 -0.18256329 -0.14488287 -0.19101301
000320 81 f3 1e be ce 56 2a 3d 59 ae b3 3a e9 9b a5 bb
       -0.15522577 0.04158669 0.0013708576 -0.0050539863
000330 08 bf 6b 3c 61 a7 65 3e 65 14 c6 bd ad ea 5d bd
       0.014388807 0.22427131 -0.09671859 -0.054178882
000340 35 36 08 3f 73 cb a1 3d 3f ed b3 3e a1 04 8a 3d
       0.53207713 0.07900133 0.35141942 0.06739164
000350 e9 9e e8 3c 5f 3f 16 be 6e b6 2e be e8 7c 34 bd
       0.028396087 -0.14672612 -0.17061779 -0.044064432
000360 36 8a ae 3d 74 7c f7 bb 2a e2 11 3d 9f 41 49 be
       0.085224554 -0.0075526778 0.035616077 -0.19653939
000370 bc 00 e9 3d e3 91 ae bd 9e d2 5a 3e 6f ff 85 3e
       0.11377093 -0.085239194 0.21369407 0.26171443
000380 9a a0 a5 3d 97 71 04 be 09 56 94 3d 77 0e 2d bd
       0.08087273 -0.12933956 0.072429724 -0.042250123
000390 01 04 83 bd 77 f5 3b be 74 25 15 3c 8c 63 3b be
       -0.06397248 -0.18355356 0.009103168 -0.18299693
0003a0 1b 22 ed 3d 83 b6 a1 3d 0a e1 e2 3d 95 96 ea bd
       0.11578771 0.078961395 0.11078079 -0.114545025
0003b0 ce 85 e3 bd 4a 6a 4d 3d fa 50 99 bd 94 4b c1 bd
       -0.111095056 0.050150193 -0.07486148 -0.094382435
0003c0 0a ab b7 bd f8 41 9d bd e8 1c 25 be 6d 09 2d 3d
       -0.0896817 -0.07678598 -0.16124308 0.042245317
0003d0 f7 7f 84 ba 25 3d 2f be 93 a3 3a 3c d6 5e b4 bd
       -0.0010108937 -0.17113169 0.011391538 -0.08807151
0003e0 9c 84 ed 3d 70 90 3c be 01 4f 74 3e 2d 6a 64 3d
       0.11597559 -0.18414474 0.23858263 0.05576532
0003f0 e5 c8 3d 3e a4 08 9b 3e f8 88 27 bd 8c 86 ef 3d
       0.18533666 0.3028003 -0.040902108 0.11695585

linears.2.bias f4 [64]
000000 00 c8 ac 3c a2 14 6b ba 66 ec c9 3c 17 3a 20 bd
       0.021091461 -0.0008967613 0.024648856 -0.0391179
000010 26 e0 bc 3d ec e3 32 bd 08 0e a7 bd c9 1b 3b ba
       0.092224404 -0.043674394 -0.08156973 -0.0007137624
000020 c1 0d bc bc a7 df d4 3c 78 f6 04 3b fd b1 7c bc
       -0.022955777 0.025985552 0.0020288508 -0.015423295
000030 ad a6 db bc 9d 83 ff 3c 38 08 b7 3d e0 ad ad 3c
       -0.026812876 0.031190688 0.089371145 0.021201074
000040 34 07 d3 bc e5 c1 df bc f9 6a 33 bd 22 dc 29 3b
       -0.02576027 -0.027314136 -0.04380319 0.0025918563
000050 24 0c 07 3d ba b9 87 bc d4 60 04 bd b7 a1 13 3c
       0.032970563 -0.016568054 -0.032318905 0.009010724
000060 be c1 24 3c 95 30 1c 3d e5 04 9f bc ff ce 14 3c
       0.010055957 0.03813227 -0.019411514 0.009082555
000070 a0 ba bd 3a 1a 9a 39 3d 91 56 83 3c ca 86 1e ba
       0.0014475174 0.04531298 0.016032489 -0.0006047307
000080 5c 23 93 bc 89 d3 1a bd e0 89 19 3c e7 32 bf bb
       -0.017961197 -0.037799392 0.009371251 -0.0058349255
000090 b9 1a d2 bb 06 80 ff bb 2d e3 16 3b 16 df b5 bc
       -0.006411877 -0.007797244 0.002302359 -0.022201102
0000a0 aa 26 b5 bc 0f 41 74 bb 01 55 80 3c 46 22 67 3d
       -0.022113163 -0.0037270223 0.015665533 0.05642917
0000b0 7f 00 a8 bd b5 7f aa bc f7 ae ab 3c 59 39 63 bc
       -0.082032196 -0.020812849 0.020957453 -0.013868653
0000c0 86 59 5d 3c 01 d1 41 3d 8f a4 b4 bc 0e 2a 8e 3d
       0.013510114 0.047318462 -0.022051124 0.06941615
0000d0 5c 4b be bc d6 1e ab 3c af 53 99 3d 7f 79 6d 3d
       -0.023229294 0.020888727 0.074866645 0.057977196
0000e0 53 9e 6f 3d db 23 37 3c da 7a eb bc b1 da 50 bc
       0.0585006 0.011177982 -0.028745104 -0.012747453
0000f0 70 0d 27 3d bd 1a 0b 3d 98 f8 d2 3c 14 8a f5 3b
       0.0407843 0.033961046 0.025753304 0.007493267

linears.3.weight f4 [32, 64]
000000 b3 65 d2 be b2 f9 b1 bd 52 57 1d be e4 1b 7e 3e
       -0.41093215 -0.08690204 -0.15365341 0.24815327
000010 b2 be 8d 3d 03 88 07 3e f9 ad 7d 3e 5a c6 1d 3d
       0.06921138 0.13235478 0.24773397 0.03851924
000020 c2 c6 ad 3e a1 a5 8d bd f1 90 d8 3c 7b bb b0 3d
       0.33940703 -0.06916357 0.026436301 0.08629509
000030 7a 42 f0 3d 6c 76 98 be 9a 38 93 be d8 98 73 bb
       0.117314294 -0.2977785 -0.2875412 -0.003716996
000040 82 c4 b1 3d 26 12 46 3e af f6 02 be 3a e2 76 bc
       0.08680059 0.1934286 -0.12789415 -0.015068585
000050 ec 24 ac 3c 91 48 0d 3e d0 bd 89 3e 9b 2f 5c 3d
       0.0210137 0.13797213 0.26902628 0.053756338
000060 3c d5 28 be d8 5b 94 3d e2 51 1c be db 73 80 be
       -0.16487592 0.0724408 -0.15265611 -0.2508839
000070 df 7c 0f bd c6 a1 e3 3d 9c 2e 20 3d 4d 36 02 3e
       -0.035031196 0.1111484 0.03910695 0.12716027
000080 5b c0 a9 bd d1 40 14 3d e8 b3 36 3e 95 41 e6 3d
       -0.08288642 0.036194626 0.17842066 0.112429775
000090 99 0f f0 bc 1e 3b 90 3d 05 4c 47 3e ea de a9 bd
       -0.029304313 0.07042526 0.19462593 -0.082944706
0000a0 1e 9a 0a 3e 0e a3 48 bd 19 d5 64 bd e8 e1 4b 3e
       0.13535354 -0.048983626 -0.05586729 0.19910395
0000b0 b7 82 09 bc b1 47 d3 bd 2b 97 8b be 9d 43 55 be
       -0.008392981 -0.103164084 -0.2726377 -0.20826574
0000c0 eb 2c 0a 3e 74 d6 01 3e f8 cf d2 3d c0 d7 44 3e
       0.13493697 0.12679464 0.10293573 0.19222927
0000d0 d8 39 c4 3d 90 93 81 3e 0e 04 b7 be df 12 f0 3d
       0.09581345 0.25307894 -0.3574528 0.117223494
0000e0 a7 ba b1 bd fa fa 73 bc 5e 84 84 3e b0 be 5d 3e
       -0.08678179 -0.01489138 0.25882238 0.21654773
0000f0 79 d4 13 be 3b 1d 4c 3d a2 f0 95 3d 85 a8 30 be
       -0.1443652 0.049832564 0.07321288 -0.17251785
000100 4e 98 c8 3e f2 e3 1a 3e c8 a9 11 3e 6e 94 76 3d
       0.391787 0.15126017 0.14224923 0.060200147
000110 2b a8 b6 3e 41 88 d5 be 82 40 75 be f5 35 e4 3d
       0.35675177 -0.41705516 -0.23950389 0.11143104
000120 a3 20 e1 3d c4 76 e6 bb 58 64 0e 3e 95 1d 18 3f
       0.10992553 -0.007033201 0.13905466 0.5942014
000130 8d 0d 1c be 61 11 66 be 0a 21 69 3e 9e 21 12 3d
       -0.15239544 -0.22467567 0.2276651 0.03567659
000140 24 48 30 3e 0f 5b e0 3c b8 88 2e 3d c2 49 99 3e
       0.1721502 0.02738717 0.042610854 0.29939085
000150 08 da 89 3e 42 31 61 3e c2 e1 c3 3e d2 fe 98 be
       0.26924157 0.21991447 0.38258177 -0.29881912
000160 16 f3 03 be 9d d2 8f 3d f1 4a f4 3d d6 47 f4 be
       -0.12885699 0.07022593 0.119283564 -0.47711056
000170 bf eb 36 bd ba d2 73 bd 1b c5 84 be 48 09 aa be
       -0.04465842 -0.059527136 -0.2593163 -0.33210206
000180 f7 7b 72 3e bb bc c8 bd c6 ab f7 3d 20 04 22 be
       0.23680101 -0.098016225 0.1209331 -0.15821886
000190 74 66 07 3f 12 b5 0d 3f e5 cf 4e bd af 77 98 3e
       0.52890706 0.55354416 -0.050491232 0.2977881
0001a0 ec e0 d7 3d 87 32 b1 be 06 29 ad be 3c c8 65 be
       0.10540947 -0.34608862 -0.3382036 -0.22439665
0001b0 ed 59 f0 3d 81 72 b3 3e 14 91 cd 3c b5 bc a5 3e
       0.11735902 0.35048297 0.025093593 0.32370535
0001c0 a9 8f 99 bd 53 19 83 bd 70 66 a9 3e 56 cb 90 be
       -0.07498104 -0.064013146 0.33085966 -0.28280133
0001d0 e8 71 de 3d 3f 8a df 3d 65 60 0c 3e 0e c2 8b bd
       0.1086157 0.1091504 0.13708647 -0.06824122
0001e0 18 06 97 3d 66 d7 cc bd 5d 9c 13 bf a3 b3 8a 3e
       0.07374209 -0.100020215 -0.57660466 0.27090177
0001f0 40 39 16 be 15 c7 a6 be 7d fa be 3e f1 9e b7 3e
       -0.14670277 -0.32573763 0.37300482 0.3586345
000200 8e 26 72 3e 7a 80 67 be be b0 30 3e 1f 7a 81 3d
       0.2364752 -0.22607604 0.17254922 0.06322121
000210 3a fe 6c 3d af c8 9e 3e 9f f4 aa bd 54 f2 c9 bd
       0.057859637 0.31012484 -0.08347439 -0.098606735
000220 5b e0 76 be 4d c8 f7 bd 8d 7f 98 be cb 4a 92 3d
       -0.24109022 -0.12098751 -0.29784814 0.07143172
000230 db 39 57 bc f6 f2 30 be eb ee 86 bd 10 bb 45 be
       -0.013136352 -0.17280182 -0.06588539 -0.1930964
000240 8f 0b 73 3e 95 9f 20 3e fe dd 63 3e 53 83 ba 3c
       0.23734878 0.15685876 0.22252652 0.022767698
000250 6c e0 e0 bd e1 4d 1f 3e e7 8b 9c 3d 8a fd fe 3d
       -0.10980305 0.15557052 0.07643872 0.124507025
000260 97 06 07 be 45 2a 08 be 96 32 23 3d 0e 02 ec bc
       -0.13186108 -0.13297375 0.039843164 -0.028809574
000270 b9 dc 12 be 51 32 43 be ef 73 88 3d 5d 65 39 3c
       -0.14342012 -0.19062163 0.066627376 0.011315671
000280 22 5c 5b 3e 17 3f f8 bc b2 bc c5 3e b2 33 40 3e
       0.21421865 -0.030303521 0.38620526 0.1876972
000290 57 ed 29 3d 4e 6d 0a be e6 29 5b 3c c3 ee 6f 3e
       0.04148611 -0.13518259 0.013376689 0.23430924
0002a0 5d ab 97 be 11 98 65 be f9 59 f4 3d b3 38 cf be
       -0.29622927 -0.2242129 0.119312234 -0.40472946
0002b0 0f f4 58 bd d9 de 78 3e bc 1b cf be ab 7e f2 bd
       -0.052967127 0.2430376 -0.40450847 -0.11840566
0002c0 43 a9 63 3e db b8 f5 3d 0a dc 6b 3d 3e a8 01 bd
       0.22232537 0.11998149 0.057582892 -0.03165459
0002d0 83 2f 88 3e e4 31 77 3d 40 80 a9 be 7c cb 8a 3c
       0.2659875 0.060350314 -0.3310566 0.016942732
0002e0 a1 9c a2 bc f8 eb 28 be 9b 56 b7 3c d2 f3 4b 3e
       -0.019850077 -0.16496265 0.022380164 0.19917229
0002f0 b7 03 2d be 7a b4 ae 3e de 04 cc bd e5 da 3d 3e
       -0.16895948 0.34122068 -0.09961866 0.18540533
000300 71 f0 8d be 26 92 7c 3e d9 c8 fb 3d 4f 85 9f bd
       -0.27722505 0.24665126 0.12294168 -0.077890985
000310 85 18 a6 3d 96 a6 78 be 9a 37 80 3e 51 0a 10 3e
       0.081101455 -0.24282297 0.2504242 0.14066435
000320 34 d7 4e 3d bc fc cc be be 3c 9f bd 6a 4b fd bd
       0.050498202 -0.4003657 -0.077752575 -0.123679
000330 cd 10 89 3c f8 9a f7 3d a8 a7 63 3c 15 ce 27 be
       0.016731644 0.12090105 0.013894953 -0.16387208
000340 7a 14 df 3d 94 e3 e8 bd 69 a2 44 3e c2 aa 7d 3e
       0.108925775 -0.11371532 0.1920258 0.2477217
000350 e5 90 1d be e4 9b a5 bd 0d 3a a8 3e a8 1e be bd
       -0.15387304 -0.080863744 0.3285679 -0.09283191
000360 f8 ef 19 be 27 3a 05 bd 81 11 09 3e 53 06 f6 3d
       -0.15032947 -0.03252616 0.13385583 0.12012925
000370 16 01 cc 3b 87 d0 a6 bd ec f1 20 be 9b 67 b3 3d
       0.0062257154 -0.08145242 -0.15717286 0.087599955
000380 e1 e6 6d 3d 26 9f 85 3e af d5 18 3d e5 b6 b0 be
       0.05808151 0.26097983 0.03731316 -0.34514537
000390 10 1e 28 3c d5 fe 34 be 7d c0 94 3d 1c 62 4f bd
       0.010261074 -0.17675336 0.07263277 -0.050630674
0003a0 55 26 cb 3d 0c c8 1b be ab 8f 88 bd 2a ff c3 bd
       0.09919421 -0.1521303 -0.066680275 -0.09570153
0003b0 fd f5 81 be 30 31 a3 3e 81 b8 35 be 63 c2 0b 3e
       -0.25382987 0.31873465 -0.17746164 0.13648371
0003c0 a6 a4 fc bd f0 7d 65 be 69 25 2b 3e b5 cb 1c be
       -0.12336092 -0.22411323 0.1671349 -0.15312083
0003d0 b1 e5 5f 3e 1b 7f e6 bd e0 af 50 be 52 04 18 be
       0.21864964 -0.11254712 -0.20379591 -0.14845398
0003e0 f2 f5 6b 3e 69 b6 20 3e bc 6e b7 3e b6 05 0b be
       0.2304304 0.15694584 0.3582667 -0.13576397
0003f0 ff 4a 5b 3c ad 40 e5 3c c2 1a 0e bd 95 b7 57 3d
       0.01338458 0.027984941 -0.034693487 0.05266531

linears.3.bias f4 [32]
000000 82 c3 1c bd 09 01 5c 3d df df 56 bc e6 9e 1d bd
       -0.03827239 0.053711925 -0.013114898 -0.038481615
000010 26 c4 16 bd 3b cc 22 bd 38 2d 82 3d 80 56 51 3d
       -0.036808155 -0.03974555 0.06356281 0.051107883
000020 fd 8a 81 3a 01 fc bd 3c c2 d1 1f bd 0c 88 5a bd
       0.0009883341 0.023191454 -0.0390184 -0.0533524
000030 36 8d 8d bd fb c3 9c ba df 25 65 bc e6 dc b7 3c
       -0.069116995 -0.0011960262 -0.01398608 0.0224442
000040 12 b8 3e bb 4f dc b5 bc 3e f8 43 3d 2f 56 a3 bb
       -0.0029101414 -0.022199778 0.047844164 -0.004984639
000050 ac 32 9a bc 67 a3 dc bc ff 5c 3c bd c5 bb 58 3d
       -0.01882299 -0.026933385 -0.045987125 0.052913446
000060 d7 c0 06 3c 90 8e 6b bd ff d9 2a bd 40 98 7a bd
       0.008224688 -0.057509005 -0.041711804 -0.061180353
000070 00 86 83 bd 91 e7 09 bd 5c 72 4e bc ce 0b 13 3c
       -0.06422043 -0.033668105 -0.012600508 0.008974982

linears.4.weight f4 [4, 32]
000000 c5 22 5e 3e 27 31 37 be b5 52 1d be 5d 99 10 3e
       0.21692951 -0.17889844 -0.15363581 0.14121003
000010 57 b0 31 bd 53 44 a7 b8 01 fb c4 3a 17 d1 20 3e
       -0.04338106 -7.975907e-05 0.0015028418 0.15704761
000020 f3 b8 bc be 06 57 e7 3e 3c 3d 85 3c a2 c4 9c 3d
       -0.36859855 0.4518358 0.01626455 0.07654692
000030 1b c8 ca 3b 72 cc 82 3e 8e 02 5d bf 82 b2 47 3e
       0.006188405 0.25546604 -0.86332023 0.19501689
000040 ce a3 c4 3e 8b 73 cb 3e e8 f9 2a 3d 7a cd 51 3e
       0.38406223 0.3973659 0.041742235 0.2048854
000050 00 84 01 be 72 c3 93 bd 02 27 6d 3e 3b 5c ef bd
       -0.1264801 -0.072150126 0.23159412 -0.116875134
000060 ae 22 ed be 54 02 83 bd ef 14 ca 3c c6 29 33 3e
       -0.4631552 -0.063969284 0.024668185 0.17496404
000070 3d 34 1b 3e b5 dc a1 3e 28 4f 25 bf ee 02 32 3d
       0.15156646 0.316137 -0.6457391 0.043459825
000080 58 93 d8 bd e5 fd 32 3e 74 6f 69 bf fc 42 cf be
       -0.105749786 0.17479666 -0.9118569 -0.40480793
000090 67 3f 43 bf 98 28 7f bf 12 43 01 3f 0e 8b 44 3f
       -0.7626862 -0.99671316 0.50492966 0.7677468
0000a0 9e f3 9f 3e e7 3c af 3d 21 05 0b bf 96 e2 8a be
       0.31240553 0.08556538 -0.543047 -0.27125996
0000b0 50 5b 27 bf e7 f9 ab 3e 11 e6 1c bf f9 a9 5f 3f
       -0.65373707 0.33589098 -0.61288553 0.8736873
0000c0 14 ac d8 3e 73 b4 1f be ea c8 6a 3f 23 e0 ae 3e
       0.42318785 -0.1559618 0.9171282 0.34155378
0000d0 61 6d 44 bf 40 31 1b bf e1 f2 41 bf 86 b5 0a 3f
       -0.767294 -0.60622025 -0.7576123 0.5418323
0000e0 e8 9d c3 bd 38 57 3c bf 0d 4e c0 be 39 49 51 bf
       -0.095516026 -0.73570585 -0.37559548 -0.81752354
0000f0 e4 8f 27 3f 0e 10 7e bd d4 63 e1 be 5b 25 b2 be
       0.65453935 -0.06202703 -0.44021475 -0.34794125
000100 91 94 0f 3f 42 81 a9 3e 93 d5 af be b4 35 40 bf
       0.5608607 0.33106428 -0.34342632 -0.75081944
000110 9d ed 9c 3d 7c 71 83 3e 24 ec 35 3f 09 bf b9 be
       0.07662509 0.2567252 0.71063447 -0.3627856
000120 2f fa 48 be 3a d8 92 3e 12 53 e1 be a5 ce c5 be
       -0.19626687 0.28680593 -0.4400869 -0.3863422
000130 60 66 3a 3d c1 5e a4 3e 62 e6 5a 3e c3 87 03 be
       0.04550779 0.32103541 0.21376947 -0.12844758
000140 d6 91 e4 3b f6 1c fe 3e e2 b0 7a be 81 2f 31 3d
       0.006975393 0.4963147 -0.24481538 0.043258194
000150 76 71 8a 3e cf ee 08 bf c9 bb 18 bf f7 5e 7f 3d
       0.2703969 -0.53489393 -0.5966154 0.062346425
000160 26 b7 3f 3f 1c 1d d8 be f9 33 16 be df 59 fa be
       0.7488884 -0.4220971 -0.14668263 -0.4889669
000170 bb 0a fd bd c4 d0 89 3e 8e 63 96 be c5 90 8d 3e
       -0.12355562 0.26917088 -0.2937283 0.27649513
000180 13 95 21 bf 02 cf 5c 3f af a4 68 bf d0 51 f3 be
       -0.63118094 0.8625337 -0.9087629 -0.47523355
000190 c7 97 31 bf 9c c5 58 bf 3d d8 9e 3f f9 e6 24 3f
       -0.6937222 -0.8467653 1.2409741 0.64414936
0001a0 c8 1e 6c 3f ea 7c 40 3f 37 30 91 bf 75 51 56 bf
       0.9223447 0.75190604 -1.1342839 -0.83718044
0001b0 67 85 23 bf 5d ae 3c 3e 97 b2 20 bf ca f1 8e 3f
       -0.6387543 0.1842589 -0.62772506 1.1167538
0001c0 a8 51 b8 3e 32 86 87 be 45 9e 39 3f 84 66 03 bf
       0.359998 -0.2646957 0.72507125 -0.513283
0001d0 ca b2 86 bf e2 5a 8b bf 0b 31 5a bf 8a 68 f8 3d
       -1.0523312 -1.088711 -0.85231084 0.12129314
0001e0 09 33 84 bf 9b 19 ac bf c6 30 74 bf 80 36 5c bf
       -1.0328075 -1.3445314 -0.9538692 -0.8602066
0001f0 8f ab 92 3f 6d 0b a2 be 65 82 6e be c1 b9 46 3f
       1.1458606 -0.31649342 -0.23291929 0.7762719

linears.4.bias f4 [4]
000000 ee fe 82 bc 81 76 9e 3e 03 c5 64 bc d7 7e 44 3f
       -0.0159907 0.30949786 -0.013962987 0.7675604
