Iterations/Test model/epoch_8624.pt (torch, 37739 bytes, 10 tensors)

linears.0.weight f4 [32, 2]
000000 f1 85 a5 3e 05 69 85 be 06 4c 8b 3e 92 1c 16 bf
       0.32328752 -0.26056686 0.2720644 -0.58637345
000010 0f 93 72 3e f4 f1 22 bf 5c 41 d2 bd 51 fd 3f bf
       0.23688911 -0.6365044 -0.102663726 -0.74995905
000020 20 19 51 bd 83 bf 0b 3f 11 c8 4d 3d 0a 14 4f bf
       -0.05104935 0.545891 0.050239626 -0.8088995
000030 73 3a 3e 3e 38 0d 4e 3f 3e cb 3d 3e b2 58 e6 3e
       0.18576984 0.8048892 0.18534562 0.44989544
000040 74 a0 b6 3e f5 fc 92 be 74 3b 7e be 19 df 84 be
       0.3566929 -0.28708616 -0.24827367 -0.2595146
000050 d6 0b ea bd 54 6e 29 bf 17 4b 9a be b6 34 06 3f
       -0.11428039 -0.6618397 -0.30135414 0.5242418
000060 b6 d4 05 be 1a 3b b4 be eb 6d 2a 3e 4c dd 00 bf
       -0.13069424 -0.3520134 0.16643493 -0.5033767
000070 2d 04 00 be d3 34 68 3f 35 74 6e bd bf 0b e8 be
       -0.12501593 0.90705603 -0.058216292 -0.45321462
000080 3f 18 69 3e 25 e7 40 3f 14 ee 9f 3e 1a ee a7 3e
       0.22763155 0.753527 0.31236327 0.32798845
000090 76 f5 e0 bd 1b 05 01 3f ad c2 5f be 08 13 dc be
       -0.10984318 0.50398415 -0.21851607 -0.4298327
0000a0 ae 18 fa bd fa 5d bc be eb 3c 93 3e f0 c7 8a 3e
       -0.122117385 -0.36790448 0.28757414 0.27105665
0000b0 77 37 2e 3f d0 66 41 be 2f 77 91 3e 2d 3b f7 be
       0.6805338 -0.18886876 0.28411242 -0.48287335
0000c0 d3 32 10 bf ba b3 e3 3e 3d c4 b2 3e d0 6a 85 be
       -0.5632755 0.44473058 0.34915343 -0.26058054
0000d0 bb bd 3e be 5c 9c a5 be 1f 02 30 3d 2b 56 09 3f
       -0.18627064 -0.32345855 0.042970773 0.53647107
0000e0 23 a9 a7 3d 5d 1f 03 bf 24 9b f6 bc 32 b7 1e 3f
       0.08186557 -0.5121973 -0.030103274 0.61998284
0000f0 24 9d 28 3e 97 31 0a bf c2 4c 44 bd 3d 9d 6a 3f
       0.16466194 -0.5398192 -0.047924764 0.91646177

linears.0.bias f4 [32]
000000 d8 44 4d 3c 5f 78 bd 3c ce a2 96 3c eb ff f8 3b
       0.012528621 0.023128686 0.018388178 0.007598867
000010 a4 dc 0c 3c 1c 7e e9 bb 9a a4 4e 3b 30 33 19 bd
       0.008597527 -0.007125629 0.0031531216 -0.03740233
000020 97 65 03 bb d9 32 e6 bc 46 e0 7d ba 34 45 a5 bd
       -0.0020049566 -0.028100418 -0.00096846034 -0.0806984
000030 d6 bf 28 3d fd 89 f1 bc 2b 0e 42 3c ed 03 3a bc
       0.041198574 -0.029484743 0.011844198 -0.011353475
000040 5c 1b 25 bb b5 56 48 3b 5c 66 b7 3c a6 f2 aa bc
       -0.002519331 0.003056926 0.022387676 -0.020867657
000050 28 44 45 3c 25 03 98 bc b4 68 e7 3d 78 3c 0f 3d
       0.0120401755 -0.018556187 0.112992674 0.034969777
000060 e9 bf 96 bd 98 84 3b 3d 04 7b 2b bc 5f c4 15 3c
       -0.07360823 0.045780748 -0.010466341 0.009141057
000070 3f bc d5 3c 07 01 1c 3c 1c 97 09 be 00 86 3b 3c
       0.02609074 0.009521729 -0.1343655 0.011445522

linears.1.weight f4 [64, 32]
000000 22 4c e1 3c 10 cd 8b be ae b3 53 be 08 31 5e be
       0.027502123 -0.27304888 -0.20674011 -0.21698391
000010 ea ef 72 3e ee 06 8c bd 65 1b 5f bd 38 5f 8c 3e
       0.23724332 -0.06837259 -0.054469485 0.27416396
000020 7b e3 2c 3e c9 5f 9d 3e c6 e4 55 3d 65 23 a8 3e
       0.16883652 0.3073714 0.05222013 0.32839504
000030 68 43 6f be 99 0d fe be 8e 0c 1b 3d cd dc 53 be
       -0.23365557 -0.4961975 0.03785377 -0.20689698
000040 19 0a ac 3e bd a4 c3 3c 9d e1 f0 ba a9 1c fc 3c
       0.33601454 0.023882264 -0.0018377785 0.030775385
000050 6a 6d c5 be 0c 28 11 bd a2 ec cb bd cf 1b 3f 3e
       -0.3856004 -0.035438582 -0.099572435 0.18662952
000060 34 80 b4 3d e7 55 29 3e 28 69 93 be 89 d6 3d bd
       0.08813515 0.16536675 -0.28791165 -0.046347175
000070 8a 96 cf 3d ac 08 3c 3e 4a e9 b3 bd bb 6c 35 3e
       0.10136135 0.18362683 -0.08784731 0.17717259
000080 60 c6 0c 3d ea 5a b6 3d b9 f6 d2 bd 2e ad 00 3e
       0.034368873 0.08904059 -0.10300965 0.12566063
000090 35 d0 d0 bd 1a 2b 21 be 26 0c 6f 3e 10 bf a4 3e
       -0.10195962 -0.15739098 0.23344478 0.3217702
0000a0 17 03 cb 3e 88 5e 5f 3e a4 73 13 be e8 7d 6f bd
       0.39650795 0.21813405 -0.14399582 -0.058469683
0000b0 a0 84 8e bd 9a b3 0c 3e b1 95 0d 3e 27 54 9e bd
       -0.0695889 0.13740388 0.13826634 -0.077308945
0000c0 8d ec 75 3e 45 86 2e be f0 54 62 be b1 f1 92 bd
       0.24016018 -0.17043407 -0.22102714 -0.07175005
0000d0 b1 5d 02 bd 7a f7 ac 3e a6 d6 a6 bd 58 4a 09 be
       -0.031827632 0.3378256 -0.0814641 -0.13407266
0000e0 7e 65 9d 3d b2 45 ef bc 2c 4c 8c 3d 2f 6c 25 bd
       0.07685374 -0.029208038 0.06850466 -0.040386375
0000f0 f5 49 c6 bc 1b 8f 96 bb b9 a3 a2 3e 52 43 85 3e
       -0.024205187 -0.004594696 0.31765535 0.26027924
000100 74 7c a1 bd b4 6a df 3d 0f b3 3d 3e dc f1 6b 3b
       -0.07885066 0.10909024 0.18525337 0.0036002314
000110 4c 51 2b 3d 43 81 cf bc d0 f7 23 bd 73 45 4f be
       0.041825578 -0.025330191 -0.040031254 -0.20241337
000120 0b 3d c1 bd c0 4c 98 be e3 24 48 be 00 d5 9c bc
       -0.09435471 -0.29746056 -0.19545321 -0.019144535
000130 52 04 9d 3e 7d c0 8e bb 88 44 fb bb cf 06 7c be
       0.3066736 -0.0043564425 -0.0076680817 -0.24611972
000140 1f 95 74 bd b3 df 83 3e 14 d4 db bd 87 95 9a bd
       -0.059712525 0.25756606 -0.1073381 -0.07548051
000150 1c f0 1c be 90 ce 56 be 7d 12 16 3e 97 d5 94 bd
       -0.1532597 -0.20977235 0.1465549 -0.072673015
000160 e7 1f 45 bd 5e 44 e5 3c 5b e2 62 3d d5 01 e7 bd
       -0.048126128 0.027986702 0.05539165 -0.11279646
000170 79 7b 93 bd 16 48 81 3e 64 6c 04 be 09 bc 80 be
       -0.07201285 0.2525031 -0.12931973 -0.2514346
000180 c2 63 75 3c c0 dd 57 3e 17 1d 1e 3e aa b3 94 bd
       0.014977397 0.21080685 0.15440784 -0.07260831
000190 d8 70 95 be 1d e3 12 be a5 62 c2 bb f9 3b a8 bd
       -0.29187655 -0.1434445 -0.0059321695 -0.08214564
0001a0 20 1a 99 3e fc b6 62 be f4 da 6f 3d c4 9c 6a bd
       0.29902744 -0.22140115 0.05855842 -0.05727841
0001b0 2b cb d3 3c 09 27 46 3e e1 16 97 3d 61 13 ca be
       0.025853714 0.19350828 0.07377411 -0.3946791
0001c0 6a e0 1e bd 08 31 55 bd f3 46 63 3c 08 cf b7 bd
       -0.038788237 -0.052048713 0.013871896 -0.08975035
0001d0 29 88 ad bd 3c c0 1f 3e 8c 1e 9b 3e 7e d5 d6 3d
       -0.08473236 0.15600675 0.30296743 0.10489939
0001e0 c1 fc 4c be e3 2a 9b 3e 06 3c d3 bd 26 67 c0 bd
       -0.20018293 0.30306157 -0.10314183 -0.09394674
0001f0 c6 0a 84 3d 55 79 ce bd 1f 89 75 be 76 7f 7a bd
       0.06447367 -0.10081736 -0.23978089 -0.061156712
000200 1a c6 f5 3c 88 27 05 3d ed 8a a0 bd 89 47 a6 bd
       0.030001689 0.032508403 -0.07838998 -0.08119113
000210 35 a4 8d 3d 2e 3f 1b be 3e 7e 1c 3e e9 95 3f 3d
       0.06916086 -0.1516082 0.15282533 0.046773825
000220 aa f5 f6 bc e1 a6 4a be fd a0 bb be a2 20 2a be
       -0.030146439 -0.19790222 -0.36646262 -0.16614011
000230 1f 57 23 be 54 88 4f be 8b ad d8 3e e6 e3 7e bb
       -0.15951203 -0.20266849 0.42319903 -0.0038893162
000240 25 85 10 3e ee 9d 80 3e c8 08 19 bd de 9f 94 3e
       0.1411329 0.2512049 -0.03736189 0.2902822
000250 c8 6f 20 be cf e1 0e 3d 0e e2 78 be 03 0d b8 3c
       -0.15667641 0.034883317 -0.24304983 0.022467142
000260 19 49 06 bd 2a 8e f6 3c 14 ac 2a be 1e bc 43 3e
       -0.032784555 0.030097086 -0.16667205 0.1911473
000270 e6 9e d5 3c 81 d9 93 3d f7 b0 58 bd ef 60 7d 3e
       0.026076745 0.0721922 -0.05290314 0.24744008
000280 86 bf 36 39 7c 1a 6a be f6 5b 8e be be ea 44 be
       0.0001742822 -0.22861665 -0.27804536 -0.19230172
000290 5e 46 fd 3e 61 48 b7 be 03 02 3f bd 84 bf 63 bd
       0.49467748 -0.35797408 -0.046632778 -0.055602565
0002a0 49 37 06 bd fa 72 84 bd 51 b9 1c bd c0 bf 3b 3e
       -0.032767568 -0.064672425 -0.03826267 0.18334866
0002b0 16 cb 0d be be 8b 46 3e e9 5a 8d 3e af b2 9d bc
       -0.13847002 0.19389245 0.2760842 -0.019250242
0002c0 38 3c c5 be b0 51 8a 3b b2 a6 20 3e eb 23 9d 3e
       -0.38522506 0.0042211637 0.15688589 0.30691466
0002d0 63 b6 2f 3d de ed 88 be 53 66 5b be b8 63 31 be
       0.042898547 -0.26743978 -0.21425752 -0.17323196
0002e0 cd 36 91 3e cb a2 63 bc 91 06 c0 3e 3e 8f 51 3d
       0.28362122 -0.013893793 0.3750501 0.051161997
0002f0 ba c5 28 be 98 b3 98 3e 65 c4 9e be 2f 20 2d 3e
       -0.16481677 0.2982452 -0.31009212 0.16906808
000300 b9 71 29 be 08 b8 10 3e 29 43 88 3e aa 5f 44 3e
       -0.16547288 0.14132702 0.2661374 0.19177118
000310 9f 3b 6d be 32 33 41 3e 6e 50 5c bd 36 aa 81 be
       -0.23167275 0.18867186 -0.05378764 -0.25325173
000320 9a 06 b9 3e 5c 22 b6 be e4 e6 27 3e ce c8 b6 3c
       0.3613785 -0.3557309 0.16396672 0.022312548
000330 ab 44 06 be 3f e6 12 be de 12 9b bd 1f d4 7a be
       -0.13112132 -0.14345644 -0.07571958 -0.2449498
000340 07 76 b6 3d 9a a0 0f be 1a 06 a6 bd 19 96 fc 3d
       0.08909231 -0.14026108 -0.081066325 0.12333316
000350 7e 32 2a 3e 70 b0 2a be cf 71 6f 3e 64 86 ff bc
       0.16620824 -0.16668868 0.23383258 -0.031192012
000360 6b f5 73 bd 40 d8 59 bd aa 04 1f 3e 85 ed f3 bd
       -0.05956022 -0.053184748 0.15529123 -0.11910538
000370 74 44 b7 bd 22 63 02 bf da 4f 3e bd 6f 95 2d be
       -0.08948603 -0.50932515 -0.04646287 -0.16951536
000380 7b be 95 3d a5 0a 16 be 53 9a 03 3e 28 9c 95 bc
       0.07311722 -0.14652498 0.12851839 -0.018262938
000390 f1 54 72 3e 72 1a 87 be 29 95 24 3e 8e 74 60 3e
       0.23665215 -0.26387364 0.16072525 0.21919462
0003a0 bd 1f 59 be 8f 2c b7 3e df 2e c0 3d 85 fc 48 bd
       -0.21203513 0.35776183 0.0938394 -0.049068946
0003b0 19 c3 57 be 4c c3 d7 3d ff 84 29 3e 4e 38 2d bc
       -0.21070518 0.10535297 0.1655464 -0.010572506
0003c0 58 74 af 3d 79 ba 9b bd 12 f5 7a 3e 2e 82 0e be
       0.08567113 -0.07603926 0.2450755 -0.13916847
0003d0 3a 4e ca bd 95 1f 05 be 3a 29 89 3e 95 2d 8a bd
       -0.09878202 -0.13000329 0.26789266 -0.06746975
0003e0 5f 23 ba bc 70 b9 5d 3d 2e a1 57 be 20 d1 6d bd
       -0.022721944 0.054131925 -0.21057579 -0.058060765
0003f0 4d cb 70 3c a2 80 b6 3e 1c d0 b7 be 1f 86 ce 3e
       0.014696908 0.35645014 -0.35900962 0.403367

linears.1.bias f4 [64]
000000 0d 3c b0 bc b9 fa ea bc c2 bf 8d 3d 2d bf 7f 3d
       -0.02151301 -0.028684007 0.069213405 0.06243818
000010 23 4d 67 3c 50 6f 98 ba be 03 84 b9 9e 05 9d 3d
       0.014117512 -0.0011629853 -0.0002517979 0.07667087
000020 46 58 21 ba 54 2c 03 3d ca 38 b2 bc 66 51 37 3d
       -0.00061548164 0.032024696 -0.021755595 0.044755362
000030 f8 a0 5a bc 6a 90 c3 bc 1e 99 ad bc c3 03 94 3c
       -0.013344042 -0.023872573 -0.021191176 0.0180682
000040 d9 08 7c bb 09 ec e6 ba dd 7a 0e bc a3 56 17 3d
       -0.0038457422 -0.0017617951 -0.008696285 0.036947858
000050 ca 49 3e bc c2 89 d4 3b e9 3c 2e 3c 2d 83 dc 3a
       -0.011614272 0.0064861486 0.010634639 0.0016823761
000060 87 03 6b bc df b8 6d bb 94 2a 5c bc d6 a2 44 3c
       -0.014344103 -0.0036273522 -0.013437886 0.012001714
000070 8f a0 91 3d aa 37 56 bc 37 b0 cf bc c5 91 18 bd
       0.07110702 -0.013074795 -0.02535258 -0.03724839
000080 80 44 ae bc e3 87 bf 3d bf 10 12 bc c8 aa 03 ba
       -0.021272898 0.0935209 -0.008915125 -0.0005022702
000090 4e e5 f0 3c 9a 2a 95 bc be 0c d5 3b 6d b2 9d 3c
       0.029406216 -0.01820879 0.006501763 0.01925012
0000a0 84 ce 57 3c d5 72 3d bc 19 aa f4 bc de 03 ca bb
       0.013171796 -0.011563023 -0.029866265 -0.006165012
0000b0 64 de 20 3e 58 ea bd bb 33 87 8e 3c 46 aa 52 3c
       0.15709835 -0.005795758 0.017398452 0.012857979
0000c0 eb 80 0d bd c8 20 5e 3d 14 d9 01 be 05 1e 47 bc
       -0.034546774 0.05423048 -0.12680465 -0.012153153
0000d0 8f f5 e9 b9 a5 04 11 3d 7d de 87 3c 71 23 90 3c
       -0.0004462418 0.03540482 0.016585583 0.017595025
0000e0 92 fd d8 bc ef 13 0d bc 63 31 ff bb 4e b9 af 3c
       -0.0264881 -0.00861071 -0.00778787 0.021450665
0000f0 93 71 6c bb 4a eb 0b bc 77 95 89 bb ad d7 a3 bc
       -0.0036078438 -0.008539984 -0.004198726 -0.020000303

linears.2.weight f4 [64, 64]
000000 0d 42 25 be 7a 0a d9 3c 50 ae 28 bd cf c4 eb 3d
       -0.16138478 0.026494253 -0.041181862 0.11512148
000010 ba 4d 1d be 52 8f 20 3d 1b bf 87 3d 05 82 a5 3d
       -0.15361682 0.03919918 0.06628247 0.0808144
000020 dd 05 b8 ba 08 95 26 3d e5 c1 32 bc 52 28 15 3e
       -0.0014039833 0.04066947 -0.010910486 0.14566162
000030 77 5e 0b 3d b4 fd 20 3e fe 67 6c bd e9 c9 b8 3d
       0.034025636 0.1572178 -0.057716362 0.09022886
000040 76 57 32 3d b6 b9 94 3c 11 73 ab 3e 00 c0 4d 3d
       0.04354044 0.01815496 0.33486226 0.050231934
000050 84 42 82 3e b0 be d5 bc 4c 0f 0a 3d 06 a3 d8 bd
       0.25441372 -0.026091903 0.033705994 -0.10577969
000060 d2 a8 13 3e c7 50 20 3e c7 c0 8f bd 1b a6 e3 bd
       0.14419869 0.15655814 -0.07019191 -0.111156665
000070 ba 33 5d bd 5d 78 4b be f8 6a 99 3c 5d 54 ea 3c
       -0.05400441 -0.19870134 0.018727764 0.02860468
000080 37 df 71 3e 6d 16 ba 3d e9 01 6f 3e c7 6e ff bd
       0.23620306 0.09086309 0.23340572 -0.12472301
000090 31 49 1c bd e5 e6 e1 3d 4d f1 46 bd 25 ad 0c be
       -0.03815574 0.11030368 -0.048569966 -0.13737924
0000a0 3c b0 64 3c 32 93 59 3e 49 d5 b8 bc fe b2 bf bb
       0.013958033 0.21247557 -0.02256264 -0.005850195
0000b0 ba e3 87 3c be c4 8b bc 63 de a8 3d 26 53 c6 bd
       0.01658808 -0.017061587 0.08245542 -0.09683828
0000c0 7a 68 92 be 58 b7 81 be e5 c9 44 be 03 a4 69 bd
       -0.28595334 -0.25335193 -0.19217642 -0.05704118
0000d0 60 73 83 be ce 30 34 be 5a 0b 83 be f6 7b fc 3d
       -0.25673962 -0.17596743 -0.25594598 0.12328331
0000e0 4a 81 68 bd 95 4e 88 3d 51 72 81 3d 5f c8 69 3e
       -0.056763925 0.06655613 0.06320632 0.22830342
0000f0 87 f5 3a bd 70 e7 2b 3e 0f 2d 3a be 30 f3 07 be
       -0.04564431 0.16787505 -0.18181251 -0.13276362
000100 55 0a 6f be 29 48 26 bd 41 c7 94 3d 5e 6a c2 bd
       -0.23343785 -0.04059616 0.07264567 -0.09492944
000110 0e 9e c3 bb a7 9b 85 bd 0f d2 3b bd 6b 1c 92 3e
       -0.0059697693 -0.06523829 -0.045854624 0.28537306
000120 ac 98 29 3d 5a 88 4c be 9f 0c eb bd ee a6 fa 3c
       0.041405365 -0.19973889 -0.11477017 0.030597176
000130 c7 0c 11 be e4 79 40 be e1 8a 40 3c 63 f3 08 3d
       -0.1416503 -0.18796498 0.011751861 0.033435237
000140 bc 74 52 3e ac 40 3f bd 98 8f 37 be 20 72 8e 3e
       0.20552343 -0.046692535 -0.1792587 0.27821445
000150 fc f7 15 be 7b ac cf 3d 8b 2e 80 3d 21 44 0e 3e
       -0.1464538 0.1014032 0.06258877 0.13893177
000160 db 4b 10 be 11 12 ee bd 67 8d 82 3d ee f1 78 be
       -0.14091437 -0.1162454 0.063746266 -0.24311039
000170 b3 ea 85 bd e4 71 57 3e 26 60 9d bd f8 ba e3 3d
       -0.06538906 0.2103954 -0.076843545 0.11119646
000180 fc f5 77 be bd 42 21 be 29 13 69 be 32 e5 4d 3d
       -0.2421493 -0.15748115 -0.22761215 0.050267406
000190 21 b4 a6 be 2e 8f 46 be 46 81 9c 3b b2 62 21 3e
       -0.32559302 -0.19390556 0.004776153 0.15760306
0001a0 9b 11 06 be d9 6f 6f 3d a0 7f f8 3d d2 56 8b 3d
       -0.13092653 0.058456276 0.121337175 0.06803669
0001b0 10 b9 f5 bb 99 e4 1a 3e 6e 8d 87 3b 01 42 8f 3d
       -0.007498868 0.15126266 0.004136733 0.06995011
0001c0 89 55 3c 3e 93 9c a7 3d 8f 6e a5 bd 01 43 e2 bd
       0.18392004 0.08184161 -0.08077728 -0.11047936
0001d0 09 1c 06 3d b4 cc 55 bd 6e e3 13 bd 62 d1 57 3e
       0.03274158 -0.052197173 -0.036105566 0.21075967
0001e0 09 6e 38 3e 5c 79 f3 3d 72 19 89 3c ce 4b 0a 3d
       0.18010725 0.11888382 0.016735766 0.0337637
0001f0 79 f9 bf bc 61 31 8c bd c0 8b 5d be 6b bb d2 38
       -0.023434388 -0.06845356 -0.21635342 0.0001004849
000200 99 0f f1 bd 5f 88 69 be 4b c2 6e be 0f 71 7f 3d
       -0.11770553 -0.22805928 -0.23316304 0.06236368
000210 38 5e 4c be 9f b6 25 3e 17 f3 90 3b 35 19 75 bc
       -0.19957817 0.16182946 0.00442351 -0.014959623
000220 54 25 b7 3d f5 92 c0 bd 3d 83 60 be cf e8 39 be
       0.08942667 -0.0940303 -0.21925063 -0.18155216
000230 60 d5 50 bd 0d 1e f5 bd bd bb a1 3e 30 17 bc bd
       -0.05098474 -0.11968622 0.31588545 -0.0918411
000240 67 0c bc be a0 d6 6f bd 41 b3 62 3d d3 b5 ba 3d
       -0.36728212 -0.05855429 0.05534673 0.091167115
000250 7c 29 5f be f3 5d a6 3d e8 af 50 bd bb ad 17 3e
       -0.21793169 0.08123388 -0.050949007 0.14812367
000260 7d e0 a3 3d 25 59 3a bc f2 61 0b 3e a5 7b 35 3e
       0.08001802 -0.011373793 0.13611582 0.17722948
000270 11 d5 07 3e 9f 2d 2a 3e 93 a4 f3 bd e2 13 28 3e
       0.13264872 0.16618966 -0.118966244 0.16413835
000280 e8 ad fe bd 15 fd 30 3e 36 98 80 3d 49 f3 14 be
       -0.12435514 0.17284043 0.06279032 -0.14545931
000290 84 d1 04 be 9c d9 59 3d 77 84 9b bd 83 08 9c 3d
       -0.12970549 0.053186044 -0.07593625 0.07618811
0002a0 01 44 30 bc 78 e5 ec bd e8 37 e8 3d 59 26 a3 bc
       -0.010758401 -0.11567205 0.11338788 -0.019915747
0002b0 6b 3b a1 3d 28 3f a9 3d 84 ff 3f 3d 07 a3 a1 bd
       0.07872661 0.08263999 0.046874538 -0.07892423
0002c0 07 9c 54 bc b2 79 22 3e ea 64 02 be 44 7c d5 3d
       -0.012976653 0.15866736 -0.12733808 0.104240924
0002d0 ec d5 03 be 13 d6 0d 3e e0 95 f3 bd 2f a2 53 3d
       -0.12874573 0.13851194 -0.11893821 0.051668342
0002e0 18 a8 47 bd ef 51 84 3c 91 b5 86 be 36 e4 b8 bd
       -0.04874429 0.01615235 -0.263104 -0.09027903
0002f0 53 5c fe 3d 54 be 9e bd 70 99 60 3d c5 eb f5 bd
       0.12419953 -0.07751146 0.05483383 -0.1200786
000300 ce 1f a6 bd 6b 97 3e 3e 7f 0a 5f 3e 0f 07 aa be
       -0.08111535 0.18612449 0.21781348 -0.3320851
000310 b0 b3 f2 bd c7 b7 3b be 5c 7f 17 be a5 2e 47 be
       -0.11850679 -0.18331824 -0.14794677 -0.19451387
000320 2a d9 21 be 6f db 33 3d ce 8f 8d 3b ad 2e fb bb
       -0.15805498 0.04391044 0.0043201214 -0.0076654763
000330 65 e6 6d 3c 71 c8 68 3e 76 8f af bd 0f ef 6e bd
       0.014520262 0.22732712 -0.08572285 -0.058333453
000340 5e 6a 02 3f d5 af 9b 3d dc 0c b4 3e fc 2c 7f 3d
       0.50943553 0.07601897 0.3516606 0.06229876
000350 20 7a aa 3c 31 0c 14 be 97 43 32 be fe 67 39 bd
       0.020810187 -0.14457776 -0.17408596 -0.04526519
000360 87 86 a5 3d 54 1e c0 bb cb 2d 22 3d 76 c5 3d be
       0.080823 -0.0058629904 0.039594453 -0.18532357
000370 2b f7 e2 3d 0b 54 ae bd 45 a0 59 3e 1a 72 87 3e
       0.110823 -0.08512124 0.21252544 0.2645424
000380 9a bd a8 3d 46 44 07 be 4f b1 94 3d f2 9e 11 bd
       0.08239289 -0.13209638 0.072603814 -0.035551973
000390 94 42 7e bd f1 95 35 be 25 18 32 3c 6e 42 3f be
       -0.062075213 -0.1773298 0.010870014 -0.18677685
0003a0 c3 83 eb 3d 29 cf a0 3d 89 71 ea 3d 2a a4 de bd
       0.11499741 0.07852013 0.11447436 -0.108711556
0003b0 ec 99 ef bd 75 38 4e 3d 80 70 96 bd 13 cc c3 bd
       -0.1169928 0.05034681 -0.073456764 -0.095604084
0003c0 7d e1 b1 bd 7d f6 9c bd f6 cf 20 be e3 6d 2b 3d
       -0.086855866 -0.076642014 -0.15704331 0.041852843
0003d0 5d 03 8f bb 4e bd 31 be 49 91 9d 3c 37 6e b8 bd
       -0.0043644146 -0.1735737 0.019234316 -0.09005397
0003e0 e5 f9 f4 3d de d0 45 be 64 35 62 3e 77 b2 5c 3d
       0.11961726 -0.19317958 0.2209068 0.053881135
0003f0 00 59 40 3e f3 ad 99 3e 37 76 23 bd 42 31 f5 3d
       0.18783951 0.30015525 -0.03990766 0.11972286

linears.2.bias f4 [64]
000000 88 65 ae 3c 94 08 82 3b 97 6c b7 3c 38 cf 32 bd
       0.021288648 0.0039683077 0.022390647 -0.04365465
000010 00 84 bb 3d 8e 8e 34 bd bb 43 ae bd 45 8d 0e ba
       0.091560364 -0.044081263 -0.08509012 -0.0005437921
000020 34 b7 bc bc 06 1f bc 3c 83 82 0b 3b 23 75 78 bc
       -0.023036577 0.022964012 0.0021287508 -0.015164646
000030 d6 b6 db bc e3 36 03 3d 51 c5 b6 3d 54 3b c3 3c
       -0.026820581 0.032034766 0.08924354 0.023832
000040 b2 ec d3 bc e9 4d e6 bc 6a 9b 40 bd 3e f8 21 3b
       -0.025869701 -0.028113322 -0.047023214 0.0024714614
000050 66 db 05 3d 50 63 8b bc 59 2c 0d bd c1 ec 0d 3c
       0.032679938 -0.01701513 -0.03446612 0.008662404
000060 f5 c2 29 3c 6c 40 1f 3d c5 81 99 bc 3f 1d 12 3c
       0.010361423 0.038879797 -0.018738637 0.008918106
000070 46 e5 d9 3a 80 c4 3c 3d 77 7b 85 3c 1c 45 55 ba
       0.0016624115 0.046085835 0.016294224 -0.0008135603
000080 b0 bc 96 bc f5 32 1b bd 11 5f 24 3c 0b 5f f3 bb
       -0.01840052 -0.037890393 0.010032431 -0.0074271015
000090 cc 99 b8 bb f1 fc fa bb 44 9d 06 3b 33 5d b8 bc
       -0.0056335684 -0.0076595475 0.0020540515 -0.022505378
0000a0 47 f4 ba bc 77 a8 9f bb 75 ac 76 3c 29 64 6b 3d
       -0.022821559 -0.0048723775 0.015055765 0.057468567
0000b0 81 c6 bb bd aa 32 b7 bc b0 49 ad 3c 1c 23 53 bc
       -0.09168721 -0.022363026 0.021153301 -0.012886789
0000c0 c8 48 54 3c 14 94 3f 3d 48 04 b2 bc 7b 87 8c 3d
       0.0129568055 0.046772078 -0.021730557 0.06861778
0000d0 66 7b b6 bc a6 ca a1 3c 79 66 9a 3d 78 82 6e 3d
       -0.022275638 0.01974995 0.07539076 0.058229893
0000e0 3c 11 72 3d f5 15 48 3c d1 1f f0 bc a3 5c 54 bc
       0.059098467 0.012212266 -0.029312046 -0.012961539
0000f0 23 6d 2c 3d fc 23 08 3d d7 91 e9 3c 23 7c 05 3c
       0.04209627 0.033237442 0.028511925 0.008147272

linears.3.weight f4 [32, 64]
000000 85 b4 d2 be 36 6a a6 bd ab c6 1d be 24 d2 7e 3e
       -0.4115335 -0.08125727 -0.15407817 0.2488485
000010 c7 c4 8c 3d 10 55 06 3e c8 b4 7d 3e a2 a7 43 3d
       0.0687347 0.13118386 0.24775994 0.04776729
000020 02 8f ae 3e df 8a 8e bd 79 79 ed 3c b1 40 bf 3d
       0.3409348 -0.06960081 0.028988587 0.09338511
000030 27 62 f1 3d 83 dd 98 be 62 16 93 be df db f0 3a
       0.11786299 -0.298565 -0.28728014 0.0018376074
000040 c7 0d a9 3d aa 04 47 3e b7 5b 02 be 36 d6 60 bc
       0.08254581 0.19435373 -0.12730299 -0.013722947
000050 12 a2 a8 3c 76 53 0e 3e e6 30 8a 3e 61 5d 44 3d
       0.020585094 0.13899025 0.26990432 0.047940616
000060 0b 47 26 be f7 69 a3 3d 34 6a 1b be bc 97 81 be
       -0.16238038 0.079791956 -0.15177232 -0.25311077
000070 b5 84 18 bd 09 85 f4 3d d0 ea 1c 3d b4 e7 ff 3d
       -0.037235934 0.11939437 0.038309872 0.12495366
000080 88 dc a7 bd a7 f7 14 3d 2b 36 2d 3e 78 e9 db 3d
       -0.0819636 0.036368992 0.16915195 0.1073789
000090 7c 39 da bc db 08 96 3d ec 28 41 3e 91 b1 c1 bd
       -0.026638739 0.07325908 0.18863267 -0.09457696
0000a0 d7 d8 0b 3e f1 95 49 bd 6b 18 65 bd 43 d1 4e 3e
       0.13656937 -0.04921526 -0.05593149 0.20197015
0000b0 9d e3 f0 bb 70 5b d2 bd 13 82 8b be db df 52 be
       -0.0073513524 -0.102713466 -0.27247676 -0.20593207
0000c0 ba 5a 05 3e 2a af 00 3e 5d 8c d6 3d 62 ce 43 3e
       0.1302289 0.1256682 0.10475991 0.19121698
0000d0 ea 42 c5 3d b2 85 7f 3e c0 68 b7 be 76 dd ed 3d
       0.096319035 0.24953344 -0.35822105 0.11614506
0000e0 e7 a3 ab bd 2a a1 45 bc 86 ae 83 3e 73 97 53 3e
       -0.08380871 -0.01206235 0.25719088 0.20663242
0000f0 61 5d 14 be 2a dd 45 3d 64 b5 96 3d af e9 2f be
       -0.14488746 0.04830662 0.07358816 -0.17178987
000100 cf 0b c8 3e 8c ea 1e 3e 4d a7 13 3e 82 41 73 3d
       0.3907151 0.1551916 0.14419289 0.059388645
000110 29 e5 b6 3e f5 3d d6 be 9f b9 75 be 10 0a f7 3d
       0.3572171 -0.41844144 -0.2399659 0.12062466
000120 75 c7 e3 3d f0 30 a0 bb 11 c9 0e 3e e2 61 16 3f
       0.11122028 -0.0048886463 0.13943888 0.5874311
000130 08 e7 1c be 84 3c 65 be df 37 6a 3e a7 54 1b 3d
       -0.15322506 -0.22386366 0.22872876 0.037922528
000140 55 0b 2c 3e bf 28 d7 3c 00 4a 2d 3d e5 0f 99 3e
       0.16801198 0.026264546 0.0423069 0.2989494
000150 4c 7e 8a 3e cc 75 60 3e 03 bf c3 3e 8e 17 99 be
       0.27049482 0.21919936 0.38231668 -0.29900783
000160 11 ca 00 be 17 71 9c 3d c4 9b f2 3d c4 c3 f3 be
       -0.12577082 0.07638758 0.11846116 -0.47610295
000170 f2 75 37 bd 8e 21 83 bd a3 60 84 be e3 81 a9 be
       -0.044790216 -0.064028844 -0.25854978 -0.33106908
000180 a3 70 71 3e cc e6 ca bd 85 2f f4 3d 61 05 25 be
       0.23578124 -0.09907302 0.11923126 -0.16115333
000190 34 93 06 3f 3d 9c 0d 3f 0a 45 60 bd d3 1c 96 3e
       0.52568364 0.55316526 -0.05475334 0.29318866
0001a0 98 aa d7 3d ed 41 b1 be 00 bf aa be 42 cf 63 be
       0.10530585 -0.3462061 -0.33348846 -0.22247031
0001b0 7e a5 ef 3d da 96 b2 3e ef 71 e4 3c 71 21 a4 3e
       0.11701487 0.34880716 0.027886359 0.32056764
0001c0 4d a2 98 bd 05 7d 85 bd f2 f6 a7 3e 72 f4 8f be
       -0.074528314 -0.06517986 0.32805592 -0.28116184
0001d0 a9 84 d4 3d 32 6a de 3d a0 ea 0c 3e 33 0f 89 bd
       0.103768654 0.10860099 0.13761377 -0.06692352
0001e0 8d 67 9e 3d 59 5f c8 bd 50 09 14 bf 1f ef 86 3e
       0.077345945 -0.09783811 -0.5782671 0.2635431
0001f0 c9 47 15 be 6c 39 a6 be 42 c3 bf 3e 4c 92 b7 3e
       -0.14578165 -0.32465684 0.37453657 0.35853803
000200 69 19 6e 3e 3d 76 68 be 1d f1 33 3e 6c 44 7c 3d
       0.2325188 -0.22701354 0.17572446 0.06158869
000210 84 b1 6c 3d 7b c7 9f 3e 13 2e a7 bd 3b c8 e5 bd
       0.05778648 0.3120688 -0.08163085 -0.112198316
000220 b8 2c 75 be fb 63 e4 bd ca 49 96 be 1e 25 0d 3d
       -0.2394284 -0.11151882 -0.29353172 0.034459226
000230 80 4f 7c bc 3c cc 2e be bb 1d 87 bd 28 a9 4f be
       -0.015399814 -0.17070097 -0.065974675 -0.20279372
000240 6a 96 53 3e f8 90 1b 3e 8d 7e 63 3e 91 4a a9 3c
       0.20662847 0.1519202 0.22216244 0.020665439
000250 d0 f6 d8 bd 38 9d 1c 3e 7d 65 97 3d 30 7e 14 3e
       -0.10593951 0.15294349 0.07392404 0.14501262
000260 a3 2f fb bd 60 d7 0f be 71 e9 1d 3d 9a c6 a5 bc
       -0.12264945 -0.14047003 0.038552705 -0.020236302
000270 4c 80 0f be cd 10 45 be eb da 8e 3d 9a 31 99 3c
       -0.14013785 -0.1924469 0.06975349 0.01870041
000280 db 33 58 3e 11 81 0b bd d3 05 be 3e fa 88 3b 3e
       0.21113531 -0.034058634 0.3711382 0.18313971
000290 e0 75 e1 3c c6 d7 10 be 8b a4 df 3c bf 7b 5d 3e
       0.027522027 -0.14144811 0.02730014 0.21629237
0002a0 9e 5b 98 be 92 35 62 be d1 27 08 3e 07 ec cf be
       -0.29757398 -0.22090748 0.13296439 -0.40609762
0002b0 bf 8c 60 bd ee 38 71 3e 18 e6 cb be 2d 68 10 be
       -0.054821726 0.23556873 -0.39823985 -0.1410224
0002c0 ec 0c 73 3e 53 ce f5 3d 53 1c 46 3d 07 54 07 bd
       0.23735398 0.12002244 0.048366856 -0.03303912
0002d0 6e e2 78 3e 5d 4c 5d 3d 8e 23 a9 be 23 b2 b9 3c
       0.24305126 0.054027904 -0.3303494 0.02266795
0002e0 67 fe 46 3a fc a7 24 be 4a 6b c4 3c 91 e7 31 3e
       0.00075910095 -0.16079706 0.02397694 0.17373492
0002f0 bc 9e 2b be a4 10 ae 3e 4e b2 c5 bd 66 e8 38 3e
       -0.16759771 0.3399707 -0.096531495 0.18057403
000300 2e 22 8d be 94 94 6f 3e 5f 87 f4 3d 8a d5 9c bd
       -0.2756514 0.23396522 0.119398825 -0.07657917
000310 c6 9c a3 3d da ab 6f be 89 f6 80 3e 22 97 fa 3d
       0.079888865 -0.234054 0.2518809 0.122358575
000320 cc 3a 41 3d de 9c cd be 99 22 a9 bd 27 0d ef bd
       0.047175214 -0.40158743 -0.08258552 -0.116724305
000330 ad d3 8e 3c fa b1 f5 3d 89 cc 36 3c 74 f1 30 be
       0.01743492 0.11996837 0.011157163 -0.17279607
000340 1a ec 00 3e f0 d0 e7 bd d1 27 45 3e d1 38 7d 3e
       0.12590066 -0.113191485 0.1925347 0.24728705
000350 89 59 1f be 7e 96 a5 bd e4 4a a7 3e 28 2c b0 bd
       -0.15561499 -0.08085345 0.32674325 -0.08602172
000360 33 b7 22 be dc 1a 4a bd db 26 0a 3e e9 b9 f8 3d
       -0.15890197 -0.04934202 0.13491385 0.121448345
000370 d1 1c 00 3c 95 43 d3 bd 55 1d 21 be 16 f6 b5 3d
       0.00781937 -0.103156246 -0.15733846 0.08884828
000380 44 fa 72 3d e4 8f 86 3e a5 c8 58 3d ca e3 aa be
       0.059320703 0.26281655 0.052925725 -0.33376914
000390 0c e6 36 3c 7b 70 38 be 43 c5 ad 3d 2d a1 ef bc
       0.011163246 -0.18011658 0.0848489 -0.02925166
0003a0 cb 25 ca 3d 42 76 1a be 7e e0 97 bd 88 d4 d3 bd
       0.0987049 -0.15084174 -0.07415865 -0.103432715
0003b0 c3 68 82 be 22 b1 a3 3e f5 2b 3c be ac 78 08 3e
       -0.25470552 0.3197108 -0.18376143 0.13327283
0003c0 ff 82 f0 bd 1f 6a 62 be ff 6e 2e 3e 71 cc 18 be
       -0.117437355 -0.22110794 0.17034529 -0.14921738
0003d0 b3 5a 67 3e 75 66 d9 bd 89 72 51 be f1 9c 17 be
       0.22593193 -0.10615245 -0.20453848 -0.14805962
0003e0 c2 ae 60 3e 53 32 19 3e 63 c6 b9 3e 17 a6 dc bd
       0.21941665 0.14960603 0.3628417 -0.107738666
0003f0 05 3e 3c 3c bc 02 0a 3d 02 5f 1e bd 02 52 52 3d
       0.011489396 0.033694014 -0.038664825 0.05134774

linears.3.bias f4 [32]
000000 f9 1f 1f bd 5b 82 5d 3d 77 c6 61 bc 0a 5a 21 bd
       -0.03884885 0.054079395 -0.013780228 -0.03939251
000010 5f 4e 28 bd 8c f2 95 bd 61 6a 58 3d b2 7b 55 3d
       -0.041090365 -0.07321653 0.052835826 0.05211992
000020 22 32 e1 3a 86 34 b8 3c 74 3b 58 bd e4 51 5c bd
       0.0017181078 0.022485983 -0.052791074 -0.053789034
000030 c7 cc c4 bd 15 54 99 b9 29 13 57 bc 4b aa bb 3c
       -0.09609371 -0.0002924508 -0.013127127 0.02290835
000040 5f 05 fd ba e7 05 ba bc f5 b3 5d 3d e7 75 8c bb
       -0.0019303969 -0.022707893 0.0541267 -0.004286516
000050 23 11 b8 bc ba 90 f4 bc f8 52 3f bd e8 66 5b 3d
       -0.022469109 -0.029854167 -0.046709985 0.053564936
000060 2c 88 db 3b 83 60 83 bd f8 b3 55 bd 09 ae 7d bd
       0.0066995826 -0.064148925 -0.052173585 -0.06193355
000070 41 74 82 bd 6a 00 0c bd 00 b1 46 bc c3 a1 cf 3b
       -0.0636983 -0.034180082 -0.012127161 0.006336422

linears.4.weight f4 [4, 32]
000000 06 e1 5e 3e 71 71 32 be 22 89 16 be 86 a3 10 3e
       0.21765527 -0.17426087 -0.1470075 0.14124879
000010 80 02 3b bd 33 19 de ba 0e 10 a6 bb c5 71 22 3e
       -0.04565668 -0.0016944766 -0.005067832 0.15863712
000020 22 73 bf be b7 41 e7 3e a7 55 80 3c f9 da 9d 3d
       -0.37392527 0.45167324 0.015665842 0.07707781
000030 54 19 ad 3b 2f a8 83 3e 13 c0 5c bf a4 a8 48 3e
       0.0052825604 0.2571425 -0.8623058 0.19595581
000040 38 cd c3 3e 6b a7 cb 3e 80 fa 30 3d 87 f9 50 3e
       0.38242507 0.39776167 0.043207645 0.20407687
000050 45 43 fa bd 52 d0 95 bd b6 fd 6d 3e cf 0a ef bd
       -0.12219862 -0.073151246 0.23241314 -0.116719835
000060 73 56 ec be 71 d7 84 bd d9 0d c3 3c aa e5 32 3e
       -0.46159706 -0.06486405 0.023810314 0.17470422
000070 d4 c0 1e 3e 64 f0 a1 3e 64 5d 25 bf 7b 59 2f 3d
       0.15503246 0.31628716 -0.6459563 0.042809945
000080 45 ae 15 be dc 83 60 3e 41 cd 67 bf 70 3b de be
       -0.1461726 0.219253 -0.9054757 -0.43404722
000090 e9 fe 45 bf 06 e9 72 bf be ea ff 3e 60 57 42 3f
       -0.7734209 -0.94886816 0.49983782 0.75914574
0000a0 e4 bb a3 3e bb 58 eb 3d 99 57 04 bf 3c 8a 98 be
       0.31979287 0.11491533 -0.51696163 -0.29792964
0000b0 1e 97 23 bf af db 9f 3e c8 aa 24 bf f7 4f 64 3f
       -0.6390246 0.31222293 -0.6432309 0.89184517
0000c0 c1 bc d2 3e 49 19 46 be 57 bf 6e 3f 49 8f a2 3e
       0.41159633 -0.19345583 0.9326071 0.31749943
0000d0 f5 4a 47 bf 84 99 26 bf e2 dd 47 bf e1 12 09 3f
       -0.7784875 -0.65077996 -0.7807294 0.5354443
0000e0 aa 4b 94 bd 8a 82 38 bf 24 80 cb be ef 31 5b bf
       -0.07240994 -0.72074187 -0.397462 -0.8562307
0000f0 08 59 20 3f 0c f5 c9 bd 4e 66 e8 be 52 7f a0 be
       0.6263585 -0.09861192 -0.45390552 -0.31347138
000100 11 dd 14 3f 05 c6 b7 3e a8 00 bf be ac 8f 37 bf
       0.5814982 0.35893264 -0.37305188 -0.717036
000110 aa 1b 78 3d 8c 77 5e 3e af f9 2d 3f f9 46 a0 be
       0.060573258 0.21725291 0.6795911 -0.31304148
000120 5e 94 07 be 81 72 86 3e 6c 01 da be 98 ad cd be
       -0.13240191 0.26259235 -0.4257921 -0.40171504
000130 12 11 85 3c ce 57 9c 3e cb d4 88 3e d6 da b4 bd
       0.016243491 0.3053574 0.26724848 -0.08830802
000140 0a 06 88 bc a0 b2 0a 3f 57 2d 89 be c1 b8 b8 3c
       -0.016604442 0.5417881 -0.26792404 0.022549035
000150 5a 06 6c 3e 7e a0 07 bf 4f ca 0f bf 6f 6a 72 3d
       0.23049298 -0.52979267 -0.56168073 0.059183534
000160 d4 51 34 3f f4 6e eb be aa 2a 45 be 63 4d e4 be
       0.7043736 -0.45983088 -0.19254556 -0.4459029
000170 8c 3a 07 be e2 73 9e 3e 38 1b 7f be fc 17 8b 3e
       -0.13205928 0.30947787 -0.24912727 0.27166736
000180 2d 5a 20 bf 08 ae 53 3f 5a 89 62 bf 97 7a 00 bf
       -0.626376 0.82687426 -0.8849083 -0.5018706
000190 96 6e 2d bf 64 c9 5f bf f1 9e 9b 3f cf 7c 28 3f
       -0.67746866 -0.8741667 1.215788 0.6581544
0001a0 8e 86 65 3f 3e f5 40 3f 34 13 95 bf ec 3a 57 bf
       0.8965844 0.7537421 -1.1646485 -0.8407428
0001b0 a3 24 29 bf c6 12 34 3e 23 d7 20 bf b1 5a 90 3f
       -0.6607153 0.17585286 -0.6282827 1.1277677
0001c0 bc c4 aa 3e 99 b8 8a be 11 93 37 3f c1 c2 03 bf
       0.3335322 -0.27093962 0.7170878 -0.51469046
0001d0 c8 b5 83 bf ae 88 89 bf 1c dc 55 bf 43 42 1e 3e
       -1.028985 -1.0744836 -0.83538985 0.15454964
0001e0 4b 06 7f bf 79 a0 ae bf eb be 78 bf e2 ca 59 bf
       -0.9961898 -1.3642722 -0.9716632 -0.850752
0001f0 41 1b 90 3f ad 04 a3 be bb 15 6a be 7f 03 47 3f
       1.1258317 -0.31839505 -0.22859852 0.7773971

linears.4.bias f4 [4]
000000 cf cf 85 bc f7 c8 b3 3e 01 e5 3d bd e6 40 45 3f
       -0.016334442 0.35114262 -0.046360973 0.7705215
